----------------------------------------------------------------------------------------------------------------------------
                                 Parent Layers             Layer (type)         Output Shape         Param #     Tr. Param #
============================================================================================================================
               RecycleNetwork/EfficientNetLite                 Conv2d-1      [1, 32, 75, 75]             864             864
               RecycleNetwork/EfficientNetLite            BatchNorm2d-2      [1, 32, 75, 75]              64              64
               RecycleNetwork/EfficientNetLite                  ReLU6-3      [1, 32, 75, 75]               0               0
   RecycleNetwork/EfficientNetLite/MBConvBlock                 Conv2d-4      [1, 32, 75, 75]             288             288
   RecycleNetwork/EfficientNetLite/MBConvBlock            BatchNorm2d-5      [1, 32, 75, 75]              64              64
   RecycleNetwork/EfficientNetLite/MBConvBlock                  ReLU6-6      [1, 32, 75, 75]               0               0
   RecycleNetwork/EfficientNetLite/MBConvBlock                 Conv2d-7      [1, 16, 75, 75]             512             512
   RecycleNetwork/EfficientNetLite/MBConvBlock            BatchNorm2d-8      [1, 16, 75, 75]              32              32
   RecycleNetwork/EfficientNetLite/MBConvBlock                 Conv2d-9      [1, 96, 75, 75]           1,536           1,536
   RecycleNetwork/EfficientNetLite/MBConvBlock           BatchNorm2d-10      [1, 96, 75, 75]             192             192
   RecycleNetwork/EfficientNetLite/MBConvBlock                 ReLU6-11      [1, 96, 75, 75]               0               0
   RecycleNetwork/EfficientNetLite/MBConvBlock                Conv2d-12      [1, 96, 38, 38]             864             864
   RecycleNetwork/EfficientNetLite/MBConvBlock           BatchNorm2d-13      [1, 96, 38, 38]             192             192
   RecycleNetwork/EfficientNetLite/MBConvBlock                Conv2d-14      [1, 24, 38, 38]           2,304           2,304
   RecycleNetwork/EfficientNetLite/MBConvBlock           BatchNorm2d-15      [1, 24, 38, 38]              48              48
   RecycleNetwork/EfficientNetLite/MBConvBlock                Conv2d-16     [1, 144, 38, 38]           3,456           3,456
   RecycleNetwork/EfficientNetLite/MBConvBlock           BatchNorm2d-17     [1, 144, 38, 38]             288             288
   RecycleNetwork/EfficientNetLite/MBConvBlock                 ReLU6-18     [1, 144, 38, 38]               0               0
   RecycleNetwork/EfficientNetLite/MBConvBlock                Conv2d-19     [1, 144, 38, 38]           1,296           1,296
   RecycleNetwork/EfficientNetLite/MBConvBlock           BatchNorm2d-20     [1, 144, 38, 38]             288             288
   RecycleNetwork/EfficientNetLite/MBConvBlock                Conv2d-21      [1, 24, 38, 38]           3,456           3,456
   RecycleNetwork/EfficientNetLite/MBConvBlock           BatchNorm2d-22      [1, 24, 38, 38]              48              48
   RecycleNetwork/EfficientNetLite/MBConvBlock                Conv2d-23     [1, 144, 38, 38]           3,456           3,456
   RecycleNetwork/EfficientNetLite/MBConvBlock           BatchNorm2d-24     [1, 144, 38, 38]             288             288
   RecycleNetwork/EfficientNetLite/MBConvBlock                 ReLU6-25     [1, 144, 38, 38]               0               0
   RecycleNetwork/EfficientNetLite/MBConvBlock                Conv2d-26     [1, 144, 19, 19]           3,600           3,600
   RecycleNetwork/EfficientNetLite/MBConvBlock           BatchNorm2d-27     [1, 144, 19, 19]             288             288
   RecycleNetwork/EfficientNetLite/MBConvBlock                Conv2d-28      [1, 40, 19, 19]           5,760           5,760
   RecycleNetwork/EfficientNetLite/MBConvBlock           BatchNorm2d-29      [1, 40, 19, 19]              80              80
   RecycleNetwork/EfficientNetLite/MBConvBlock                Conv2d-30     [1, 240, 19, 19]           9,600           9,600
   RecycleNetwork/EfficientNetLite/MBConvBlock           BatchNorm2d-31     [1, 240, 19, 19]             480             480
   RecycleNetwork/EfficientNetLite/MBConvBlock                 ReLU6-32     [1, 240, 19, 19]               0               0
   RecycleNetwork/EfficientNetLite/MBConvBlock                Conv2d-33     [1, 240, 19, 19]           6,000           6,000
   RecycleNetwork/EfficientNetLite/MBConvBlock           BatchNorm2d-34     [1, 240, 19, 19]             480             480
   RecycleNetwork/EfficientNetLite/MBConvBlock                Conv2d-35      [1, 40, 19, 19]           9,600           9,600
   RecycleNetwork/EfficientNetLite/MBConvBlock           BatchNorm2d-36      [1, 40, 19, 19]              80              80
   RecycleNetwork/EfficientNetLite/MBConvBlock                Conv2d-37     [1, 240, 19, 19]           9,600           9,600
   RecycleNetwork/EfficientNetLite/MBConvBlock           BatchNorm2d-38     [1, 240, 19, 19]             480             480
   RecycleNetwork/EfficientNetLite/MBConvBlock                 ReLU6-39     [1, 240, 19, 19]               0               0
   RecycleNetwork/EfficientNetLite/MBConvBlock                Conv2d-40     [1, 240, 10, 10]           2,160           2,160
   RecycleNetwork/EfficientNetLite/MBConvBlock           BatchNorm2d-41     [1, 240, 10, 10]             480             480
   RecycleNetwork/EfficientNetLite/MBConvBlock                Conv2d-42      [1, 80, 10, 10]          19,200          19,200
   RecycleNetwork/EfficientNetLite/MBConvBlock           BatchNorm2d-43      [1, 80, 10, 10]             160             160
   RecycleNetwork/EfficientNetLite/MBConvBlock                Conv2d-44     [1, 480, 10, 10]          38,400          38,400
   RecycleNetwork/EfficientNetLite/MBConvBlock           BatchNorm2d-45     [1, 480, 10, 10]             960             960
   RecycleNetwork/EfficientNetLite/MBConvBlock                 ReLU6-46     [1, 480, 10, 10]               0               0
   RecycleNetwork/EfficientNetLite/MBConvBlock                Conv2d-47     [1, 480, 10, 10]           4,320           4,320
   RecycleNetwork/EfficientNetLite/MBConvBlock           BatchNorm2d-48     [1, 480, 10, 10]             960             960
   RecycleNetwork/EfficientNetLite/MBConvBlock                Conv2d-49      [1, 80, 10, 10]          38,400          38,400
   RecycleNetwork/EfficientNetLite/MBConvBlock           BatchNorm2d-50      [1, 80, 10, 10]             160             160
   RecycleNetwork/EfficientNetLite/MBConvBlock                Conv2d-51     [1, 480, 10, 10]          38,400          38,400
   RecycleNetwork/EfficientNetLite/MBConvBlock           BatchNorm2d-52     [1, 480, 10, 10]             960             960
   RecycleNetwork/EfficientNetLite/MBConvBlock                 ReLU6-53     [1, 480, 10, 10]               0               0
   RecycleNetwork/EfficientNetLite/MBConvBlock                Conv2d-54     [1, 480, 10, 10]           4,320           4,320
   RecycleNetwork/EfficientNetLite/MBConvBlock           BatchNorm2d-55     [1, 480, 10, 10]             960             960
   RecycleNetwork/EfficientNetLite/MBConvBlock                Conv2d-56      [1, 80, 10, 10]          38,400          38,400
   RecycleNetwork/EfficientNetLite/MBConvBlock           BatchNorm2d-57      [1, 80, 10, 10]             160             160
   RecycleNetwork/EfficientNetLite/MBConvBlock                Conv2d-58     [1, 480, 10, 10]          38,400          38,400
   RecycleNetwork/EfficientNetLite/MBConvBlock           BatchNorm2d-59     [1, 480, 10, 10]             960             960
   RecycleNetwork/EfficientNetLite/MBConvBlock                 ReLU6-60     [1, 480, 10, 10]               0               0
   RecycleNetwork/EfficientNetLite/MBConvBlock                Conv2d-61     [1, 480, 10, 10]          12,000          12,000
   RecycleNetwork/EfficientNetLite/MBConvBlock           BatchNorm2d-62     [1, 480, 10, 10]             960             960
   RecycleNetwork/EfficientNetLite/MBConvBlock                Conv2d-63     [1, 112, 10, 10]          53,760          53,760
   RecycleNetwork/EfficientNetLite/MBConvBlock           BatchNorm2d-64     [1, 112, 10, 10]             224             224
   RecycleNetwork/EfficientNetLite/MBConvBlock                Conv2d-65     [1, 672, 10, 10]          75,264          75,264
   RecycleNetwork/EfficientNetLite/MBConvBlock           BatchNorm2d-66     [1, 672, 10, 10]           1,344           1,344
   RecycleNetwork/EfficientNetLite/MBConvBlock                 ReLU6-67     [1, 672, 10, 10]               0               0
   RecycleNetwork/EfficientNetLite/MBConvBlock                Conv2d-68     [1, 672, 10, 10]          16,800          16,800
   RecycleNetwork/EfficientNetLite/MBConvBlock           BatchNorm2d-69     [1, 672, 10, 10]           1,344           1,344
   RecycleNetwork/EfficientNetLite/MBConvBlock                Conv2d-70     [1, 112, 10, 10]          75,264          75,264
   RecycleNetwork/EfficientNetLite/MBConvBlock           BatchNorm2d-71     [1, 112, 10, 10]             224             224
   RecycleNetwork/EfficientNetLite/MBConvBlock                Conv2d-72     [1, 672, 10, 10]          75,264          75,264
   RecycleNetwork/EfficientNetLite/MBConvBlock           BatchNorm2d-73     [1, 672, 10, 10]           1,344           1,344
   RecycleNetwork/EfficientNetLite/MBConvBlock                 ReLU6-74     [1, 672, 10, 10]               0               0
   RecycleNetwork/EfficientNetLite/MBConvBlock                Conv2d-75     [1, 672, 10, 10]          16,800          16,800
   RecycleNetwork/EfficientNetLite/MBConvBlock           BatchNorm2d-76     [1, 672, 10, 10]           1,344           1,344
   RecycleNetwork/EfficientNetLite/MBConvBlock                Conv2d-77     [1, 112, 10, 10]          75,264          75,264
   RecycleNetwork/EfficientNetLite/MBConvBlock           BatchNorm2d-78     [1, 112, 10, 10]             224             224
   RecycleNetwork/EfficientNetLite/MBConvBlock                Conv2d-79     [1, 672, 10, 10]          75,264          75,264
   RecycleNetwork/EfficientNetLite/MBConvBlock           BatchNorm2d-80     [1, 672, 10, 10]           1,344           1,344
   RecycleNetwork/EfficientNetLite/MBConvBlock                 ReLU6-81     [1, 672, 10, 10]               0               0
   RecycleNetwork/EfficientNetLite/MBConvBlock                Conv2d-82       [1, 672, 5, 5]          16,800          16,800
   RecycleNetwork/EfficientNetLite/MBConvBlock           BatchNorm2d-83       [1, 672, 5, 5]           1,344           1,344
   RecycleNetwork/EfficientNetLite/MBConvBlock                Conv2d-84       [1, 192, 5, 5]         129,024         129,024
   RecycleNetwork/EfficientNetLite/MBConvBlock           BatchNorm2d-85       [1, 192, 5, 5]             384             384
   RecycleNetwork/EfficientNetLite/MBConvBlock                Conv2d-86      [1, 1152, 5, 5]         221,184         221,184
   RecycleNetwork/EfficientNetLite/MBConvBlock           BatchNorm2d-87      [1, 1152, 5, 5]           2,304           2,304
   RecycleNetwork/EfficientNetLite/MBConvBlock                 ReLU6-88      [1, 1152, 5, 5]               0               0
   RecycleNetwork/EfficientNetLite/MBConvBlock                Conv2d-89      [1, 1152, 5, 5]          28,800          28,800
   RecycleNetwork/EfficientNetLite/MBConvBlock           BatchNorm2d-90      [1, 1152, 5, 5]           2,304           2,304
   RecycleNetwork/EfficientNetLite/MBConvBlock                Conv2d-91       [1, 192, 5, 5]         221,184         221,184
   RecycleNetwork/EfficientNetLite/MBConvBlock           BatchNorm2d-92       [1, 192, 5, 5]             384             384
   RecycleNetwork/EfficientNetLite/MBConvBlock                Conv2d-93      [1, 1152, 5, 5]         221,184         221,184
   RecycleNetwork/EfficientNetLite/MBConvBlock           BatchNorm2d-94      [1, 1152, 5, 5]           2,304           2,304
   RecycleNetwork/EfficientNetLite/MBConvBlock                 ReLU6-95      [1, 1152, 5, 5]               0               0
   RecycleNetwork/EfficientNetLite/MBConvBlock                Conv2d-96      [1, 1152, 5, 5]          28,800          28,800
   RecycleNetwork/EfficientNetLite/MBConvBlock           BatchNorm2d-97      [1, 1152, 5, 5]           2,304           2,304
   RecycleNetwork/EfficientNetLite/MBConvBlock                Conv2d-98       [1, 192, 5, 5]         221,184         221,184
   RecycleNetwork/EfficientNetLite/MBConvBlock           BatchNorm2d-99       [1, 192, 5, 5]             384             384
   RecycleNetwork/EfficientNetLite/MBConvBlock               Conv2d-100      [1, 1152, 5, 5]         221,184         221,184
   RecycleNetwork/EfficientNetLite/MBConvBlock          BatchNorm2d-101      [1, 1152, 5, 5]           2,304           2,304
   RecycleNetwork/EfficientNetLite/MBConvBlock                ReLU6-102      [1, 1152, 5, 5]               0               0
   RecycleNetwork/EfficientNetLite/MBConvBlock               Conv2d-103      [1, 1152, 5, 5]          28,800          28,800
   RecycleNetwork/EfficientNetLite/MBConvBlock          BatchNorm2d-104      [1, 1152, 5, 5]           2,304           2,304
   RecycleNetwork/EfficientNetLite/MBConvBlock               Conv2d-105       [1, 192, 5, 5]         221,184         221,184
   RecycleNetwork/EfficientNetLite/MBConvBlock          BatchNorm2d-106       [1, 192, 5, 5]             384             384
   RecycleNetwork/EfficientNetLite/MBConvBlock               Conv2d-107      [1, 1152, 5, 5]         221,184         221,184
   RecycleNetwork/EfficientNetLite/MBConvBlock          BatchNorm2d-108      [1, 1152, 5, 5]           2,304           2,304
   RecycleNetwork/EfficientNetLite/MBConvBlock                ReLU6-109      [1, 1152, 5, 5]               0               0
   RecycleNetwork/EfficientNetLite/MBConvBlock               Conv2d-110      [1, 1152, 5, 5]          10,368          10,368
   RecycleNetwork/EfficientNetLite/MBConvBlock          BatchNorm2d-111      [1, 1152, 5, 5]           2,304           2,304
   RecycleNetwork/EfficientNetLite/MBConvBlock               Conv2d-112       [1, 320, 5, 5]         368,640         368,640
   RecycleNetwork/EfficientNetLite/MBConvBlock          BatchNorm2d-113       [1, 320, 5, 5]             640             640
               RecycleNetwork/EfficientNetLite               Conv2d-114      [1, 1280, 5, 5]         409,600         409,600
               RecycleNetwork/EfficientNetLite          BatchNorm2d-115      [1, 1280, 5, 5]           2,560           2,560
               RecycleNetwork/EfficientNetLite                ReLU6-116      [1, 1280, 5, 5]               0               0
               RecycleNetwork/EfficientNetLite    AdaptiveAvgPool2d-117      [1, 1280, 1, 1]               0               0
               RecycleNetwork/EfficientNetLite              Dropout-118            [1, 1280]               0               0
               RecycleNetwork/EfficientNetLite               Linear-119               [1, 5]           6,405           6,405
============================================================================================================================
Total params: 3,377,413
Trainable params: 3,377,413
Non-trainable params: 0
----------------------------------------------------------------------------------------------------------------------------
17
tensor([2, 2, 0, 3, 2, 3, 0, 2, 2, 2, 2, 2, 1, 2, 3, 2, 0, 0, 2, 2, 4, 2, 2, 2,
…
tensor([True, True, True, True, True, True, True, True, True, True, True, True,
        True, True, True, True])
torch.Size([16])
torch.Size([16])
Starting Training Cycle
----------------------------------------------------------------------------------------------------------------------------
                                 Parent Layers             Layer (type)         Output Shape         Param #     Tr. Param #
============================================================================================================================
               RecycleNetwork/EfficientNetLite                 Conv2d-1      [1, 27, 75, 75]             729             729
               RecycleNetwork/EfficientNetLite            BatchNorm2d-2      [1, 27, 75, 75]              54              54
               RecycleNetwork/EfficientNetLite                  ReLU6-3      [1, 27, 75, 75]               0               0
   RecycleNetwork/EfficientNetLite/MBConvBlock                 Conv2d-4      [1, 27, 75, 75]             243             243
   RecycleNetwork/EfficientNetLite/MBConvBlock            BatchNorm2d-5      [1, 27, 75, 75]              54              54
   RecycleNetwork/EfficientNetLite/MBConvBlock                  ReLU6-6      [1, 27, 75, 75]               0               0
   RecycleNetwork/EfficientNetLite/MBConvBlock                 Conv2d-7      [1, 16, 75, 75]             432             432
   RecycleNetwork/EfficientNetLite/MBConvBlock            BatchNorm2d-8      [1, 16, 75, 75]              32              32
   RecycleNetwork/EfficientNetLite/MBConvBlock                 Conv2d-9      [1, 96, 75, 75]           1,536           1,536
   RecycleNetwork/EfficientNetLite/MBConvBlock           BatchNorm2d-10      [1, 96, 75, 75]             192             192
   RecycleNetwork/EfficientNetLite/MBConvBlock                 ReLU6-11      [1, 96, 75, 75]               0               0
   RecycleNetwork/EfficientNetLite/MBConvBlock                Conv2d-12      [1, 96, 38, 38]             864             864
   RecycleNetwork/EfficientNetLite/MBConvBlock           BatchNorm2d-13      [1, 96, 38, 38]             192             192
   RecycleNetwork/EfficientNetLite/MBConvBlock                Conv2d-14      [1, 24, 38, 38]           2,304           2,304
   RecycleNetwork/EfficientNetLite/MBConvBlock           BatchNorm2d-15      [1, 24, 38, 38]              48              48
   RecycleNetwork/EfficientNetLite/MBConvBlock                Conv2d-16     [1, 144, 38, 38]           3,456           3,456
   RecycleNetwork/EfficientNetLite/MBConvBlock           BatchNorm2d-17     [1, 144, 38, 38]             288             288
   RecycleNetwork/EfficientNetLite/MBConvBlock                 ReLU6-18     [1, 144, 38, 38]               0               0
   RecycleNetwork/EfficientNetLite/MBConvBlock                Conv2d-19     [1, 144, 38, 38]           1,296           1,296
   RecycleNetwork/EfficientNetLite/MBConvBlock           BatchNorm2d-20     [1, 144, 38, 38]             288             288
   RecycleNetwork/EfficientNetLite/MBConvBlock                Conv2d-21      [1, 24, 38, 38]           3,456           3,456
   RecycleNetwork/EfficientNetLite/MBConvBlock           BatchNorm2d-22      [1, 24, 38, 38]              48              48
   RecycleNetwork/EfficientNetLite/MBConvBlock                Conv2d-23     [1, 144, 38, 38]           3,456           3,456
   RecycleNetwork/EfficientNetLite/MBConvBlock           BatchNorm2d-24     [1, 144, 38, 38]             288             288
   RecycleNetwork/EfficientNetLite/MBConvBlock                 ReLU6-25     [1, 144, 38, 38]               0               0
   RecycleNetwork/EfficientNetLite/MBConvBlock                Conv2d-26     [1, 144, 19, 19]           3,600           3,600
   RecycleNetwork/EfficientNetLite/MBConvBlock           BatchNorm2d-27     [1, 144, 19, 19]             288             288
   RecycleNetwork/EfficientNetLite/MBConvBlock                Conv2d-28      [1, 40, 19, 19]           5,760           5,760
   RecycleNetwork/EfficientNetLite/MBConvBlock           BatchNorm2d-29      [1, 40, 19, 19]              80              80
   RecycleNetwork/EfficientNetLite/MBConvBlock                Conv2d-30     [1, 240, 19, 19]           9,600           9,600
   RecycleNetwork/EfficientNetLite/MBConvBlock           BatchNorm2d-31     [1, 240, 19, 19]             480             480
   RecycleNetwork/EfficientNetLite/MBConvBlock                 ReLU6-32     [1, 240, 19, 19]               0               0
   RecycleNetwork/EfficientNetLite/MBConvBlock                Conv2d-33     [1, 240, 19, 19]           6,000           6,000
   RecycleNetwork/EfficientNetLite/MBConvBlock           BatchNorm2d-34     [1, 240, 19, 19]             480             480
   RecycleNetwork/EfficientNetLite/MBConvBlock                Conv2d-35      [1, 40, 19, 19]           9,600           9,600
   RecycleNetwork/EfficientNetLite/MBConvBlock           BatchNorm2d-36      [1, 40, 19, 19]              80              80
   RecycleNetwork/EfficientNetLite/MBConvBlock                Conv2d-37     [1, 240, 19, 19]           9,600           9,600
   RecycleNetwork/EfficientNetLite/MBConvBlock           BatchNorm2d-38     [1, 240, 19, 19]             480             480
   RecycleNetwork/EfficientNetLite/MBConvBlock                 ReLU6-39     [1, 240, 19, 19]               0               0
   RecycleNetwork/EfficientNetLite/MBConvBlock                Conv2d-40     [1, 240, 10, 10]           2,160           2,160
   RecycleNetwork/EfficientNetLite/MBConvBlock           BatchNorm2d-41     [1, 240, 10, 10]             480             480
   RecycleNetwork/EfficientNetLite/MBConvBlock                Conv2d-42      [1, 80, 10, 10]          19,200          19,200
   RecycleNetwork/EfficientNetLite/MBConvBlock           BatchNorm2d-43      [1, 80, 10, 10]             160             160
   RecycleNetwork/EfficientNetLite/MBConvBlock                Conv2d-44     [1, 480, 10, 10]          38,400          38,400
   RecycleNetwork/EfficientNetLite/MBConvBlock           BatchNorm2d-45     [1, 480, 10, 10]             960             960
   RecycleNetwork/EfficientNetLite/MBConvBlock                 ReLU6-46     [1, 480, 10, 10]               0               0
   RecycleNetwork/EfficientNetLite/MBConvBlock                Conv2d-47     [1, 480, 10, 10]           4,320           4,320
   RecycleNetwork/EfficientNetLite/MBConvBlock           BatchNorm2d-48     [1, 480, 10, 10]             960             960
   RecycleNetwork/EfficientNetLite/MBConvBlock                Conv2d-49      [1, 80, 10, 10]          38,400          38,400
   RecycleNetwork/EfficientNetLite/MBConvBlock           BatchNorm2d-50      [1, 80, 10, 10]             160             160
   RecycleNetwork/EfficientNetLite/MBConvBlock                Conv2d-51     [1, 480, 10, 10]          38,400          38,400
   RecycleNetwork/EfficientNetLite/MBConvBlock           BatchNorm2d-52     [1, 480, 10, 10]             960             960
   RecycleNetwork/EfficientNetLite/MBConvBlock                 ReLU6-53     [1, 480, 10, 10]               0               0
   RecycleNetwork/EfficientNetLite/MBConvBlock                Conv2d-54     [1, 480, 10, 10]           4,320           4,320
   RecycleNetwork/EfficientNetLite/MBConvBlock           BatchNorm2d-55     [1, 480, 10, 10]             960             960
   RecycleNetwork/EfficientNetLite/MBConvBlock                Conv2d-56      [1, 80, 10, 10]          38,400          38,400
   RecycleNetwork/EfficientNetLite/MBConvBlock           BatchNorm2d-57      [1, 80, 10, 10]             160             160
   RecycleNetwork/EfficientNetLite/MBConvBlock                Conv2d-58     [1, 480, 10, 10]          38,400          38,400
   RecycleNetwork/EfficientNetLite/MBConvBlock           BatchNorm2d-59     [1, 480, 10, 10]             960             960
   RecycleNetwork/EfficientNetLite/MBConvBlock                 ReLU6-60     [1, 480, 10, 10]               0               0
   RecycleNetwork/EfficientNetLite/MBConvBlock                Conv2d-61     [1, 480, 10, 10]          12,000          12,000
   RecycleNetwork/EfficientNetLite/MBConvBlock           BatchNorm2d-62     [1, 480, 10, 10]             960             960
   RecycleNetwork/EfficientNetLite/MBConvBlock                Conv2d-63     [1, 112, 10, 10]          53,760          53,760
   RecycleNetwork/EfficientNetLite/MBConvBlock           BatchNorm2d-64     [1, 112, 10, 10]             224             224
   RecycleNetwork/EfficientNetLite/MBConvBlock                Conv2d-65     [1, 672, 10, 10]          75,264          75,264
   RecycleNetwork/EfficientNetLite/MBConvBlock           BatchNorm2d-66     [1, 672, 10, 10]           1,344           1,344
   RecycleNetwork/EfficientNetLite/MBConvBlock                 ReLU6-67     [1, 672, 10, 10]               0               0
   RecycleNetwork/EfficientNetLite/MBConvBlock                Conv2d-68     [1, 672, 10, 10]          16,800          16,800
   RecycleNetwork/EfficientNetLite/MBConvBlock           BatchNorm2d-69     [1, 672, 10, 10]           1,344           1,344
   RecycleNetwork/EfficientNetLite/MBConvBlock                Conv2d-70     [1, 112, 10, 10]          75,264          75,264
   RecycleNetwork/EfficientNetLite/MBConvBlock           BatchNorm2d-71     [1, 112, 10, 10]             224             224
   RecycleNetwork/EfficientNetLite/MBConvBlock                Conv2d-72     [1, 672, 10, 10]          75,264          75,264
   RecycleNetwork/EfficientNetLite/MBConvBlock           BatchNorm2d-73     [1, 672, 10, 10]           1,344           1,344
   RecycleNetwork/EfficientNetLite/MBConvBlock                 ReLU6-74     [1, 672, 10, 10]               0               0
   RecycleNetwork/EfficientNetLite/MBConvBlock                Conv2d-75     [1, 672, 10, 10]          16,800          16,800
   RecycleNetwork/EfficientNetLite/MBConvBlock           BatchNorm2d-76     [1, 672, 10, 10]           1,344           1,344
   RecycleNetwork/EfficientNetLite/MBConvBlock                Conv2d-77     [1, 112, 10, 10]          75,264          75,264
   RecycleNetwork/EfficientNetLite/MBConvBlock           BatchNorm2d-78     [1, 112, 10, 10]             224             224
   RecycleNetwork/EfficientNetLite/MBConvBlock                Conv2d-79     [1, 672, 10, 10]          75,264          75,264
   RecycleNetwork/EfficientNetLite/MBConvBlock           BatchNorm2d-80     [1, 672, 10, 10]           1,344           1,344
   RecycleNetwork/EfficientNetLite/MBConvBlock                 ReLU6-81     [1, 672, 10, 10]               0               0
   RecycleNetwork/EfficientNetLite/MBConvBlock                Conv2d-82       [1, 672, 5, 5]          16,800          16,800
   RecycleNetwork/EfficientNetLite/MBConvBlock           BatchNorm2d-83       [1, 672, 5, 5]           1,344           1,344
   RecycleNetwork/EfficientNetLite/MBConvBlock                Conv2d-84       [1, 192, 5, 5]         129,024         129,024
   RecycleNetwork/EfficientNetLite/MBConvBlock           BatchNorm2d-85       [1, 192, 5, 5]             384             384
   RecycleNetwork/EfficientNetLite/MBConvBlock                Conv2d-86      [1, 1152, 5, 5]         221,184         221,184
   RecycleNetwork/EfficientNetLite/MBConvBlock           BatchNorm2d-87      [1, 1152, 5, 5]           2,304           2,304
   RecycleNetwork/EfficientNetLite/MBConvBlock                 ReLU6-88      [1, 1152, 5, 5]               0               0
   RecycleNetwork/EfficientNetLite/MBConvBlock                Conv2d-89      [1, 1152, 5, 5]          28,800          28,800
   RecycleNetwork/EfficientNetLite/MBConvBlock           BatchNorm2d-90      [1, 1152, 5, 5]           2,304           2,304
   RecycleNetwork/EfficientNetLite/MBConvBlock                Conv2d-91       [1, 192, 5, 5]         221,184         221,184
   RecycleNetwork/EfficientNetLite/MBConvBlock           BatchNorm2d-92       [1, 192, 5, 5]             384             384
   RecycleNetwork/EfficientNetLite/MBConvBlock                Conv2d-93      [1, 1152, 5, 5]         221,184         221,184
   RecycleNetwork/EfficientNetLite/MBConvBlock           BatchNorm2d-94      [1, 1152, 5, 5]           2,304           2,304
   RecycleNetwork/EfficientNetLite/MBConvBlock                 ReLU6-95      [1, 1152, 5, 5]               0               0
   RecycleNetwork/EfficientNetLite/MBConvBlock                Conv2d-96      [1, 1152, 5, 5]          28,800          28,800
   RecycleNetwork/EfficientNetLite/MBConvBlock           BatchNorm2d-97      [1, 1152, 5, 5]           2,304           2,304
   RecycleNetwork/EfficientNetLite/MBConvBlock                Conv2d-98       [1, 192, 5, 5]         221,184         221,184
   RecycleNetwork/EfficientNetLite/MBConvBlock           BatchNorm2d-99       [1, 192, 5, 5]             384             384
   RecycleNetwork/EfficientNetLite/MBConvBlock               Conv2d-100      [1, 1152, 5, 5]         221,184         221,184
   RecycleNetwork/EfficientNetLite/MBConvBlock          BatchNorm2d-101      [1, 1152, 5, 5]           2,304           2,304
   RecycleNetwork/EfficientNetLite/MBConvBlock                ReLU6-102      [1, 1152, 5, 5]               0               0
   RecycleNetwork/EfficientNetLite/MBConvBlock               Conv2d-103      [1, 1152, 5, 5]          28,800          28,800
   RecycleNetwork/EfficientNetLite/MBConvBlock          BatchNorm2d-104      [1, 1152, 5, 5]           2,304           2,304
   RecycleNetwork/EfficientNetLite/MBConvBlock               Conv2d-105       [1, 192, 5, 5]         221,184         221,184
   RecycleNetwork/EfficientNetLite/MBConvBlock          BatchNorm2d-106       [1, 192, 5, 5]             384             384
   RecycleNetwork/EfficientNetLite/MBConvBlock               Conv2d-107      [1, 1152, 5, 5]         221,184         221,184
   RecycleNetwork/EfficientNetLite/MBConvBlock          BatchNorm2d-108      [1, 1152, 5, 5]           2,304           2,304
   RecycleNetwork/EfficientNetLite/MBConvBlock                ReLU6-109      [1, 1152, 5, 5]               0               0
   RecycleNetwork/EfficientNetLite/MBConvBlock               Conv2d-110      [1, 1152, 5, 5]          10,368          10,368
   RecycleNetwork/EfficientNetLite/MBConvBlock          BatchNorm2d-111      [1, 1152, 5, 5]           2,304           2,304
   RecycleNetwork/EfficientNetLite/MBConvBlock               Conv2d-112       [1, 320, 5, 5]         368,640         368,640
   RecycleNetwork/EfficientNetLite/MBConvBlock          BatchNorm2d-113       [1, 320, 5, 5]             640             640
               RecycleNetwork/EfficientNetLite               Conv2d-114      [1, 1280, 5, 5]         409,600         409,600
               RecycleNetwork/EfficientNetLite          BatchNorm2d-115      [1, 1280, 5, 5]           2,560           2,560
               RecycleNetwork/EfficientNetLite                ReLU6-116      [1, 1280, 5, 5]               0               0
               RecycleNetwork/EfficientNetLite    AdaptiveAvgPool2d-117      [1, 1280, 1, 1]               0               0
               RecycleNetwork/EfficientNetLite              Dropout-118            [1, 1280]               0               0
               RecycleNetwork/EfficientNetLite               Linear-119               [1, 5]           6,405           6,405
============================================================================================================================
Total params: 3,377,133
Trainable params: 3,377,133
Non-trainable params: 0
----------------------------------------------------------------------------------------------------------------------------
Ended Training Cycle
backbone.blocks.1.0._expand_conv
5

--------------------------------
…
tensor([True, True, True, True, True, True, True, True, True, True, True, True,
        True, True, True, True, True, True, True, True, True, True, True, True])
torch.Size([24])
torch.Size([24])
Starting Training Cycle
----------------------------------------------------------------------------------------------------------------------------
                                 Parent Layers             Layer (type)         Output Shape         Param #     Tr. Param #
============================================================================================================================
               RecycleNetwork/EfficientNetLite                 Conv2d-1      [1, 27, 75, 75]             729             729
               RecycleNetwork/EfficientNetLite            BatchNorm2d-2      [1, 27, 75, 75]              54              54
               RecycleNetwork/EfficientNetLite                  ReLU6-3      [1, 27, 75, 75]               0               0
   RecycleNetwork/EfficientNetLite/MBConvBlock                 Conv2d-4      [1, 27, 75, 75]             243             243
   RecycleNetwork/EfficientNetLite/MBConvBlock            BatchNorm2d-5      [1, 27, 75, 75]              54              54
   RecycleNetwork/EfficientNetLite/MBConvBlock                  ReLU6-6      [1, 27, 75, 75]               0               0
   RecycleNetwork/EfficientNetLite/MBConvBlock                 Conv2d-7      [1, 16, 75, 75]             432             432
   RecycleNetwork/EfficientNetLite/MBConvBlock            BatchNorm2d-8      [1, 16, 75, 75]              32              32
   RecycleNetwork/EfficientNetLite/MBConvBlock                 Conv2d-9      [1, 91, 75, 75]           1,456           1,456
   RecycleNetwork/EfficientNetLite/MBConvBlock           BatchNorm2d-10      [1, 91, 75, 75]             182             182
   RecycleNetwork/EfficientNetLite/MBConvBlock                 ReLU6-11      [1, 91, 75, 75]               0               0
   RecycleNetwork/EfficientNetLite/MBConvBlock                Conv2d-12      [1, 91, 38, 38]             819             819
   RecycleNetwork/EfficientNetLite/MBConvBlock           BatchNorm2d-13      [1, 91, 38, 38]             182             182
   RecycleNetwork/EfficientNetLite/MBConvBlock                Conv2d-14      [1, 24, 38, 38]           2,184           2,184
   RecycleNetwork/EfficientNetLite/MBConvBlock           BatchNorm2d-15      [1, 24, 38, 38]              48              48
   RecycleNetwork/EfficientNetLite/MBConvBlock                Conv2d-16     [1, 144, 38, 38]           3,456           3,456
   RecycleNetwork/EfficientNetLite/MBConvBlock           BatchNorm2d-17     [1, 144, 38, 38]             288             288
   RecycleNetwork/EfficientNetLite/MBConvBlock                 ReLU6-18     [1, 144, 38, 38]               0               0
   RecycleNetwork/EfficientNetLite/MBConvBlock                Conv2d-19     [1, 144, 38, 38]           1,296           1,296
   RecycleNetwork/EfficientNetLite/MBConvBlock           BatchNorm2d-20     [1, 144, 38, 38]             288             288
   RecycleNetwork/EfficientNetLite/MBConvBlock                Conv2d-21      [1, 24, 38, 38]           3,456           3,456
   RecycleNetwork/EfficientNetLite/MBConvBlock           BatchNorm2d-22      [1, 24, 38, 38]              48              48
   RecycleNetwork/EfficientNetLite/MBConvBlock                Conv2d-23     [1, 144, 38, 38]           3,456           3,456
   RecycleNetwork/EfficientNetLite/MBConvBlock           BatchNorm2d-24     [1, 144, 38, 38]             288             288
   RecycleNetwork/EfficientNetLite/MBConvBlock                 ReLU6-25     [1, 144, 38, 38]               0               0
   RecycleNetwork/EfficientNetLite/MBConvBlock                Conv2d-26     [1, 144, 19, 19]           3,600           3,600
   RecycleNetwork/EfficientNetLite/MBConvBlock           BatchNorm2d-27     [1, 144, 19, 19]             288             288
   RecycleNetwork/EfficientNetLite/MBConvBlock                Conv2d-28      [1, 40, 19, 19]           5,760           5,760
   RecycleNetwork/EfficientNetLite/MBConvBlock           BatchNorm2d-29      [1, 40, 19, 19]              80              80
   RecycleNetwork/EfficientNetLite/MBConvBlock                Conv2d-30     [1, 240, 19, 19]           9,600           9,600
   RecycleNetwork/EfficientNetLite/MBConvBlock           BatchNorm2d-31     [1, 240, 19, 19]             480             480
   RecycleNetwork/EfficientNetLite/MBConvBlock                 ReLU6-32     [1, 240, 19, 19]               0               0
   RecycleNetwork/EfficientNetLite/MBConvBlock                Conv2d-33     [1, 240, 19, 19]           6,000           6,000
   RecycleNetwork/EfficientNetLite/MBConvBlock           BatchNorm2d-34     [1, 240, 19, 19]             480             480
   RecycleNetwork/EfficientNetLite/MBConvBlock                Conv2d-35      [1, 40, 19, 19]           9,600           9,600
   RecycleNetwork/EfficientNetLite/MBConvBlock           BatchNorm2d-36      [1, 40, 19, 19]              80              80
   RecycleNetwork/EfficientNetLite/MBConvBlock                Conv2d-37     [1, 240, 19, 19]           9,600           9,600
   RecycleNetwork/EfficientNetLite/MBConvBlock           BatchNorm2d-38     [1, 240, 19, 19]             480             480
   RecycleNetwork/EfficientNetLite/MBConvBlock                 ReLU6-39     [1, 240, 19, 19]               0               0
   RecycleNetwork/EfficientNetLite/MBConvBlock                Conv2d-40     [1, 240, 10, 10]           2,160           2,160
   RecycleNetwork/EfficientNetLite/MBConvBlock           BatchNorm2d-41     [1, 240, 10, 10]             480             480
   RecycleNetwork/EfficientNetLite/MBConvBlock                Conv2d-42      [1, 80, 10, 10]          19,200          19,200
   RecycleNetwork/EfficientNetLite/MBConvBlock           BatchNorm2d-43      [1, 80, 10, 10]             160             160
   RecycleNetwork/EfficientNetLite/MBConvBlock                Conv2d-44     [1, 480, 10, 10]          38,400          38,400
   RecycleNetwork/EfficientNetLite/MBConvBlock           BatchNorm2d-45     [1, 480, 10, 10]             960             960
   RecycleNetwork/EfficientNetLite/MBConvBlock                 ReLU6-46     [1, 480, 10, 10]               0               0
   RecycleNetwork/EfficientNetLite/MBConvBlock                Conv2d-47     [1, 480, 10, 10]           4,320           4,320
   RecycleNetwork/EfficientNetLite/MBConvBlock           BatchNorm2d-48     [1, 480, 10, 10]             960             960
   RecycleNetwork/EfficientNetLite/MBConvBlock                Conv2d-49      [1, 80, 10, 10]          38,400          38,400
   RecycleNetwork/EfficientNetLite/MBConvBlock           BatchNorm2d-50      [1, 80, 10, 10]             160             160
   RecycleNetwork/EfficientNetLite/MBConvBlock                Conv2d-51     [1, 480, 10, 10]          38,400          38,400
   RecycleNetwork/EfficientNetLite/MBConvBlock           BatchNorm2d-52     [1, 480, 10, 10]             960             960
   RecycleNetwork/EfficientNetLite/MBConvBlock                 ReLU6-53     [1, 480, 10, 10]               0               0
   RecycleNetwork/EfficientNetLite/MBConvBlock                Conv2d-54     [1, 480, 10, 10]           4,320           4,320
   RecycleNetwork/EfficientNetLite/MBConvBlock           BatchNorm2d-55     [1, 480, 10, 10]             960             960
   RecycleNetwork/EfficientNetLite/MBConvBlock                Conv2d-56      [1, 80, 10, 10]          38,400          38,400
   RecycleNetwork/EfficientNetLite/MBConvBlock           BatchNorm2d-57      [1, 80, 10, 10]             160             160
   RecycleNetwork/EfficientNetLite/MBConvBlock                Conv2d-58     [1, 480, 10, 10]          38,400          38,400
   RecycleNetwork/EfficientNetLite/MBConvBlock           BatchNorm2d-59     [1, 480, 10, 10]             960             960
   RecycleNetwork/EfficientNetLite/MBConvBlock                 ReLU6-60     [1, 480, 10, 10]               0               0
   RecycleNetwork/EfficientNetLite/MBConvBlock                Conv2d-61     [1, 480, 10, 10]          12,000          12,000
   RecycleNetwork/EfficientNetLite/MBConvBlock           BatchNorm2d-62     [1, 480, 10, 10]             960             960
   RecycleNetwork/EfficientNetLite/MBConvBlock                Conv2d-63     [1, 112, 10, 10]          53,760          53,760
   RecycleNetwork/EfficientNetLite/MBConvBlock           BatchNorm2d-64     [1, 112, 10, 10]             224             224
   RecycleNetwork/EfficientNetLite/MBConvBlock                Conv2d-65     [1, 672, 10, 10]          75,264          75,264
   RecycleNetwork/EfficientNetLite/MBConvBlock           BatchNorm2d-66     [1, 672, 10, 10]           1,344           1,344
   RecycleNetwork/EfficientNetLite/MBConvBlock                 ReLU6-67     [1, 672, 10, 10]               0               0
   RecycleNetwork/EfficientNetLite/MBConvBlock                Conv2d-68     [1, 672, 10, 10]          16,800          16,800
   RecycleNetwork/EfficientNetLite/MBConvBlock           BatchNorm2d-69     [1, 672, 10, 10]           1,344           1,344
   RecycleNetwork/EfficientNetLite/MBConvBlock                Conv2d-70     [1, 112, 10, 10]          75,264          75,264
   RecycleNetwork/EfficientNetLite/MBConvBlock           BatchNorm2d-71     [1, 112, 10, 10]             224             224
   RecycleNetwork/EfficientNetLite/MBConvBlock                Conv2d-72     [1, 672, 10, 10]          75,264          75,264
   RecycleNetwork/EfficientNetLite/MBConvBlock           BatchNorm2d-73     [1, 672, 10, 10]           1,344           1,344
   RecycleNetwork/EfficientNetLite/MBConvBlock                 ReLU6-74     [1, 672, 10, 10]               0               0
   RecycleNetwork/EfficientNetLite/MBConvBlock                Conv2d-75     [1, 672, 10, 10]          16,800          16,800
   RecycleNetwork/EfficientNetLite/MBConvBlock           BatchNorm2d-76     [1, 672, 10, 10]           1,344           1,344
   RecycleNetwork/EfficientNetLite/MBConvBlock                Conv2d-77     [1, 112, 10, 10]          75,264          75,264
   RecycleNetwork/EfficientNetLite/MBConvBlock           BatchNorm2d-78     [1, 112, 10, 10]             224             224
   RecycleNetwork/EfficientNetLite/MBConvBlock                Conv2d-79     [1, 672, 10, 10]          75,264          75,264
   RecycleNetwork/EfficientNetLite/MBConvBlock           BatchNorm2d-80     [1, 672, 10, 10]           1,344           1,344
   RecycleNetwork/EfficientNetLite/MBConvBlock                 ReLU6-81     [1, 672, 10, 10]               0               0
   RecycleNetwork/EfficientNetLite/MBConvBlock                Conv2d-82       [1, 672, 5, 5]          16,800          16,800
   RecycleNetwork/EfficientNetLite/MBConvBlock           BatchNorm2d-83       [1, 672, 5, 5]           1,344           1,344
   RecycleNetwork/EfficientNetLite/MBConvBlock                Conv2d-84       [1, 192, 5, 5]         129,024         129,024
   RecycleNetwork/EfficientNetLite/MBConvBlock           BatchNorm2d-85       [1, 192, 5, 5]             384             384
   RecycleNetwork/EfficientNetLite/MBConvBlock                Conv2d-86      [1, 1152, 5, 5]         221,184         221,184
   RecycleNetwork/EfficientNetLite/MBConvBlock           BatchNorm2d-87      [1, 1152, 5, 5]           2,304           2,304
   RecycleNetwork/EfficientNetLite/MBConvBlock                 ReLU6-88      [1, 1152, 5, 5]               0               0
   RecycleNetwork/EfficientNetLite/MBConvBlock                Conv2d-89      [1, 1152, 5, 5]          28,800          28,800
   RecycleNetwork/EfficientNetLite/MBConvBlock           BatchNorm2d-90      [1, 1152, 5, 5]           2,304           2,304
   RecycleNetwork/EfficientNetLite/MBConvBlock                Conv2d-91       [1, 192, 5, 5]         221,184         221,184
   RecycleNetwork/EfficientNetLite/MBConvBlock           BatchNorm2d-92       [1, 192, 5, 5]             384             384
   RecycleNetwork/EfficientNetLite/MBConvBlock                Conv2d-93      [1, 1152, 5, 5]         221,184         221,184
   RecycleNetwork/EfficientNetLite/MBConvBlock           BatchNorm2d-94      [1, 1152, 5, 5]           2,304           2,304
   RecycleNetwork/EfficientNetLite/MBConvBlock                 ReLU6-95      [1, 1152, 5, 5]               0               0
   RecycleNetwork/EfficientNetLite/MBConvBlock                Conv2d-96      [1, 1152, 5, 5]          28,800          28,800
   RecycleNetwork/EfficientNetLite/MBConvBlock           BatchNorm2d-97      [1, 1152, 5, 5]           2,304           2,304
   RecycleNetwork/EfficientNetLite/MBConvBlock                Conv2d-98       [1, 192, 5, 5]         221,184         221,184
   RecycleNetwork/EfficientNetLite/MBConvBlock           BatchNorm2d-99       [1, 192, 5, 5]             384             384
   RecycleNetwork/EfficientNetLite/MBConvBlock               Conv2d-100      [1, 1152, 5, 5]         221,184         221,184
   RecycleNetwork/EfficientNetLite/MBConvBlock          BatchNorm2d-101      [1, 1152, 5, 5]           2,304           2,304
   RecycleNetwork/EfficientNetLite/MBConvBlock                ReLU6-102      [1, 1152, 5, 5]               0               0
   RecycleNetwork/EfficientNetLite/MBConvBlock               Conv2d-103      [1, 1152, 5, 5]          28,800          28,800
   RecycleNetwork/EfficientNetLite/MBConvBlock          BatchNorm2d-104      [1, 1152, 5, 5]           2,304           2,304
   RecycleNetwork/EfficientNetLite/MBConvBlock               Conv2d-105       [1, 192, 5, 5]         221,184         221,184
   RecycleNetwork/EfficientNetLite/MBConvBlock          BatchNorm2d-106       [1, 192, 5, 5]             384             384
   RecycleNetwork/EfficientNetLite/MBConvBlock               Conv2d-107      [1, 1152, 5, 5]         221,184         221,184
   RecycleNetwork/EfficientNetLite/MBConvBlock          BatchNorm2d-108      [1, 1152, 5, 5]           2,304           2,304
   RecycleNetwork/EfficientNetLite/MBConvBlock                ReLU6-109      [1, 1152, 5, 5]               0               0
   RecycleNetwork/EfficientNetLite/MBConvBlock               Conv2d-110      [1, 1152, 5, 5]          10,368          10,368
   RecycleNetwork/EfficientNetLite/MBConvBlock          BatchNorm2d-111      [1, 1152, 5, 5]           2,304           2,304
   RecycleNetwork/EfficientNetLite/MBConvBlock               Conv2d-112       [1, 320, 5, 5]         368,640         368,640
   RecycleNetwork/EfficientNetLite/MBConvBlock          BatchNorm2d-113       [1, 320, 5, 5]             640             640
               RecycleNetwork/EfficientNetLite               Conv2d-114      [1, 1280, 5, 5]         409,600         409,600
               RecycleNetwork/EfficientNetLite          BatchNorm2d-115      [1, 1280, 5, 5]           2,560           2,560
               RecycleNetwork/EfficientNetLite                ReLU6-116      [1, 1280, 5, 5]               0               0
               RecycleNetwork/EfficientNetLite    AdaptiveAvgPool2d-117      [1, 1280, 1, 1]               0               0
               RecycleNetwork/EfficientNetLite              Dropout-118            [1, 1280]               0               0
               RecycleNetwork/EfficientNetLite               Linear-119               [1, 5]           6,405           6,405
============================================================================================================================
Total params: 3,376,868
Trainable params: 3,376,868
Non-trainable params: 0
----------------------------------------------------------------------------------------------------------------------------
Ended Training Cycle
backbone.blocks.1.1._expand_conv
3

--------------------------------
…
tensor([True, True, True, True, True, True, True, True, True, True, True, True,
        True, True, True, True, True, True, True, True, True, True, True, True])
torch.Size([24])
torch.Size([24])
Starting Training Cycle
----------------------------------------------------------------------------------------------------------------------------
                                 Parent Layers             Layer (type)         Output Shape         Param #     Tr. Param #
============================================================================================================================
               RecycleNetwork/EfficientNetLite                 Conv2d-1      [1, 27, 75, 75]             729             729
               RecycleNetwork/EfficientNetLite            BatchNorm2d-2      [1, 27, 75, 75]              54              54
               RecycleNetwork/EfficientNetLite                  ReLU6-3      [1, 27, 75, 75]               0               0
   RecycleNetwork/EfficientNetLite/MBConvBlock                 Conv2d-4      [1, 27, 75, 75]             243             243
   RecycleNetwork/EfficientNetLite/MBConvBlock            BatchNorm2d-5      [1, 27, 75, 75]              54              54
   RecycleNetwork/EfficientNetLite/MBConvBlock                  ReLU6-6      [1, 27, 75, 75]               0               0
   RecycleNetwork/EfficientNetLite/MBConvBlock                 Conv2d-7      [1, 16, 75, 75]             432             432
   RecycleNetwork/EfficientNetLite/MBConvBlock            BatchNorm2d-8      [1, 16, 75, 75]              32              32
   RecycleNetwork/EfficientNetLite/MBConvBlock                 Conv2d-9      [1, 91, 75, 75]           1,456           1,456
   RecycleNetwork/EfficientNetLite/MBConvBlock           BatchNorm2d-10      [1, 91, 75, 75]             182             182
   RecycleNetwork/EfficientNetLite/MBConvBlock                 ReLU6-11      [1, 91, 75, 75]               0               0
   RecycleNetwork/EfficientNetLite/MBConvBlock                Conv2d-12      [1, 91, 38, 38]             819             819
   RecycleNetwork/EfficientNetLite/MBConvBlock           BatchNorm2d-13      [1, 91, 38, 38]             182             182
   RecycleNetwork/EfficientNetLite/MBConvBlock                Conv2d-14      [1, 24, 38, 38]           2,184           2,184
   RecycleNetwork/EfficientNetLite/MBConvBlock           BatchNorm2d-15      [1, 24, 38, 38]              48              48
   RecycleNetwork/EfficientNetLite/MBConvBlock                Conv2d-16     [1, 139, 38, 38]           3,336           3,336
   RecycleNetwork/EfficientNetLite/MBConvBlock           BatchNorm2d-17     [1, 139, 38, 38]             278             278
   RecycleNetwork/EfficientNetLite/MBConvBlock                 ReLU6-18     [1, 139, 38, 38]               0               0
   RecycleNetwork/EfficientNetLite/MBConvBlock                Conv2d-19     [1, 139, 38, 38]           1,251           1,251
   RecycleNetwork/EfficientNetLite/MBConvBlock           BatchNorm2d-20     [1, 139, 38, 38]             278             278
   RecycleNetwork/EfficientNetLite/MBConvBlock                Conv2d-21      [1, 24, 38, 38]           3,336           3,336
   RecycleNetwork/EfficientNetLite/MBConvBlock           BatchNorm2d-22      [1, 24, 38, 38]              48              48
   RecycleNetwork/EfficientNetLite/MBConvBlock                Conv2d-23     [1, 144, 38, 38]           3,456           3,456
   RecycleNetwork/EfficientNetLite/MBConvBlock           BatchNorm2d-24     [1, 144, 38, 38]             288             288
   RecycleNetwork/EfficientNetLite/MBConvBlock                 ReLU6-25     [1, 144, 38, 38]               0               0
   RecycleNetwork/EfficientNetLite/MBConvBlock                Conv2d-26     [1, 144, 19, 19]           3,600           3,600
   RecycleNetwork/EfficientNetLite/MBConvBlock           BatchNorm2d-27     [1, 144, 19, 19]             288             288
   RecycleNetwork/EfficientNetLite/MBConvBlock                Conv2d-28      [1, 40, 19, 19]           5,760           5,760
   RecycleNetwork/EfficientNetLite/MBConvBlock           BatchNorm2d-29      [1, 40, 19, 19]              80              80
   RecycleNetwork/EfficientNetLite/MBConvBlock                Conv2d-30     [1, 240, 19, 19]           9,600           9,600
   RecycleNetwork/EfficientNetLite/MBConvBlock           BatchNorm2d-31     [1, 240, 19, 19]             480             480
   RecycleNetwork/EfficientNetLite/MBConvBlock                 ReLU6-32     [1, 240, 19, 19]               0               0
   RecycleNetwork/EfficientNetLite/MBConvBlock                Conv2d-33     [1, 240, 19, 19]           6,000           6,000
   RecycleNetwork/EfficientNetLite/MBConvBlock           BatchNorm2d-34     [1, 240, 19, 19]             480             480
   RecycleNetwork/EfficientNetLite/MBConvBlock                Conv2d-35      [1, 40, 19, 19]           9,600           9,600
   RecycleNetwork/EfficientNetLite/MBConvBlock           BatchNorm2d-36      [1, 40, 19, 19]              80              80
   RecycleNetwork/EfficientNetLite/MBConvBlock                Conv2d-37     [1, 240, 19, 19]           9,600           9,600
   RecycleNetwork/EfficientNetLite/MBConvBlock           BatchNorm2d-38     [1, 240, 19, 19]             480             480
   RecycleNetwork/EfficientNetLite/MBConvBlock                 ReLU6-39     [1, 240, 19, 19]               0               0
   RecycleNetwork/EfficientNetLite/MBConvBlock                Conv2d-40     [1, 240, 10, 10]           2,160           2,160
   RecycleNetwork/EfficientNetLite/MBConvBlock           BatchNorm2d-41     [1, 240, 10, 10]             480             480
   RecycleNetwork/EfficientNetLite/MBConvBlock                Conv2d-42      [1, 80, 10, 10]          19,200          19,200
   RecycleNetwork/EfficientNetLite/MBConvBlock           BatchNorm2d-43      [1, 80, 10, 10]             160             160
   RecycleNetwork/EfficientNetLite/MBConvBlock                Conv2d-44     [1, 480, 10, 10]          38,400          38,400
   RecycleNetwork/EfficientNetLite/MBConvBlock           BatchNorm2d-45     [1, 480, 10, 10]             960             960
   RecycleNetwork/EfficientNetLite/MBConvBlock                 ReLU6-46     [1, 480, 10, 10]               0               0
   RecycleNetwork/EfficientNetLite/MBConvBlock                Conv2d-47     [1, 480, 10, 10]           4,320           4,320
   RecycleNetwork/EfficientNetLite/MBConvBlock           BatchNorm2d-48     [1, 480, 10, 10]             960             960
   RecycleNetwork/EfficientNetLite/MBConvBlock                Conv2d-49      [1, 80, 10, 10]          38,400          38,400
   RecycleNetwork/EfficientNetLite/MBConvBlock           BatchNorm2d-50      [1, 80, 10, 10]             160             160
   RecycleNetwork/EfficientNetLite/MBConvBlock                Conv2d-51     [1, 480, 10, 10]          38,400          38,400
   RecycleNetwork/EfficientNetLite/MBConvBlock           BatchNorm2d-52     [1, 480, 10, 10]             960             960
   RecycleNetwork/EfficientNetLite/MBConvBlock                 ReLU6-53     [1, 480, 10, 10]               0               0
   RecycleNetwork/EfficientNetLite/MBConvBlock                Conv2d-54     [1, 480, 10, 10]           4,320           4,320
   RecycleNetwork/EfficientNetLite/MBConvBlock           BatchNorm2d-55     [1, 480, 10, 10]             960             960
   RecycleNetwork/EfficientNetLite/MBConvBlock                Conv2d-56      [1, 80, 10, 10]          38,400          38,400
   RecycleNetwork/EfficientNetLite/MBConvBlock           BatchNorm2d-57      [1, 80, 10, 10]             160             160
   RecycleNetwork/EfficientNetLite/MBConvBlock                Conv2d-58     [1, 480, 10, 10]          38,400          38,400
   RecycleNetwork/EfficientNetLite/MBConvBlock           BatchNorm2d-59     [1, 480, 10, 10]             960             960
   RecycleNetwork/EfficientNetLite/MBConvBlock                 ReLU6-60     [1, 480, 10, 10]               0               0
   RecycleNetwork/EfficientNetLite/MBConvBlock                Conv2d-61     [1, 480, 10, 10]          12,000          12,000
   RecycleNetwork/EfficientNetLite/MBConvBlock           BatchNorm2d-62     [1, 480, 10, 10]             960             960
   RecycleNetwork/EfficientNetLite/MBConvBlock                Conv2d-63     [1, 112, 10, 10]          53,760          53,760
   RecycleNetwork/EfficientNetLite/MBConvBlock           BatchNorm2d-64     [1, 112, 10, 10]             224             224
   RecycleNetwork/EfficientNetLite/MBConvBlock                Conv2d-65     [1, 672, 10, 10]          75,264          75,264
   RecycleNetwork/EfficientNetLite/MBConvBlock           BatchNorm2d-66     [1, 672, 10, 10]           1,344           1,344
   RecycleNetwork/EfficientNetLite/MBConvBlock                 ReLU6-67     [1, 672, 10, 10]               0               0
   RecycleNetwork/EfficientNetLite/MBConvBlock                Conv2d-68     [1, 672, 10, 10]          16,800          16,800
   RecycleNetwork/EfficientNetLite/MBConvBlock           BatchNorm2d-69     [1, 672, 10, 10]           1,344           1,344
   RecycleNetwork/EfficientNetLite/MBConvBlock                Conv2d-70     [1, 112, 10, 10]          75,264          75,264
   RecycleNetwork/EfficientNetLite/MBConvBlock           BatchNorm2d-71     [1, 112, 10, 10]             224             224
   RecycleNetwork/EfficientNetLite/MBConvBlock                Conv2d-72     [1, 672, 10, 10]          75,264          75,264
   RecycleNetwork/EfficientNetLite/MBConvBlock           BatchNorm2d-73     [1, 672, 10, 10]           1,344           1,344
   RecycleNetwork/EfficientNetLite/MBConvBlock                 ReLU6-74     [1, 672, 10, 10]               0               0
   RecycleNetwork/EfficientNetLite/MBConvBlock                Conv2d-75     [1, 672, 10, 10]          16,800          16,800
   RecycleNetwork/EfficientNetLite/MBConvBlock           BatchNorm2d-76     [1, 672, 10, 10]           1,344           1,344
   RecycleNetwork/EfficientNetLite/MBConvBlock                Conv2d-77     [1, 112, 10, 10]          75,264          75,264
   RecycleNetwork/EfficientNetLite/MBConvBlock           BatchNorm2d-78     [1, 112, 10, 10]             224             224
   RecycleNetwork/EfficientNetLite/MBConvBlock                Conv2d-79     [1, 672, 10, 10]          75,264          75,264
   RecycleNetwork/EfficientNetLite/MBConvBlock           BatchNorm2d-80     [1, 672, 10, 10]           1,344           1,344
   RecycleNetwork/EfficientNetLite/MBConvBlock                 ReLU6-81     [1, 672, 10, 10]               0               0
   RecycleNetwork/EfficientNetLite/MBConvBlock                Conv2d-82       [1, 672, 5, 5]          16,800          16,800
   RecycleNetwork/EfficientNetLite/MBConvBlock           BatchNorm2d-83       [1, 672, 5, 5]           1,344           1,344
   RecycleNetwork/EfficientNetLite/MBConvBlock                Conv2d-84       [1, 192, 5, 5]         129,024         129,024
   RecycleNetwork/EfficientNetLite/MBConvBlock           BatchNorm2d-85       [1, 192, 5, 5]             384             384
   RecycleNetwork/EfficientNetLite/MBConvBlock                Conv2d-86      [1, 1152, 5, 5]         221,184         221,184
   RecycleNetwork/EfficientNetLite/MBConvBlock           BatchNorm2d-87      [1, 1152, 5, 5]           2,304           2,304
   RecycleNetwork/EfficientNetLite/MBConvBlock                 ReLU6-88      [1, 1152, 5, 5]               0               0
   RecycleNetwork/EfficientNetLite/MBConvBlock                Conv2d-89      [1, 1152, 5, 5]          28,800          28,800
   RecycleNetwork/EfficientNetLite/MBConvBlock           BatchNorm2d-90      [1, 1152, 5, 5]           2,304           2,304
   RecycleNetwork/EfficientNetLite/MBConvBlock                Conv2d-91       [1, 192, 5, 5]         221,184         221,184
   RecycleNetwork/EfficientNetLite/MBConvBlock           BatchNorm2d-92       [1, 192, 5, 5]             384             384
   RecycleNetwork/EfficientNetLite/MBConvBlock                Conv2d-93      [1, 1152, 5, 5]         221,184         221,184
   RecycleNetwork/EfficientNetLite/MBConvBlock           BatchNorm2d-94      [1, 1152, 5, 5]           2,304           2,304
   RecycleNetwork/EfficientNetLite/MBConvBlock                 ReLU6-95      [1, 1152, 5, 5]               0               0
   RecycleNetwork/EfficientNetLite/MBConvBlock                Conv2d-96      [1, 1152, 5, 5]          28,800          28,800
   RecycleNetwork/EfficientNetLite/MBConvBlock           BatchNorm2d-97      [1, 1152, 5, 5]           2,304           2,304
   RecycleNetwork/EfficientNetLite/MBConvBlock                Conv2d-98       [1, 192, 5, 5]         221,184         221,184
   RecycleNetwork/EfficientNetLite/MBConvBlock           BatchNorm2d-99       [1, 192, 5, 5]             384             384
   RecycleNetwork/EfficientNetLite/MBConvBlock               Conv2d-100      [1, 1152, 5, 5]         221,184         221,184
   RecycleNetwork/EfficientNetLite/MBConvBlock          BatchNorm2d-101      [1, 1152, 5, 5]           2,304           2,304
   RecycleNetwork/EfficientNetLite/MBConvBlock                ReLU6-102      [1, 1152, 5, 5]               0               0
   RecycleNetwork/EfficientNetLite/MBConvBlock               Conv2d-103      [1, 1152, 5, 5]          28,800          28,800
   RecycleNetwork/EfficientNetLite/MBConvBlock          BatchNorm2d-104      [1, 1152, 5, 5]           2,304           2,304
   RecycleNetwork/EfficientNetLite/MBConvBlock               Conv2d-105       [1, 192, 5, 5]         221,184         221,184
   RecycleNetwork/EfficientNetLite/MBConvBlock          BatchNorm2d-106       [1, 192, 5, 5]             384             384
   RecycleNetwork/EfficientNetLite/MBConvBlock               Conv2d-107      [1, 1152, 5, 5]         221,184         221,184
   RecycleNetwork/EfficientNetLite/MBConvBlock          BatchNorm2d-108      [1, 1152, 5, 5]           2,304           2,304
   RecycleNetwork/EfficientNetLite/MBConvBlock                ReLU6-109      [1, 1152, 5, 5]               0               0
   RecycleNetwork/EfficientNetLite/MBConvBlock               Conv2d-110      [1, 1152, 5, 5]          10,368          10,368
   RecycleNetwork/EfficientNetLite/MBConvBlock          BatchNorm2d-111      [1, 1152, 5, 5]           2,304           2,304
   RecycleNetwork/EfficientNetLite/MBConvBlock               Conv2d-112       [1, 320, 5, 5]         368,640         368,640
   RecycleNetwork/EfficientNetLite/MBConvBlock          BatchNorm2d-113       [1, 320, 5, 5]             640             640
               RecycleNetwork/EfficientNetLite               Conv2d-114      [1, 1280, 5, 5]         409,600         409,600
               RecycleNetwork/EfficientNetLite          BatchNorm2d-115      [1, 1280, 5, 5]           2,560           2,560
               RecycleNetwork/EfficientNetLite                ReLU6-116      [1, 1280, 5, 5]               0               0
               RecycleNetwork/EfficientNetLite    AdaptiveAvgPool2d-117      [1, 1280, 1, 1]               0               0
               RecycleNetwork/EfficientNetLite              Dropout-118            [1, 1280]               0               0
               RecycleNetwork/EfficientNetLite               Linear-119               [1, 5]           6,405           6,405
============================================================================================================================
Total params: 3,376,563
Trainable params: 3,376,563
Non-trainable params: 0
----------------------------------------------------------------------------------------------------------------------------
Ended Training Cycle
backbone.blocks.2.0._expand_conv
3

--------------------------------
…
        True, True, True, True, True, True, True, True, True, True, True, True,
        True, True, True, True])
torch.Size([40])
torch.Size([40])
Starting Training Cycle
----------------------------------------------------------------------------------------------------------------------------
                                 Parent Layers             Layer (type)         Output Shape         Param #     Tr. Param #
============================================================================================================================
               RecycleNetwork/EfficientNetLite                 Conv2d-1      [1, 27, 75, 75]             729             729
               RecycleNetwork/EfficientNetLite            BatchNorm2d-2      [1, 27, 75, 75]              54              54
               RecycleNetwork/EfficientNetLite                  ReLU6-3      [1, 27, 75, 75]               0               0
   RecycleNetwork/EfficientNetLite/MBConvBlock                 Conv2d-4      [1, 27, 75, 75]             243             243
   RecycleNetwork/EfficientNetLite/MBConvBlock            BatchNorm2d-5      [1, 27, 75, 75]              54              54
   RecycleNetwork/EfficientNetLite/MBConvBlock                  ReLU6-6      [1, 27, 75, 75]               0               0
   RecycleNetwork/EfficientNetLite/MBConvBlock                 Conv2d-7      [1, 16, 75, 75]             432             432
   RecycleNetwork/EfficientNetLite/MBConvBlock            BatchNorm2d-8      [1, 16, 75, 75]              32              32
   RecycleNetwork/EfficientNetLite/MBConvBlock                 Conv2d-9      [1, 91, 75, 75]           1,456           1,456
   RecycleNetwork/EfficientNetLite/MBConvBlock           BatchNorm2d-10      [1, 91, 75, 75]             182             182
   RecycleNetwork/EfficientNetLite/MBConvBlock                 ReLU6-11      [1, 91, 75, 75]               0               0
   RecycleNetwork/EfficientNetLite/MBConvBlock                Conv2d-12      [1, 91, 38, 38]             819             819
   RecycleNetwork/EfficientNetLite/MBConvBlock           BatchNorm2d-13      [1, 91, 38, 38]             182             182
   RecycleNetwork/EfficientNetLite/MBConvBlock                Conv2d-14      [1, 24, 38, 38]           2,184           2,184
   RecycleNetwork/EfficientNetLite/MBConvBlock           BatchNorm2d-15      [1, 24, 38, 38]              48              48
   RecycleNetwork/EfficientNetLite/MBConvBlock                Conv2d-16     [1, 139, 38, 38]           3,336           3,336
   RecycleNetwork/EfficientNetLite/MBConvBlock           BatchNorm2d-17     [1, 139, 38, 38]             278             278
   RecycleNetwork/EfficientNetLite/MBConvBlock                 ReLU6-18     [1, 139, 38, 38]               0               0
   RecycleNetwork/EfficientNetLite/MBConvBlock                Conv2d-19     [1, 139, 38, 38]           1,251           1,251
   RecycleNetwork/EfficientNetLite/MBConvBlock           BatchNorm2d-20     [1, 139, 38, 38]             278             278
   RecycleNetwork/EfficientNetLite/MBConvBlock                Conv2d-21      [1, 24, 38, 38]           3,336           3,336
   RecycleNetwork/EfficientNetLite/MBConvBlock           BatchNorm2d-22      [1, 24, 38, 38]              48              48
   RecycleNetwork/EfficientNetLite/MBConvBlock                Conv2d-23     [1, 141, 38, 38]           3,384           3,384
   RecycleNetwork/EfficientNetLite/MBConvBlock           BatchNorm2d-24     [1, 141, 38, 38]             282             282
   RecycleNetwork/EfficientNetLite/MBConvBlock                 ReLU6-25     [1, 141, 38, 38]               0               0
   RecycleNetwork/EfficientNetLite/MBConvBlock                Conv2d-26     [1, 141, 19, 19]           3,525           3,525
   RecycleNetwork/EfficientNetLite/MBConvBlock           BatchNorm2d-27     [1, 141, 19, 19]             282             282
   RecycleNetwork/EfficientNetLite/MBConvBlock                Conv2d-28      [1, 40, 19, 19]           5,640           5,640
   RecycleNetwork/EfficientNetLite/MBConvBlock           BatchNorm2d-29      [1, 40, 19, 19]              80              80
   RecycleNetwork/EfficientNetLite/MBConvBlock                Conv2d-30     [1, 240, 19, 19]           9,600           9,600
   RecycleNetwork/EfficientNetLite/MBConvBlock           BatchNorm2d-31     [1, 240, 19, 19]             480             480
   RecycleNetwork/EfficientNetLite/MBConvBlock                 ReLU6-32     [1, 240, 19, 19]               0               0
   RecycleNetwork/EfficientNetLite/MBConvBlock                Conv2d-33     [1, 240, 19, 19]           6,000           6,000
   RecycleNetwork/EfficientNetLite/MBConvBlock           BatchNorm2d-34     [1, 240, 19, 19]             480             480
   RecycleNetwork/EfficientNetLite/MBConvBlock                Conv2d-35      [1, 40, 19, 19]           9,600           9,600
   RecycleNetwork/EfficientNetLite/MBConvBlock           BatchNorm2d-36      [1, 40, 19, 19]              80              80
   RecycleNetwork/EfficientNetLite/MBConvBlock                Conv2d-37     [1, 240, 19, 19]           9,600           9,600
   RecycleNetwork/EfficientNetLite/MBConvBlock           BatchNorm2d-38     [1, 240, 19, 19]             480             480
   RecycleNetwork/EfficientNetLite/MBConvBlock                 ReLU6-39     [1, 240, 19, 19]               0               0
   RecycleNetwork/EfficientNetLite/MBConvBlock                Conv2d-40     [1, 240, 10, 10]           2,160           2,160
   RecycleNetwork/EfficientNetLite/MBConvBlock           BatchNorm2d-41     [1, 240, 10, 10]             480             480
   RecycleNetwork/EfficientNetLite/MBConvBlock                Conv2d-42      [1, 80, 10, 10]          19,200          19,200
   RecycleNetwork/EfficientNetLite/MBConvBlock           BatchNorm2d-43      [1, 80, 10, 10]             160             160
   RecycleNetwork/EfficientNetLite/MBConvBlock                Conv2d-44     [1, 480, 10, 10]          38,400          38,400
   RecycleNetwork/EfficientNetLite/MBConvBlock           BatchNorm2d-45     [1, 480, 10, 10]             960             960
   RecycleNetwork/EfficientNetLite/MBConvBlock                 ReLU6-46     [1, 480, 10, 10]               0               0
   RecycleNetwork/EfficientNetLite/MBConvBlock                Conv2d-47     [1, 480, 10, 10]           4,320           4,320
   RecycleNetwork/EfficientNetLite/MBConvBlock           BatchNorm2d-48     [1, 480, 10, 10]             960             960
   RecycleNetwork/EfficientNetLite/MBConvBlock                Conv2d-49      [1, 80, 10, 10]          38,400          38,400
   RecycleNetwork/EfficientNetLite/MBConvBlock           BatchNorm2d-50      [1, 80, 10, 10]             160             160
   RecycleNetwork/EfficientNetLite/MBConvBlock                Conv2d-51     [1, 480, 10, 10]          38,400          38,400
   RecycleNetwork/EfficientNetLite/MBConvBlock           BatchNorm2d-52     [1, 480, 10, 10]             960             960
   RecycleNetwork/EfficientNetLite/MBConvBlock                 ReLU6-53     [1, 480, 10, 10]               0               0
   RecycleNetwork/EfficientNetLite/MBConvBlock                Conv2d-54     [1, 480, 10, 10]           4,320           4,320
   RecycleNetwork/EfficientNetLite/MBConvBlock           BatchNorm2d-55     [1, 480, 10, 10]             960             960
   RecycleNetwork/EfficientNetLite/MBConvBlock                Conv2d-56      [1, 80, 10, 10]          38,400          38,400
   RecycleNetwork/EfficientNetLite/MBConvBlock           BatchNorm2d-57      [1, 80, 10, 10]             160             160
   RecycleNetwork/EfficientNetLite/MBConvBlock                Conv2d-58     [1, 480, 10, 10]          38,400          38,400
   RecycleNetwork/EfficientNetLite/MBConvBlock           BatchNorm2d-59     [1, 480, 10, 10]             960             960
   RecycleNetwork/EfficientNetLite/MBConvBlock                 ReLU6-60     [1, 480, 10, 10]               0               0
   RecycleNetwork/EfficientNetLite/MBConvBlock                Conv2d-61     [1, 480, 10, 10]          12,000          12,000
   RecycleNetwork/EfficientNetLite/MBConvBlock           BatchNorm2d-62     [1, 480, 10, 10]             960             960
   RecycleNetwork/EfficientNetLite/MBConvBlock                Conv2d-63     [1, 112, 10, 10]          53,760          53,760
   RecycleNetwork/EfficientNetLite/MBConvBlock           BatchNorm2d-64     [1, 112, 10, 10]             224             224
   RecycleNetwork/EfficientNetLite/MBConvBlock                Conv2d-65     [1, 672, 10, 10]          75,264          75,264
   RecycleNetwork/EfficientNetLite/MBConvBlock           BatchNorm2d-66     [1, 672, 10, 10]           1,344           1,344
   RecycleNetwork/EfficientNetLite/MBConvBlock                 ReLU6-67     [1, 672, 10, 10]               0               0
   RecycleNetwork/EfficientNetLite/MBConvBlock                Conv2d-68     [1, 672, 10, 10]          16,800          16,800
   RecycleNetwork/EfficientNetLite/MBConvBlock           BatchNorm2d-69     [1, 672, 10, 10]           1,344           1,344
   RecycleNetwork/EfficientNetLite/MBConvBlock                Conv2d-70     [1, 112, 10, 10]          75,264          75,264
   RecycleNetwork/EfficientNetLite/MBConvBlock           BatchNorm2d-71     [1, 112, 10, 10]             224             224
   RecycleNetwork/EfficientNetLite/MBConvBlock                Conv2d-72     [1, 672, 10, 10]          75,264          75,264
   RecycleNetwork/EfficientNetLite/MBConvBlock           BatchNorm2d-73     [1, 672, 10, 10]           1,344           1,344
   RecycleNetwork/EfficientNetLite/MBConvBlock                 ReLU6-74     [1, 672, 10, 10]               0               0
   RecycleNetwork/EfficientNetLite/MBConvBlock                Conv2d-75     [1, 672, 10, 10]          16,800          16,800
   RecycleNetwork/EfficientNetLite/MBConvBlock           BatchNorm2d-76     [1, 672, 10, 10]           1,344           1,344
   RecycleNetwork/EfficientNetLite/MBConvBlock                Conv2d-77     [1, 112, 10, 10]          75,264          75,264
   RecycleNetwork/EfficientNetLite/MBConvBlock           BatchNorm2d-78     [1, 112, 10, 10]             224             224
   RecycleNetwork/EfficientNetLite/MBConvBlock                Conv2d-79     [1, 672, 10, 10]          75,264          75,264
   RecycleNetwork/EfficientNetLite/MBConvBlock           BatchNorm2d-80     [1, 672, 10, 10]           1,344           1,344
   RecycleNetwork/EfficientNetLite/MBConvBlock                 ReLU6-81     [1, 672, 10, 10]               0               0
   RecycleNetwork/EfficientNetLite/MBConvBlock                Conv2d-82       [1, 672, 5, 5]          16,800          16,800
   RecycleNetwork/EfficientNetLite/MBConvBlock           BatchNorm2d-83       [1, 672, 5, 5]           1,344           1,344
   RecycleNetwork/EfficientNetLite/MBConvBlock                Conv2d-84       [1, 192, 5, 5]         129,024         129,024
   RecycleNetwork/EfficientNetLite/MBConvBlock           BatchNorm2d-85       [1, 192, 5, 5]             384             384
   RecycleNetwork/EfficientNetLite/MBConvBlock                Conv2d-86      [1, 1152, 5, 5]         221,184         221,184
   RecycleNetwork/EfficientNetLite/MBConvBlock           BatchNorm2d-87      [1, 1152, 5, 5]           2,304           2,304
   RecycleNetwork/EfficientNetLite/MBConvBlock                 ReLU6-88      [1, 1152, 5, 5]               0               0
   RecycleNetwork/EfficientNetLite/MBConvBlock                Conv2d-89      [1, 1152, 5, 5]          28,800          28,800
   RecycleNetwork/EfficientNetLite/MBConvBlock           BatchNorm2d-90      [1, 1152, 5, 5]           2,304           2,304
   RecycleNetwork/EfficientNetLite/MBConvBlock                Conv2d-91       [1, 192, 5, 5]         221,184         221,184
   RecycleNetwork/EfficientNetLite/MBConvBlock           BatchNorm2d-92       [1, 192, 5, 5]             384             384
   RecycleNetwork/EfficientNetLite/MBConvBlock                Conv2d-93      [1, 1152, 5, 5]         221,184         221,184
   RecycleNetwork/EfficientNetLite/MBConvBlock           BatchNorm2d-94      [1, 1152, 5, 5]           2,304           2,304
   RecycleNetwork/EfficientNetLite/MBConvBlock                 ReLU6-95      [1, 1152, 5, 5]               0               0
   RecycleNetwork/EfficientNetLite/MBConvBlock                Conv2d-96      [1, 1152, 5, 5]          28,800          28,800
   RecycleNetwork/EfficientNetLite/MBConvBlock           BatchNorm2d-97      [1, 1152, 5, 5]           2,304           2,304
   RecycleNetwork/EfficientNetLite/MBConvBlock                Conv2d-98       [1, 192, 5, 5]         221,184         221,184
   RecycleNetwork/EfficientNetLite/MBConvBlock           BatchNorm2d-99       [1, 192, 5, 5]             384             384
   RecycleNetwork/EfficientNetLite/MBConvBlock               Conv2d-100      [1, 1152, 5, 5]         221,184         221,184
   RecycleNetwork/EfficientNetLite/MBConvBlock          BatchNorm2d-101      [1, 1152, 5, 5]           2,304           2,304
   RecycleNetwork/EfficientNetLite/MBConvBlock                ReLU6-102      [1, 1152, 5, 5]               0               0
   RecycleNetwork/EfficientNetLite/MBConvBlock               Conv2d-103      [1, 1152, 5, 5]          28,800          28,800
   RecycleNetwork/EfficientNetLite/MBConvBlock          BatchNorm2d-104      [1, 1152, 5, 5]           2,304           2,304
   RecycleNetwork/EfficientNetLite/MBConvBlock               Conv2d-105       [1, 192, 5, 5]         221,184         221,184
   RecycleNetwork/EfficientNetLite/MBConvBlock          BatchNorm2d-106       [1, 192, 5, 5]             384             384
   RecycleNetwork/EfficientNetLite/MBConvBlock               Conv2d-107      [1, 1152, 5, 5]         221,184         221,184
   RecycleNetwork/EfficientNetLite/MBConvBlock          BatchNorm2d-108      [1, 1152, 5, 5]           2,304           2,304
   RecycleNetwork/EfficientNetLite/MBConvBlock                ReLU6-109      [1, 1152, 5, 5]               0               0
   RecycleNetwork/EfficientNetLite/MBConvBlock               Conv2d-110      [1, 1152, 5, 5]          10,368          10,368
   RecycleNetwork/EfficientNetLite/MBConvBlock          BatchNorm2d-111      [1, 1152, 5, 5]           2,304           2,304
   RecycleNetwork/EfficientNetLite/MBConvBlock               Conv2d-112       [1, 320, 5, 5]         368,640         368,640
   RecycleNetwork/EfficientNetLite/MBConvBlock          BatchNorm2d-113       [1, 320, 5, 5]             640             640
               RecycleNetwork/EfficientNetLite               Conv2d-114      [1, 1280, 5, 5]         409,600         409,600
               RecycleNetwork/EfficientNetLite          BatchNorm2d-115      [1, 1280, 5, 5]           2,560           2,560
               RecycleNetwork/EfficientNetLite                ReLU6-116      [1, 1280, 5, 5]               0               0
               RecycleNetwork/EfficientNetLite    AdaptiveAvgPool2d-117      [1, 1280, 1, 1]               0               0
               RecycleNetwork/EfficientNetLite              Dropout-118            [1, 1280]               0               0
               RecycleNetwork/EfficientNetLite               Linear-119               [1, 5]           6,405           6,405
============================================================================================================================
Total params: 3,376,284
Trainable params: 3,376,284
Non-trainable params: 0
----------------------------------------------------------------------------------------------------------------------------
Ended Training Cycle
backbone.blocks.2.1._expand_conv
3

--------------------------------
…
        True, True, True, True, True, True, True, True, True, True, True, True,
        True, True, True, True])
torch.Size([40])
torch.Size([40])
Starting Training Cycle
----------------------------------------------------------------------------------------------------------------------------
                                 Parent Layers             Layer (type)         Output Shape         Param #     Tr. Param #
============================================================================================================================
               RecycleNetwork/EfficientNetLite                 Conv2d-1      [1, 27, 75, 75]             729             729
               RecycleNetwork/EfficientNetLite            BatchNorm2d-2      [1, 27, 75, 75]              54              54
               RecycleNetwork/EfficientNetLite                  ReLU6-3      [1, 27, 75, 75]               0               0
   RecycleNetwork/EfficientNetLite/MBConvBlock                 Conv2d-4      [1, 27, 75, 75]             243             243
   RecycleNetwork/EfficientNetLite/MBConvBlock            BatchNorm2d-5      [1, 27, 75, 75]              54              54
   RecycleNetwork/EfficientNetLite/MBConvBlock                  ReLU6-6      [1, 27, 75, 75]               0               0
   RecycleNetwork/EfficientNetLite/MBConvBlock                 Conv2d-7      [1, 16, 75, 75]             432             432
   RecycleNetwork/EfficientNetLite/MBConvBlock            BatchNorm2d-8      [1, 16, 75, 75]              32              32
   RecycleNetwork/EfficientNetLite/MBConvBlock                 Conv2d-9      [1, 91, 75, 75]           1,456           1,456
   RecycleNetwork/EfficientNetLite/MBConvBlock           BatchNorm2d-10      [1, 91, 75, 75]             182             182
   RecycleNetwork/EfficientNetLite/MBConvBlock                 ReLU6-11      [1, 91, 75, 75]               0               0
   RecycleNetwork/EfficientNetLite/MBConvBlock                Conv2d-12      [1, 91, 38, 38]             819             819
   RecycleNetwork/EfficientNetLite/MBConvBlock           BatchNorm2d-13      [1, 91, 38, 38]             182             182
   RecycleNetwork/EfficientNetLite/MBConvBlock                Conv2d-14      [1, 24, 38, 38]           2,184           2,184
   RecycleNetwork/EfficientNetLite/MBConvBlock           BatchNorm2d-15      [1, 24, 38, 38]              48              48
   RecycleNetwork/EfficientNetLite/MBConvBlock                Conv2d-16     [1, 139, 38, 38]           3,336           3,336
   RecycleNetwork/EfficientNetLite/MBConvBlock           BatchNorm2d-17     [1, 139, 38, 38]             278             278
   RecycleNetwork/EfficientNetLite/MBConvBlock                 ReLU6-18     [1, 139, 38, 38]               0               0
   RecycleNetwork/EfficientNetLite/MBConvBlock                Conv2d-19     [1, 139, 38, 38]           1,251           1,251
   RecycleNetwork/EfficientNetLite/MBConvBlock           BatchNorm2d-20     [1, 139, 38, 38]             278             278
   RecycleNetwork/EfficientNetLite/MBConvBlock                Conv2d-21      [1, 24, 38, 38]           3,336           3,336
   RecycleNetwork/EfficientNetLite/MBConvBlock           BatchNorm2d-22      [1, 24, 38, 38]              48              48
   RecycleNetwork/EfficientNetLite/MBConvBlock                Conv2d-23     [1, 141, 38, 38]           3,384           3,384
   RecycleNetwork/EfficientNetLite/MBConvBlock           BatchNorm2d-24     [1, 141, 38, 38]             282             282
   RecycleNetwork/EfficientNetLite/MBConvBlock                 ReLU6-25     [1, 141, 38, 38]               0               0
   RecycleNetwork/EfficientNetLite/MBConvBlock                Conv2d-26     [1, 141, 19, 19]           3,525           3,525
   RecycleNetwork/EfficientNetLite/MBConvBlock           BatchNorm2d-27     [1, 141, 19, 19]             282             282
   RecycleNetwork/EfficientNetLite/MBConvBlock                Conv2d-28      [1, 40, 19, 19]           5,640           5,640
   RecycleNetwork/EfficientNetLite/MBConvBlock           BatchNorm2d-29      [1, 40, 19, 19]              80              80
   RecycleNetwork/EfficientNetLite/MBConvBlock                Conv2d-30     [1, 230, 19, 19]           9,200           9,200
   RecycleNetwork/EfficientNetLite/MBConvBlock           BatchNorm2d-31     [1, 230, 19, 19]             460             460
   RecycleNetwork/EfficientNetLite/MBConvBlock                 ReLU6-32     [1, 230, 19, 19]               0               0
   RecycleNetwork/EfficientNetLite/MBConvBlock                Conv2d-33     [1, 230, 19, 19]           5,750           5,750
   RecycleNetwork/EfficientNetLite/MBConvBlock           BatchNorm2d-34     [1, 230, 19, 19]             460             460
   RecycleNetwork/EfficientNetLite/MBConvBlock                Conv2d-35      [1, 40, 19, 19]           9,200           9,200
   RecycleNetwork/EfficientNetLite/MBConvBlock           BatchNorm2d-36      [1, 40, 19, 19]              80              80
   RecycleNetwork/EfficientNetLite/MBConvBlock                Conv2d-37     [1, 240, 19, 19]           9,600           9,600
   RecycleNetwork/EfficientNetLite/MBConvBlock           BatchNorm2d-38     [1, 240, 19, 19]             480             480
   RecycleNetwork/EfficientNetLite/MBConvBlock                 ReLU6-39     [1, 240, 19, 19]               0               0
   RecycleNetwork/EfficientNetLite/MBConvBlock                Conv2d-40     [1, 240, 10, 10]           2,160           2,160
   RecycleNetwork/EfficientNetLite/MBConvBlock           BatchNorm2d-41     [1, 240, 10, 10]             480             480
   RecycleNetwork/EfficientNetLite/MBConvBlock                Conv2d-42      [1, 80, 10, 10]          19,200          19,200
   RecycleNetwork/EfficientNetLite/MBConvBlock           BatchNorm2d-43      [1, 80, 10, 10]             160             160
   RecycleNetwork/EfficientNetLite/MBConvBlock                Conv2d-44     [1, 480, 10, 10]          38,400          38,400
   RecycleNetwork/EfficientNetLite/MBConvBlock           BatchNorm2d-45     [1, 480, 10, 10]             960             960
   RecycleNetwork/EfficientNetLite/MBConvBlock                 ReLU6-46     [1, 480, 10, 10]               0               0
   RecycleNetwork/EfficientNetLite/MBConvBlock                Conv2d-47     [1, 480, 10, 10]           4,320           4,320
   RecycleNetwork/EfficientNetLite/MBConvBlock           BatchNorm2d-48     [1, 480, 10, 10]             960             960
   RecycleNetwork/EfficientNetLite/MBConvBlock                Conv2d-49      [1, 80, 10, 10]          38,400          38,400
   RecycleNetwork/EfficientNetLite/MBConvBlock           BatchNorm2d-50      [1, 80, 10, 10]             160             160
   RecycleNetwork/EfficientNetLite/MBConvBlock                Conv2d-51     [1, 480, 10, 10]          38,400          38,400
   RecycleNetwork/EfficientNetLite/MBConvBlock           BatchNorm2d-52     [1, 480, 10, 10]             960             960
   RecycleNetwork/EfficientNetLite/MBConvBlock                 ReLU6-53     [1, 480, 10, 10]               0               0
   RecycleNetwork/EfficientNetLite/MBConvBlock                Conv2d-54     [1, 480, 10, 10]           4,320           4,320
   RecycleNetwork/EfficientNetLite/MBConvBlock           BatchNorm2d-55     [1, 480, 10, 10]             960             960
   RecycleNetwork/EfficientNetLite/MBConvBlock                Conv2d-56      [1, 80, 10, 10]          38,400          38,400
   RecycleNetwork/EfficientNetLite/MBConvBlock           BatchNorm2d-57      [1, 80, 10, 10]             160             160
   RecycleNetwork/EfficientNetLite/MBConvBlock                Conv2d-58     [1, 480, 10, 10]          38,400          38,400
   RecycleNetwork/EfficientNetLite/MBConvBlock           BatchNorm2d-59     [1, 480, 10, 10]             960             960
   RecycleNetwork/EfficientNetLite/MBConvBlock                 ReLU6-60     [1, 480, 10, 10]               0               0
   RecycleNetwork/EfficientNetLite/MBConvBlock                Conv2d-61     [1, 480, 10, 10]          12,000          12,000
   RecycleNetwork/EfficientNetLite/MBConvBlock           BatchNorm2d-62     [1, 480, 10, 10]             960             960
   RecycleNetwork/EfficientNetLite/MBConvBlock                Conv2d-63     [1, 112, 10, 10]          53,760          53,760
   RecycleNetwork/EfficientNetLite/MBConvBlock           BatchNorm2d-64     [1, 112, 10, 10]             224             224
   RecycleNetwork/EfficientNetLite/MBConvBlock                Conv2d-65     [1, 672, 10, 10]          75,264          75,264
   RecycleNetwork/EfficientNetLite/MBConvBlock           BatchNorm2d-66     [1, 672, 10, 10]           1,344           1,344
   RecycleNetwork/EfficientNetLite/MBConvBlock                 ReLU6-67     [1, 672, 10, 10]               0               0
   RecycleNetwork/EfficientNetLite/MBConvBlock                Conv2d-68     [1, 672, 10, 10]          16,800          16,800
   RecycleNetwork/EfficientNetLite/MBConvBlock           BatchNorm2d-69     [1, 672, 10, 10]           1,344           1,344
   RecycleNetwork/EfficientNetLite/MBConvBlock                Conv2d-70     [1, 112, 10, 10]          75,264          75,264
   RecycleNetwork/EfficientNetLite/MBConvBlock           BatchNorm2d-71     [1, 112, 10, 10]             224             224
   RecycleNetwork/EfficientNetLite/MBConvBlock                Conv2d-72     [1, 672, 10, 10]          75,264          75,264
   RecycleNetwork/EfficientNetLite/MBConvBlock           BatchNorm2d-73     [1, 672, 10, 10]           1,344           1,344
   RecycleNetwork/EfficientNetLite/MBConvBlock                 ReLU6-74     [1, 672, 10, 10]               0               0
   RecycleNetwork/EfficientNetLite/MBConvBlock                Conv2d-75     [1, 672, 10, 10]          16,800          16,800
   RecycleNetwork/EfficientNetLite/MBConvBlock           BatchNorm2d-76     [1, 672, 10, 10]           1,344           1,344
   RecycleNetwork/EfficientNetLite/MBConvBlock                Conv2d-77     [1, 112, 10, 10]          75,264          75,264
   RecycleNetwork/EfficientNetLite/MBConvBlock           BatchNorm2d-78     [1, 112, 10, 10]             224             224
   RecycleNetwork/EfficientNetLite/MBConvBlock                Conv2d-79     [1, 672, 10, 10]          75,264          75,264
   RecycleNetwork/EfficientNetLite/MBConvBlock           BatchNorm2d-80     [1, 672, 10, 10]           1,344           1,344
   RecycleNetwork/EfficientNetLite/MBConvBlock                 ReLU6-81     [1, 672, 10, 10]               0               0
   RecycleNetwork/EfficientNetLite/MBConvBlock                Conv2d-82       [1, 672, 5, 5]          16,800          16,800
   RecycleNetwork/EfficientNetLite/MBConvBlock           BatchNorm2d-83       [1, 672, 5, 5]           1,344           1,344
   RecycleNetwork/EfficientNetLite/MBConvBlock                Conv2d-84       [1, 192, 5, 5]         129,024         129,024
   RecycleNetwork/EfficientNetLite/MBConvBlock           BatchNorm2d-85       [1, 192, 5, 5]             384             384
   RecycleNetwork/EfficientNetLite/MBConvBlock                Conv2d-86      [1, 1152, 5, 5]         221,184         221,184
   RecycleNetwork/EfficientNetLite/MBConvBlock           BatchNorm2d-87      [1, 1152, 5, 5]           2,304           2,304
   RecycleNetwork/EfficientNetLite/MBConvBlock                 ReLU6-88      [1, 1152, 5, 5]               0               0
   RecycleNetwork/EfficientNetLite/MBConvBlock                Conv2d-89      [1, 1152, 5, 5]          28,800          28,800
   RecycleNetwork/EfficientNetLite/MBConvBlock           BatchNorm2d-90      [1, 1152, 5, 5]           2,304           2,304
   RecycleNetwork/EfficientNetLite/MBConvBlock                Conv2d-91       [1, 192, 5, 5]         221,184         221,184
   RecycleNetwork/EfficientNetLite/MBConvBlock           BatchNorm2d-92       [1, 192, 5, 5]             384             384
   RecycleNetwork/EfficientNetLite/MBConvBlock                Conv2d-93      [1, 1152, 5, 5]         221,184         221,184
   RecycleNetwork/EfficientNetLite/MBConvBlock           BatchNorm2d-94      [1, 1152, 5, 5]           2,304           2,304
   RecycleNetwork/EfficientNetLite/MBConvBlock                 ReLU6-95      [1, 1152, 5, 5]               0               0
   RecycleNetwork/EfficientNetLite/MBConvBlock                Conv2d-96      [1, 1152, 5, 5]          28,800          28,800
   RecycleNetwork/EfficientNetLite/MBConvBlock           BatchNorm2d-97      [1, 1152, 5, 5]           2,304           2,304
   RecycleNetwork/EfficientNetLite/MBConvBlock                Conv2d-98       [1, 192, 5, 5]         221,184         221,184
   RecycleNetwork/EfficientNetLite/MBConvBlock           BatchNorm2d-99       [1, 192, 5, 5]             384             384
   RecycleNetwork/EfficientNetLite/MBConvBlock               Conv2d-100      [1, 1152, 5, 5]         221,184         221,184
   RecycleNetwork/EfficientNetLite/MBConvBlock          BatchNorm2d-101      [1, 1152, 5, 5]           2,304           2,304
   RecycleNetwork/EfficientNetLite/MBConvBlock                ReLU6-102      [1, 1152, 5, 5]               0               0
   RecycleNetwork/EfficientNetLite/MBConvBlock               Conv2d-103      [1, 1152, 5, 5]          28,800          28,800
   RecycleNetwork/EfficientNetLite/MBConvBlock          BatchNorm2d-104      [1, 1152, 5, 5]           2,304           2,304
   RecycleNetwork/EfficientNetLite/MBConvBlock               Conv2d-105       [1, 192, 5, 5]         221,184         221,184
   RecycleNetwork/EfficientNetLite/MBConvBlock          BatchNorm2d-106       [1, 192, 5, 5]             384             384
   RecycleNetwork/EfficientNetLite/MBConvBlock               Conv2d-107      [1, 1152, 5, 5]         221,184         221,184
   RecycleNetwork/EfficientNetLite/MBConvBlock          BatchNorm2d-108      [1, 1152, 5, 5]           2,304           2,304
   RecycleNetwork/EfficientNetLite/MBConvBlock                ReLU6-109      [1, 1152, 5, 5]               0               0
   RecycleNetwork/EfficientNetLite/MBConvBlock               Conv2d-110      [1, 1152, 5, 5]          10,368          10,368
   RecycleNetwork/EfficientNetLite/MBConvBlock          BatchNorm2d-111      [1, 1152, 5, 5]           2,304           2,304
   RecycleNetwork/EfficientNetLite/MBConvBlock               Conv2d-112       [1, 320, 5, 5]         368,640         368,640
   RecycleNetwork/EfficientNetLite/MBConvBlock          BatchNorm2d-113       [1, 320, 5, 5]             640             640
               RecycleNetwork/EfficientNetLite               Conv2d-114      [1, 1280, 5, 5]         409,600         409,600
               RecycleNetwork/EfficientNetLite          BatchNorm2d-115      [1, 1280, 5, 5]           2,560           2,560
               RecycleNetwork/EfficientNetLite                ReLU6-116      [1, 1280, 5, 5]               0               0
               RecycleNetwork/EfficientNetLite    AdaptiveAvgPool2d-117      [1, 1280, 1, 1]               0               0
               RecycleNetwork/EfficientNetLite              Dropout-118            [1, 1280]               0               0
               RecycleNetwork/EfficientNetLite               Linear-119               [1, 5]           6,405           6,405
============================================================================================================================
Total params: 3,375,194
Trainable params: 3,375,194
Non-trainable params: 0
----------------------------------------------------------------------------------------------------------------------------
Ended Training Cycle
backbone.blocks.3.0._expand_conv
2

--------------------------------
…
        True, True, True, True, True, True, True, True, True, True, True, True,
        True, True, True, True, True, True, True, True])
torch.Size([80])
torch.Size([80])
Starting Training Cycle
----------------------------------------------------------------------------------------------------------------------------
                                 Parent Layers             Layer (type)         Output Shape         Param #     Tr. Param #
============================================================================================================================
               RecycleNetwork/EfficientNetLite                 Conv2d-1      [1, 27, 75, 75]             729             729
               RecycleNetwork/EfficientNetLite            BatchNorm2d-2      [1, 27, 75, 75]              54              54
               RecycleNetwork/EfficientNetLite                  ReLU6-3      [1, 27, 75, 75]               0               0
   RecycleNetwork/EfficientNetLite/MBConvBlock                 Conv2d-4      [1, 27, 75, 75]             243             243
   RecycleNetwork/EfficientNetLite/MBConvBlock            BatchNorm2d-5      [1, 27, 75, 75]              54              54
   RecycleNetwork/EfficientNetLite/MBConvBlock                  ReLU6-6      [1, 27, 75, 75]               0               0
   RecycleNetwork/EfficientNetLite/MBConvBlock                 Conv2d-7      [1, 16, 75, 75]             432             432
   RecycleNetwork/EfficientNetLite/MBConvBlock            BatchNorm2d-8      [1, 16, 75, 75]              32              32
   RecycleNetwork/EfficientNetLite/MBConvBlock                 Conv2d-9      [1, 91, 75, 75]           1,456           1,456
   RecycleNetwork/EfficientNetLite/MBConvBlock           BatchNorm2d-10      [1, 91, 75, 75]             182             182
   RecycleNetwork/EfficientNetLite/MBConvBlock                 ReLU6-11      [1, 91, 75, 75]               0               0
   RecycleNetwork/EfficientNetLite/MBConvBlock                Conv2d-12      [1, 91, 38, 38]             819             819
   RecycleNetwork/EfficientNetLite/MBConvBlock           BatchNorm2d-13      [1, 91, 38, 38]             182             182
   RecycleNetwork/EfficientNetLite/MBConvBlock                Conv2d-14      [1, 24, 38, 38]           2,184           2,184
   RecycleNetwork/EfficientNetLite/MBConvBlock           BatchNorm2d-15      [1, 24, 38, 38]              48              48
   RecycleNetwork/EfficientNetLite/MBConvBlock                Conv2d-16     [1, 139, 38, 38]           3,336           3,336
   RecycleNetwork/EfficientNetLite/MBConvBlock           BatchNorm2d-17     [1, 139, 38, 38]             278             278
   RecycleNetwork/EfficientNetLite/MBConvBlock                 ReLU6-18     [1, 139, 38, 38]               0               0
   RecycleNetwork/EfficientNetLite/MBConvBlock                Conv2d-19     [1, 139, 38, 38]           1,251           1,251
   RecycleNetwork/EfficientNetLite/MBConvBlock           BatchNorm2d-20     [1, 139, 38, 38]             278             278
   RecycleNetwork/EfficientNetLite/MBConvBlock                Conv2d-21      [1, 24, 38, 38]           3,336           3,336
   RecycleNetwork/EfficientNetLite/MBConvBlock           BatchNorm2d-22      [1, 24, 38, 38]              48              48
   RecycleNetwork/EfficientNetLite/MBConvBlock                Conv2d-23     [1, 141, 38, 38]           3,384           3,384
   RecycleNetwork/EfficientNetLite/MBConvBlock           BatchNorm2d-24     [1, 141, 38, 38]             282             282
   RecycleNetwork/EfficientNetLite/MBConvBlock                 ReLU6-25     [1, 141, 38, 38]               0               0
   RecycleNetwork/EfficientNetLite/MBConvBlock                Conv2d-26     [1, 141, 19, 19]           3,525           3,525
   RecycleNetwork/EfficientNetLite/MBConvBlock           BatchNorm2d-27     [1, 141, 19, 19]             282             282
   RecycleNetwork/EfficientNetLite/MBConvBlock                Conv2d-28      [1, 40, 19, 19]           5,640           5,640
   RecycleNetwork/EfficientNetLite/MBConvBlock           BatchNorm2d-29      [1, 40, 19, 19]              80              80
   RecycleNetwork/EfficientNetLite/MBConvBlock                Conv2d-30     [1, 230, 19, 19]           9,200           9,200
   RecycleNetwork/EfficientNetLite/MBConvBlock           BatchNorm2d-31     [1, 230, 19, 19]             460             460
   RecycleNetwork/EfficientNetLite/MBConvBlock                 ReLU6-32     [1, 230, 19, 19]               0               0
   RecycleNetwork/EfficientNetLite/MBConvBlock                Conv2d-33     [1, 230, 19, 19]           5,750           5,750
   RecycleNetwork/EfficientNetLite/MBConvBlock           BatchNorm2d-34     [1, 230, 19, 19]             460             460
   RecycleNetwork/EfficientNetLite/MBConvBlock                Conv2d-35      [1, 40, 19, 19]           9,200           9,200
   RecycleNetwork/EfficientNetLite/MBConvBlock           BatchNorm2d-36      [1, 40, 19, 19]              80              80
   RecycleNetwork/EfficientNetLite/MBConvBlock                Conv2d-37     [1, 238, 19, 19]           9,520           9,520
   RecycleNetwork/EfficientNetLite/MBConvBlock           BatchNorm2d-38     [1, 238, 19, 19]             476             476
   RecycleNetwork/EfficientNetLite/MBConvBlock                 ReLU6-39     [1, 238, 19, 19]               0               0
   RecycleNetwork/EfficientNetLite/MBConvBlock                Conv2d-40     [1, 238, 10, 10]           2,142           2,142
   RecycleNetwork/EfficientNetLite/MBConvBlock           BatchNorm2d-41     [1, 238, 10, 10]             476             476
   RecycleNetwork/EfficientNetLite/MBConvBlock                Conv2d-42      [1, 80, 10, 10]          19,040          19,040
   RecycleNetwork/EfficientNetLite/MBConvBlock           BatchNorm2d-43      [1, 80, 10, 10]             160             160
   RecycleNetwork/EfficientNetLite/MBConvBlock                Conv2d-44     [1, 480, 10, 10]          38,400          38,400
   RecycleNetwork/EfficientNetLite/MBConvBlock           BatchNorm2d-45     [1, 480, 10, 10]             960             960
   RecycleNetwork/EfficientNetLite/MBConvBlock                 ReLU6-46     [1, 480, 10, 10]               0               0
   RecycleNetwork/EfficientNetLite/MBConvBlock                Conv2d-47     [1, 480, 10, 10]           4,320           4,320
   RecycleNetwork/EfficientNetLite/MBConvBlock           BatchNorm2d-48     [1, 480, 10, 10]             960             960
   RecycleNetwork/EfficientNetLite/MBConvBlock                Conv2d-49      [1, 80, 10, 10]          38,400          38,400
   RecycleNetwork/EfficientNetLite/MBConvBlock           BatchNorm2d-50      [1, 80, 10, 10]             160             160
   RecycleNetwork/EfficientNetLite/MBConvBlock                Conv2d-51     [1, 480, 10, 10]          38,400          38,400
   RecycleNetwork/EfficientNetLite/MBConvBlock           BatchNorm2d-52     [1, 480, 10, 10]             960             960
   RecycleNetwork/EfficientNetLite/MBConvBlock                 ReLU6-53     [1, 480, 10, 10]               0               0
   RecycleNetwork/EfficientNetLite/MBConvBlock                Conv2d-54     [1, 480, 10, 10]           4,320           4,320
   RecycleNetwork/EfficientNetLite/MBConvBlock           BatchNorm2d-55     [1, 480, 10, 10]             960             960
   RecycleNetwork/EfficientNetLite/MBConvBlock                Conv2d-56      [1, 80, 10, 10]          38,400          38,400
   RecycleNetwork/EfficientNetLite/MBConvBlock           BatchNorm2d-57      [1, 80, 10, 10]             160             160
   RecycleNetwork/EfficientNetLite/MBConvBlock                Conv2d-58     [1, 480, 10, 10]          38,400          38,400
   RecycleNetwork/EfficientNetLite/MBConvBlock           BatchNorm2d-59     [1, 480, 10, 10]             960             960
   RecycleNetwork/EfficientNetLite/MBConvBlock                 ReLU6-60     [1, 480, 10, 10]               0               0
   RecycleNetwork/EfficientNetLite/MBConvBlock                Conv2d-61     [1, 480, 10, 10]          12,000          12,000
   RecycleNetwork/EfficientNetLite/MBConvBlock           BatchNorm2d-62     [1, 480, 10, 10]             960             960
   RecycleNetwork/EfficientNetLite/MBConvBlock                Conv2d-63     [1, 112, 10, 10]          53,760          53,760
   RecycleNetwork/EfficientNetLite/MBConvBlock           BatchNorm2d-64     [1, 112, 10, 10]             224             224
   RecycleNetwork/EfficientNetLite/MBConvBlock                Conv2d-65     [1, 672, 10, 10]          75,264          75,264
   RecycleNetwork/EfficientNetLite/MBConvBlock           BatchNorm2d-66     [1, 672, 10, 10]           1,344           1,344
   RecycleNetwork/EfficientNetLite/MBConvBlock                 ReLU6-67     [1, 672, 10, 10]               0               0
   RecycleNetwork/EfficientNetLite/MBConvBlock                Conv2d-68     [1, 672, 10, 10]          16,800          16,800
   RecycleNetwork/EfficientNetLite/MBConvBlock           BatchNorm2d-69     [1, 672, 10, 10]           1,344           1,344
   RecycleNetwork/EfficientNetLite/MBConvBlock                Conv2d-70     [1, 112, 10, 10]          75,264          75,264
   RecycleNetwork/EfficientNetLite/MBConvBlock           BatchNorm2d-71     [1, 112, 10, 10]             224             224
   RecycleNetwork/EfficientNetLite/MBConvBlock                Conv2d-72     [1, 672, 10, 10]          75,264          75,264
   RecycleNetwork/EfficientNetLite/MBConvBlock           BatchNorm2d-73     [1, 672, 10, 10]           1,344           1,344
   RecycleNetwork/EfficientNetLite/MBConvBlock                 ReLU6-74     [1, 672, 10, 10]               0               0
   RecycleNetwork/EfficientNetLite/MBConvBlock                Conv2d-75     [1, 672, 10, 10]          16,800          16,800
   RecycleNetwork/EfficientNetLite/MBConvBlock           BatchNorm2d-76     [1, 672, 10, 10]           1,344           1,344
   RecycleNetwork/EfficientNetLite/MBConvBlock                Conv2d-77     [1, 112, 10, 10]          75,264          75,264
   RecycleNetwork/EfficientNetLite/MBConvBlock           BatchNorm2d-78     [1, 112, 10, 10]             224             224
   RecycleNetwork/EfficientNetLite/MBConvBlock                Conv2d-79     [1, 672, 10, 10]          75,264          75,264
   RecycleNetwork/EfficientNetLite/MBConvBlock           BatchNorm2d-80     [1, 672, 10, 10]           1,344           1,344
   RecycleNetwork/EfficientNetLite/MBConvBlock                 ReLU6-81     [1, 672, 10, 10]               0               0
   RecycleNetwork/EfficientNetLite/MBConvBlock                Conv2d-82       [1, 672, 5, 5]          16,800          16,800
   RecycleNetwork/EfficientNetLite/MBConvBlock           BatchNorm2d-83       [1, 672, 5, 5]           1,344           1,344
   RecycleNetwork/EfficientNetLite/MBConvBlock                Conv2d-84       [1, 192, 5, 5]         129,024         129,024
   RecycleNetwork/EfficientNetLite/MBConvBlock           BatchNorm2d-85       [1, 192, 5, 5]             384             384
   RecycleNetwork/EfficientNetLite/MBConvBlock                Conv2d-86      [1, 1152, 5, 5]         221,184         221,184
   RecycleNetwork/EfficientNetLite/MBConvBlock           BatchNorm2d-87      [1, 1152, 5, 5]           2,304           2,304
   RecycleNetwork/EfficientNetLite/MBConvBlock                 ReLU6-88      [1, 1152, 5, 5]               0               0
   RecycleNetwork/EfficientNetLite/MBConvBlock                Conv2d-89      [1, 1152, 5, 5]          28,800          28,800
   RecycleNetwork/EfficientNetLite/MBConvBlock           BatchNorm2d-90      [1, 1152, 5, 5]           2,304           2,304
   RecycleNetwork/EfficientNetLite/MBConvBlock                Conv2d-91       [1, 192, 5, 5]         221,184         221,184
   RecycleNetwork/EfficientNetLite/MBConvBlock           BatchNorm2d-92       [1, 192, 5, 5]             384             384
   RecycleNetwork/EfficientNetLite/MBConvBlock                Conv2d-93      [1, 1152, 5, 5]         221,184         221,184
   RecycleNetwork/EfficientNetLite/MBConvBlock           BatchNorm2d-94      [1, 1152, 5, 5]           2,304           2,304
   RecycleNetwork/EfficientNetLite/MBConvBlock                 ReLU6-95      [1, 1152, 5, 5]               0               0
   RecycleNetwork/EfficientNetLite/MBConvBlock                Conv2d-96      [1, 1152, 5, 5]          28,800          28,800
   RecycleNetwork/EfficientNetLite/MBConvBlock           BatchNorm2d-97      [1, 1152, 5, 5]           2,304           2,304
   RecycleNetwork/EfficientNetLite/MBConvBlock                Conv2d-98       [1, 192, 5, 5]         221,184         221,184
   RecycleNetwork/EfficientNetLite/MBConvBlock           BatchNorm2d-99       [1, 192, 5, 5]             384             384
   RecycleNetwork/EfficientNetLite/MBConvBlock               Conv2d-100      [1, 1152, 5, 5]         221,184         221,184
   RecycleNetwork/EfficientNetLite/MBConvBlock          BatchNorm2d-101      [1, 1152, 5, 5]           2,304           2,304
   RecycleNetwork/EfficientNetLite/MBConvBlock                ReLU6-102      [1, 1152, 5, 5]               0               0
   RecycleNetwork/EfficientNetLite/MBConvBlock               Conv2d-103      [1, 1152, 5, 5]          28,800          28,800
   RecycleNetwork/EfficientNetLite/MBConvBlock          BatchNorm2d-104      [1, 1152, 5, 5]           2,304           2,304
   RecycleNetwork/EfficientNetLite/MBConvBlock               Conv2d-105       [1, 192, 5, 5]         221,184         221,184
   RecycleNetwork/EfficientNetLite/MBConvBlock          BatchNorm2d-106       [1, 192, 5, 5]             384             384
   RecycleNetwork/EfficientNetLite/MBConvBlock               Conv2d-107      [1, 1152, 5, 5]         221,184         221,184
   RecycleNetwork/EfficientNetLite/MBConvBlock          BatchNorm2d-108      [1, 1152, 5, 5]           2,304           2,304
   RecycleNetwork/EfficientNetLite/MBConvBlock                ReLU6-109      [1, 1152, 5, 5]               0               0
   RecycleNetwork/EfficientNetLite/MBConvBlock               Conv2d-110      [1, 1152, 5, 5]          10,368          10,368
   RecycleNetwork/EfficientNetLite/MBConvBlock          BatchNorm2d-111      [1, 1152, 5, 5]           2,304           2,304
   RecycleNetwork/EfficientNetLite/MBConvBlock               Conv2d-112       [1, 320, 5, 5]         368,640         368,640
   RecycleNetwork/EfficientNetLite/MBConvBlock          BatchNorm2d-113       [1, 320, 5, 5]             640             640
               RecycleNetwork/EfficientNetLite               Conv2d-114      [1, 1280, 5, 5]         409,600         409,600
               RecycleNetwork/EfficientNetLite          BatchNorm2d-115      [1, 1280, 5, 5]           2,560           2,560
               RecycleNetwork/EfficientNetLite                ReLU6-116      [1, 1280, 5, 5]               0               0
               RecycleNetwork/EfficientNetLite    AdaptiveAvgPool2d-117      [1, 1280, 1, 1]               0               0
               RecycleNetwork/EfficientNetLite              Dropout-118            [1, 1280]               0               0
               RecycleNetwork/EfficientNetLite               Linear-119               [1, 5]           6,405           6,405
============================================================================================================================
Total params: 3,374,928
Trainable params: 3,374,928
Non-trainable params: 0
----------------------------------------------------------------------------------------------------------------------------
Ended Training Cycle
backbone.blocks.3.1._expand_conv
15

…
        True, True, True, True, True, True, True, True, True, True, True, True,
        True, True, True, True, True, True, True, True])
torch.Size([80])
torch.Size([80])
Starting Training Cycle
----------------------------------------------------------------------------------------------------------------------------
                                 Parent Layers             Layer (type)         Output Shape         Param #     Tr. Param #
============================================================================================================================
               RecycleNetwork/EfficientNetLite                 Conv2d-1      [1, 27, 75, 75]             729             729
               RecycleNetwork/EfficientNetLite            BatchNorm2d-2      [1, 27, 75, 75]              54              54
               RecycleNetwork/EfficientNetLite                  ReLU6-3      [1, 27, 75, 75]               0               0
   RecycleNetwork/EfficientNetLite/MBConvBlock                 Conv2d-4      [1, 27, 75, 75]             243             243
   RecycleNetwork/EfficientNetLite/MBConvBlock            BatchNorm2d-5      [1, 27, 75, 75]              54              54
   RecycleNetwork/EfficientNetLite/MBConvBlock                  ReLU6-6      [1, 27, 75, 75]               0               0
   RecycleNetwork/EfficientNetLite/MBConvBlock                 Conv2d-7      [1, 16, 75, 75]             432             432
   RecycleNetwork/EfficientNetLite/MBConvBlock            BatchNorm2d-8      [1, 16, 75, 75]              32              32
   RecycleNetwork/EfficientNetLite/MBConvBlock                 Conv2d-9      [1, 91, 75, 75]           1,456           1,456
   RecycleNetwork/EfficientNetLite/MBConvBlock           BatchNorm2d-10      [1, 91, 75, 75]             182             182
   RecycleNetwork/EfficientNetLite/MBConvBlock                 ReLU6-11      [1, 91, 75, 75]               0               0
   RecycleNetwork/EfficientNetLite/MBConvBlock                Conv2d-12      [1, 91, 38, 38]             819             819
   RecycleNetwork/EfficientNetLite/MBConvBlock           BatchNorm2d-13      [1, 91, 38, 38]             182             182
   RecycleNetwork/EfficientNetLite/MBConvBlock                Conv2d-14      [1, 24, 38, 38]           2,184           2,184
   RecycleNetwork/EfficientNetLite/MBConvBlock           BatchNorm2d-15      [1, 24, 38, 38]              48              48
   RecycleNetwork/EfficientNetLite/MBConvBlock                Conv2d-16     [1, 139, 38, 38]           3,336           3,336
   RecycleNetwork/EfficientNetLite/MBConvBlock           BatchNorm2d-17     [1, 139, 38, 38]             278             278
   RecycleNetwork/EfficientNetLite/MBConvBlock                 ReLU6-18     [1, 139, 38, 38]               0               0
   RecycleNetwork/EfficientNetLite/MBConvBlock                Conv2d-19     [1, 139, 38, 38]           1,251           1,251
   RecycleNetwork/EfficientNetLite/MBConvBlock           BatchNorm2d-20     [1, 139, 38, 38]             278             278
   RecycleNetwork/EfficientNetLite/MBConvBlock                Conv2d-21      [1, 24, 38, 38]           3,336           3,336
   RecycleNetwork/EfficientNetLite/MBConvBlock           BatchNorm2d-22      [1, 24, 38, 38]              48              48
   RecycleNetwork/EfficientNetLite/MBConvBlock                Conv2d-23     [1, 141, 38, 38]           3,384           3,384
   RecycleNetwork/EfficientNetLite/MBConvBlock           BatchNorm2d-24     [1, 141, 38, 38]             282             282
   RecycleNetwork/EfficientNetLite/MBConvBlock                 ReLU6-25     [1, 141, 38, 38]               0               0
   RecycleNetwork/EfficientNetLite/MBConvBlock                Conv2d-26     [1, 141, 19, 19]           3,525           3,525
   RecycleNetwork/EfficientNetLite/MBConvBlock           BatchNorm2d-27     [1, 141, 19, 19]             282             282
   RecycleNetwork/EfficientNetLite/MBConvBlock                Conv2d-28      [1, 40, 19, 19]           5,640           5,640
   RecycleNetwork/EfficientNetLite/MBConvBlock           BatchNorm2d-29      [1, 40, 19, 19]              80              80
   RecycleNetwork/EfficientNetLite/MBConvBlock                Conv2d-30     [1, 230, 19, 19]           9,200           9,200
   RecycleNetwork/EfficientNetLite/MBConvBlock           BatchNorm2d-31     [1, 230, 19, 19]             460             460
   RecycleNetwork/EfficientNetLite/MBConvBlock                 ReLU6-32     [1, 230, 19, 19]               0               0
   RecycleNetwork/EfficientNetLite/MBConvBlock                Conv2d-33     [1, 230, 19, 19]           5,750           5,750
   RecycleNetwork/EfficientNetLite/MBConvBlock           BatchNorm2d-34     [1, 230, 19, 19]             460             460
   RecycleNetwork/EfficientNetLite/MBConvBlock                Conv2d-35      [1, 40, 19, 19]           9,200           9,200
   RecycleNetwork/EfficientNetLite/MBConvBlock           BatchNorm2d-36      [1, 40, 19, 19]              80              80
   RecycleNetwork/EfficientNetLite/MBConvBlock                Conv2d-37     [1, 238, 19, 19]           9,520           9,520
   RecycleNetwork/EfficientNetLite/MBConvBlock           BatchNorm2d-38     [1, 238, 19, 19]             476             476
   RecycleNetwork/EfficientNetLite/MBConvBlock                 ReLU6-39     [1, 238, 19, 19]               0               0
   RecycleNetwork/EfficientNetLite/MBConvBlock                Conv2d-40     [1, 238, 10, 10]           2,142           2,142
   RecycleNetwork/EfficientNetLite/MBConvBlock           BatchNorm2d-41     [1, 238, 10, 10]             476             476
   RecycleNetwork/EfficientNetLite/MBConvBlock                Conv2d-42      [1, 80, 10, 10]          19,040          19,040
   RecycleNetwork/EfficientNetLite/MBConvBlock           BatchNorm2d-43      [1, 80, 10, 10]             160             160
   RecycleNetwork/EfficientNetLite/MBConvBlock                Conv2d-44     [1, 450, 10, 10]          36,000          36,000
   RecycleNetwork/EfficientNetLite/MBConvBlock           BatchNorm2d-45     [1, 450, 10, 10]             900             900
   RecycleNetwork/EfficientNetLite/MBConvBlock                 ReLU6-46     [1, 450, 10, 10]               0               0
   RecycleNetwork/EfficientNetLite/MBConvBlock                Conv2d-47     [1, 450, 10, 10]           4,050           4,050
   RecycleNetwork/EfficientNetLite/MBConvBlock           BatchNorm2d-48     [1, 450, 10, 10]             900             900
   RecycleNetwork/EfficientNetLite/MBConvBlock                Conv2d-49      [1, 80, 10, 10]          36,000          36,000
   RecycleNetwork/EfficientNetLite/MBConvBlock           BatchNorm2d-50      [1, 80, 10, 10]             160             160
   RecycleNetwork/EfficientNetLite/MBConvBlock                Conv2d-51     [1, 480, 10, 10]          38,400          38,400
   RecycleNetwork/EfficientNetLite/MBConvBlock           BatchNorm2d-52     [1, 480, 10, 10]             960             960
   RecycleNetwork/EfficientNetLite/MBConvBlock                 ReLU6-53     [1, 480, 10, 10]               0               0
   RecycleNetwork/EfficientNetLite/MBConvBlock                Conv2d-54     [1, 480, 10, 10]           4,320           4,320
   RecycleNetwork/EfficientNetLite/MBConvBlock           BatchNorm2d-55     [1, 480, 10, 10]             960             960
   RecycleNetwork/EfficientNetLite/MBConvBlock                Conv2d-56      [1, 80, 10, 10]          38,400          38,400
   RecycleNetwork/EfficientNetLite/MBConvBlock           BatchNorm2d-57      [1, 80, 10, 10]             160             160
   RecycleNetwork/EfficientNetLite/MBConvBlock                Conv2d-58     [1, 480, 10, 10]          38,400          38,400
   RecycleNetwork/EfficientNetLite/MBConvBlock           BatchNorm2d-59     [1, 480, 10, 10]             960             960
   RecycleNetwork/EfficientNetLite/MBConvBlock                 ReLU6-60     [1, 480, 10, 10]               0               0
   RecycleNetwork/EfficientNetLite/MBConvBlock                Conv2d-61     [1, 480, 10, 10]          12,000          12,000
   RecycleNetwork/EfficientNetLite/MBConvBlock           BatchNorm2d-62     [1, 480, 10, 10]             960             960
   RecycleNetwork/EfficientNetLite/MBConvBlock                Conv2d-63     [1, 112, 10, 10]          53,760          53,760
   RecycleNetwork/EfficientNetLite/MBConvBlock           BatchNorm2d-64     [1, 112, 10, 10]             224             224
   RecycleNetwork/EfficientNetLite/MBConvBlock                Conv2d-65     [1, 672, 10, 10]          75,264          75,264
   RecycleNetwork/EfficientNetLite/MBConvBlock           BatchNorm2d-66     [1, 672, 10, 10]           1,344           1,344
   RecycleNetwork/EfficientNetLite/MBConvBlock                 ReLU6-67     [1, 672, 10, 10]               0               0
   RecycleNetwork/EfficientNetLite/MBConvBlock                Conv2d-68     [1, 672, 10, 10]          16,800          16,800
   RecycleNetwork/EfficientNetLite/MBConvBlock           BatchNorm2d-69     [1, 672, 10, 10]           1,344           1,344
   RecycleNetwork/EfficientNetLite/MBConvBlock                Conv2d-70     [1, 112, 10, 10]          75,264          75,264
   RecycleNetwork/EfficientNetLite/MBConvBlock           BatchNorm2d-71     [1, 112, 10, 10]             224             224
   RecycleNetwork/EfficientNetLite/MBConvBlock                Conv2d-72     [1, 672, 10, 10]          75,264          75,264
   RecycleNetwork/EfficientNetLite/MBConvBlock           BatchNorm2d-73     [1, 672, 10, 10]           1,344           1,344
   RecycleNetwork/EfficientNetLite/MBConvBlock                 ReLU6-74     [1, 672, 10, 10]               0               0
   RecycleNetwork/EfficientNetLite/MBConvBlock                Conv2d-75     [1, 672, 10, 10]          16,800          16,800
   RecycleNetwork/EfficientNetLite/MBConvBlock           BatchNorm2d-76     [1, 672, 10, 10]           1,344           1,344
   RecycleNetwork/EfficientNetLite/MBConvBlock                Conv2d-77     [1, 112, 10, 10]          75,264          75,264
   RecycleNetwork/EfficientNetLite/MBConvBlock           BatchNorm2d-78     [1, 112, 10, 10]             224             224
   RecycleNetwork/EfficientNetLite/MBConvBlock                Conv2d-79     [1, 672, 10, 10]          75,264          75,264
   RecycleNetwork/EfficientNetLite/MBConvBlock           BatchNorm2d-80     [1, 672, 10, 10]           1,344           1,344
   RecycleNetwork/EfficientNetLite/MBConvBlock                 ReLU6-81     [1, 672, 10, 10]               0               0
   RecycleNetwork/EfficientNetLite/MBConvBlock                Conv2d-82       [1, 672, 5, 5]          16,800          16,800
   RecycleNetwork/EfficientNetLite/MBConvBlock           BatchNorm2d-83       [1, 672, 5, 5]           1,344           1,344
   RecycleNetwork/EfficientNetLite/MBConvBlock                Conv2d-84       [1, 192, 5, 5]         129,024         129,024
   RecycleNetwork/EfficientNetLite/MBConvBlock           BatchNorm2d-85       [1, 192, 5, 5]             384             384
   RecycleNetwork/EfficientNetLite/MBConvBlock                Conv2d-86      [1, 1152, 5, 5]         221,184         221,184
   RecycleNetwork/EfficientNetLite/MBConvBlock           BatchNorm2d-87      [1, 1152, 5, 5]           2,304           2,304
   RecycleNetwork/EfficientNetLite/MBConvBlock                 ReLU6-88      [1, 1152, 5, 5]               0               0
   RecycleNetwork/EfficientNetLite/MBConvBlock                Conv2d-89      [1, 1152, 5, 5]          28,800          28,800
   RecycleNetwork/EfficientNetLite/MBConvBlock           BatchNorm2d-90      [1, 1152, 5, 5]           2,304           2,304
   RecycleNetwork/EfficientNetLite/MBConvBlock                Conv2d-91       [1, 192, 5, 5]         221,184         221,184
   RecycleNetwork/EfficientNetLite/MBConvBlock           BatchNorm2d-92       [1, 192, 5, 5]             384             384
   RecycleNetwork/EfficientNetLite/MBConvBlock                Conv2d-93      [1, 1152, 5, 5]         221,184         221,184
   RecycleNetwork/EfficientNetLite/MBConvBlock           BatchNorm2d-94      [1, 1152, 5, 5]           2,304           2,304
   RecycleNetwork/EfficientNetLite/MBConvBlock                 ReLU6-95      [1, 1152, 5, 5]               0               0
   RecycleNetwork/EfficientNetLite/MBConvBlock                Conv2d-96      [1, 1152, 5, 5]          28,800          28,800
   RecycleNetwork/EfficientNetLite/MBConvBlock           BatchNorm2d-97      [1, 1152, 5, 5]           2,304           2,304
   RecycleNetwork/EfficientNetLite/MBConvBlock                Conv2d-98       [1, 192, 5, 5]         221,184         221,184
   RecycleNetwork/EfficientNetLite/MBConvBlock           BatchNorm2d-99       [1, 192, 5, 5]             384             384
   RecycleNetwork/EfficientNetLite/MBConvBlock               Conv2d-100      [1, 1152, 5, 5]         221,184         221,184
   RecycleNetwork/EfficientNetLite/MBConvBlock          BatchNorm2d-101      [1, 1152, 5, 5]           2,304           2,304
   RecycleNetwork/EfficientNetLite/MBConvBlock                ReLU6-102      [1, 1152, 5, 5]               0               0
   RecycleNetwork/EfficientNetLite/MBConvBlock               Conv2d-103      [1, 1152, 5, 5]          28,800          28,800
   RecycleNetwork/EfficientNetLite/MBConvBlock          BatchNorm2d-104      [1, 1152, 5, 5]           2,304           2,304
   RecycleNetwork/EfficientNetLite/MBConvBlock               Conv2d-105       [1, 192, 5, 5]         221,184         221,184
   RecycleNetwork/EfficientNetLite/MBConvBlock          BatchNorm2d-106       [1, 192, 5, 5]             384             384
   RecycleNetwork/EfficientNetLite/MBConvBlock               Conv2d-107      [1, 1152, 5, 5]         221,184         221,184
   RecycleNetwork/EfficientNetLite/MBConvBlock          BatchNorm2d-108      [1, 1152, 5, 5]           2,304           2,304
   RecycleNetwork/EfficientNetLite/MBConvBlock                ReLU6-109      [1, 1152, 5, 5]               0               0
   RecycleNetwork/EfficientNetLite/MBConvBlock               Conv2d-110      [1, 1152, 5, 5]          10,368          10,368
   RecycleNetwork/EfficientNetLite/MBConvBlock          BatchNorm2d-111      [1, 1152, 5, 5]           2,304           2,304
   RecycleNetwork/EfficientNetLite/MBConvBlock               Conv2d-112       [1, 320, 5, 5]         368,640         368,640
   RecycleNetwork/EfficientNetLite/MBConvBlock          BatchNorm2d-113       [1, 320, 5, 5]             640             640
               RecycleNetwork/EfficientNetLite               Conv2d-114      [1, 1280, 5, 5]         409,600         409,600
               RecycleNetwork/EfficientNetLite          BatchNorm2d-115      [1, 1280, 5, 5]           2,560           2,560
               RecycleNetwork/EfficientNetLite                ReLU6-116      [1, 1280, 5, 5]               0               0
               RecycleNetwork/EfficientNetLite    AdaptiveAvgPool2d-117      [1, 1280, 1, 1]               0               0
               RecycleNetwork/EfficientNetLite              Dropout-118            [1, 1280]               0               0
               RecycleNetwork/EfficientNetLite               Linear-119               [1, 5]           6,405           6,405
============================================================================================================================
Total params: 3,369,738
Trainable params: 3,369,738
Non-trainable params: 0
----------------------------------------------------------------------------------------------------------------------------
Ended Training Cycle
backbone.blocks.3.2._expand_conv
8

--------------------------------
…
        True, True, True, True, True, True, True, True, True, True, True, True,
        True, True, True, True, True, True, True, True])
torch.Size([80])
torch.Size([80])
Starting Training Cycle
----------------------------------------------------------------------------------------------------------------------------
                                 Parent Layers             Layer (type)         Output Shape         Param #     Tr. Param #
============================================================================================================================
               RecycleNetwork/EfficientNetLite                 Conv2d-1      [1, 27, 75, 75]             729             729
               RecycleNetwork/EfficientNetLite            BatchNorm2d-2      [1, 27, 75, 75]              54              54
               RecycleNetwork/EfficientNetLite                  ReLU6-3      [1, 27, 75, 75]               0               0
   RecycleNetwork/EfficientNetLite/MBConvBlock                 Conv2d-4      [1, 27, 75, 75]             243             243
   RecycleNetwork/EfficientNetLite/MBConvBlock            BatchNorm2d-5      [1, 27, 75, 75]              54              54
   RecycleNetwork/EfficientNetLite/MBConvBlock                  ReLU6-6      [1, 27, 75, 75]               0               0
   RecycleNetwork/EfficientNetLite/MBConvBlock                 Conv2d-7      [1, 16, 75, 75]             432             432
   RecycleNetwork/EfficientNetLite/MBConvBlock            BatchNorm2d-8      [1, 16, 75, 75]              32              32
   RecycleNetwork/EfficientNetLite/MBConvBlock                 Conv2d-9      [1, 91, 75, 75]           1,456           1,456
   RecycleNetwork/EfficientNetLite/MBConvBlock           BatchNorm2d-10      [1, 91, 75, 75]             182             182
   RecycleNetwork/EfficientNetLite/MBConvBlock                 ReLU6-11      [1, 91, 75, 75]               0               0
   RecycleNetwork/EfficientNetLite/MBConvBlock                Conv2d-12      [1, 91, 38, 38]             819             819
   RecycleNetwork/EfficientNetLite/MBConvBlock           BatchNorm2d-13      [1, 91, 38, 38]             182             182
   RecycleNetwork/EfficientNetLite/MBConvBlock                Conv2d-14      [1, 24, 38, 38]           2,184           2,184
   RecycleNetwork/EfficientNetLite/MBConvBlock           BatchNorm2d-15      [1, 24, 38, 38]              48              48
   RecycleNetwork/EfficientNetLite/MBConvBlock                Conv2d-16     [1, 139, 38, 38]           3,336           3,336
   RecycleNetwork/EfficientNetLite/MBConvBlock           BatchNorm2d-17     [1, 139, 38, 38]             278             278
   RecycleNetwork/EfficientNetLite/MBConvBlock                 ReLU6-18     [1, 139, 38, 38]               0               0
   RecycleNetwork/EfficientNetLite/MBConvBlock                Conv2d-19     [1, 139, 38, 38]           1,251           1,251
   RecycleNetwork/EfficientNetLite/MBConvBlock           BatchNorm2d-20     [1, 139, 38, 38]             278             278
   RecycleNetwork/EfficientNetLite/MBConvBlock                Conv2d-21      [1, 24, 38, 38]           3,336           3,336
   RecycleNetwork/EfficientNetLite/MBConvBlock           BatchNorm2d-22      [1, 24, 38, 38]              48              48
   RecycleNetwork/EfficientNetLite/MBConvBlock                Conv2d-23     [1, 141, 38, 38]           3,384           3,384
   RecycleNetwork/EfficientNetLite/MBConvBlock           BatchNorm2d-24     [1, 141, 38, 38]             282             282
   RecycleNetwork/EfficientNetLite/MBConvBlock                 ReLU6-25     [1, 141, 38, 38]               0               0
   RecycleNetwork/EfficientNetLite/MBConvBlock                Conv2d-26     [1, 141, 19, 19]           3,525           3,525
   RecycleNetwork/EfficientNetLite/MBConvBlock           BatchNorm2d-27     [1, 141, 19, 19]             282             282
   RecycleNetwork/EfficientNetLite/MBConvBlock                Conv2d-28      [1, 40, 19, 19]           5,640           5,640
   RecycleNetwork/EfficientNetLite/MBConvBlock           BatchNorm2d-29      [1, 40, 19, 19]              80              80
   RecycleNetwork/EfficientNetLite/MBConvBlock                Conv2d-30     [1, 230, 19, 19]           9,200           9,200
   RecycleNetwork/EfficientNetLite/MBConvBlock           BatchNorm2d-31     [1, 230, 19, 19]             460             460
   RecycleNetwork/EfficientNetLite/MBConvBlock                 ReLU6-32     [1, 230, 19, 19]               0               0
   RecycleNetwork/EfficientNetLite/MBConvBlock                Conv2d-33     [1, 230, 19, 19]           5,750           5,750
   RecycleNetwork/EfficientNetLite/MBConvBlock           BatchNorm2d-34     [1, 230, 19, 19]             460             460
   RecycleNetwork/EfficientNetLite/MBConvBlock                Conv2d-35      [1, 40, 19, 19]           9,200           9,200
   RecycleNetwork/EfficientNetLite/MBConvBlock           BatchNorm2d-36      [1, 40, 19, 19]              80              80
   RecycleNetwork/EfficientNetLite/MBConvBlock                Conv2d-37     [1, 238, 19, 19]           9,520           9,520
   RecycleNetwork/EfficientNetLite/MBConvBlock           BatchNorm2d-38     [1, 238, 19, 19]             476             476
   RecycleNetwork/EfficientNetLite/MBConvBlock                 ReLU6-39     [1, 238, 19, 19]               0               0
   RecycleNetwork/EfficientNetLite/MBConvBlock                Conv2d-40     [1, 238, 10, 10]           2,142           2,142
   RecycleNetwork/EfficientNetLite/MBConvBlock           BatchNorm2d-41     [1, 238, 10, 10]             476             476
   RecycleNetwork/EfficientNetLite/MBConvBlock                Conv2d-42      [1, 80, 10, 10]          19,040          19,040
   RecycleNetwork/EfficientNetLite/MBConvBlock           BatchNorm2d-43      [1, 80, 10, 10]             160             160
   RecycleNetwork/EfficientNetLite/MBConvBlock                Conv2d-44     [1, 450, 10, 10]          36,000          36,000
   RecycleNetwork/EfficientNetLite/MBConvBlock           BatchNorm2d-45     [1, 450, 10, 10]             900             900
   RecycleNetwork/EfficientNetLite/MBConvBlock                 ReLU6-46     [1, 450, 10, 10]               0               0
   RecycleNetwork/EfficientNetLite/MBConvBlock                Conv2d-47     [1, 450, 10, 10]           4,050           4,050
   RecycleNetwork/EfficientNetLite/MBConvBlock           BatchNorm2d-48     [1, 450, 10, 10]             900             900
   RecycleNetwork/EfficientNetLite/MBConvBlock                Conv2d-49      [1, 80, 10, 10]          36,000          36,000
   RecycleNetwork/EfficientNetLite/MBConvBlock           BatchNorm2d-50      [1, 80, 10, 10]             160             160
   RecycleNetwork/EfficientNetLite/MBConvBlock                Conv2d-51     [1, 438, 10, 10]          35,040          35,040
   RecycleNetwork/EfficientNetLite/MBConvBlock           BatchNorm2d-52     [1, 438, 10, 10]             876             876
   RecycleNetwork/EfficientNetLite/MBConvBlock                 ReLU6-53     [1, 438, 10, 10]               0               0
   RecycleNetwork/EfficientNetLite/MBConvBlock                Conv2d-54     [1, 438, 10, 10]           3,942           3,942
   RecycleNetwork/EfficientNetLite/MBConvBlock           BatchNorm2d-55     [1, 438, 10, 10]             876             876
   RecycleNetwork/EfficientNetLite/MBConvBlock                Conv2d-56      [1, 80, 10, 10]          35,040          35,040
   RecycleNetwork/EfficientNetLite/MBConvBlock           BatchNorm2d-57      [1, 80, 10, 10]             160             160
   RecycleNetwork/EfficientNetLite/MBConvBlock                Conv2d-58     [1, 480, 10, 10]          38,400          38,400
   RecycleNetwork/EfficientNetLite/MBConvBlock           BatchNorm2d-59     [1, 480, 10, 10]             960             960
   RecycleNetwork/EfficientNetLite/MBConvBlock                 ReLU6-60     [1, 480, 10, 10]               0               0
   RecycleNetwork/EfficientNetLite/MBConvBlock                Conv2d-61     [1, 480, 10, 10]          12,000          12,000
   RecycleNetwork/EfficientNetLite/MBConvBlock           BatchNorm2d-62     [1, 480, 10, 10]             960             960
   RecycleNetwork/EfficientNetLite/MBConvBlock                Conv2d-63     [1, 112, 10, 10]          53,760          53,760
   RecycleNetwork/EfficientNetLite/MBConvBlock           BatchNorm2d-64     [1, 112, 10, 10]             224             224
   RecycleNetwork/EfficientNetLite/MBConvBlock                Conv2d-65     [1, 672, 10, 10]          75,264          75,264
   RecycleNetwork/EfficientNetLite/MBConvBlock           BatchNorm2d-66     [1, 672, 10, 10]           1,344           1,344
   RecycleNetwork/EfficientNetLite/MBConvBlock                 ReLU6-67     [1, 672, 10, 10]               0               0
   RecycleNetwork/EfficientNetLite/MBConvBlock                Conv2d-68     [1, 672, 10, 10]          16,800          16,800
   RecycleNetwork/EfficientNetLite/MBConvBlock           BatchNorm2d-69     [1, 672, 10, 10]           1,344           1,344
   RecycleNetwork/EfficientNetLite/MBConvBlock                Conv2d-70     [1, 112, 10, 10]          75,264          75,264
   RecycleNetwork/EfficientNetLite/MBConvBlock           BatchNorm2d-71     [1, 112, 10, 10]             224             224
   RecycleNetwork/EfficientNetLite/MBConvBlock                Conv2d-72     [1, 672, 10, 10]          75,264          75,264
   RecycleNetwork/EfficientNetLite/MBConvBlock           BatchNorm2d-73     [1, 672, 10, 10]           1,344           1,344
   RecycleNetwork/EfficientNetLite/MBConvBlock                 ReLU6-74     [1, 672, 10, 10]               0               0
   RecycleNetwork/EfficientNetLite/MBConvBlock                Conv2d-75     [1, 672, 10, 10]          16,800          16,800
   RecycleNetwork/EfficientNetLite/MBConvBlock           BatchNorm2d-76     [1, 672, 10, 10]           1,344           1,344
   RecycleNetwork/EfficientNetLite/MBConvBlock                Conv2d-77     [1, 112, 10, 10]          75,264          75,264
   RecycleNetwork/EfficientNetLite/MBConvBlock           BatchNorm2d-78     [1, 112, 10, 10]             224             224
   RecycleNetwork/EfficientNetLite/MBConvBlock                Conv2d-79     [1, 672, 10, 10]          75,264          75,264
   RecycleNetwork/EfficientNetLite/MBConvBlock           BatchNorm2d-80     [1, 672, 10, 10]           1,344           1,344
   RecycleNetwork/EfficientNetLite/MBConvBlock                 ReLU6-81     [1, 672, 10, 10]               0               0
   RecycleNetwork/EfficientNetLite/MBConvBlock                Conv2d-82       [1, 672, 5, 5]          16,800          16,800
   RecycleNetwork/EfficientNetLite/MBConvBlock           BatchNorm2d-83       [1, 672, 5, 5]           1,344           1,344
   RecycleNetwork/EfficientNetLite/MBConvBlock                Conv2d-84       [1, 192, 5, 5]         129,024         129,024
   RecycleNetwork/EfficientNetLite/MBConvBlock           BatchNorm2d-85       [1, 192, 5, 5]             384             384
   RecycleNetwork/EfficientNetLite/MBConvBlock                Conv2d-86      [1, 1152, 5, 5]         221,184         221,184
   RecycleNetwork/EfficientNetLite/MBConvBlock           BatchNorm2d-87      [1, 1152, 5, 5]           2,304           2,304
   RecycleNetwork/EfficientNetLite/MBConvBlock                 ReLU6-88      [1, 1152, 5, 5]               0               0
   RecycleNetwork/EfficientNetLite/MBConvBlock                Conv2d-89      [1, 1152, 5, 5]          28,800          28,800
   RecycleNetwork/EfficientNetLite/MBConvBlock           BatchNorm2d-90      [1, 1152, 5, 5]           2,304           2,304
   RecycleNetwork/EfficientNetLite/MBConvBlock                Conv2d-91       [1, 192, 5, 5]         221,184         221,184
   RecycleNetwork/EfficientNetLite/MBConvBlock           BatchNorm2d-92       [1, 192, 5, 5]             384             384
   RecycleNetwork/EfficientNetLite/MBConvBlock                Conv2d-93      [1, 1152, 5, 5]         221,184         221,184
   RecycleNetwork/EfficientNetLite/MBConvBlock           BatchNorm2d-94      [1, 1152, 5, 5]           2,304           2,304
   RecycleNetwork/EfficientNetLite/MBConvBlock                 ReLU6-95      [1, 1152, 5, 5]               0               0
   RecycleNetwork/EfficientNetLite/MBConvBlock                Conv2d-96      [1, 1152, 5, 5]          28,800          28,800
   RecycleNetwork/EfficientNetLite/MBConvBlock           BatchNorm2d-97      [1, 1152, 5, 5]           2,304           2,304
   RecycleNetwork/EfficientNetLite/MBConvBlock                Conv2d-98       [1, 192, 5, 5]         221,184         221,184
   RecycleNetwork/EfficientNetLite/MBConvBlock           BatchNorm2d-99       [1, 192, 5, 5]             384             384
   RecycleNetwork/EfficientNetLite/MBConvBlock               Conv2d-100      [1, 1152, 5, 5]         221,184         221,184
   RecycleNetwork/EfficientNetLite/MBConvBlock          BatchNorm2d-101      [1, 1152, 5, 5]           2,304           2,304
   RecycleNetwork/EfficientNetLite/MBConvBlock                ReLU6-102      [1, 1152, 5, 5]               0               0
   RecycleNetwork/EfficientNetLite/MBConvBlock               Conv2d-103      [1, 1152, 5, 5]          28,800          28,800
   RecycleNetwork/EfficientNetLite/MBConvBlock          BatchNorm2d-104      [1, 1152, 5, 5]           2,304           2,304
   RecycleNetwork/EfficientNetLite/MBConvBlock               Conv2d-105       [1, 192, 5, 5]         221,184         221,184
   RecycleNetwork/EfficientNetLite/MBConvBlock          BatchNorm2d-106       [1, 192, 5, 5]             384             384
   RecycleNetwork/EfficientNetLite/MBConvBlock               Conv2d-107      [1, 1152, 5, 5]         221,184         221,184
   RecycleNetwork/EfficientNetLite/MBConvBlock          BatchNorm2d-108      [1, 1152, 5, 5]           2,304           2,304
   RecycleNetwork/EfficientNetLite/MBConvBlock                ReLU6-109      [1, 1152, 5, 5]               0               0
   RecycleNetwork/EfficientNetLite/MBConvBlock               Conv2d-110      [1, 1152, 5, 5]          10,368          10,368
   RecycleNetwork/EfficientNetLite/MBConvBlock          BatchNorm2d-111      [1, 1152, 5, 5]           2,304           2,304
   RecycleNetwork/EfficientNetLite/MBConvBlock               Conv2d-112       [1, 320, 5, 5]         368,640         368,640
   RecycleNetwork/EfficientNetLite/MBConvBlock          BatchNorm2d-113       [1, 320, 5, 5]             640             640
               RecycleNetwork/EfficientNetLite               Conv2d-114      [1, 1280, 5, 5]         409,600         409,600
               RecycleNetwork/EfficientNetLite          BatchNorm2d-115      [1, 1280, 5, 5]           2,560           2,560
               RecycleNetwork/EfficientNetLite                ReLU6-116      [1, 1280, 5, 5]               0               0
               RecycleNetwork/EfficientNetLite    AdaptiveAvgPool2d-117      [1, 1280, 1, 1]               0               0
               RecycleNetwork/EfficientNetLite              Dropout-118            [1, 1280]               0               0
               RecycleNetwork/EfficientNetLite               Linear-119               [1, 5]           6,405           6,405
============================================================================================================================
Total params: 3,362,472
Trainable params: 3,362,472
Non-trainable params: 0
----------------------------------------------------------------------------------------------------------------------------
Ended Training Cycle
backbone.blocks.4.0._expand_conv
2

--------------------------------
…
        True, True, True, True, True, True, True, True, True, True, True, True,
        True, True, True, True])
torch.Size([112])
torch.Size([112])
Starting Training Cycle
----------------------------------------------------------------------------------------------------------------------------
                                 Parent Layers             Layer (type)         Output Shape         Param #     Tr. Param #
============================================================================================================================
               RecycleNetwork/EfficientNetLite                 Conv2d-1      [1, 27, 75, 75]             729             729
               RecycleNetwork/EfficientNetLite            BatchNorm2d-2      [1, 27, 75, 75]              54              54
               RecycleNetwork/EfficientNetLite                  ReLU6-3      [1, 27, 75, 75]               0               0
   RecycleNetwork/EfficientNetLite/MBConvBlock                 Conv2d-4      [1, 27, 75, 75]             243             243
   RecycleNetwork/EfficientNetLite/MBConvBlock            BatchNorm2d-5      [1, 27, 75, 75]              54              54
   RecycleNetwork/EfficientNetLite/MBConvBlock                  ReLU6-6      [1, 27, 75, 75]               0               0
   RecycleNetwork/EfficientNetLite/MBConvBlock                 Conv2d-7      [1, 16, 75, 75]             432             432
   RecycleNetwork/EfficientNetLite/MBConvBlock            BatchNorm2d-8      [1, 16, 75, 75]              32              32
   RecycleNetwork/EfficientNetLite/MBConvBlock                 Conv2d-9      [1, 91, 75, 75]           1,456           1,456
   RecycleNetwork/EfficientNetLite/MBConvBlock           BatchNorm2d-10      [1, 91, 75, 75]             182             182
   RecycleNetwork/EfficientNetLite/MBConvBlock                 ReLU6-11      [1, 91, 75, 75]               0               0
   RecycleNetwork/EfficientNetLite/MBConvBlock                Conv2d-12      [1, 91, 38, 38]             819             819
   RecycleNetwork/EfficientNetLite/MBConvBlock           BatchNorm2d-13      [1, 91, 38, 38]             182             182
   RecycleNetwork/EfficientNetLite/MBConvBlock                Conv2d-14      [1, 24, 38, 38]           2,184           2,184
   RecycleNetwork/EfficientNetLite/MBConvBlock           BatchNorm2d-15      [1, 24, 38, 38]              48              48
   RecycleNetwork/EfficientNetLite/MBConvBlock                Conv2d-16     [1, 139, 38, 38]           3,336           3,336
   RecycleNetwork/EfficientNetLite/MBConvBlock           BatchNorm2d-17     [1, 139, 38, 38]             278             278
   RecycleNetwork/EfficientNetLite/MBConvBlock                 ReLU6-18     [1, 139, 38, 38]               0               0
   RecycleNetwork/EfficientNetLite/MBConvBlock                Conv2d-19     [1, 139, 38, 38]           1,251           1,251
   RecycleNetwork/EfficientNetLite/MBConvBlock           BatchNorm2d-20     [1, 139, 38, 38]             278             278
   RecycleNetwork/EfficientNetLite/MBConvBlock                Conv2d-21      [1, 24, 38, 38]           3,336           3,336
   RecycleNetwork/EfficientNetLite/MBConvBlock           BatchNorm2d-22      [1, 24, 38, 38]              48              48
   RecycleNetwork/EfficientNetLite/MBConvBlock                Conv2d-23     [1, 141, 38, 38]           3,384           3,384
   RecycleNetwork/EfficientNetLite/MBConvBlock           BatchNorm2d-24     [1, 141, 38, 38]             282             282
   RecycleNetwork/EfficientNetLite/MBConvBlock                 ReLU6-25     [1, 141, 38, 38]               0               0
   RecycleNetwork/EfficientNetLite/MBConvBlock                Conv2d-26     [1, 141, 19, 19]           3,525           3,525
   RecycleNetwork/EfficientNetLite/MBConvBlock           BatchNorm2d-27     [1, 141, 19, 19]             282             282
   RecycleNetwork/EfficientNetLite/MBConvBlock                Conv2d-28      [1, 40, 19, 19]           5,640           5,640
   RecycleNetwork/EfficientNetLite/MBConvBlock           BatchNorm2d-29      [1, 40, 19, 19]              80              80
   RecycleNetwork/EfficientNetLite/MBConvBlock                Conv2d-30     [1, 230, 19, 19]           9,200           9,200
   RecycleNetwork/EfficientNetLite/MBConvBlock           BatchNorm2d-31     [1, 230, 19, 19]             460             460
   RecycleNetwork/EfficientNetLite/MBConvBlock                 ReLU6-32     [1, 230, 19, 19]               0               0
   RecycleNetwork/EfficientNetLite/MBConvBlock                Conv2d-33     [1, 230, 19, 19]           5,750           5,750
   RecycleNetwork/EfficientNetLite/MBConvBlock           BatchNorm2d-34     [1, 230, 19, 19]             460             460
   RecycleNetwork/EfficientNetLite/MBConvBlock                Conv2d-35      [1, 40, 19, 19]           9,200           9,200
   RecycleNetwork/EfficientNetLite/MBConvBlock           BatchNorm2d-36      [1, 40, 19, 19]              80              80
   RecycleNetwork/EfficientNetLite/MBConvBlock                Conv2d-37     [1, 238, 19, 19]           9,520           9,520
   RecycleNetwork/EfficientNetLite/MBConvBlock           BatchNorm2d-38     [1, 238, 19, 19]             476             476
   RecycleNetwork/EfficientNetLite/MBConvBlock                 ReLU6-39     [1, 238, 19, 19]               0               0
   RecycleNetwork/EfficientNetLite/MBConvBlock                Conv2d-40     [1, 238, 10, 10]           2,142           2,142
   RecycleNetwork/EfficientNetLite/MBConvBlock           BatchNorm2d-41     [1, 238, 10, 10]             476             476
   RecycleNetwork/EfficientNetLite/MBConvBlock                Conv2d-42      [1, 80, 10, 10]          19,040          19,040
   RecycleNetwork/EfficientNetLite/MBConvBlock           BatchNorm2d-43      [1, 80, 10, 10]             160             160
   RecycleNetwork/EfficientNetLite/MBConvBlock                Conv2d-44     [1, 450, 10, 10]          36,000          36,000
   RecycleNetwork/EfficientNetLite/MBConvBlock           BatchNorm2d-45     [1, 450, 10, 10]             900             900
   RecycleNetwork/EfficientNetLite/MBConvBlock                 ReLU6-46     [1, 450, 10, 10]               0               0
   RecycleNetwork/EfficientNetLite/MBConvBlock                Conv2d-47     [1, 450, 10, 10]           4,050           4,050
   RecycleNetwork/EfficientNetLite/MBConvBlock           BatchNorm2d-48     [1, 450, 10, 10]             900             900
   RecycleNetwork/EfficientNetLite/MBConvBlock                Conv2d-49      [1, 80, 10, 10]          36,000          36,000
   RecycleNetwork/EfficientNetLite/MBConvBlock           BatchNorm2d-50      [1, 80, 10, 10]             160             160
   RecycleNetwork/EfficientNetLite/MBConvBlock                Conv2d-51     [1, 438, 10, 10]          35,040          35,040
   RecycleNetwork/EfficientNetLite/MBConvBlock           BatchNorm2d-52     [1, 438, 10, 10]             876             876
   RecycleNetwork/EfficientNetLite/MBConvBlock                 ReLU6-53     [1, 438, 10, 10]               0               0
   RecycleNetwork/EfficientNetLite/MBConvBlock                Conv2d-54     [1, 438, 10, 10]           3,942           3,942
   RecycleNetwork/EfficientNetLite/MBConvBlock           BatchNorm2d-55     [1, 438, 10, 10]             876             876
…
   RecycleNetwork/EfficientNetLite/MBConvBlock          BatchNorm2d-104      [1, 1152, 5, 5]           2,304           2,304
   RecycleNetwork/EfficientNetLite/MBConvBlock               Conv2d-105       [1, 192, 5, 5]         221,184         221,184
   RecycleNetwork/EfficientNetLite/MBConvBlock          BatchNorm2d-106       [1, 192, 5, 5]             384             384
   RecycleNetwork/EfficientNetLite/MBConvBlock               Conv2d-107      [1, 1152, 5, 5]         221,184         221,184
   RecycleNetwork/EfficientNetLite/MBConvBlock          BatchNorm2d-108      [1, 1152, 5, 5]           2,304           2,304
   RecycleNetwork/EfficientNetLite/MBConvBlock                ReLU6-109      [1, 1152, 5, 5]               0               0
   RecycleNetwork/EfficientNetLite/MBConvBlock               Conv2d-110      [1, 1152, 5, 5]          10,368          10,368
   RecycleNetwork/EfficientNetLite/MBConvBlock          BatchNorm2d-111      [1, 1152, 5, 5]           2,304           2,304
   RecycleNetwork/EfficientNetLite/MBConvBlock               Conv2d-112       [1, 320, 5, 5]         368,640         368,640
   RecycleNetwork/EfficientNetLite/MBConvBlock          BatchNorm2d-113       [1, 320, 5, 5]             640             640
               RecycleNetwork/EfficientNetLite               Conv2d-114      [1, 1280, 5, 5]         409,600         409,600
               RecycleNetwork/EfficientNetLite          BatchNorm2d-115      [1, 1280, 5, 5]           2,560           2,560
               RecycleNetwork/EfficientNetLite                ReLU6-116      [1, 1280, 5, 5]               0               0
               RecycleNetwork/EfficientNetLite    AdaptiveAvgPool2d-117      [1, 1280, 1, 1]               0               0
               RecycleNetwork/EfficientNetLite              Dropout-118            [1, 1280]               0               0
               RecycleNetwork/EfficientNetLite               Linear-119               [1, 5]           6,405           6,405
============================================================================================================================
Total params: 2,983,583
Trainable params: 2,983,583
Non-trainable params: 0
----------------------------------------------------------------------------------------------------------------------------
Ended Training Cycle
backbone.blocks.5.3._expand_conv
274
…
        True, True, True, True, True, True, True, True, True, True, True, True,
        True, True, True, True, True, True, True, True, True, True, True, True])
torch.Size([192])
torch.Size([192])
Starting Training Cycle
----------------------------------------------------------------------------------------------------------------------------
                                 Parent Layers             Layer (type)         Output Shape         Param #     Tr. Param #
============================================================================================================================
               RecycleNetwork/EfficientNetLite                 Conv2d-1      [1, 27, 75, 75]             729             729
               RecycleNetwork/EfficientNetLite            BatchNorm2d-2      [1, 27, 75, 75]              54              54
               RecycleNetwork/EfficientNetLite                  ReLU6-3      [1, 27, 75, 75]               0               0
   RecycleNetwork/EfficientNetLite/MBConvBlock                 Conv2d-4      [1, 27, 75, 75]             243             243
   RecycleNetwork/EfficientNetLite/MBConvBlock            BatchNorm2d-5      [1, 27, 75, 75]              54              54
   RecycleNetwork/EfficientNetLite/MBConvBlock                  ReLU6-6      [1, 27, 75, 75]               0               0
   RecycleNetwork/EfficientNetLite/MBConvBlock                 Conv2d-7      [1, 16, 75, 75]             432             432
   RecycleNetwork/EfficientNetLite/MBConvBlock            BatchNorm2d-8      [1, 16, 75, 75]              32              32
   RecycleNetwork/EfficientNetLite/MBConvBlock                 Conv2d-9      [1, 91, 75, 75]           1,456           1,456
   RecycleNetwork/EfficientNetLite/MBConvBlock           BatchNorm2d-10      [1, 91, 75, 75]             182             182
   RecycleNetwork/EfficientNetLite/MBConvBlock                 ReLU6-11      [1, 91, 75, 75]               0               0
   RecycleNetwork/EfficientNetLite/MBConvBlock                Conv2d-12      [1, 91, 38, 38]             819             819
   RecycleNetwork/EfficientNetLite/MBConvBlock           BatchNorm2d-13      [1, 91, 38, 38]             182             182
   RecycleNetwork/EfficientNetLite/MBConvBlock                Conv2d-14      [1, 24, 38, 38]           2,184           2,184
   RecycleNetwork/EfficientNetLite/MBConvBlock           BatchNorm2d-15      [1, 24, 38, 38]              48              48
   RecycleNetwork/EfficientNetLite/MBConvBlock                Conv2d-16     [1, 139, 38, 38]           3,336           3,336
   RecycleNetwork/EfficientNetLite/MBConvBlock           BatchNorm2d-17     [1, 139, 38, 38]             278             278
   RecycleNetwork/EfficientNetLite/MBConvBlock                 ReLU6-18     [1, 139, 38, 38]               0               0
   RecycleNetwork/EfficientNetLite/MBConvBlock                Conv2d-19     [1, 139, 38, 38]           1,251           1,251
   RecycleNetwork/EfficientNetLite/MBConvBlock           BatchNorm2d-20     [1, 139, 38, 38]             278             278
   RecycleNetwork/EfficientNetLite/MBConvBlock                Conv2d-21      [1, 24, 38, 38]           3,336           3,336
   RecycleNetwork/EfficientNetLite/MBConvBlock           BatchNorm2d-22      [1, 24, 38, 38]              48              48
   RecycleNetwork/EfficientNetLite/MBConvBlock                Conv2d-23     [1, 141, 38, 38]           3,384           3,384
   RecycleNetwork/EfficientNetLite/MBConvBlock           BatchNorm2d-24     [1, 141, 38, 38]             282             282
   RecycleNetwork/EfficientNetLite/MBConvBlock                 ReLU6-25     [1, 141, 38, 38]               0               0
   RecycleNetwork/EfficientNetLite/MBConvBlock                Conv2d-26     [1, 141, 19, 19]           3,525           3,525
   RecycleNetwork/EfficientNetLite/MBConvBlock           BatchNorm2d-27     [1, 141, 19, 19]             282             282
   RecycleNetwork/EfficientNetLite/MBConvBlock                Conv2d-28      [1, 40, 19, 19]           5,640           5,640
   RecycleNetwork/EfficientNetLite/MBConvBlock           BatchNorm2d-29      [1, 40, 19, 19]              80              80
   RecycleNetwork/EfficientNetLite/MBConvBlock                Conv2d-30     [1, 230, 19, 19]           9,200           9,200
   RecycleNetwork/EfficientNetLite/MBConvBlock           BatchNorm2d-31     [1, 230, 19, 19]             460             460
   RecycleNetwork/EfficientNetLite/MBConvBlock                 ReLU6-32     [1, 230, 19, 19]               0               0
   RecycleNetwork/EfficientNetLite/MBConvBlock                Conv2d-33     [1, 230, 19, 19]           5,750           5,750
   RecycleNetwork/EfficientNetLite/MBConvBlock           BatchNorm2d-34     [1, 230, 19, 19]             460             460
   RecycleNetwork/EfficientNetLite/MBConvBlock                Conv2d-35      [1, 40, 19, 19]           9,200           9,200
   RecycleNetwork/EfficientNetLite/MBConvBlock           BatchNorm2d-36      [1, 40, 19, 19]              80              80
   RecycleNetwork/EfficientNetLite/MBConvBlock                Conv2d-37     [1, 238, 19, 19]           9,520           9,520
   RecycleNetwork/EfficientNetLite/MBConvBlock           BatchNorm2d-38     [1, 238, 19, 19]             476             476
   RecycleNetwork/EfficientNetLite/MBConvBlock                 ReLU6-39     [1, 238, 19, 19]               0               0
   RecycleNetwork/EfficientNetLite/MBConvBlock                Conv2d-40     [1, 238, 10, 10]           2,142           2,142
   RecycleNetwork/EfficientNetLite/MBConvBlock           BatchNorm2d-41     [1, 238, 10, 10]             476             476
   RecycleNetwork/EfficientNetLite/MBConvBlock                Conv2d-42      [1, 80, 10, 10]          19,040          19,040
   RecycleNetwork/EfficientNetLite/MBConvBlock           BatchNorm2d-43      [1, 80, 10, 10]             160             160
   RecycleNetwork/EfficientNetLite/MBConvBlock                Conv2d-44     [1, 450, 10, 10]          36,000          36,000
   RecycleNetwork/EfficientNetLite/MBConvBlock           BatchNorm2d-45     [1, 450, 10, 10]             900             900
   RecycleNetwork/EfficientNetLite/MBConvBlock                 ReLU6-46     [1, 450, 10, 10]               0               0
   RecycleNetwork/EfficientNetLite/MBConvBlock                Conv2d-47     [1, 450, 10, 10]           4,050           4,050
   RecycleNetwork/EfficientNetLite/MBConvBlock           BatchNorm2d-48     [1, 450, 10, 10]             900             900
   RecycleNetwork/EfficientNetLite/MBConvBlock                Conv2d-49      [1, 80, 10, 10]          36,000          36,000
   RecycleNetwork/EfficientNetLite/MBConvBlock           BatchNorm2d-50      [1, 80, 10, 10]             160             160
   RecycleNetwork/EfficientNetLite/MBConvBlock                Conv2d-51     [1, 438, 10, 10]          35,040          35,040
   RecycleNetwork/EfficientNetLite/MBConvBlock           BatchNorm2d-52     [1, 438, 10, 10]             876             876
   RecycleNetwork/EfficientNetLite/MBConvBlock                 ReLU6-53     [1, 438, 10, 10]               0               0
   RecycleNetwork/EfficientNetLite/MBConvBlock                Conv2d-54     [1, 438, 10, 10]           3,942           3,942
   RecycleNetwork/EfficientNetLite/MBConvBlock           BatchNorm2d-55     [1, 438, 10, 10]             876             876
   RecycleNetwork/EfficientNetLite/MBConvBlock                Conv2d-56      [1, 80, 10, 10]          35,040          35,040
   RecycleNetwork/EfficientNetLite/MBConvBlock           BatchNorm2d-57      [1, 80, 10, 10]             160             160
   RecycleNetwork/EfficientNetLite/MBConvBlock                Conv2d-58     [1, 477, 10, 10]          38,160          38,160
   RecycleNetwork/EfficientNetLite/MBConvBlock           BatchNorm2d-59     [1, 477, 10, 10]             954             954
   RecycleNetwork/EfficientNetLite/MBConvBlock                 ReLU6-60     [1, 477, 10, 10]               0               0
   RecycleNetwork/EfficientNetLite/MBConvBlock                Conv2d-61     [1, 477, 10, 10]          11,925          11,925
   RecycleNetwork/EfficientNetLite/MBConvBlock           BatchNorm2d-62     [1, 477, 10, 10]             954             954
   RecycleNetwork/EfficientNetLite/MBConvBlock                Conv2d-63     [1, 112, 10, 10]          53,424          53,424
   RecycleNetwork/EfficientNetLite/MBConvBlock           BatchNorm2d-64     [1, 112, 10, 10]             224             224
   RecycleNetwork/EfficientNetLite/MBConvBlock                Conv2d-65     [1, 619, 10, 10]          69,328          69,328
   RecycleNetwork/EfficientNetLite/MBConvBlock           BatchNorm2d-66     [1, 619, 10, 10]           1,238           1,238
   RecycleNetwork/EfficientNetLite/MBConvBlock                 ReLU6-67     [1, 619, 10, 10]               0               0
   RecycleNetwork/EfficientNetLite/MBConvBlock                Conv2d-68     [1, 619, 10, 10]          15,475          15,475
   RecycleNetwork/EfficientNetLite/MBConvBlock           BatchNorm2d-69     [1, 619, 10, 10]           1,238           1,238
   RecycleNetwork/EfficientNetLite/MBConvBlock                Conv2d-70     [1, 112, 10, 10]          69,328          69,328
   RecycleNetwork/EfficientNetLite/MBConvBlock           BatchNorm2d-71     [1, 112, 10, 10]             224             224
   RecycleNetwork/EfficientNetLite/MBConvBlock                Conv2d-72     [1, 539, 10, 10]          60,368          60,368
   RecycleNetwork/EfficientNetLite/MBConvBlock           BatchNorm2d-73     [1, 539, 10, 10]           1,078           1,078
   RecycleNetwork/EfficientNetLite/MBConvBlock                 ReLU6-74     [1, 539, 10, 10]               0               0
   RecycleNetwork/EfficientNetLite/MBConvBlock                Conv2d-75     [1, 539, 10, 10]          13,475          13,475
   RecycleNetwork/EfficientNetLite/MBConvBlock           BatchNorm2d-76     [1, 539, 10, 10]           1,078           1,078
   RecycleNetwork/EfficientNetLite/MBConvBlock                Conv2d-77     [1, 112, 10, 10]          60,368          60,368
   RecycleNetwork/EfficientNetLite/MBConvBlock           BatchNorm2d-78     [1, 112, 10, 10]             224             224
   RecycleNetwork/EfficientNetLite/MBConvBlock                Conv2d-79     [1, 599, 10, 10]          67,088          67,088
   RecycleNetwork/EfficientNetLite/MBConvBlock           BatchNorm2d-80     [1, 599, 10, 10]           1,198           1,198
   RecycleNetwork/EfficientNetLite/MBConvBlock                 ReLU6-81     [1, 599, 10, 10]               0               0
   RecycleNetwork/EfficientNetLite/MBConvBlock                Conv2d-82       [1, 599, 5, 5]          14,975          14,975
   RecycleNetwork/EfficientNetLite/MBConvBlock           BatchNorm2d-83       [1, 599, 5, 5]           1,198           1,198
   RecycleNetwork/EfficientNetLite/MBConvBlock                Conv2d-84       [1, 192, 5, 5]         115,008         115,008
   RecycleNetwork/EfficientNetLite/MBConvBlock           BatchNorm2d-85       [1, 192, 5, 5]             384             384
   RecycleNetwork/EfficientNetLite/MBConvBlock                Conv2d-86       [1, 937, 5, 5]         179,904         179,904
   RecycleNetwork/EfficientNetLite/MBConvBlock           BatchNorm2d-87       [1, 937, 5, 5]           1,874           1,874
   RecycleNetwork/EfficientNetLite/MBConvBlock                 ReLU6-88       [1, 937, 5, 5]               0               0
   RecycleNetwork/EfficientNetLite/MBConvBlock                Conv2d-89       [1, 937, 5, 5]          23,425          23,425
   RecycleNetwork/EfficientNetLite/MBConvBlock           BatchNorm2d-90       [1, 937, 5, 5]           1,874           1,874
   RecycleNetwork/EfficientNetLite/MBConvBlock                Conv2d-91       [1, 192, 5, 5]         179,904         179,904
   RecycleNetwork/EfficientNetLite/MBConvBlock           BatchNorm2d-92       [1, 192, 5, 5]             384             384
   RecycleNetwork/EfficientNetLite/MBConvBlock                Conv2d-93       [1, 624, 5, 5]         119,808         119,808
   RecycleNetwork/EfficientNetLite/MBConvBlock           BatchNorm2d-94       [1, 624, 5, 5]           1,248           1,248
   RecycleNetwork/EfficientNetLite/MBConvBlock                 ReLU6-95       [1, 624, 5, 5]               0               0
   RecycleNetwork/EfficientNetLite/MBConvBlock                Conv2d-96       [1, 624, 5, 5]          15,600          15,600
   RecycleNetwork/EfficientNetLite/MBConvBlock           BatchNorm2d-97       [1, 624, 5, 5]           1,248           1,248
   RecycleNetwork/EfficientNetLite/MBConvBlock                Conv2d-98       [1, 192, 5, 5]         119,808         119,808
   RecycleNetwork/EfficientNetLite/MBConvBlock           BatchNorm2d-99       [1, 192, 5, 5]             384             384
   RecycleNetwork/EfficientNetLite/MBConvBlock               Conv2d-100       [1, 486, 5, 5]          93,312          93,312
   RecycleNetwork/EfficientNetLite/MBConvBlock          BatchNorm2d-101       [1, 486, 5, 5]             972             972
   RecycleNetwork/EfficientNetLite/MBConvBlock                ReLU6-102       [1, 486, 5, 5]               0               0
   RecycleNetwork/EfficientNetLite/MBConvBlock               Conv2d-103       [1, 486, 5, 5]          12,150          12,150
   RecycleNetwork/EfficientNetLite/MBConvBlock          BatchNorm2d-104       [1, 486, 5, 5]             972             972
   RecycleNetwork/EfficientNetLite/MBConvBlock               Conv2d-105       [1, 192, 5, 5]          93,312          93,312
   RecycleNetwork/EfficientNetLite/MBConvBlock          BatchNorm2d-106       [1, 192, 5, 5]             384             384
   RecycleNetwork/EfficientNetLite/MBConvBlock               Conv2d-107      [1, 1152, 5, 5]         221,184         221,184
   RecycleNetwork/EfficientNetLite/MBConvBlock          BatchNorm2d-108      [1, 1152, 5, 5]           2,304           2,304
   RecycleNetwork/EfficientNetLite/MBConvBlock                ReLU6-109      [1, 1152, 5, 5]               0               0
   RecycleNetwork/EfficientNetLite/MBConvBlock               Conv2d-110      [1, 1152, 5, 5]          10,368          10,368
   RecycleNetwork/EfficientNetLite/MBConvBlock          BatchNorm2d-111      [1, 1152, 5, 5]           2,304           2,304
   RecycleNetwork/EfficientNetLite/MBConvBlock               Conv2d-112       [1, 320, 5, 5]         368,640         368,640
   RecycleNetwork/EfficientNetLite/MBConvBlock          BatchNorm2d-113       [1, 320, 5, 5]             640             640
               RecycleNetwork/EfficientNetLite               Conv2d-114      [1, 1280, 5, 5]         409,600         409,600
               RecycleNetwork/EfficientNetLite          BatchNorm2d-115      [1, 1280, 5, 5]           2,560           2,560
               RecycleNetwork/EfficientNetLite                ReLU6-116      [1, 1280, 5, 5]               0               0
               RecycleNetwork/EfficientNetLite    AdaptiveAvgPool2d-117      [1, 1280, 1, 1]               0               0
               RecycleNetwork/EfficientNetLite              Dropout-118            [1, 1280]               0               0
               RecycleNetwork/EfficientNetLite               Linear-119               [1, 5]           6,405           6,405
============================================================================================================================
Total params: 2,708,525
Trainable params: 2,708,525
Non-trainable params: 0
----------------------------------------------------------------------------------------------------------------------------
Ended Training Cycle
backbone.blocks.6.0._expand_conv
211
…
        True, True, True, True, True, True, True, True, True, True, True, True,
        True, True, True, True, True, True, True, True])
torch.Size([320])
torch.Size([320])
Starting Training Cycle
----------------------------------------------------------------------------------------------------------------------------
                                 Parent Layers             Layer (type)         Output Shape         Param #     Tr. Param #
============================================================================================================================
               RecycleNetwork/EfficientNetLite                 Conv2d-1      [1, 27, 75, 75]             729             729
               RecycleNetwork/EfficientNetLite            BatchNorm2d-2      [1, 27, 75, 75]              54              54
               RecycleNetwork/EfficientNetLite                  ReLU6-3      [1, 27, 75, 75]               0               0
   RecycleNetwork/EfficientNetLite/MBConvBlock                 Conv2d-4      [1, 27, 75, 75]             243             243
   RecycleNetwork/EfficientNetLite/MBConvBlock            BatchNorm2d-5      [1, 27, 75, 75]              54              54
   RecycleNetwork/EfficientNetLite/MBConvBlock                  ReLU6-6      [1, 27, 75, 75]               0               0
   RecycleNetwork/EfficientNetLite/MBConvBlock                 Conv2d-7      [1, 16, 75, 75]             432             432
   RecycleNetwork/EfficientNetLite/MBConvBlock            BatchNorm2d-8      [1, 16, 75, 75]              32              32
   RecycleNetwork/EfficientNetLite/MBConvBlock                 Conv2d-9      [1, 91, 75, 75]           1,456           1,456
   RecycleNetwork/EfficientNetLite/MBConvBlock           BatchNorm2d-10      [1, 91, 75, 75]             182             182
   RecycleNetwork/EfficientNetLite/MBConvBlock                 ReLU6-11      [1, 91, 75, 75]               0               0
   RecycleNetwork/EfficientNetLite/MBConvBlock                Conv2d-12      [1, 91, 38, 38]             819             819
   RecycleNetwork/EfficientNetLite/MBConvBlock           BatchNorm2d-13      [1, 91, 38, 38]             182             182
   RecycleNetwork/EfficientNetLite/MBConvBlock                Conv2d-14      [1, 24, 38, 38]           2,184           2,184
   RecycleNetwork/EfficientNetLite/MBConvBlock           BatchNorm2d-15      [1, 24, 38, 38]              48              48
   RecycleNetwork/EfficientNetLite/MBConvBlock                Conv2d-16     [1, 139, 38, 38]           3,336           3,336
   RecycleNetwork/EfficientNetLite/MBConvBlock           BatchNorm2d-17     [1, 139, 38, 38]             278             278
   RecycleNetwork/EfficientNetLite/MBConvBlock                 ReLU6-18     [1, 139, 38, 38]               0               0
   RecycleNetwork/EfficientNetLite/MBConvBlock                Conv2d-19     [1, 139, 38, 38]           1,251           1,251
   RecycleNetwork/EfficientNetLite/MBConvBlock           BatchNorm2d-20     [1, 139, 38, 38]             278             278
   RecycleNetwork/EfficientNetLite/MBConvBlock                Conv2d-21      [1, 24, 38, 38]           3,336           3,336
   RecycleNetwork/EfficientNetLite/MBConvBlock           BatchNorm2d-22      [1, 24, 38, 38]              48              48
   RecycleNetwork/EfficientNetLite/MBConvBlock                Conv2d-23     [1, 141, 38, 38]           3,384           3,384
   RecycleNetwork/EfficientNetLite/MBConvBlock           BatchNorm2d-24     [1, 141, 38, 38]             282             282
   RecycleNetwork/EfficientNetLite/MBConvBlock                 ReLU6-25     [1, 141, 38, 38]               0               0
   RecycleNetwork/EfficientNetLite/MBConvBlock                Conv2d-26     [1, 141, 19, 19]           3,525           3,525
   RecycleNetwork/EfficientNetLite/MBConvBlock           BatchNorm2d-27     [1, 141, 19, 19]             282             282
   RecycleNetwork/EfficientNetLite/MBConvBlock                Conv2d-28      [1, 40, 19, 19]           5,640           5,640
   RecycleNetwork/EfficientNetLite/MBConvBlock           BatchNorm2d-29      [1, 40, 19, 19]              80              80
   RecycleNetwork/EfficientNetLite/MBConvBlock                Conv2d-30     [1, 230, 19, 19]           9,200           9,200
   RecycleNetwork/EfficientNetLite/MBConvBlock           BatchNorm2d-31     [1, 230, 19, 19]             460             460
   RecycleNetwork/EfficientNetLite/MBConvBlock                 ReLU6-32     [1, 230, 19, 19]               0               0
   RecycleNetwork/EfficientNetLite/MBConvBlock                Conv2d-33     [1, 230, 19, 19]           5,750           5,750
   RecycleNetwork/EfficientNetLite/MBConvBlock           BatchNorm2d-34     [1, 230, 19, 19]             460             460
   RecycleNetwork/EfficientNetLite/MBConvBlock                Conv2d-35      [1, 40, 19, 19]           9,200           9,200
   RecycleNetwork/EfficientNetLite/MBConvBlock           BatchNorm2d-36      [1, 40, 19, 19]              80              80
   RecycleNetwork/EfficientNetLite/MBConvBlock                Conv2d-37     [1, 238, 19, 19]           9,520           9,520
   RecycleNetwork/EfficientNetLite/MBConvBlock           BatchNorm2d-38     [1, 238, 19, 19]             476             476
   RecycleNetwork/EfficientNetLite/MBConvBlock                 ReLU6-39     [1, 238, 19, 19]               0               0
   RecycleNetwork/EfficientNetLite/MBConvBlock                Conv2d-40     [1, 238, 10, 10]           2,142           2,142
   RecycleNetwork/EfficientNetLite/MBConvBlock           BatchNorm2d-41     [1, 238, 10, 10]             476             476
   RecycleNetwork/EfficientNetLite/MBConvBlock                Conv2d-42      [1, 80, 10, 10]          19,040          19,040
   RecycleNetwork/EfficientNetLite/MBConvBlock           BatchNorm2d-43      [1, 80, 10, 10]             160             160
   RecycleNetwork/EfficientNetLite/MBConvBlock                Conv2d-44     [1, 450, 10, 10]          36,000          36,000
   RecycleNetwork/EfficientNetLite/MBConvBlock           BatchNorm2d-45     [1, 450, 10, 10]             900             900
   RecycleNetwork/EfficientNetLite/MBConvBlock                 ReLU6-46     [1, 450, 10, 10]               0               0
   RecycleNetwork/EfficientNetLite/MBConvBlock                Conv2d-47     [1, 450, 10, 10]           4,050           4,050
   RecycleNetwork/EfficientNetLite/MBConvBlock           BatchNorm2d-48     [1, 450, 10, 10]             900             900
   RecycleNetwork/EfficientNetLite/MBConvBlock                Conv2d-49      [1, 80, 10, 10]          36,000          36,000
   RecycleNetwork/EfficientNetLite/MBConvBlock           BatchNorm2d-50      [1, 80, 10, 10]             160             160
   RecycleNetwork/EfficientNetLite/MBConvBlock                Conv2d-51     [1, 438, 10, 10]          35,040          35,040
   RecycleNetwork/EfficientNetLite/MBConvBlock           BatchNorm2d-52     [1, 438, 10, 10]             876             876
   RecycleNetwork/EfficientNetLite/MBConvBlock                 ReLU6-53     [1, 438, 10, 10]               0               0
   RecycleNetwork/EfficientNetLite/MBConvBlock                Conv2d-54     [1, 438, 10, 10]           3,942           3,942
   RecycleNetwork/EfficientNetLite/MBConvBlock           BatchNorm2d-55     [1, 438, 10, 10]             876             876
   RecycleNetwork/EfficientNetLite/MBConvBlock                Conv2d-56      [1, 80, 10, 10]          35,040          35,040
   RecycleNetwork/EfficientNetLite/MBConvBlock           BatchNorm2d-57      [1, 80, 10, 10]             160             160
   RecycleNetwork/EfficientNetLite/MBConvBlock                Conv2d-58     [1, 477, 10, 10]          38,160          38,160
   RecycleNetwork/EfficientNetLite/MBConvBlock           BatchNorm2d-59     [1, 477, 10, 10]             954             954
   RecycleNetwork/EfficientNetLite/MBConvBlock                 ReLU6-60     [1, 477, 10, 10]               0               0
   RecycleNetwork/EfficientNetLite/MBConvBlock                Conv2d-61     [1, 477, 10, 10]          11,925          11,925
   RecycleNetwork/EfficientNetLite/MBConvBlock           BatchNorm2d-62     [1, 477, 10, 10]             954             954
   RecycleNetwork/EfficientNetLite/MBConvBlock                Conv2d-63     [1, 112, 10, 10]          53,424          53,424
   RecycleNetwork/EfficientNetLite/MBConvBlock           BatchNorm2d-64     [1, 112, 10, 10]             224             224
   RecycleNetwork/EfficientNetLite/MBConvBlock                Conv2d-65     [1, 619, 10, 10]          69,328          69,328
   RecycleNetwork/EfficientNetLite/MBConvBlock           BatchNorm2d-66     [1, 619, 10, 10]           1,238           1,238
   RecycleNetwork/EfficientNetLite/MBConvBlock                 ReLU6-67     [1, 619, 10, 10]               0               0
   RecycleNetwork/EfficientNetLite/MBConvBlock                Conv2d-68     [1, 619, 10, 10]          15,475          15,475
   RecycleNetwork/EfficientNetLite/MBConvBlock           BatchNorm2d-69     [1, 619, 10, 10]           1,238           1,238
   RecycleNetwork/EfficientNetLite/MBConvBlock                Conv2d-70     [1, 112, 10, 10]          69,328          69,328
   RecycleNetwork/EfficientNetLite/MBConvBlock           BatchNorm2d-71     [1, 112, 10, 10]             224             224
   RecycleNetwork/EfficientNetLite/MBConvBlock                Conv2d-72     [1, 539, 10, 10]          60,368          60,368
   RecycleNetwork/EfficientNetLite/MBConvBlock           BatchNorm2d-73     [1, 539, 10, 10]           1,078           1,078
   RecycleNetwork/EfficientNetLite/MBConvBlock                 ReLU6-74     [1, 539, 10, 10]               0               0
   RecycleNetwork/EfficientNetLite/MBConvBlock                Conv2d-75     [1, 539, 10, 10]          13,475          13,475
   RecycleNetwork/EfficientNetLite/MBConvBlock           BatchNorm2d-76     [1, 539, 10, 10]           1,078           1,078
   RecycleNetwork/EfficientNetLite/MBConvBlock                Conv2d-77     [1, 112, 10, 10]          60,368          60,368
   RecycleNetwork/EfficientNetLite/MBConvBlock           BatchNorm2d-78     [1, 112, 10, 10]             224             224
   RecycleNetwork/EfficientNetLite/MBConvBlock                Conv2d-79     [1, 599, 10, 10]          67,088          67,088
   RecycleNetwork/EfficientNetLite/MBConvBlock           BatchNorm2d-80     [1, 599, 10, 10]           1,198           1,198
   RecycleNetwork/EfficientNetLite/MBConvBlock                 ReLU6-81     [1, 599, 10, 10]               0               0
   RecycleNetwork/EfficientNetLite/MBConvBlock                Conv2d-82       [1, 599, 5, 5]          14,975          14,975
   RecycleNetwork/EfficientNetLite/MBConvBlock           BatchNorm2d-83       [1, 599, 5, 5]           1,198           1,198
   RecycleNetwork/EfficientNetLite/MBConvBlock                Conv2d-84       [1, 192, 5, 5]         115,008         115,008
   RecycleNetwork/EfficientNetLite/MBConvBlock           BatchNorm2d-85       [1, 192, 5, 5]             384             384
   RecycleNetwork/EfficientNetLite/MBConvBlock                Conv2d-86       [1, 937, 5, 5]         179,904         179,904
   RecycleNetwork/EfficientNetLite/MBConvBlock           BatchNorm2d-87       [1, 937, 5, 5]           1,874           1,874
   RecycleNetwork/EfficientNetLite/MBConvBlock                 ReLU6-88       [1, 937, 5, 5]               0               0
   RecycleNetwork/EfficientNetLite/MBConvBlock                Conv2d-89       [1, 937, 5, 5]          23,425          23,425
   RecycleNetwork/EfficientNetLite/MBConvBlock           BatchNorm2d-90       [1, 937, 5, 5]           1,874           1,874
   RecycleNetwork/EfficientNetLite/MBConvBlock                Conv2d-91       [1, 192, 5, 5]         179,904         179,904
   RecycleNetwork/EfficientNetLite/MBConvBlock           BatchNorm2d-92       [1, 192, 5, 5]             384             384
   RecycleNetwork/EfficientNetLite/MBConvBlock                Conv2d-93       [1, 624, 5, 5]         119,808         119,808
   RecycleNetwork/EfficientNetLite/MBConvBlock           BatchNorm2d-94       [1, 624, 5, 5]           1,248           1,248
   RecycleNetwork/EfficientNetLite/MBConvBlock                 ReLU6-95       [1, 624, 5, 5]               0               0
   RecycleNetwork/EfficientNetLite/MBConvBlock                Conv2d-96       [1, 624, 5, 5]          15,600          15,600
   RecycleNetwork/EfficientNetLite/MBConvBlock           BatchNorm2d-97       [1, 624, 5, 5]           1,248           1,248
   RecycleNetwork/EfficientNetLite/MBConvBlock                Conv2d-98       [1, 192, 5, 5]         119,808         119,808
   RecycleNetwork/EfficientNetLite/MBConvBlock           BatchNorm2d-99       [1, 192, 5, 5]             384             384
   RecycleNetwork/EfficientNetLite/MBConvBlock               Conv2d-100       [1, 486, 5, 5]          93,312          93,312
   RecycleNetwork/EfficientNetLite/MBConvBlock          BatchNorm2d-101       [1, 486, 5, 5]             972             972
   RecycleNetwork/EfficientNetLite/MBConvBlock                ReLU6-102       [1, 486, 5, 5]               0               0
   RecycleNetwork/EfficientNetLite/MBConvBlock               Conv2d-103       [1, 486, 5, 5]          12,150          12,150
   RecycleNetwork/EfficientNetLite/MBConvBlock          BatchNorm2d-104       [1, 486, 5, 5]             972             972
   RecycleNetwork/EfficientNetLite/MBConvBlock               Conv2d-105       [1, 192, 5, 5]          93,312          93,312
   RecycleNetwork/EfficientNetLite/MBConvBlock          BatchNorm2d-106       [1, 192, 5, 5]             384             384
   RecycleNetwork/EfficientNetLite/MBConvBlock               Conv2d-107       [1, 868, 5, 5]         166,656         166,656
   RecycleNetwork/EfficientNetLite/MBConvBlock          BatchNorm2d-108       [1, 868, 5, 5]           1,736           1,736
   RecycleNetwork/EfficientNetLite/MBConvBlock                ReLU6-109       [1, 868, 5, 5]               0               0
   RecycleNetwork/EfficientNetLite/MBConvBlock               Conv2d-110       [1, 868, 5, 5]           7,812           7,812
   RecycleNetwork/EfficientNetLite/MBConvBlock          BatchNorm2d-111       [1, 868, 5, 5]           1,736           1,736
   RecycleNetwork/EfficientNetLite/MBConvBlock               Conv2d-112       [1, 320, 5, 5]         277,760         277,760
   RecycleNetwork/EfficientNetLite/MBConvBlock          BatchNorm2d-113       [1, 320, 5, 5]             640             640
               RecycleNetwork/EfficientNetLite               Conv2d-114      [1, 1280, 5, 5]         409,600         409,600
               RecycleNetwork/EfficientNetLite          BatchNorm2d-115      [1, 1280, 5, 5]           2,560           2,560
               RecycleNetwork/EfficientNetLite                ReLU6-116      [1, 1280, 5, 5]               0               0
               RecycleNetwork/EfficientNetLite    AdaptiveAvgPool2d-117      [1, 1280, 1, 1]               0               0
               RecycleNetwork/EfficientNetLite              Dropout-118            [1, 1280]               0               0
               RecycleNetwork/EfficientNetLite               Linear-119               [1, 5]           6,405           6,405
============================================================================================================================
Total params: 2,559,425
Trainable params: 2,559,425
Non-trainable params: 0
----------------------------------------------------------------------------------------------------------------------------
Ended Training Cycle
backbone.head.0
12

--------------------------------
…
<bound method ConvPruner.prune_out_channels of <torch_pruning.pruner.function.ConvPruner object at 0x7fb05250d960>>
backbone.head.0
0
tensor([True, True, True,  ..., True, True, True])
torch.Size([1280])
torch.Size([1268])
2069
----------------------------------------------------------------------------------------------------------------------------
                                 Parent Layers             Layer (type)         Output Shape         Param #     Tr. Param #
============================================================================================================================
               RecycleNetwork/EfficientNetLite                 Conv2d-1      [1, 27, 75, 75]             729             729
               RecycleNetwork/EfficientNetLite            BatchNorm2d-2      [1, 27, 75, 75]              54              54
               RecycleNetwork/EfficientNetLite                  ReLU6-3      [1, 27, 75, 75]               0               0
   RecycleNetwork/EfficientNetLite/MBConvBlock                 Conv2d-4      [1, 27, 75, 75]             243             243
   RecycleNetwork/EfficientNetLite/MBConvBlock            BatchNorm2d-5      [1, 27, 75, 75]              54              54
   RecycleNetwork/EfficientNetLite/MBConvBlock                  ReLU6-6      [1, 27, 75, 75]               0               0
   RecycleNetwork/EfficientNetLite/MBConvBlock                 Conv2d-7      [1, 16, 75, 75]             432             432
   RecycleNetwork/EfficientNetLite/MBConvBlock            BatchNorm2d-8      [1, 16, 75, 75]              32              32
   RecycleNetwork/EfficientNetLite/MBConvBlock                 Conv2d-9      [1, 91, 75, 75]           1,456           1,456
   RecycleNetwork/EfficientNetLite/MBConvBlock           BatchNorm2d-10      [1, 91, 75, 75]             182             182
   RecycleNetwork/EfficientNetLite/MBConvBlock                 ReLU6-11      [1, 91, 75, 75]               0               0
   RecycleNetwork/EfficientNetLite/MBConvBlock                Conv2d-12      [1, 91, 38, 38]             819             819
   RecycleNetwork/EfficientNetLite/MBConvBlock           BatchNorm2d-13      [1, 91, 38, 38]             182             182
   RecycleNetwork/EfficientNetLite/MBConvBlock                Conv2d-14      [1, 24, 38, 38]           2,184           2,184
   RecycleNetwork/EfficientNetLite/MBConvBlock           BatchNorm2d-15      [1, 24, 38, 38]              48              48
   RecycleNetwork/EfficientNetLite/MBConvBlock                Conv2d-16     [1, 139, 38, 38]           3,336           3,336
   RecycleNetwork/EfficientNetLite/MBConvBlock           BatchNorm2d-17     [1, 139, 38, 38]             278             278
   RecycleNetwork/EfficientNetLite/MBConvBlock                 ReLU6-18     [1, 139, 38, 38]               0               0
   RecycleNetwork/EfficientNetLite/MBConvBlock                Conv2d-19     [1, 139, 38, 38]           1,251           1,251
   RecycleNetwork/EfficientNetLite/MBConvBlock           BatchNorm2d-20     [1, 139, 38, 38]             278             278
   RecycleNetwork/EfficientNetLite/MBConvBlock                Conv2d-21      [1, 24, 38, 38]           3,336           3,336
   RecycleNetwork/EfficientNetLite/MBConvBlock           BatchNorm2d-22      [1, 24, 38, 38]              48              48
   RecycleNetwork/EfficientNetLite/MBConvBlock                Conv2d-23     [1, 141, 38, 38]           3,384           3,384
   RecycleNetwork/EfficientNetLite/MBConvBlock           BatchNorm2d-24     [1, 141, 38, 38]             282             282
   RecycleNetwork/EfficientNetLite/MBConvBlock                 ReLU6-25     [1, 141, 38, 38]               0               0
   RecycleNetwork/EfficientNetLite/MBConvBlock                Conv2d-26     [1, 141, 19, 19]           3,525           3,525
   RecycleNetwork/EfficientNetLite/MBConvBlock           BatchNorm2d-27     [1, 141, 19, 19]             282             282
   RecycleNetwork/EfficientNetLite/MBConvBlock                Conv2d-28      [1, 40, 19, 19]           5,640           5,640
   RecycleNetwork/EfficientNetLite/MBConvBlock           BatchNorm2d-29      [1, 40, 19, 19]              80              80
   RecycleNetwork/EfficientNetLite/MBConvBlock                Conv2d-30     [1, 230, 19, 19]           9,200           9,200
   RecycleNetwork/EfficientNetLite/MBConvBlock           BatchNorm2d-31     [1, 230, 19, 19]             460             460
   RecycleNetwork/EfficientNetLite/MBConvBlock                 ReLU6-32     [1, 230, 19, 19]               0               0
   RecycleNetwork/EfficientNetLite/MBConvBlock                Conv2d-33     [1, 230, 19, 19]           5,750           5,750
   RecycleNetwork/EfficientNetLite/MBConvBlock           BatchNorm2d-34     [1, 230, 19, 19]             460             460
   RecycleNetwork/EfficientNetLite/MBConvBlock                Conv2d-35      [1, 40, 19, 19]           9,200           9,200
   RecycleNetwork/EfficientNetLite/MBConvBlock           BatchNorm2d-36      [1, 40, 19, 19]              80              80
   RecycleNetwork/EfficientNetLite/MBConvBlock                Conv2d-37     [1, 238, 19, 19]           9,520           9,520
   RecycleNetwork/EfficientNetLite/MBConvBlock           BatchNorm2d-38     [1, 238, 19, 19]             476             476
   RecycleNetwork/EfficientNetLite/MBConvBlock                 ReLU6-39     [1, 238, 19, 19]               0               0
   RecycleNetwork/EfficientNetLite/MBConvBlock                Conv2d-40     [1, 238, 10, 10]           2,142           2,142
   RecycleNetwork/EfficientNetLite/MBConvBlock           BatchNorm2d-41     [1, 238, 10, 10]             476             476
   RecycleNetwork/EfficientNetLite/MBConvBlock                Conv2d-42      [1, 80, 10, 10]          19,040          19,040
   RecycleNetwork/EfficientNetLite/MBConvBlock           BatchNorm2d-43      [1, 80, 10, 10]             160             160
   RecycleNetwork/EfficientNetLite/MBConvBlock                Conv2d-44     [1, 450, 10, 10]          36,000          36,000
   RecycleNetwork/EfficientNetLite/MBConvBlock           BatchNorm2d-45     [1, 450, 10, 10]             900             900
   RecycleNetwork/EfficientNetLite/MBConvBlock                 ReLU6-46     [1, 450, 10, 10]               0               0
   RecycleNetwork/EfficientNetLite/MBConvBlock                Conv2d-47     [1, 450, 10, 10]           4,050           4,050
   RecycleNetwork/EfficientNetLite/MBConvBlock           BatchNorm2d-48     [1, 450, 10, 10]             900             900
   RecycleNetwork/EfficientNetLite/MBConvBlock                Conv2d-49      [1, 80, 10, 10]          36,000          36,000
   RecycleNetwork/EfficientNetLite/MBConvBlock           BatchNorm2d-50      [1, 80, 10, 10]             160             160
   RecycleNetwork/EfficientNetLite/MBConvBlock                Conv2d-51     [1, 438, 10, 10]          35,040          35,040
   RecycleNetwork/EfficientNetLite/MBConvBlock           BatchNorm2d-52     [1, 438, 10, 10]             876             876
   RecycleNetwork/EfficientNetLite/MBConvBlock                 ReLU6-53     [1, 438, 10, 10]               0               0
   RecycleNetwork/EfficientNetLite/MBConvBlock                Conv2d-54     [1, 438, 10, 10]           3,942           3,942
   RecycleNetwork/EfficientNetLite/MBConvBlock           BatchNorm2d-55     [1, 438, 10, 10]             876             876
   RecycleNetwork/EfficientNetLite/MBConvBlock                Conv2d-56      [1, 80, 10, 10]          35,040          35,040
   RecycleNetwork/EfficientNetLite/MBConvBlock           BatchNorm2d-57      [1, 80, 10, 10]             160             160
   RecycleNetwork/EfficientNetLite/MBConvBlock                Conv2d-58     [1, 477, 10, 10]          38,160          38,160
   RecycleNetwork/EfficientNetLite/MBConvBlock           BatchNorm2d-59     [1, 477, 10, 10]             954             954
   RecycleNetwork/EfficientNetLite/MBConvBlock                 ReLU6-60     [1, 477, 10, 10]               0               0
   RecycleNetwork/EfficientNetLite/MBConvBlock                Conv2d-61     [1, 477, 10, 10]          11,925          11,925
   RecycleNetwork/EfficientNetLite/MBConvBlock           BatchNorm2d-62     [1, 477, 10, 10]             954             954
   RecycleNetwork/EfficientNetLite/MBConvBlock                Conv2d-63     [1, 112, 10, 10]          53,424          53,424
   RecycleNetwork/EfficientNetLite/MBConvBlock           BatchNorm2d-64     [1, 112, 10, 10]             224             224
   RecycleNetwork/EfficientNetLite/MBConvBlock                Conv2d-65     [1, 619, 10, 10]          69,328          69,328
   RecycleNetwork/EfficientNetLite/MBConvBlock           BatchNorm2d-66     [1, 619, 10, 10]           1,238           1,238
   RecycleNetwork/EfficientNetLite/MBConvBlock                 ReLU6-67     [1, 619, 10, 10]               0               0
   RecycleNetwork/EfficientNetLite/MBConvBlock                Conv2d-68     [1, 619, 10, 10]          15,475          15,475
   RecycleNetwork/EfficientNetLite/MBConvBlock           BatchNorm2d-69     [1, 619, 10, 10]           1,238           1,238
   RecycleNetwork/EfficientNetLite/MBConvBlock                Conv2d-70     [1, 112, 10, 10]          69,328          69,328
   RecycleNetwork/EfficientNetLite/MBConvBlock           BatchNorm2d-71     [1, 112, 10, 10]             224             224
   RecycleNetwork/EfficientNetLite/MBConvBlock                Conv2d-72     [1, 539, 10, 10]          60,368          60,368
   RecycleNetwork/EfficientNetLite/MBConvBlock           BatchNorm2d-73     [1, 539, 10, 10]           1,078           1,078
   RecycleNetwork/EfficientNetLite/MBConvBlock                 ReLU6-74     [1, 539, 10, 10]               0               0
   RecycleNetwork/EfficientNetLite/MBConvBlock                Conv2d-75     [1, 539, 10, 10]          13,475          13,475
   RecycleNetwork/EfficientNetLite/MBConvBlock           BatchNorm2d-76     [1, 539, 10, 10]           1,078           1,078
   RecycleNetwork/EfficientNetLite/MBConvBlock                Conv2d-77     [1, 112, 10, 10]          60,368          60,368
   RecycleNetwork/EfficientNetLite/MBConvBlock           BatchNorm2d-78     [1, 112, 10, 10]             224             224
   RecycleNetwork/EfficientNetLite/MBConvBlock                Conv2d-79     [1, 599, 10, 10]          67,088          67,088
   RecycleNetwork/EfficientNetLite/MBConvBlock           BatchNorm2d-80     [1, 599, 10, 10]           1,198           1,198
   RecycleNetwork/EfficientNetLite/MBConvBlock                 ReLU6-81     [1, 599, 10, 10]               0               0
   RecycleNetwork/EfficientNetLite/MBConvBlock                Conv2d-82       [1, 599, 5, 5]          14,975          14,975
   RecycleNetwork/EfficientNetLite/MBConvBlock           BatchNorm2d-83       [1, 599, 5, 5]           1,198           1,198
   RecycleNetwork/EfficientNetLite/MBConvBlock                Conv2d-84       [1, 192, 5, 5]         115,008         115,008
   RecycleNetwork/EfficientNetLite/MBConvBlock           BatchNorm2d-85       [1, 192, 5, 5]             384             384
   RecycleNetwork/EfficientNetLite/MBConvBlock                Conv2d-86       [1, 937, 5, 5]         179,904         179,904
   RecycleNetwork/EfficientNetLite/MBConvBlock           BatchNorm2d-87       [1, 937, 5, 5]           1,874           1,874
   RecycleNetwork/EfficientNetLite/MBConvBlock                 ReLU6-88       [1, 937, 5, 5]               0               0
   RecycleNetwork/EfficientNetLite/MBConvBlock                Conv2d-89       [1, 937, 5, 5]          23,425          23,425
   RecycleNetwork/EfficientNetLite/MBConvBlock           BatchNorm2d-90       [1, 937, 5, 5]           1,874           1,874
   RecycleNetwork/EfficientNetLite/MBConvBlock                Conv2d-91       [1, 192, 5, 5]         179,904         179,904
   RecycleNetwork/EfficientNetLite/MBConvBlock           BatchNorm2d-92       [1, 192, 5, 5]             384             384
   RecycleNetwork/EfficientNetLite/MBConvBlock                Conv2d-93       [1, 624, 5, 5]         119,808         119,808
   RecycleNetwork/EfficientNetLite/MBConvBlock           BatchNorm2d-94       [1, 624, 5, 5]           1,248           1,248
   RecycleNetwork/EfficientNetLite/MBConvBlock                 ReLU6-95       [1, 624, 5, 5]               0               0
   RecycleNetwork/EfficientNetLite/MBConvBlock                Conv2d-96       [1, 624, 5, 5]          15,600          15,600
   RecycleNetwork/EfficientNetLite/MBConvBlock           BatchNorm2d-97       [1, 624, 5, 5]           1,248           1,248
   RecycleNetwork/EfficientNetLite/MBConvBlock                Conv2d-98       [1, 192, 5, 5]         119,808         119,808
   RecycleNetwork/EfficientNetLite/MBConvBlock           BatchNorm2d-99       [1, 192, 5, 5]             384             384
   RecycleNetwork/EfficientNetLite/MBConvBlock               Conv2d-100       [1, 486, 5, 5]          93,312          93,312
   RecycleNetwork/EfficientNetLite/MBConvBlock          BatchNorm2d-101       [1, 486, 5, 5]             972             972
   RecycleNetwork/EfficientNetLite/MBConvBlock                ReLU6-102       [1, 486, 5, 5]               0               0
   RecycleNetwork/EfficientNetLite/MBConvBlock               Conv2d-103       [1, 486, 5, 5]          12,150          12,150
   RecycleNetwork/EfficientNetLite/MBConvBlock          BatchNorm2d-104       [1, 486, 5, 5]             972             972
   RecycleNetwork/EfficientNetLite/MBConvBlock               Conv2d-105       [1, 192, 5, 5]          93,312          93,312
   RecycleNetwork/EfficientNetLite/MBConvBlock          BatchNorm2d-106       [1, 192, 5, 5]             384             384
   RecycleNetwork/EfficientNetLite/MBConvBlock               Conv2d-107       [1, 868, 5, 5]         166,656         166,656
   RecycleNetwork/EfficientNetLite/MBConvBlock          BatchNorm2d-108       [1, 868, 5, 5]           1,736           1,736
   RecycleNetwork/EfficientNetLite/MBConvBlock                ReLU6-109       [1, 868, 5, 5]               0               0
   RecycleNetwork/EfficientNetLite/MBConvBlock               Conv2d-110       [1, 868, 5, 5]           7,812           7,812
   RecycleNetwork/EfficientNetLite/MBConvBlock          BatchNorm2d-111       [1, 868, 5, 5]           1,736           1,736
   RecycleNetwork/EfficientNetLite/MBConvBlock               Conv2d-112       [1, 320, 5, 5]         277,760         277,760
   RecycleNetwork/EfficientNetLite/MBConvBlock          BatchNorm2d-113       [1, 320, 5, 5]             640             640
               RecycleNetwork/EfficientNetLite               Conv2d-114      [1, 1268, 5, 5]         405,760         405,760
               RecycleNetwork/EfficientNetLite          BatchNorm2d-115      [1, 1268, 5, 5]           2,536           2,536
               RecycleNetwork/EfficientNetLite                ReLU6-116      [1, 1268, 5, 5]               0               0
               RecycleNetwork/EfficientNetLite    AdaptiveAvgPool2d-117      [1, 1268, 1, 1]               0               0
               RecycleNetwork/EfficientNetLite              Dropout-118            [1, 1268]               0               0
               RecycleNetwork/EfficientNetLite               Linear-119               [1, 5]           6,345           6,345
============================================================================================================================
Total params: 2,555,501
Trainable params: 2,555,501
Non-trainable params: 0
----------------------------------------------------------------------------------------------------------------------------
Training Started
Epoch: 1, Training Loss: 0.225852, Validation Loss: 0.234185, Training Accuracy: 0.944974, Validation Accuracy: 0.934827
…
