----------------------------------------------------------------------------------------------------------------------------
                                 Parent Layers             Layer (type)         Output Shape         Param #     Tr. Param #
============================================================================================================================
               RecycleNetwork/EfficientNetLite                 Conv2d-1      [1, 32, 75, 75]             864             864
               RecycleNetwork/EfficientNetLite            BatchNorm2d-2      [1, 32, 75, 75]              64              64
               RecycleNetwork/EfficientNetLite                  ReLU6-3      [1, 32, 75, 75]               0               0
   RecycleNetwork/EfficientNetLite/MBConvBlock                 Conv2d-4      [1, 32, 75, 75]             288             288
   RecycleNetwork/EfficientNetLite/MBConvBlock            BatchNorm2d-5      [1, 32, 75, 75]              64              64
   RecycleNetwork/EfficientNetLite/MBConvBlock                  ReLU6-6      [1, 32, 75, 75]               0               0
   RecycleNetwork/EfficientNetLite/MBConvBlock                 Conv2d-7      [1, 16, 75, 75]             512             512
   RecycleNetwork/EfficientNetLite/MBConvBlock            BatchNorm2d-8      [1, 16, 75, 75]              32              32
   RecycleNetwork/EfficientNetLite/MBConvBlock                 Conv2d-9      [1, 96, 75, 75]           1,536           1,536
   RecycleNetwork/EfficientNetLite/MBConvBlock           BatchNorm2d-10      [1, 96, 75, 75]             192             192
   RecycleNetwork/EfficientNetLite/MBConvBlock                 ReLU6-11      [1, 96, 75, 75]               0               0
   RecycleNetwork/EfficientNetLite/MBConvBlock                Conv2d-12      [1, 96, 38, 38]             864             864
   RecycleNetwork/EfficientNetLite/MBConvBlock           BatchNorm2d-13      [1, 96, 38, 38]             192             192
   RecycleNetwork/EfficientNetLite/MBConvBlock                Conv2d-14      [1, 24, 38, 38]           2,304           2,304
   RecycleNetwork/EfficientNetLite/MBConvBlock           BatchNorm2d-15      [1, 24, 38, 38]              48              48
   RecycleNetwork/EfficientNetLite/MBConvBlock                Conv2d-16     [1, 144, 38, 38]           3,456           3,456
   RecycleNetwork/EfficientNetLite/MBConvBlock           BatchNorm2d-17     [1, 144, 38, 38]             288             288
   RecycleNetwork/EfficientNetLite/MBConvBlock                 ReLU6-18     [1, 144, 38, 38]               0               0
   RecycleNetwork/EfficientNetLite/MBConvBlock                Conv2d-19     [1, 144, 38, 38]           1,296           1,296
   RecycleNetwork/EfficientNetLite/MBConvBlock           BatchNorm2d-20     [1, 144, 38, 38]             288             288
   RecycleNetwork/EfficientNetLite/MBConvBlock                Conv2d-21      [1, 24, 38, 38]           3,456           3,456
   RecycleNetwork/EfficientNetLite/MBConvBlock           BatchNorm2d-22      [1, 24, 38, 38]              48              48
   RecycleNetwork/EfficientNetLite/MBConvBlock                Conv2d-23     [1, 144, 38, 38]           3,456           3,456
   RecycleNetwork/EfficientNetLite/MBConvBlock           BatchNorm2d-24     [1, 144, 38, 38]             288             288
   RecycleNetwork/EfficientNetLite/MBConvBlock                 ReLU6-25     [1, 144, 38, 38]               0               0
   RecycleNetwork/EfficientNetLite/MBConvBlock                Conv2d-26     [1, 144, 19, 19]           3,600           3,600
   RecycleNetwork/EfficientNetLite/MBConvBlock           BatchNorm2d-27     [1, 144, 19, 19]             288             288
   RecycleNetwork/EfficientNetLite/MBConvBlock                Conv2d-28      [1, 40, 19, 19]           5,760           5,760
   RecycleNetwork/EfficientNetLite/MBConvBlock           BatchNorm2d-29      [1, 40, 19, 19]              80              80
   RecycleNetwork/EfficientNetLite/MBConvBlock                Conv2d-30     [1, 240, 19, 19]           9,600           9,600
   RecycleNetwork/EfficientNetLite/MBConvBlock           BatchNorm2d-31     [1, 240, 19, 19]             480             480
   RecycleNetwork/EfficientNetLite/MBConvBlock                 ReLU6-32     [1, 240, 19, 19]               0               0
   RecycleNetwork/EfficientNetLite/MBConvBlock                Conv2d-33     [1, 240, 19, 19]           6,000           6,000
   RecycleNetwork/EfficientNetLite/MBConvBlock           BatchNorm2d-34     [1, 240, 19, 19]             480             480
   RecycleNetwork/EfficientNetLite/MBConvBlock                Conv2d-35      [1, 40, 19, 19]           9,600           9,600
   RecycleNetwork/EfficientNetLite/MBConvBlock           BatchNorm2d-36      [1, 40, 19, 19]              80              80
   RecycleNetwork/EfficientNetLite/MBConvBlock                Conv2d-37     [1, 240, 19, 19]           9,600           9,600
   RecycleNetwork/EfficientNetLite/MBConvBlock           BatchNorm2d-38     [1, 240, 19, 19]             480             480
   RecycleNetwork/EfficientNetLite/MBConvBlock                 ReLU6-39     [1, 240, 19, 19]               0               0
   RecycleNetwork/EfficientNetLite/MBConvBlock                Conv2d-40     [1, 240, 10, 10]           2,160           2,160
   RecycleNetwork/EfficientNetLite/MBConvBlock           BatchNorm2d-41     [1, 240, 10, 10]             480             480
   RecycleNetwork/EfficientNetLite/MBConvBlock                Conv2d-42      [1, 80, 10, 10]          19,200          19,200
   RecycleNetwork/EfficientNetLite/MBConvBlock           BatchNorm2d-43      [1, 80, 10, 10]             160             160
   RecycleNetwork/EfficientNetLite/MBConvBlock                Conv2d-44     [1, 480, 10, 10]          38,400          38,400
   RecycleNetwork/EfficientNetLite/MBConvBlock           BatchNorm2d-45     [1, 480, 10, 10]             960             960
   RecycleNetwork/EfficientNetLite/MBConvBlock                 ReLU6-46     [1, 480, 10, 10]               0               0
   RecycleNetwork/EfficientNetLite/MBConvBlock                Conv2d-47     [1, 480, 10, 10]           4,320           4,320
   RecycleNetwork/EfficientNetLite/MBConvBlock           BatchNorm2d-48     [1, 480, 10, 10]             960             960
   RecycleNetwork/EfficientNetLite/MBConvBlock                Conv2d-49      [1, 80, 10, 10]          38,400          38,400
   RecycleNetwork/EfficientNetLite/MBConvBlock           BatchNorm2d-50      [1, 80, 10, 10]             160             160
   RecycleNetwork/EfficientNetLite/MBConvBlock                Conv2d-51     [1, 480, 10, 10]          38,400          38,400
   RecycleNetwork/EfficientNetLite/MBConvBlock           BatchNorm2d-52     [1, 480, 10, 10]             960             960
   RecycleNetwork/EfficientNetLite/MBConvBlock                 ReLU6-53     [1, 480, 10, 10]               0               0
   RecycleNetwork/EfficientNetLite/MBConvBlock                Conv2d-54     [1, 480, 10, 10]           4,320           4,320
   RecycleNetwork/EfficientNetLite/MBConvBlock           BatchNorm2d-55     [1, 480, 10, 10]             960             960
   RecycleNetwork/EfficientNetLite/MBConvBlock                Conv2d-56      [1, 80, 10, 10]          38,400          38,400
   RecycleNetwork/EfficientNetLite/MBConvBlock           BatchNorm2d-57      [1, 80, 10, 10]             160             160
   RecycleNetwork/EfficientNetLite/MBConvBlock                Conv2d-58     [1, 480, 10, 10]          38,400          38,400
   RecycleNetwork/EfficientNetLite/MBConvBlock           BatchNorm2d-59     [1, 480, 10, 10]             960             960
   RecycleNetwork/EfficientNetLite/MBConvBlock                 ReLU6-60     [1, 480, 10, 10]               0               0
   RecycleNetwork/EfficientNetLite/MBConvBlock                Conv2d-61     [1, 480, 10, 10]          12,000          12,000
   RecycleNetwork/EfficientNetLite/MBConvBlock           BatchNorm2d-62     [1, 480, 10, 10]             960             960
   RecycleNetwork/EfficientNetLite/MBConvBlock                Conv2d-63     [1, 112, 10, 10]          53,760          53,760
   RecycleNetwork/EfficientNetLite/MBConvBlock           BatchNorm2d-64     [1, 112, 10, 10]             224             224
   RecycleNetwork/EfficientNetLite/MBConvBlock                Conv2d-65     [1, 672, 10, 10]          75,264          75,264
   RecycleNetwork/EfficientNetLite/MBConvBlock           BatchNorm2d-66     [1, 672, 10, 10]           1,344           1,344
   RecycleNetwork/EfficientNetLite/MBConvBlock                 ReLU6-67     [1, 672, 10, 10]               0               0
   RecycleNetwork/EfficientNetLite/MBConvBlock                Conv2d-68     [1, 672, 10, 10]          16,800          16,800
   RecycleNetwork/EfficientNetLite/MBConvBlock           BatchNorm2d-69     [1, 672, 10, 10]           1,344           1,344
   RecycleNetwork/EfficientNetLite/MBConvBlock                Conv2d-70     [1, 112, 10, 10]          75,264          75,264
   RecycleNetwork/EfficientNetLite/MBConvBlock           BatchNorm2d-71     [1, 112, 10, 10]             224             224
   RecycleNetwork/EfficientNetLite/MBConvBlock                Conv2d-72     [1, 672, 10, 10]          75,264          75,264
   RecycleNetwork/EfficientNetLite/MBConvBlock           BatchNorm2d-73     [1, 672, 10, 10]           1,344           1,344
   RecycleNetwork/EfficientNetLite/MBConvBlock                 ReLU6-74     [1, 672, 10, 10]               0               0
   RecycleNetwork/EfficientNetLite/MBConvBlock                Conv2d-75     [1, 672, 10, 10]          16,800          16,800
   RecycleNetwork/EfficientNetLite/MBConvBlock           BatchNorm2d-76     [1, 672, 10, 10]           1,344           1,344
   RecycleNetwork/EfficientNetLite/MBConvBlock                Conv2d-77     [1, 112, 10, 10]          75,264          75,264
   RecycleNetwork/EfficientNetLite/MBConvBlock           BatchNorm2d-78     [1, 112, 10, 10]             224             224
   RecycleNetwork/EfficientNetLite/MBConvBlock                Conv2d-79     [1, 672, 10, 10]          75,264          75,264
   RecycleNetwork/EfficientNetLite/MBConvBlock           BatchNorm2d-80     [1, 672, 10, 10]           1,344           1,344
   RecycleNetwork/EfficientNetLite/MBConvBlock                 ReLU6-81     [1, 672, 10, 10]               0               0
   RecycleNetwork/EfficientNetLite/MBConvBlock                Conv2d-82       [1, 672, 5, 5]          16,800          16,800
   RecycleNetwork/EfficientNetLite/MBConvBlock           BatchNorm2d-83       [1, 672, 5, 5]           1,344           1,344
   RecycleNetwork/EfficientNetLite/MBConvBlock                Conv2d-84       [1, 192, 5, 5]         129,024         129,024
   RecycleNetwork/EfficientNetLite/MBConvBlock           BatchNorm2d-85       [1, 192, 5, 5]             384             384
   RecycleNetwork/EfficientNetLite/MBConvBlock                Conv2d-86      [1, 1152, 5, 5]         221,184         221,184
   RecycleNetwork/EfficientNetLite/MBConvBlock           BatchNorm2d-87      [1, 1152, 5, 5]           2,304           2,304
   RecycleNetwork/EfficientNetLite/MBConvBlock                 ReLU6-88      [1, 1152, 5, 5]               0               0
   RecycleNetwork/EfficientNetLite/MBConvBlock                Conv2d-89      [1, 1152, 5, 5]          28,800          28,800
   RecycleNetwork/EfficientNetLite/MBConvBlock           BatchNorm2d-90      [1, 1152, 5, 5]           2,304           2,304
   RecycleNetwork/EfficientNetLite/MBConvBlock                Conv2d-91       [1, 192, 5, 5]         221,184         221,184
   RecycleNetwork/EfficientNetLite/MBConvBlock           BatchNorm2d-92       [1, 192, 5, 5]             384             384
   RecycleNetwork/EfficientNetLite/MBConvBlock                Conv2d-93      [1, 1152, 5, 5]         221,184         221,184
   RecycleNetwork/EfficientNetLite/MBConvBlock           BatchNorm2d-94      [1, 1152, 5, 5]           2,304           2,304
   RecycleNetwork/EfficientNetLite/MBConvBlock                 ReLU6-95      [1, 1152, 5, 5]               0               0
   RecycleNetwork/EfficientNetLite/MBConvBlock                Conv2d-96      [1, 1152, 5, 5]          28,800          28,800
   RecycleNetwork/EfficientNetLite/MBConvBlock           BatchNorm2d-97      [1, 1152, 5, 5]           2,304           2,304
   RecycleNetwork/EfficientNetLite/MBConvBlock                Conv2d-98       [1, 192, 5, 5]         221,184         221,184
   RecycleNetwork/EfficientNetLite/MBConvBlock           BatchNorm2d-99       [1, 192, 5, 5]             384             384
   RecycleNetwork/EfficientNetLite/MBConvBlock               Conv2d-100      [1, 1152, 5, 5]         221,184         221,184
   RecycleNetwork/EfficientNetLite/MBConvBlock          BatchNorm2d-101      [1, 1152, 5, 5]           2,304           2,304
   RecycleNetwork/EfficientNetLite/MBConvBlock                ReLU6-102      [1, 1152, 5, 5]               0               0
   RecycleNetwork/EfficientNetLite/MBConvBlock               Conv2d-103      [1, 1152, 5, 5]          28,800          28,800
   RecycleNetwork/EfficientNetLite/MBConvBlock          BatchNorm2d-104      [1, 1152, 5, 5]           2,304           2,304
   RecycleNetwork/EfficientNetLite/MBConvBlock               Conv2d-105       [1, 192, 5, 5]         221,184         221,184
   RecycleNetwork/EfficientNetLite/MBConvBlock          BatchNorm2d-106       [1, 192, 5, 5]             384             384
   RecycleNetwork/EfficientNetLite/MBConvBlock               Conv2d-107      [1, 1152, 5, 5]         221,184         221,184
   RecycleNetwork/EfficientNetLite/MBConvBlock          BatchNorm2d-108      [1, 1152, 5, 5]           2,304           2,304
   RecycleNetwork/EfficientNetLite/MBConvBlock                ReLU6-109      [1, 1152, 5, 5]               0               0
   RecycleNetwork/EfficientNetLite/MBConvBlock               Conv2d-110      [1, 1152, 5, 5]          10,368          10,368
   RecycleNetwork/EfficientNetLite/MBConvBlock          BatchNorm2d-111      [1, 1152, 5, 5]           2,304           2,304
   RecycleNetwork/EfficientNetLite/MBConvBlock               Conv2d-112       [1, 320, 5, 5]         368,640         368,640
   RecycleNetwork/EfficientNetLite/MBConvBlock          BatchNorm2d-113       [1, 320, 5, 5]             640             640
               RecycleNetwork/EfficientNetLite               Conv2d-114      [1, 1280, 5, 5]         409,600         409,600
               RecycleNetwork/EfficientNetLite          BatchNorm2d-115      [1, 1280, 5, 5]           2,560           2,560
               RecycleNetwork/EfficientNetLite                ReLU6-116      [1, 1280, 5, 5]               0               0
               RecycleNetwork/EfficientNetLite    AdaptiveAvgPool2d-117      [1, 1280, 1, 1]               0               0
               RecycleNetwork/EfficientNetLite              Dropout-118            [1, 1280]               0               0
               RecycleNetwork/EfficientNetLite               Linear-119               [1, 5]           6,405           6,405
============================================================================================================================
Total params: 3,377,413
Trainable params: 3,377,413
Non-trainable params: 0
----------------------------------------------------------------------------------------------------------------------------
17
tensor([2, 2, 0, 3, 2, 3, 0, 2, 2, 2, 2, 2, 1, 2, 3, 2, 0, 0, 2, 2, 4, 2, 2, 2,
…
tensor([True, True, True, True, True, True, True, True, True, True, True, True,
        True, True, True, True])
torch.Size([16])
torch.Size([16])
Starting Training Cycle
----------------------------------------------------------------------------------------------------------------------------
                                 Parent Layers             Layer (type)         Output Shape         Param #     Tr. Param #
============================================================================================================================
               RecycleNetwork/EfficientNetLite                 Conv2d-1      [1, 27, 75, 75]             729             729
               RecycleNetwork/EfficientNetLite            BatchNorm2d-2      [1, 27, 75, 75]              54              54
               RecycleNetwork/EfficientNetLite                  ReLU6-3      [1, 27, 75, 75]               0               0
   RecycleNetwork/EfficientNetLite/MBConvBlock                 Conv2d-4      [1, 27, 75, 75]             243             243
   RecycleNetwork/EfficientNetLite/MBConvBlock            BatchNorm2d-5      [1, 27, 75, 75]              54              54
   RecycleNetwork/EfficientNetLite/MBConvBlock                  ReLU6-6      [1, 27, 75, 75]               0               0
   RecycleNetwork/EfficientNetLite/MBConvBlock                 Conv2d-7      [1, 16, 75, 75]             432             432
   RecycleNetwork/EfficientNetLite/MBConvBlock            BatchNorm2d-8      [1, 16, 75, 75]              32              32
   RecycleNetwork/EfficientNetLite/MBConvBlock                 Conv2d-9      [1, 96, 75, 75]           1,536           1,536
   RecycleNetwork/EfficientNetLite/MBConvBlock           BatchNorm2d-10      [1, 96, 75, 75]             192             192
   RecycleNetwork/EfficientNetLite/MBConvBlock                 ReLU6-11      [1, 96, 75, 75]               0               0
   RecycleNetwork/EfficientNetLite/MBConvBlock                Conv2d-12      [1, 96, 38, 38]             864             864
   RecycleNetwork/EfficientNetLite/MBConvBlock           BatchNorm2d-13      [1, 96, 38, 38]             192             192
   RecycleNetwork/EfficientNetLite/MBConvBlock                Conv2d-14      [1, 24, 38, 38]           2,304           2,304
   RecycleNetwork/EfficientNetLite/MBConvBlock           BatchNorm2d-15      [1, 24, 38, 38]              48              48
   RecycleNetwork/EfficientNetLite/MBConvBlock                Conv2d-16     [1, 144, 38, 38]           3,456           3,456
   RecycleNetwork/EfficientNetLite/MBConvBlock           BatchNorm2d-17     [1, 144, 38, 38]             288             288
   RecycleNetwork/EfficientNetLite/MBConvBlock                 ReLU6-18     [1, 144, 38, 38]               0               0
   RecycleNetwork/EfficientNetLite/MBConvBlock                Conv2d-19     [1, 144, 38, 38]           1,296           1,296
   RecycleNetwork/EfficientNetLite/MBConvBlock           BatchNorm2d-20     [1, 144, 38, 38]             288             288
   RecycleNetwork/EfficientNetLite/MBConvBlock                Conv2d-21      [1, 24, 38, 38]           3,456           3,456
   RecycleNetwork/EfficientNetLite/MBConvBlock           BatchNorm2d-22      [1, 24, 38, 38]              48              48
   RecycleNetwork/EfficientNetLite/MBConvBlock                Conv2d-23     [1, 144, 38, 38]           3,456           3,456
   RecycleNetwork/EfficientNetLite/MBConvBlock           BatchNorm2d-24     [1, 144, 38, 38]             288             288
   RecycleNetwork/EfficientNetLite/MBConvBlock                 ReLU6-25     [1, 144, 38, 38]               0               0
   RecycleNetwork/EfficientNetLite/MBConvBlock                Conv2d-26     [1, 144, 19, 19]           3,600           3,600
   RecycleNetwork/EfficientNetLite/MBConvBlock           BatchNorm2d-27     [1, 144, 19, 19]             288             288
   RecycleNetwork/EfficientNetLite/MBConvBlock                Conv2d-28      [1, 40, 19, 19]           5,760           5,760
   RecycleNetwork/EfficientNetLite/MBConvBlock           BatchNorm2d-29      [1, 40, 19, 19]              80              80
   RecycleNetwork/EfficientNetLite/MBConvBlock                Conv2d-30     [1, 240, 19, 19]           9,600           9,600
   RecycleNetwork/EfficientNetLite/MBConvBlock           BatchNorm2d-31     [1, 240, 19, 19]             480             480
   RecycleNetwork/EfficientNetLite/MBConvBlock                 ReLU6-32     [1, 240, 19, 19]               0               0
   RecycleNetwork/EfficientNetLite/MBConvBlock                Conv2d-33     [1, 240, 19, 19]           6,000           6,000
   RecycleNetwork/EfficientNetLite/MBConvBlock           BatchNorm2d-34     [1, 240, 19, 19]             480             480
   RecycleNetwork/EfficientNetLite/MBConvBlock                Conv2d-35      [1, 40, 19, 19]           9,600           9,600
   RecycleNetwork/EfficientNetLite/MBConvBlock           BatchNorm2d-36      [1, 40, 19, 19]              80              80
   RecycleNetwork/EfficientNetLite/MBConvBlock                Conv2d-37     [1, 240, 19, 19]           9,600           9,600
   RecycleNetwork/EfficientNetLite/MBConvBlock           BatchNorm2d-38     [1, 240, 19, 19]             480             480
   RecycleNetwork/EfficientNetLite/MBConvBlock                 ReLU6-39     [1, 240, 19, 19]               0               0
   RecycleNetwork/EfficientNetLite/MBConvBlock                Conv2d-40     [1, 240, 10, 10]           2,160           2,160
   RecycleNetwork/EfficientNetLite/MBConvBlock           BatchNorm2d-41     [1, 240, 10, 10]             480             480
   RecycleNetwork/EfficientNetLite/MBConvBlock                Conv2d-42      [1, 80, 10, 10]          19,200          19,200
   RecycleNetwork/EfficientNetLite/MBConvBlock           BatchNorm2d-43      [1, 80, 10, 10]             160             160
   RecycleNetwork/EfficientNetLite/MBConvBlock                Conv2d-44     [1, 480, 10, 10]          38,400          38,400
   RecycleNetwork/EfficientNetLite/MBConvBlock           BatchNorm2d-45     [1, 480, 10, 10]             960             960
   RecycleNetwork/EfficientNetLite/MBConvBlock                 ReLU6-46     [1, 480, 10, 10]               0               0
   RecycleNetwork/EfficientNetLite/MBConvBlock                Conv2d-47     [1, 480, 10, 10]           4,320           4,320
   RecycleNetwork/EfficientNetLite/MBConvBlock           BatchNorm2d-48     [1, 480, 10, 10]             960             960
   RecycleNetwork/EfficientNetLite/MBConvBlock                Conv2d-49      [1, 80, 10, 10]          38,400          38,400
   RecycleNetwork/EfficientNetLite/MBConvBlock           BatchNorm2d-50      [1, 80, 10, 10]             160             160
   RecycleNetwork/EfficientNetLite/MBConvBlock                Conv2d-51     [1, 480, 10, 10]          38,400          38,400
   RecycleNetwork/EfficientNetLite/MBConvBlock           BatchNorm2d-52     [1, 480, 10, 10]             960             960
   RecycleNetwork/EfficientNetLite/MBConvBlock                 ReLU6-53     [1, 480, 10, 10]               0               0
   RecycleNetwork/EfficientNetLite/MBConvBlock                Conv2d-54     [1, 480, 10, 10]           4,320           4,320
   RecycleNetwork/EfficientNetLite/MBConvBlock           BatchNorm2d-55     [1, 480, 10, 10]             960             960
   RecycleNetwork/EfficientNetLite/MBConvBlock                Conv2d-56      [1, 80, 10, 10]          38,400          38,400
   RecycleNetwork/EfficientNetLite/MBConvBlock           BatchNorm2d-57      [1, 80, 10, 10]             160             160
   RecycleNetwork/EfficientNetLite/MBConvBlock                Conv2d-58     [1, 480, 10, 10]          38,400          38,400
   RecycleNetwork/EfficientNetLite/MBConvBlock           BatchNorm2d-59     [1, 480, 10, 10]             960             960
   RecycleNetwork/EfficientNetLite/MBConvBlock                 ReLU6-60     [1, 480, 10, 10]               0               0
   RecycleNetwork/EfficientNetLite/MBConvBlock                Conv2d-61     [1, 480, 10, 10]          12,000          12,000
   RecycleNetwork/EfficientNetLite/MBConvBlock           BatchNorm2d-62     [1, 480, 10, 10]             960             960
   RecycleNetwork/EfficientNetLite/MBConvBlock                Conv2d-63     [1, 112, 10, 10]          53,760          53,760
   RecycleNetwork/EfficientNetLite/MBConvBlock           BatchNorm2d-64     [1, 112, 10, 10]             224             224
   RecycleNetwork/EfficientNetLite/MBConvBlock                Conv2d-65     [1, 672, 10, 10]          75,264          75,264
   RecycleNetwork/EfficientNetLite/MBConvBlock           BatchNorm2d-66     [1, 672, 10, 10]           1,344           1,344
   RecycleNetwork/EfficientNetLite/MBConvBlock                 ReLU6-67     [1, 672, 10, 10]               0               0
   RecycleNetwork/EfficientNetLite/MBConvBlock                Conv2d-68     [1, 672, 10, 10]          16,800          16,800
   RecycleNetwork/EfficientNetLite/MBConvBlock           BatchNorm2d-69     [1, 672, 10, 10]           1,344           1,344
   RecycleNetwork/EfficientNetLite/MBConvBlock                Conv2d-70     [1, 112, 10, 10]          75,264          75,264
   RecycleNetwork/EfficientNetLite/MBConvBlock           BatchNorm2d-71     [1, 112, 10, 10]             224             224
   RecycleNetwork/EfficientNetLite/MBConvBlock                Conv2d-72     [1, 672, 10, 10]          75,264          75,264
   RecycleNetwork/EfficientNetLite/MBConvBlock           BatchNorm2d-73     [1, 672, 10, 10]           1,344           1,344
   RecycleNetwork/EfficientNetLite/MBConvBlock                 ReLU6-74     [1, 672, 10, 10]               0               0
   RecycleNetwork/EfficientNetLite/MBConvBlock                Conv2d-75     [1, 672, 10, 10]          16,800          16,800
   RecycleNetwork/EfficientNetLite/MBConvBlock           BatchNorm2d-76     [1, 672, 10, 10]           1,344           1,344
   RecycleNetwork/EfficientNetLite/MBConvBlock                Conv2d-77     [1, 112, 10, 10]          75,264          75,264
   RecycleNetwork/EfficientNetLite/MBConvBlock           BatchNorm2d-78     [1, 112, 10, 10]             224             224
   RecycleNetwork/EfficientNetLite/MBConvBlock                Conv2d-79     [1, 672, 10, 10]          75,264          75,264
   RecycleNetwork/EfficientNetLite/MBConvBlock           BatchNorm2d-80     [1, 672, 10, 10]           1,344           1,344
   RecycleNetwork/EfficientNetLite/MBConvBlock                 ReLU6-81     [1, 672, 10, 10]               0               0
   RecycleNetwork/EfficientNetLite/MBConvBlock                Conv2d-82       [1, 672, 5, 5]          16,800          16,800
   RecycleNetwork/EfficientNetLite/MBConvBlock           BatchNorm2d-83       [1, 672, 5, 5]           1,344           1,344
   RecycleNetwork/EfficientNetLite/MBConvBlock                Conv2d-84       [1, 192, 5, 5]         129,024         129,024
   RecycleNetwork/EfficientNetLite/MBConvBlock           BatchNorm2d-85       [1, 192, 5, 5]             384             384
   RecycleNetwork/EfficientNetLite/MBConvBlock                Conv2d-86      [1, 1152, 5, 5]         221,184         221,184
   RecycleNetwork/EfficientNetLite/MBConvBlock           BatchNorm2d-87      [1, 1152, 5, 5]           2,304           2,304
   RecycleNetwork/EfficientNetLite/MBConvBlock                 ReLU6-88      [1, 1152, 5, 5]               0               0
   RecycleNetwork/EfficientNetLite/MBConvBlock                Conv2d-89      [1, 1152, 5, 5]          28,800          28,800
   RecycleNetwork/EfficientNetLite/MBConvBlock           BatchNorm2d-90      [1, 1152, 5, 5]           2,304           2,304
   RecycleNetwork/EfficientNetLite/MBConvBlock                Conv2d-91       [1, 192, 5, 5]         221,184         221,184
   RecycleNetwork/EfficientNetLite/MBConvBlock           BatchNorm2d-92       [1, 192, 5, 5]             384             384
   RecycleNetwork/EfficientNetLite/MBConvBlock                Conv2d-93      [1, 1152, 5, 5]         221,184         221,184
   RecycleNetwork/EfficientNetLite/MBConvBlock           BatchNorm2d-94      [1, 1152, 5, 5]           2,304           2,304
   RecycleNetwork/EfficientNetLite/MBConvBlock                 ReLU6-95      [1, 1152, 5, 5]               0               0
   RecycleNetwork/EfficientNetLite/MBConvBlock                Conv2d-96      [1, 1152, 5, 5]          28,800          28,800
   RecycleNetwork/EfficientNetLite/MBConvBlock           BatchNorm2d-97      [1, 1152, 5, 5]           2,304           2,304
   RecycleNetwork/EfficientNetLite/MBConvBlock                Conv2d-98       [1, 192, 5, 5]         221,184         221,184
   RecycleNetwork/EfficientNetLite/MBConvBlock           BatchNorm2d-99       [1, 192, 5, 5]             384             384
   RecycleNetwork/EfficientNetLite/MBConvBlock               Conv2d-100      [1, 1152, 5, 5]         221,184         221,184
   RecycleNetwork/EfficientNetLite/MBConvBlock          BatchNorm2d-101      [1, 1152, 5, 5]           2,304           2,304
   RecycleNetwork/EfficientNetLite/MBConvBlock                ReLU6-102      [1, 1152, 5, 5]               0               0
   RecycleNetwork/EfficientNetLite/MBConvBlock               Conv2d-103      [1, 1152, 5, 5]          28,800          28,800
   RecycleNetwork/EfficientNetLite/MBConvBlock          BatchNorm2d-104      [1, 1152, 5, 5]           2,304           2,304
   RecycleNetwork/EfficientNetLite/MBConvBlock               Conv2d-105       [1, 192, 5, 5]         221,184         221,184
   RecycleNetwork/EfficientNetLite/MBConvBlock          BatchNorm2d-106       [1, 192, 5, 5]             384             384
   RecycleNetwork/EfficientNetLite/MBConvBlock               Conv2d-107      [1, 1152, 5, 5]         221,184         221,184
   RecycleNetwork/EfficientNetLite/MBConvBlock          BatchNorm2d-108      [1, 1152, 5, 5]           2,304           2,304
   RecycleNetwork/EfficientNetLite/MBConvBlock                ReLU6-109      [1, 1152, 5, 5]               0               0
   RecycleNetwork/EfficientNetLite/MBConvBlock               Conv2d-110      [1, 1152, 5, 5]          10,368          10,368
   RecycleNetwork/EfficientNetLite/MBConvBlock          BatchNorm2d-111      [1, 1152, 5, 5]           2,304           2,304
   RecycleNetwork/EfficientNetLite/MBConvBlock               Conv2d-112       [1, 320, 5, 5]         368,640         368,640
   RecycleNetwork/EfficientNetLite/MBConvBlock          BatchNorm2d-113       [1, 320, 5, 5]             640             640
               RecycleNetwork/EfficientNetLite               Conv2d-114      [1, 1280, 5, 5]         409,600         409,600
               RecycleNetwork/EfficientNetLite          BatchNorm2d-115      [1, 1280, 5, 5]           2,560           2,560
               RecycleNetwork/EfficientNetLite                ReLU6-116      [1, 1280, 5, 5]               0               0
               RecycleNetwork/EfficientNetLite    AdaptiveAvgPool2d-117      [1, 1280, 1, 1]               0               0
               RecycleNetwork/EfficientNetLite              Dropout-118            [1, 1280]               0               0
               RecycleNetwork/EfficientNetLite               Linear-119               [1, 5]           6,405           6,405
============================================================================================================================
Total params: 3,377,133
Trainable params: 3,377,133
Non-trainable params: 0
----------------------------------------------------------------------------------------------------------------------------
Ended Training Cycle
backbone.blocks.1.0._expand_conv
7

--------------------------------
…
tensor([True, True, True, True, True, True, True, True, True, True, True, True,
        True, True, True, True, True, True, True, True, True, True, True, True])
torch.Size([24])
torch.Size([24])
Starting Training Cycle
----------------------------------------------------------------------------------------------------------------------------
                                 Parent Layers             Layer (type)         Output Shape         Param #     Tr. Param #
============================================================================================================================
               RecycleNetwork/EfficientNetLite                 Conv2d-1      [1, 27, 75, 75]             729             729
               RecycleNetwork/EfficientNetLite            BatchNorm2d-2      [1, 27, 75, 75]              54              54
               RecycleNetwork/EfficientNetLite                  ReLU6-3      [1, 27, 75, 75]               0               0
   RecycleNetwork/EfficientNetLite/MBConvBlock                 Conv2d-4      [1, 27, 75, 75]             243             243
   RecycleNetwork/EfficientNetLite/MBConvBlock            BatchNorm2d-5      [1, 27, 75, 75]              54              54
   RecycleNetwork/EfficientNetLite/MBConvBlock                  ReLU6-6      [1, 27, 75, 75]               0               0
   RecycleNetwork/EfficientNetLite/MBConvBlock                 Conv2d-7      [1, 16, 75, 75]             432             432
   RecycleNetwork/EfficientNetLite/MBConvBlock            BatchNorm2d-8      [1, 16, 75, 75]              32              32
   RecycleNetwork/EfficientNetLite/MBConvBlock                 Conv2d-9      [1, 89, 75, 75]           1,424           1,424
   RecycleNetwork/EfficientNetLite/MBConvBlock           BatchNorm2d-10      [1, 89, 75, 75]             178             178
   RecycleNetwork/EfficientNetLite/MBConvBlock                 ReLU6-11      [1, 89, 75, 75]               0               0
   RecycleNetwork/EfficientNetLite/MBConvBlock                Conv2d-12      [1, 89, 38, 38]             801             801
   RecycleNetwork/EfficientNetLite/MBConvBlock           BatchNorm2d-13      [1, 89, 38, 38]             178             178
   RecycleNetwork/EfficientNetLite/MBConvBlock                Conv2d-14      [1, 24, 38, 38]           2,136           2,136
   RecycleNetwork/EfficientNetLite/MBConvBlock           BatchNorm2d-15      [1, 24, 38, 38]              48              48
   RecycleNetwork/EfficientNetLite/MBConvBlock                Conv2d-16     [1, 144, 38, 38]           3,456           3,456
   RecycleNetwork/EfficientNetLite/MBConvBlock           BatchNorm2d-17     [1, 144, 38, 38]             288             288
   RecycleNetwork/EfficientNetLite/MBConvBlock                 ReLU6-18     [1, 144, 38, 38]               0               0
   RecycleNetwork/EfficientNetLite/MBConvBlock                Conv2d-19     [1, 144, 38, 38]           1,296           1,296
   RecycleNetwork/EfficientNetLite/MBConvBlock           BatchNorm2d-20     [1, 144, 38, 38]             288             288
   RecycleNetwork/EfficientNetLite/MBConvBlock                Conv2d-21      [1, 24, 38, 38]           3,456           3,456
   RecycleNetwork/EfficientNetLite/MBConvBlock           BatchNorm2d-22      [1, 24, 38, 38]              48              48
   RecycleNetwork/EfficientNetLite/MBConvBlock                Conv2d-23     [1, 144, 38, 38]           3,456           3,456
   RecycleNetwork/EfficientNetLite/MBConvBlock           BatchNorm2d-24     [1, 144, 38, 38]             288             288
   RecycleNetwork/EfficientNetLite/MBConvBlock                 ReLU6-25     [1, 144, 38, 38]               0               0
   RecycleNetwork/EfficientNetLite/MBConvBlock                Conv2d-26     [1, 144, 19, 19]           3,600           3,600
   RecycleNetwork/EfficientNetLite/MBConvBlock           BatchNorm2d-27     [1, 144, 19, 19]             288             288
   RecycleNetwork/EfficientNetLite/MBConvBlock                Conv2d-28      [1, 40, 19, 19]           5,760           5,760
   RecycleNetwork/EfficientNetLite/MBConvBlock           BatchNorm2d-29      [1, 40, 19, 19]              80              80
   RecycleNetwork/EfficientNetLite/MBConvBlock                Conv2d-30     [1, 240, 19, 19]           9,600           9,600
   RecycleNetwork/EfficientNetLite/MBConvBlock           BatchNorm2d-31     [1, 240, 19, 19]             480             480
   RecycleNetwork/EfficientNetLite/MBConvBlock                 ReLU6-32     [1, 240, 19, 19]               0               0
   RecycleNetwork/EfficientNetLite/MBConvBlock                Conv2d-33     [1, 240, 19, 19]           6,000           6,000
   RecycleNetwork/EfficientNetLite/MBConvBlock           BatchNorm2d-34     [1, 240, 19, 19]             480             480
   RecycleNetwork/EfficientNetLite/MBConvBlock                Conv2d-35      [1, 40, 19, 19]           9,600           9,600
   RecycleNetwork/EfficientNetLite/MBConvBlock           BatchNorm2d-36      [1, 40, 19, 19]              80              80
   RecycleNetwork/EfficientNetLite/MBConvBlock                Conv2d-37     [1, 240, 19, 19]           9,600           9,600
   RecycleNetwork/EfficientNetLite/MBConvBlock           BatchNorm2d-38     [1, 240, 19, 19]             480             480
   RecycleNetwork/EfficientNetLite/MBConvBlock                 ReLU6-39     [1, 240, 19, 19]               0               0
   RecycleNetwork/EfficientNetLite/MBConvBlock                Conv2d-40     [1, 240, 10, 10]           2,160           2,160
   RecycleNetwork/EfficientNetLite/MBConvBlock           BatchNorm2d-41     [1, 240, 10, 10]             480             480
   RecycleNetwork/EfficientNetLite/MBConvBlock                Conv2d-42      [1, 80, 10, 10]          19,200          19,200
   RecycleNetwork/EfficientNetLite/MBConvBlock           BatchNorm2d-43      [1, 80, 10, 10]             160             160
   RecycleNetwork/EfficientNetLite/MBConvBlock                Conv2d-44     [1, 480, 10, 10]          38,400          38,400
   RecycleNetwork/EfficientNetLite/MBConvBlock           BatchNorm2d-45     [1, 480, 10, 10]             960             960
   RecycleNetwork/EfficientNetLite/MBConvBlock                 ReLU6-46     [1, 480, 10, 10]               0               0
   RecycleNetwork/EfficientNetLite/MBConvBlock                Conv2d-47     [1, 480, 10, 10]           4,320           4,320
   RecycleNetwork/EfficientNetLite/MBConvBlock           BatchNorm2d-48     [1, 480, 10, 10]             960             960
   RecycleNetwork/EfficientNetLite/MBConvBlock                Conv2d-49      [1, 80, 10, 10]          38,400          38,400
   RecycleNetwork/EfficientNetLite/MBConvBlock           BatchNorm2d-50      [1, 80, 10, 10]             160             160
   RecycleNetwork/EfficientNetLite/MBConvBlock                Conv2d-51     [1, 480, 10, 10]          38,400          38,400
   RecycleNetwork/EfficientNetLite/MBConvBlock           BatchNorm2d-52     [1, 480, 10, 10]             960             960
   RecycleNetwork/EfficientNetLite/MBConvBlock                 ReLU6-53     [1, 480, 10, 10]               0               0
   RecycleNetwork/EfficientNetLite/MBConvBlock                Conv2d-54     [1, 480, 10, 10]           4,320           4,320
   RecycleNetwork/EfficientNetLite/MBConvBlock           BatchNorm2d-55     [1, 480, 10, 10]             960             960
   RecycleNetwork/EfficientNetLite/MBConvBlock                Conv2d-56      [1, 80, 10, 10]          38,400          38,400
   RecycleNetwork/EfficientNetLite/MBConvBlock           BatchNorm2d-57      [1, 80, 10, 10]             160             160
   RecycleNetwork/EfficientNetLite/MBConvBlock                Conv2d-58     [1, 480, 10, 10]          38,400          38,400
   RecycleNetwork/EfficientNetLite/MBConvBlock           BatchNorm2d-59     [1, 480, 10, 10]             960             960
   RecycleNetwork/EfficientNetLite/MBConvBlock                 ReLU6-60     [1, 480, 10, 10]               0               0
   RecycleNetwork/EfficientNetLite/MBConvBlock                Conv2d-61     [1, 480, 10, 10]          12,000          12,000
   RecycleNetwork/EfficientNetLite/MBConvBlock           BatchNorm2d-62     [1, 480, 10, 10]             960             960
   RecycleNetwork/EfficientNetLite/MBConvBlock                Conv2d-63     [1, 112, 10, 10]          53,760          53,760
   RecycleNetwork/EfficientNetLite/MBConvBlock           BatchNorm2d-64     [1, 112, 10, 10]             224             224
   RecycleNetwork/EfficientNetLite/MBConvBlock                Conv2d-65     [1, 672, 10, 10]          75,264          75,264
   RecycleNetwork/EfficientNetLite/MBConvBlock           BatchNorm2d-66     [1, 672, 10, 10]           1,344           1,344
   RecycleNetwork/EfficientNetLite/MBConvBlock                 ReLU6-67     [1, 672, 10, 10]               0               0
   RecycleNetwork/EfficientNetLite/MBConvBlock                Conv2d-68     [1, 672, 10, 10]          16,800          16,800
   RecycleNetwork/EfficientNetLite/MBConvBlock           BatchNorm2d-69     [1, 672, 10, 10]           1,344           1,344
   RecycleNetwork/EfficientNetLite/MBConvBlock                Conv2d-70     [1, 112, 10, 10]          75,264          75,264
   RecycleNetwork/EfficientNetLite/MBConvBlock           BatchNorm2d-71     [1, 112, 10, 10]             224             224
   RecycleNetwork/EfficientNetLite/MBConvBlock                Conv2d-72     [1, 672, 10, 10]          75,264          75,264
   RecycleNetwork/EfficientNetLite/MBConvBlock           BatchNorm2d-73     [1, 672, 10, 10]           1,344           1,344
   RecycleNetwork/EfficientNetLite/MBConvBlock                 ReLU6-74     [1, 672, 10, 10]               0               0
   RecycleNetwork/EfficientNetLite/MBConvBlock                Conv2d-75     [1, 672, 10, 10]          16,800          16,800
   RecycleNetwork/EfficientNetLite/MBConvBlock           BatchNorm2d-76     [1, 672, 10, 10]           1,344           1,344
   RecycleNetwork/EfficientNetLite/MBConvBlock                Conv2d-77     [1, 112, 10, 10]          75,264          75,264
   RecycleNetwork/EfficientNetLite/MBConvBlock           BatchNorm2d-78     [1, 112, 10, 10]             224             224
   RecycleNetwork/EfficientNetLite/MBConvBlock                Conv2d-79     [1, 672, 10, 10]          75,264          75,264
   RecycleNetwork/EfficientNetLite/MBConvBlock           BatchNorm2d-80     [1, 672, 10, 10]           1,344           1,344
   RecycleNetwork/EfficientNetLite/MBConvBlock                 ReLU6-81     [1, 672, 10, 10]               0               0
   RecycleNetwork/EfficientNetLite/MBConvBlock                Conv2d-82       [1, 672, 5, 5]          16,800          16,800
   RecycleNetwork/EfficientNetLite/MBConvBlock           BatchNorm2d-83       [1, 672, 5, 5]           1,344           1,344
   RecycleNetwork/EfficientNetLite/MBConvBlock                Conv2d-84       [1, 192, 5, 5]         129,024         129,024
   RecycleNetwork/EfficientNetLite/MBConvBlock           BatchNorm2d-85       [1, 192, 5, 5]             384             384
   RecycleNetwork/EfficientNetLite/MBConvBlock                Conv2d-86      [1, 1152, 5, 5]         221,184         221,184
   RecycleNetwork/EfficientNetLite/MBConvBlock           BatchNorm2d-87      [1, 1152, 5, 5]           2,304           2,304
   RecycleNetwork/EfficientNetLite/MBConvBlock                 ReLU6-88      [1, 1152, 5, 5]               0               0
   RecycleNetwork/EfficientNetLite/MBConvBlock                Conv2d-89      [1, 1152, 5, 5]          28,800          28,800
   RecycleNetwork/EfficientNetLite/MBConvBlock           BatchNorm2d-90      [1, 1152, 5, 5]           2,304           2,304
   RecycleNetwork/EfficientNetLite/MBConvBlock                Conv2d-91       [1, 192, 5, 5]         221,184         221,184
   RecycleNetwork/EfficientNetLite/MBConvBlock           BatchNorm2d-92       [1, 192, 5, 5]             384             384
   RecycleNetwork/EfficientNetLite/MBConvBlock                Conv2d-93      [1, 1152, 5, 5]         221,184         221,184
   RecycleNetwork/EfficientNetLite/MBConvBlock           BatchNorm2d-94      [1, 1152, 5, 5]           2,304           2,304
   RecycleNetwork/EfficientNetLite/MBConvBlock                 ReLU6-95      [1, 1152, 5, 5]               0               0
   RecycleNetwork/EfficientNetLite/MBConvBlock                Conv2d-96      [1, 1152, 5, 5]          28,800          28,800
   RecycleNetwork/EfficientNetLite/MBConvBlock           BatchNorm2d-97      [1, 1152, 5, 5]           2,304           2,304
   RecycleNetwork/EfficientNetLite/MBConvBlock                Conv2d-98       [1, 192, 5, 5]         221,184         221,184
   RecycleNetwork/EfficientNetLite/MBConvBlock           BatchNorm2d-99       [1, 192, 5, 5]             384             384
   RecycleNetwork/EfficientNetLite/MBConvBlock               Conv2d-100      [1, 1152, 5, 5]         221,184         221,184
   RecycleNetwork/EfficientNetLite/MBConvBlock          BatchNorm2d-101      [1, 1152, 5, 5]           2,304           2,304
   RecycleNetwork/EfficientNetLite/MBConvBlock                ReLU6-102      [1, 1152, 5, 5]               0               0
   RecycleNetwork/EfficientNetLite/MBConvBlock               Conv2d-103      [1, 1152, 5, 5]          28,800          28,800
   RecycleNetwork/EfficientNetLite/MBConvBlock          BatchNorm2d-104      [1, 1152, 5, 5]           2,304           2,304
   RecycleNetwork/EfficientNetLite/MBConvBlock               Conv2d-105       [1, 192, 5, 5]         221,184         221,184
   RecycleNetwork/EfficientNetLite/MBConvBlock          BatchNorm2d-106       [1, 192, 5, 5]             384             384
   RecycleNetwork/EfficientNetLite/MBConvBlock               Conv2d-107      [1, 1152, 5, 5]         221,184         221,184
   RecycleNetwork/EfficientNetLite/MBConvBlock          BatchNorm2d-108      [1, 1152, 5, 5]           2,304           2,304
   RecycleNetwork/EfficientNetLite/MBConvBlock                ReLU6-109      [1, 1152, 5, 5]               0               0
   RecycleNetwork/EfficientNetLite/MBConvBlock               Conv2d-110      [1, 1152, 5, 5]          10,368          10,368
   RecycleNetwork/EfficientNetLite/MBConvBlock          BatchNorm2d-111      [1, 1152, 5, 5]           2,304           2,304
   RecycleNetwork/EfficientNetLite/MBConvBlock               Conv2d-112       [1, 320, 5, 5]         368,640         368,640
   RecycleNetwork/EfficientNetLite/MBConvBlock          BatchNorm2d-113       [1, 320, 5, 5]             640             640
               RecycleNetwork/EfficientNetLite               Conv2d-114      [1, 1280, 5, 5]         409,600         409,600
               RecycleNetwork/EfficientNetLite          BatchNorm2d-115      [1, 1280, 5, 5]           2,560           2,560
               RecycleNetwork/EfficientNetLite                ReLU6-116      [1, 1280, 5, 5]               0               0
               RecycleNetwork/EfficientNetLite    AdaptiveAvgPool2d-117      [1, 1280, 1, 1]               0               0
               RecycleNetwork/EfficientNetLite              Dropout-118            [1, 1280]               0               0
               RecycleNetwork/EfficientNetLite               Linear-119               [1, 5]           6,405           6,405
============================================================================================================================
Total params: 3,376,762
Trainable params: 3,376,762
Non-trainable params: 0
----------------------------------------------------------------------------------------------------------------------------
Ended Training Cycle
backbone.blocks.1.1._expand_conv
5

--------------------------------
…
tensor([True, True, True, True, True, True, True, True, True, True, True, True,
        True, True, True, True, True, True, True, True, True, True, True, True])
torch.Size([24])
torch.Size([24])
Starting Training Cycle
----------------------------------------------------------------------------------------------------------------------------
                                 Parent Layers             Layer (type)         Output Shape         Param #     Tr. Param #
============================================================================================================================
               RecycleNetwork/EfficientNetLite                 Conv2d-1      [1, 27, 75, 75]             729             729
               RecycleNetwork/EfficientNetLite            BatchNorm2d-2      [1, 27, 75, 75]              54              54
               RecycleNetwork/EfficientNetLite                  ReLU6-3      [1, 27, 75, 75]               0               0
   RecycleNetwork/EfficientNetLite/MBConvBlock                 Conv2d-4      [1, 27, 75, 75]             243             243
   RecycleNetwork/EfficientNetLite/MBConvBlock            BatchNorm2d-5      [1, 27, 75, 75]              54              54
   RecycleNetwork/EfficientNetLite/MBConvBlock                  ReLU6-6      [1, 27, 75, 75]               0               0
   RecycleNetwork/EfficientNetLite/MBConvBlock                 Conv2d-7      [1, 16, 75, 75]             432             432
   RecycleNetwork/EfficientNetLite/MBConvBlock            BatchNorm2d-8      [1, 16, 75, 75]              32              32
   RecycleNetwork/EfficientNetLite/MBConvBlock                 Conv2d-9      [1, 89, 75, 75]           1,424           1,424
   RecycleNetwork/EfficientNetLite/MBConvBlock           BatchNorm2d-10      [1, 89, 75, 75]             178             178
   RecycleNetwork/EfficientNetLite/MBConvBlock                 ReLU6-11      [1, 89, 75, 75]               0               0
   RecycleNetwork/EfficientNetLite/MBConvBlock                Conv2d-12      [1, 89, 38, 38]             801             801
   RecycleNetwork/EfficientNetLite/MBConvBlock           BatchNorm2d-13      [1, 89, 38, 38]             178             178
   RecycleNetwork/EfficientNetLite/MBConvBlock                Conv2d-14      [1, 24, 38, 38]           2,136           2,136
   RecycleNetwork/EfficientNetLite/MBConvBlock           BatchNorm2d-15      [1, 24, 38, 38]              48              48
   RecycleNetwork/EfficientNetLite/MBConvBlock                Conv2d-16     [1, 131, 38, 38]           3,144           3,144
   RecycleNetwork/EfficientNetLite/MBConvBlock           BatchNorm2d-17     [1, 131, 38, 38]             262             262
   RecycleNetwork/EfficientNetLite/MBConvBlock                 ReLU6-18     [1, 131, 38, 38]               0               0
   RecycleNetwork/EfficientNetLite/MBConvBlock                Conv2d-19     [1, 131, 38, 38]           1,179           1,179
   RecycleNetwork/EfficientNetLite/MBConvBlock           BatchNorm2d-20     [1, 131, 38, 38]             262             262
   RecycleNetwork/EfficientNetLite/MBConvBlock                Conv2d-21      [1, 24, 38, 38]           3,144           3,144
   RecycleNetwork/EfficientNetLite/MBConvBlock           BatchNorm2d-22      [1, 24, 38, 38]              48              48
   RecycleNetwork/EfficientNetLite/MBConvBlock                Conv2d-23     [1, 144, 38, 38]           3,456           3,456
   RecycleNetwork/EfficientNetLite/MBConvBlock           BatchNorm2d-24     [1, 144, 38, 38]             288             288
   RecycleNetwork/EfficientNetLite/MBConvBlock                 ReLU6-25     [1, 144, 38, 38]               0               0
   RecycleNetwork/EfficientNetLite/MBConvBlock                Conv2d-26     [1, 144, 19, 19]           3,600           3,600
   RecycleNetwork/EfficientNetLite/MBConvBlock           BatchNorm2d-27     [1, 144, 19, 19]             288             288
   RecycleNetwork/EfficientNetLite/MBConvBlock                Conv2d-28      [1, 40, 19, 19]           5,760           5,760
   RecycleNetwork/EfficientNetLite/MBConvBlock           BatchNorm2d-29      [1, 40, 19, 19]              80              80
   RecycleNetwork/EfficientNetLite/MBConvBlock                Conv2d-30     [1, 240, 19, 19]           9,600           9,600
   RecycleNetwork/EfficientNetLite/MBConvBlock           BatchNorm2d-31     [1, 240, 19, 19]             480             480
   RecycleNetwork/EfficientNetLite/MBConvBlock                 ReLU6-32     [1, 240, 19, 19]               0               0
   RecycleNetwork/EfficientNetLite/MBConvBlock                Conv2d-33     [1, 240, 19, 19]           6,000           6,000
   RecycleNetwork/EfficientNetLite/MBConvBlock           BatchNorm2d-34     [1, 240, 19, 19]             480             480
   RecycleNetwork/EfficientNetLite/MBConvBlock                Conv2d-35      [1, 40, 19, 19]           9,600           9,600
   RecycleNetwork/EfficientNetLite/MBConvBlock           BatchNorm2d-36      [1, 40, 19, 19]              80              80
   RecycleNetwork/EfficientNetLite/MBConvBlock                Conv2d-37     [1, 240, 19, 19]           9,600           9,600
   RecycleNetwork/EfficientNetLite/MBConvBlock           BatchNorm2d-38     [1, 240, 19, 19]             480             480
   RecycleNetwork/EfficientNetLite/MBConvBlock                 ReLU6-39     [1, 240, 19, 19]               0               0
   RecycleNetwork/EfficientNetLite/MBConvBlock                Conv2d-40     [1, 240, 10, 10]           2,160           2,160
   RecycleNetwork/EfficientNetLite/MBConvBlock           BatchNorm2d-41     [1, 240, 10, 10]             480             480
   RecycleNetwork/EfficientNetLite/MBConvBlock                Conv2d-42      [1, 80, 10, 10]          19,200          19,200
   RecycleNetwork/EfficientNetLite/MBConvBlock           BatchNorm2d-43      [1, 80, 10, 10]             160             160
   RecycleNetwork/EfficientNetLite/MBConvBlock                Conv2d-44     [1, 480, 10, 10]          38,400          38,400
   RecycleNetwork/EfficientNetLite/MBConvBlock           BatchNorm2d-45     [1, 480, 10, 10]             960             960
   RecycleNetwork/EfficientNetLite/MBConvBlock                 ReLU6-46     [1, 480, 10, 10]               0               0
   RecycleNetwork/EfficientNetLite/MBConvBlock                Conv2d-47     [1, 480, 10, 10]           4,320           4,320
   RecycleNetwork/EfficientNetLite/MBConvBlock           BatchNorm2d-48     [1, 480, 10, 10]             960             960
   RecycleNetwork/EfficientNetLite/MBConvBlock                Conv2d-49      [1, 80, 10, 10]          38,400          38,400
   RecycleNetwork/EfficientNetLite/MBConvBlock           BatchNorm2d-50      [1, 80, 10, 10]             160             160
   RecycleNetwork/EfficientNetLite/MBConvBlock                Conv2d-51     [1, 480, 10, 10]          38,400          38,400
   RecycleNetwork/EfficientNetLite/MBConvBlock           BatchNorm2d-52     [1, 480, 10, 10]             960             960
   RecycleNetwork/EfficientNetLite/MBConvBlock                 ReLU6-53     [1, 480, 10, 10]               0               0
   RecycleNetwork/EfficientNetLite/MBConvBlock                Conv2d-54     [1, 480, 10, 10]           4,320           4,320
   RecycleNetwork/EfficientNetLite/MBConvBlock           BatchNorm2d-55     [1, 480, 10, 10]             960             960
   RecycleNetwork/EfficientNetLite/MBConvBlock                Conv2d-56      [1, 80, 10, 10]          38,400          38,400
   RecycleNetwork/EfficientNetLite/MBConvBlock           BatchNorm2d-57      [1, 80, 10, 10]             160             160
   RecycleNetwork/EfficientNetLite/MBConvBlock                Conv2d-58     [1, 480, 10, 10]          38,400          38,400
   RecycleNetwork/EfficientNetLite/MBConvBlock           BatchNorm2d-59     [1, 480, 10, 10]             960             960
   RecycleNetwork/EfficientNetLite/MBConvBlock                 ReLU6-60     [1, 480, 10, 10]               0               0
   RecycleNetwork/EfficientNetLite/MBConvBlock                Conv2d-61     [1, 480, 10, 10]          12,000          12,000
   RecycleNetwork/EfficientNetLite/MBConvBlock           BatchNorm2d-62     [1, 480, 10, 10]             960             960
   RecycleNetwork/EfficientNetLite/MBConvBlock                Conv2d-63     [1, 112, 10, 10]          53,760          53,760
   RecycleNetwork/EfficientNetLite/MBConvBlock           BatchNorm2d-64     [1, 112, 10, 10]             224             224
   RecycleNetwork/EfficientNetLite/MBConvBlock                Conv2d-65     [1, 672, 10, 10]          75,264          75,264
   RecycleNetwork/EfficientNetLite/MBConvBlock           BatchNorm2d-66     [1, 672, 10, 10]           1,344           1,344
   RecycleNetwork/EfficientNetLite/MBConvBlock                 ReLU6-67     [1, 672, 10, 10]               0               0
   RecycleNetwork/EfficientNetLite/MBConvBlock                Conv2d-68     [1, 672, 10, 10]          16,800          16,800
   RecycleNetwork/EfficientNetLite/MBConvBlock           BatchNorm2d-69     [1, 672, 10, 10]           1,344           1,344
   RecycleNetwork/EfficientNetLite/MBConvBlock                Conv2d-70     [1, 112, 10, 10]          75,264          75,264
   RecycleNetwork/EfficientNetLite/MBConvBlock           BatchNorm2d-71     [1, 112, 10, 10]             224             224
   RecycleNetwork/EfficientNetLite/MBConvBlock                Conv2d-72     [1, 672, 10, 10]          75,264          75,264
   RecycleNetwork/EfficientNetLite/MBConvBlock           BatchNorm2d-73     [1, 672, 10, 10]           1,344           1,344
   RecycleNetwork/EfficientNetLite/MBConvBlock                 ReLU6-74     [1, 672, 10, 10]               0               0
   RecycleNetwork/EfficientNetLite/MBConvBlock                Conv2d-75     [1, 672, 10, 10]          16,800          16,800
   RecycleNetwork/EfficientNetLite/MBConvBlock           BatchNorm2d-76     [1, 672, 10, 10]           1,344           1,344
   RecycleNetwork/EfficientNetLite/MBConvBlock                Conv2d-77     [1, 112, 10, 10]          75,264          75,264
   RecycleNetwork/EfficientNetLite/MBConvBlock           BatchNorm2d-78     [1, 112, 10, 10]             224             224
   RecycleNetwork/EfficientNetLite/MBConvBlock                Conv2d-79     [1, 672, 10, 10]          75,264          75,264
   RecycleNetwork/EfficientNetLite/MBConvBlock           BatchNorm2d-80     [1, 672, 10, 10]           1,344           1,344
   RecycleNetwork/EfficientNetLite/MBConvBlock                 ReLU6-81     [1, 672, 10, 10]               0               0
   RecycleNetwork/EfficientNetLite/MBConvBlock                Conv2d-82       [1, 672, 5, 5]          16,800          16,800
   RecycleNetwork/EfficientNetLite/MBConvBlock           BatchNorm2d-83       [1, 672, 5, 5]           1,344           1,344
   RecycleNetwork/EfficientNetLite/MBConvBlock                Conv2d-84       [1, 192, 5, 5]         129,024         129,024
   RecycleNetwork/EfficientNetLite/MBConvBlock           BatchNorm2d-85       [1, 192, 5, 5]             384             384
   RecycleNetwork/EfficientNetLite/MBConvBlock                Conv2d-86      [1, 1152, 5, 5]         221,184         221,184
   RecycleNetwork/EfficientNetLite/MBConvBlock           BatchNorm2d-87      [1, 1152, 5, 5]           2,304           2,304
   RecycleNetwork/EfficientNetLite/MBConvBlock                 ReLU6-88      [1, 1152, 5, 5]               0               0
   RecycleNetwork/EfficientNetLite/MBConvBlock                Conv2d-89      [1, 1152, 5, 5]          28,800          28,800
   RecycleNetwork/EfficientNetLite/MBConvBlock           BatchNorm2d-90      [1, 1152, 5, 5]           2,304           2,304
   RecycleNetwork/EfficientNetLite/MBConvBlock                Conv2d-91       [1, 192, 5, 5]         221,184         221,184
   RecycleNetwork/EfficientNetLite/MBConvBlock           BatchNorm2d-92       [1, 192, 5, 5]             384             384
   RecycleNetwork/EfficientNetLite/MBConvBlock                Conv2d-93      [1, 1152, 5, 5]         221,184         221,184
   RecycleNetwork/EfficientNetLite/MBConvBlock           BatchNorm2d-94      [1, 1152, 5, 5]           2,304           2,304
   RecycleNetwork/EfficientNetLite/MBConvBlock                 ReLU6-95      [1, 1152, 5, 5]               0               0
   RecycleNetwork/EfficientNetLite/MBConvBlock                Conv2d-96      [1, 1152, 5, 5]          28,800          28,800
   RecycleNetwork/EfficientNetLite/MBConvBlock           BatchNorm2d-97      [1, 1152, 5, 5]           2,304           2,304
   RecycleNetwork/EfficientNetLite/MBConvBlock                Conv2d-98       [1, 192, 5, 5]         221,184         221,184
   RecycleNetwork/EfficientNetLite/MBConvBlock           BatchNorm2d-99       [1, 192, 5, 5]             384             384
   RecycleNetwork/EfficientNetLite/MBConvBlock               Conv2d-100      [1, 1152, 5, 5]         221,184         221,184
   RecycleNetwork/EfficientNetLite/MBConvBlock          BatchNorm2d-101      [1, 1152, 5, 5]           2,304           2,304
   RecycleNetwork/EfficientNetLite/MBConvBlock                ReLU6-102      [1, 1152, 5, 5]               0               0
   RecycleNetwork/EfficientNetLite/MBConvBlock               Conv2d-103      [1, 1152, 5, 5]          28,800          28,800
   RecycleNetwork/EfficientNetLite/MBConvBlock          BatchNorm2d-104      [1, 1152, 5, 5]           2,304           2,304
   RecycleNetwork/EfficientNetLite/MBConvBlock               Conv2d-105       [1, 192, 5, 5]         221,184         221,184
   RecycleNetwork/EfficientNetLite/MBConvBlock          BatchNorm2d-106       [1, 192, 5, 5]             384             384
   RecycleNetwork/EfficientNetLite/MBConvBlock               Conv2d-107      [1, 1152, 5, 5]         221,184         221,184
   RecycleNetwork/EfficientNetLite/MBConvBlock          BatchNorm2d-108      [1, 1152, 5, 5]           2,304           2,304
   RecycleNetwork/EfficientNetLite/MBConvBlock                ReLU6-109      [1, 1152, 5, 5]               0               0
   RecycleNetwork/EfficientNetLite/MBConvBlock               Conv2d-110      [1, 1152, 5, 5]          10,368          10,368
   RecycleNetwork/EfficientNetLite/MBConvBlock          BatchNorm2d-111      [1, 1152, 5, 5]           2,304           2,304
   RecycleNetwork/EfficientNetLite/MBConvBlock               Conv2d-112       [1, 320, 5, 5]         368,640         368,640
   RecycleNetwork/EfficientNetLite/MBConvBlock          BatchNorm2d-113       [1, 320, 5, 5]             640             640
               RecycleNetwork/EfficientNetLite               Conv2d-114      [1, 1280, 5, 5]         409,600         409,600
               RecycleNetwork/EfficientNetLite          BatchNorm2d-115      [1, 1280, 5, 5]           2,560           2,560
               RecycleNetwork/EfficientNetLite                ReLU6-116      [1, 1280, 5, 5]               0               0
               RecycleNetwork/EfficientNetLite    AdaptiveAvgPool2d-117      [1, 1280, 1, 1]               0               0
               RecycleNetwork/EfficientNetLite              Dropout-118            [1, 1280]               0               0
               RecycleNetwork/EfficientNetLite               Linear-119               [1, 5]           6,405           6,405
============================================================================================================================
Total params: 3,375,969
Trainable params: 3,375,969
Non-trainable params: 0
----------------------------------------------------------------------------------------------------------------------------
Ended Training Cycle
backbone.blocks.2.0._expand_conv
5

--------------------------------
…
        True, True, True, True, True, True, True, True, True, True, True, True,
        True, True, True, True])
torch.Size([40])
torch.Size([40])
Starting Training Cycle
----------------------------------------------------------------------------------------------------------------------------
                                 Parent Layers             Layer (type)         Output Shape         Param #     Tr. Param #
============================================================================================================================
               RecycleNetwork/EfficientNetLite                 Conv2d-1      [1, 27, 75, 75]             729             729
               RecycleNetwork/EfficientNetLite            BatchNorm2d-2      [1, 27, 75, 75]              54              54
               RecycleNetwork/EfficientNetLite                  ReLU6-3      [1, 27, 75, 75]               0               0
   RecycleNetwork/EfficientNetLite/MBConvBlock                 Conv2d-4      [1, 27, 75, 75]             243             243
   RecycleNetwork/EfficientNetLite/MBConvBlock            BatchNorm2d-5      [1, 27, 75, 75]              54              54
   RecycleNetwork/EfficientNetLite/MBConvBlock                  ReLU6-6      [1, 27, 75, 75]               0               0
   RecycleNetwork/EfficientNetLite/MBConvBlock                 Conv2d-7      [1, 16, 75, 75]             432             432
   RecycleNetwork/EfficientNetLite/MBConvBlock            BatchNorm2d-8      [1, 16, 75, 75]              32              32
   RecycleNetwork/EfficientNetLite/MBConvBlock                 Conv2d-9      [1, 89, 75, 75]           1,424           1,424
   RecycleNetwork/EfficientNetLite/MBConvBlock           BatchNorm2d-10      [1, 89, 75, 75]             178             178
   RecycleNetwork/EfficientNetLite/MBConvBlock                 ReLU6-11      [1, 89, 75, 75]               0               0
   RecycleNetwork/EfficientNetLite/MBConvBlock                Conv2d-12      [1, 89, 38, 38]             801             801
   RecycleNetwork/EfficientNetLite/MBConvBlock           BatchNorm2d-13      [1, 89, 38, 38]             178             178
   RecycleNetwork/EfficientNetLite/MBConvBlock                Conv2d-14      [1, 24, 38, 38]           2,136           2,136
   RecycleNetwork/EfficientNetLite/MBConvBlock           BatchNorm2d-15      [1, 24, 38, 38]              48              48
   RecycleNetwork/EfficientNetLite/MBConvBlock                Conv2d-16     [1, 131, 38, 38]           3,144           3,144
   RecycleNetwork/EfficientNetLite/MBConvBlock           BatchNorm2d-17     [1, 131, 38, 38]             262             262
   RecycleNetwork/EfficientNetLite/MBConvBlock                 ReLU6-18     [1, 131, 38, 38]               0               0
   RecycleNetwork/EfficientNetLite/MBConvBlock                Conv2d-19     [1, 131, 38, 38]           1,179           1,179
   RecycleNetwork/EfficientNetLite/MBConvBlock           BatchNorm2d-20     [1, 131, 38, 38]             262             262
   RecycleNetwork/EfficientNetLite/MBConvBlock                Conv2d-21      [1, 24, 38, 38]           3,144           3,144
   RecycleNetwork/EfficientNetLite/MBConvBlock           BatchNorm2d-22      [1, 24, 38, 38]              48              48
   RecycleNetwork/EfficientNetLite/MBConvBlock                Conv2d-23     [1, 139, 38, 38]           3,336           3,336
   RecycleNetwork/EfficientNetLite/MBConvBlock           BatchNorm2d-24     [1, 139, 38, 38]             278             278
   RecycleNetwork/EfficientNetLite/MBConvBlock                 ReLU6-25     [1, 139, 38, 38]               0               0
   RecycleNetwork/EfficientNetLite/MBConvBlock                Conv2d-26     [1, 139, 19, 19]           3,475           3,475
   RecycleNetwork/EfficientNetLite/MBConvBlock           BatchNorm2d-27     [1, 139, 19, 19]             278             278
   RecycleNetwork/EfficientNetLite/MBConvBlock                Conv2d-28      [1, 40, 19, 19]           5,560           5,560
   RecycleNetwork/EfficientNetLite/MBConvBlock           BatchNorm2d-29      [1, 40, 19, 19]              80              80
   RecycleNetwork/EfficientNetLite/MBConvBlock                Conv2d-30     [1, 240, 19, 19]           9,600           9,600
   RecycleNetwork/EfficientNetLite/MBConvBlock           BatchNorm2d-31     [1, 240, 19, 19]             480             480
   RecycleNetwork/EfficientNetLite/MBConvBlock                 ReLU6-32     [1, 240, 19, 19]               0               0
   RecycleNetwork/EfficientNetLite/MBConvBlock                Conv2d-33     [1, 240, 19, 19]           6,000           6,000
   RecycleNetwork/EfficientNetLite/MBConvBlock           BatchNorm2d-34     [1, 240, 19, 19]             480             480
   RecycleNetwork/EfficientNetLite/MBConvBlock                Conv2d-35      [1, 40, 19, 19]           9,600           9,600
   RecycleNetwork/EfficientNetLite/MBConvBlock           BatchNorm2d-36      [1, 40, 19, 19]              80              80
   RecycleNetwork/EfficientNetLite/MBConvBlock                Conv2d-37     [1, 240, 19, 19]           9,600           9,600
   RecycleNetwork/EfficientNetLite/MBConvBlock           BatchNorm2d-38     [1, 240, 19, 19]             480             480
   RecycleNetwork/EfficientNetLite/MBConvBlock                 ReLU6-39     [1, 240, 19, 19]               0               0
   RecycleNetwork/EfficientNetLite/MBConvBlock                Conv2d-40     [1, 240, 10, 10]           2,160           2,160
   RecycleNetwork/EfficientNetLite/MBConvBlock           BatchNorm2d-41     [1, 240, 10, 10]             480             480
   RecycleNetwork/EfficientNetLite/MBConvBlock                Conv2d-42      [1, 80, 10, 10]          19,200          19,200
   RecycleNetwork/EfficientNetLite/MBConvBlock           BatchNorm2d-43      [1, 80, 10, 10]             160             160
   RecycleNetwork/EfficientNetLite/MBConvBlock                Conv2d-44     [1, 480, 10, 10]          38,400          38,400
   RecycleNetwork/EfficientNetLite/MBConvBlock           BatchNorm2d-45     [1, 480, 10, 10]             960             960
   RecycleNetwork/EfficientNetLite/MBConvBlock                 ReLU6-46     [1, 480, 10, 10]               0               0
   RecycleNetwork/EfficientNetLite/MBConvBlock                Conv2d-47     [1, 480, 10, 10]           4,320           4,320
   RecycleNetwork/EfficientNetLite/MBConvBlock           BatchNorm2d-48     [1, 480, 10, 10]             960             960
   RecycleNetwork/EfficientNetLite/MBConvBlock                Conv2d-49      [1, 80, 10, 10]          38,400          38,400
   RecycleNetwork/EfficientNetLite/MBConvBlock           BatchNorm2d-50      [1, 80, 10, 10]             160             160
   RecycleNetwork/EfficientNetLite/MBConvBlock                Conv2d-51     [1, 480, 10, 10]          38,400          38,400
   RecycleNetwork/EfficientNetLite/MBConvBlock           BatchNorm2d-52     [1, 480, 10, 10]             960             960
   RecycleNetwork/EfficientNetLite/MBConvBlock                 ReLU6-53     [1, 480, 10, 10]               0               0
   RecycleNetwork/EfficientNetLite/MBConvBlock                Conv2d-54     [1, 480, 10, 10]           4,320           4,320
   RecycleNetwork/EfficientNetLite/MBConvBlock           BatchNorm2d-55     [1, 480, 10, 10]             960             960
   RecycleNetwork/EfficientNetLite/MBConvBlock                Conv2d-56      [1, 80, 10, 10]          38,400          38,400
   RecycleNetwork/EfficientNetLite/MBConvBlock           BatchNorm2d-57      [1, 80, 10, 10]             160             160
   RecycleNetwork/EfficientNetLite/MBConvBlock                Conv2d-58     [1, 480, 10, 10]          38,400          38,400
   RecycleNetwork/EfficientNetLite/MBConvBlock           BatchNorm2d-59     [1, 480, 10, 10]             960             960
   RecycleNetwork/EfficientNetLite/MBConvBlock                 ReLU6-60     [1, 480, 10, 10]               0               0
   RecycleNetwork/EfficientNetLite/MBConvBlock                Conv2d-61     [1, 480, 10, 10]          12,000          12,000
   RecycleNetwork/EfficientNetLite/MBConvBlock           BatchNorm2d-62     [1, 480, 10, 10]             960             960
   RecycleNetwork/EfficientNetLite/MBConvBlock                Conv2d-63     [1, 112, 10, 10]          53,760          53,760
   RecycleNetwork/EfficientNetLite/MBConvBlock           BatchNorm2d-64     [1, 112, 10, 10]             224             224
   RecycleNetwork/EfficientNetLite/MBConvBlock                Conv2d-65     [1, 672, 10, 10]          75,264          75,264
   RecycleNetwork/EfficientNetLite/MBConvBlock           BatchNorm2d-66     [1, 672, 10, 10]           1,344           1,344
   RecycleNetwork/EfficientNetLite/MBConvBlock                 ReLU6-67     [1, 672, 10, 10]               0               0
   RecycleNetwork/EfficientNetLite/MBConvBlock                Conv2d-68     [1, 672, 10, 10]          16,800          16,800
   RecycleNetwork/EfficientNetLite/MBConvBlock           BatchNorm2d-69     [1, 672, 10, 10]           1,344           1,344
   RecycleNetwork/EfficientNetLite/MBConvBlock                Conv2d-70     [1, 112, 10, 10]          75,264          75,264
   RecycleNetwork/EfficientNetLite/MBConvBlock           BatchNorm2d-71     [1, 112, 10, 10]             224             224
   RecycleNetwork/EfficientNetLite/MBConvBlock                Conv2d-72     [1, 672, 10, 10]          75,264          75,264
   RecycleNetwork/EfficientNetLite/MBConvBlock           BatchNorm2d-73     [1, 672, 10, 10]           1,344           1,344
   RecycleNetwork/EfficientNetLite/MBConvBlock                 ReLU6-74     [1, 672, 10, 10]               0               0
   RecycleNetwork/EfficientNetLite/MBConvBlock                Conv2d-75     [1, 672, 10, 10]          16,800          16,800
   RecycleNetwork/EfficientNetLite/MBConvBlock           BatchNorm2d-76     [1, 672, 10, 10]           1,344           1,344
   RecycleNetwork/EfficientNetLite/MBConvBlock                Conv2d-77     [1, 112, 10, 10]          75,264          75,264
   RecycleNetwork/EfficientNetLite/MBConvBlock           BatchNorm2d-78     [1, 112, 10, 10]             224             224
   RecycleNetwork/EfficientNetLite/MBConvBlock                Conv2d-79     [1, 672, 10, 10]          75,264          75,264
   RecycleNetwork/EfficientNetLite/MBConvBlock           BatchNorm2d-80     [1, 672, 10, 10]           1,344           1,344
   RecycleNetwork/EfficientNetLite/MBConvBlock                 ReLU6-81     [1, 672, 10, 10]               0               0
   RecycleNetwork/EfficientNetLite/MBConvBlock                Conv2d-82       [1, 672, 5, 5]          16,800          16,800
   RecycleNetwork/EfficientNetLite/MBConvBlock           BatchNorm2d-83       [1, 672, 5, 5]           1,344           1,344
   RecycleNetwork/EfficientNetLite/MBConvBlock                Conv2d-84       [1, 192, 5, 5]         129,024         129,024
   RecycleNetwork/EfficientNetLite/MBConvBlock           BatchNorm2d-85       [1, 192, 5, 5]             384             384
   RecycleNetwork/EfficientNetLite/MBConvBlock                Conv2d-86      [1, 1152, 5, 5]         221,184         221,184
   RecycleNetwork/EfficientNetLite/MBConvBlock           BatchNorm2d-87      [1, 1152, 5, 5]           2,304           2,304
   RecycleNetwork/EfficientNetLite/MBConvBlock                 ReLU6-88      [1, 1152, 5, 5]               0               0
   RecycleNetwork/EfficientNetLite/MBConvBlock                Conv2d-89      [1, 1152, 5, 5]          28,800          28,800
   RecycleNetwork/EfficientNetLite/MBConvBlock           BatchNorm2d-90      [1, 1152, 5, 5]           2,304           2,304
   RecycleNetwork/EfficientNetLite/MBConvBlock                Conv2d-91       [1, 192, 5, 5]         221,184         221,184
   RecycleNetwork/EfficientNetLite/MBConvBlock           BatchNorm2d-92       [1, 192, 5, 5]             384             384
   RecycleNetwork/EfficientNetLite/MBConvBlock                Conv2d-93      [1, 1152, 5, 5]         221,184         221,184
   RecycleNetwork/EfficientNetLite/MBConvBlock           BatchNorm2d-94      [1, 1152, 5, 5]           2,304           2,304
   RecycleNetwork/EfficientNetLite/MBConvBlock                 ReLU6-95      [1, 1152, 5, 5]               0               0
   RecycleNetwork/EfficientNetLite/MBConvBlock                Conv2d-96      [1, 1152, 5, 5]          28,800          28,800
   RecycleNetwork/EfficientNetLite/MBConvBlock           BatchNorm2d-97      [1, 1152, 5, 5]           2,304           2,304
   RecycleNetwork/EfficientNetLite/MBConvBlock                Conv2d-98       [1, 192, 5, 5]         221,184         221,184
   RecycleNetwork/EfficientNetLite/MBConvBlock           BatchNorm2d-99       [1, 192, 5, 5]             384             384
   RecycleNetwork/EfficientNetLite/MBConvBlock               Conv2d-100      [1, 1152, 5, 5]         221,184         221,184
   RecycleNetwork/EfficientNetLite/MBConvBlock          BatchNorm2d-101      [1, 1152, 5, 5]           2,304           2,304
   RecycleNetwork/EfficientNetLite/MBConvBlock                ReLU6-102      [1, 1152, 5, 5]               0               0
   RecycleNetwork/EfficientNetLite/MBConvBlock               Conv2d-103      [1, 1152, 5, 5]          28,800          28,800
   RecycleNetwork/EfficientNetLite/MBConvBlock          BatchNorm2d-104      [1, 1152, 5, 5]           2,304           2,304
   RecycleNetwork/EfficientNetLite/MBConvBlock               Conv2d-105       [1, 192, 5, 5]         221,184         221,184
   RecycleNetwork/EfficientNetLite/MBConvBlock          BatchNorm2d-106       [1, 192, 5, 5]             384             384
   RecycleNetwork/EfficientNetLite/MBConvBlock               Conv2d-107      [1, 1152, 5, 5]         221,184         221,184
   RecycleNetwork/EfficientNetLite/MBConvBlock          BatchNorm2d-108      [1, 1152, 5, 5]           2,304           2,304
   RecycleNetwork/EfficientNetLite/MBConvBlock                ReLU6-109      [1, 1152, 5, 5]               0               0
   RecycleNetwork/EfficientNetLite/MBConvBlock               Conv2d-110      [1, 1152, 5, 5]          10,368          10,368
   RecycleNetwork/EfficientNetLite/MBConvBlock          BatchNorm2d-111      [1, 1152, 5, 5]           2,304           2,304
   RecycleNetwork/EfficientNetLite/MBConvBlock               Conv2d-112       [1, 320, 5, 5]         368,640         368,640
   RecycleNetwork/EfficientNetLite/MBConvBlock          BatchNorm2d-113       [1, 320, 5, 5]             640             640
               RecycleNetwork/EfficientNetLite               Conv2d-114      [1, 1280, 5, 5]         409,600         409,600
               RecycleNetwork/EfficientNetLite          BatchNorm2d-115      [1, 1280, 5, 5]           2,560           2,560
               RecycleNetwork/EfficientNetLite                ReLU6-116      [1, 1280, 5, 5]               0               0
               RecycleNetwork/EfficientNetLite    AdaptiveAvgPool2d-117      [1, 1280, 1, 1]               0               0
               RecycleNetwork/EfficientNetLite              Dropout-118            [1, 1280]               0               0
               RecycleNetwork/EfficientNetLite               Linear-119               [1, 5]           6,405           6,405
============================================================================================================================
Total params: 3,375,504
Trainable params: 3,375,504
Non-trainable params: 0
----------------------------------------------------------------------------------------------------------------------------
Ended Training Cycle
backbone.blocks.2.1._expand_conv
8

--------------------------------
…
        True, True, True, True, True, True, True, True, True, True, True, True,
        True, True, True, True])
torch.Size([40])
torch.Size([40])
Starting Training Cycle
----------------------------------------------------------------------------------------------------------------------------
                                 Parent Layers             Layer (type)         Output Shape         Param #     Tr. Param #
============================================================================================================================
               RecycleNetwork/EfficientNetLite                 Conv2d-1      [1, 27, 75, 75]             729             729
               RecycleNetwork/EfficientNetLite            BatchNorm2d-2      [1, 27, 75, 75]              54              54
               RecycleNetwork/EfficientNetLite                  ReLU6-3      [1, 27, 75, 75]               0               0
   RecycleNetwork/EfficientNetLite/MBConvBlock                 Conv2d-4      [1, 27, 75, 75]             243             243
   RecycleNetwork/EfficientNetLite/MBConvBlock            BatchNorm2d-5      [1, 27, 75, 75]              54              54
   RecycleNetwork/EfficientNetLite/MBConvBlock                  ReLU6-6      [1, 27, 75, 75]               0               0
   RecycleNetwork/EfficientNetLite/MBConvBlock                 Conv2d-7      [1, 16, 75, 75]             432             432
   RecycleNetwork/EfficientNetLite/MBConvBlock            BatchNorm2d-8      [1, 16, 75, 75]              32              32
   RecycleNetwork/EfficientNetLite/MBConvBlock                 Conv2d-9      [1, 89, 75, 75]           1,424           1,424
   RecycleNetwork/EfficientNetLite/MBConvBlock           BatchNorm2d-10      [1, 89, 75, 75]             178             178
   RecycleNetwork/EfficientNetLite/MBConvBlock                 ReLU6-11      [1, 89, 75, 75]               0               0
   RecycleNetwork/EfficientNetLite/MBConvBlock                Conv2d-12      [1, 89, 38, 38]             801             801
   RecycleNetwork/EfficientNetLite/MBConvBlock           BatchNorm2d-13      [1, 89, 38, 38]             178             178
   RecycleNetwork/EfficientNetLite/MBConvBlock                Conv2d-14      [1, 24, 38, 38]           2,136           2,136
   RecycleNetwork/EfficientNetLite/MBConvBlock           BatchNorm2d-15      [1, 24, 38, 38]              48              48
   RecycleNetwork/EfficientNetLite/MBConvBlock                Conv2d-16     [1, 131, 38, 38]           3,144           3,144
   RecycleNetwork/EfficientNetLite/MBConvBlock           BatchNorm2d-17     [1, 131, 38, 38]             262             262
   RecycleNetwork/EfficientNetLite/MBConvBlock                 ReLU6-18     [1, 131, 38, 38]               0               0
   RecycleNetwork/EfficientNetLite/MBConvBlock                Conv2d-19     [1, 131, 38, 38]           1,179           1,179
   RecycleNetwork/EfficientNetLite/MBConvBlock           BatchNorm2d-20     [1, 131, 38, 38]             262             262
   RecycleNetwork/EfficientNetLite/MBConvBlock                Conv2d-21      [1, 24, 38, 38]           3,144           3,144
   RecycleNetwork/EfficientNetLite/MBConvBlock           BatchNorm2d-22      [1, 24, 38, 38]              48              48
   RecycleNetwork/EfficientNetLite/MBConvBlock                Conv2d-23     [1, 139, 38, 38]           3,336           3,336
   RecycleNetwork/EfficientNetLite/MBConvBlock           BatchNorm2d-24     [1, 139, 38, 38]             278             278
   RecycleNetwork/EfficientNetLite/MBConvBlock                 ReLU6-25     [1, 139, 38, 38]               0               0
   RecycleNetwork/EfficientNetLite/MBConvBlock                Conv2d-26     [1, 139, 19, 19]           3,475           3,475
   RecycleNetwork/EfficientNetLite/MBConvBlock           BatchNorm2d-27     [1, 139, 19, 19]             278             278
   RecycleNetwork/EfficientNetLite/MBConvBlock                Conv2d-28      [1, 40, 19, 19]           5,560           5,560
   RecycleNetwork/EfficientNetLite/MBConvBlock           BatchNorm2d-29      [1, 40, 19, 19]              80              80
   RecycleNetwork/EfficientNetLite/MBConvBlock                Conv2d-30     [1, 210, 19, 19]           8,400           8,400
   RecycleNetwork/EfficientNetLite/MBConvBlock           BatchNorm2d-31     [1, 210, 19, 19]             420             420
   RecycleNetwork/EfficientNetLite/MBConvBlock                 ReLU6-32     [1, 210, 19, 19]               0               0
   RecycleNetwork/EfficientNetLite/MBConvBlock                Conv2d-33     [1, 210, 19, 19]           5,250           5,250
   RecycleNetwork/EfficientNetLite/MBConvBlock           BatchNorm2d-34     [1, 210, 19, 19]             420             420
   RecycleNetwork/EfficientNetLite/MBConvBlock                Conv2d-35      [1, 40, 19, 19]           8,400           8,400
   RecycleNetwork/EfficientNetLite/MBConvBlock           BatchNorm2d-36      [1, 40, 19, 19]              80              80
   RecycleNetwork/EfficientNetLite/MBConvBlock                Conv2d-37     [1, 240, 19, 19]           9,600           9,600
   RecycleNetwork/EfficientNetLite/MBConvBlock           BatchNorm2d-38     [1, 240, 19, 19]             480             480
   RecycleNetwork/EfficientNetLite/MBConvBlock                 ReLU6-39     [1, 240, 19, 19]               0               0
   RecycleNetwork/EfficientNetLite/MBConvBlock                Conv2d-40     [1, 240, 10, 10]           2,160           2,160
   RecycleNetwork/EfficientNetLite/MBConvBlock           BatchNorm2d-41     [1, 240, 10, 10]             480             480
   RecycleNetwork/EfficientNetLite/MBConvBlock                Conv2d-42      [1, 80, 10, 10]          19,200          19,200
   RecycleNetwork/EfficientNetLite/MBConvBlock           BatchNorm2d-43      [1, 80, 10, 10]             160             160
   RecycleNetwork/EfficientNetLite/MBConvBlock                Conv2d-44     [1, 480, 10, 10]          38,400          38,400
   RecycleNetwork/EfficientNetLite/MBConvBlock           BatchNorm2d-45     [1, 480, 10, 10]             960             960
   RecycleNetwork/EfficientNetLite/MBConvBlock                 ReLU6-46     [1, 480, 10, 10]               0               0
   RecycleNetwork/EfficientNetLite/MBConvBlock                Conv2d-47     [1, 480, 10, 10]           4,320           4,320
   RecycleNetwork/EfficientNetLite/MBConvBlock           BatchNorm2d-48     [1, 480, 10, 10]             960             960
   RecycleNetwork/EfficientNetLite/MBConvBlock                Conv2d-49      [1, 80, 10, 10]          38,400          38,400
   RecycleNetwork/EfficientNetLite/MBConvBlock           BatchNorm2d-50      [1, 80, 10, 10]             160             160
   RecycleNetwork/EfficientNetLite/MBConvBlock                Conv2d-51     [1, 480, 10, 10]          38,400          38,400
   RecycleNetwork/EfficientNetLite/MBConvBlock           BatchNorm2d-52     [1, 480, 10, 10]             960             960
   RecycleNetwork/EfficientNetLite/MBConvBlock                 ReLU6-53     [1, 480, 10, 10]               0               0
   RecycleNetwork/EfficientNetLite/MBConvBlock                Conv2d-54     [1, 480, 10, 10]           4,320           4,320
   RecycleNetwork/EfficientNetLite/MBConvBlock           BatchNorm2d-55     [1, 480, 10, 10]             960             960
   RecycleNetwork/EfficientNetLite/MBConvBlock                Conv2d-56      [1, 80, 10, 10]          38,400          38,400
   RecycleNetwork/EfficientNetLite/MBConvBlock           BatchNorm2d-57      [1, 80, 10, 10]             160             160
   RecycleNetwork/EfficientNetLite/MBConvBlock                Conv2d-58     [1, 480, 10, 10]          38,400          38,400
   RecycleNetwork/EfficientNetLite/MBConvBlock           BatchNorm2d-59     [1, 480, 10, 10]             960             960
   RecycleNetwork/EfficientNetLite/MBConvBlock                 ReLU6-60     [1, 480, 10, 10]               0               0
   RecycleNetwork/EfficientNetLite/MBConvBlock                Conv2d-61     [1, 480, 10, 10]          12,000          12,000
   RecycleNetwork/EfficientNetLite/MBConvBlock           BatchNorm2d-62     [1, 480, 10, 10]             960             960
   RecycleNetwork/EfficientNetLite/MBConvBlock                Conv2d-63     [1, 112, 10, 10]          53,760          53,760
   RecycleNetwork/EfficientNetLite/MBConvBlock           BatchNorm2d-64     [1, 112, 10, 10]             224             224
   RecycleNetwork/EfficientNetLite/MBConvBlock                Conv2d-65     [1, 672, 10, 10]          75,264          75,264
   RecycleNetwork/EfficientNetLite/MBConvBlock           BatchNorm2d-66     [1, 672, 10, 10]           1,344           1,344
   RecycleNetwork/EfficientNetLite/MBConvBlock                 ReLU6-67     [1, 672, 10, 10]               0               0
   RecycleNetwork/EfficientNetLite/MBConvBlock                Conv2d-68     [1, 672, 10, 10]          16,800          16,800
   RecycleNetwork/EfficientNetLite/MBConvBlock           BatchNorm2d-69     [1, 672, 10, 10]           1,344           1,344
   RecycleNetwork/EfficientNetLite/MBConvBlock                Conv2d-70     [1, 112, 10, 10]          75,264          75,264
   RecycleNetwork/EfficientNetLite/MBConvBlock           BatchNorm2d-71     [1, 112, 10, 10]             224             224
   RecycleNetwork/EfficientNetLite/MBConvBlock                Conv2d-72     [1, 672, 10, 10]          75,264          75,264
   RecycleNetwork/EfficientNetLite/MBConvBlock           BatchNorm2d-73     [1, 672, 10, 10]           1,344           1,344
   RecycleNetwork/EfficientNetLite/MBConvBlock                 ReLU6-74     [1, 672, 10, 10]               0               0
   RecycleNetwork/EfficientNetLite/MBConvBlock                Conv2d-75     [1, 672, 10, 10]          16,800          16,800
   RecycleNetwork/EfficientNetLite/MBConvBlock           BatchNorm2d-76     [1, 672, 10, 10]           1,344           1,344
   RecycleNetwork/EfficientNetLite/MBConvBlock                Conv2d-77     [1, 112, 10, 10]          75,264          75,264
   RecycleNetwork/EfficientNetLite/MBConvBlock           BatchNorm2d-78     [1, 112, 10, 10]             224             224
   RecycleNetwork/EfficientNetLite/MBConvBlock                Conv2d-79     [1, 672, 10, 10]          75,264          75,264
   RecycleNetwork/EfficientNetLite/MBConvBlock           BatchNorm2d-80     [1, 672, 10, 10]           1,344           1,344
   RecycleNetwork/EfficientNetLite/MBConvBlock                 ReLU6-81     [1, 672, 10, 10]               0               0
   RecycleNetwork/EfficientNetLite/MBConvBlock                Conv2d-82       [1, 672, 5, 5]          16,800          16,800
   RecycleNetwork/EfficientNetLite/MBConvBlock           BatchNorm2d-83       [1, 672, 5, 5]           1,344           1,344
   RecycleNetwork/EfficientNetLite/MBConvBlock                Conv2d-84       [1, 192, 5, 5]         129,024         129,024
   RecycleNetwork/EfficientNetLite/MBConvBlock           BatchNorm2d-85       [1, 192, 5, 5]             384             384
   RecycleNetwork/EfficientNetLite/MBConvBlock                Conv2d-86      [1, 1152, 5, 5]         221,184         221,184
   RecycleNetwork/EfficientNetLite/MBConvBlock           BatchNorm2d-87      [1, 1152, 5, 5]           2,304           2,304
   RecycleNetwork/EfficientNetLite/MBConvBlock                 ReLU6-88      [1, 1152, 5, 5]               0               0
   RecycleNetwork/EfficientNetLite/MBConvBlock                Conv2d-89      [1, 1152, 5, 5]          28,800          28,800
   RecycleNetwork/EfficientNetLite/MBConvBlock           BatchNorm2d-90      [1, 1152, 5, 5]           2,304           2,304
   RecycleNetwork/EfficientNetLite/MBConvBlock                Conv2d-91       [1, 192, 5, 5]         221,184         221,184
   RecycleNetwork/EfficientNetLite/MBConvBlock           BatchNorm2d-92       [1, 192, 5, 5]             384             384
   RecycleNetwork/EfficientNetLite/MBConvBlock                Conv2d-93      [1, 1152, 5, 5]         221,184         221,184
   RecycleNetwork/EfficientNetLite/MBConvBlock           BatchNorm2d-94      [1, 1152, 5, 5]           2,304           2,304
   RecycleNetwork/EfficientNetLite/MBConvBlock                 ReLU6-95      [1, 1152, 5, 5]               0               0
   RecycleNetwork/EfficientNetLite/MBConvBlock                Conv2d-96      [1, 1152, 5, 5]          28,800          28,800
   RecycleNetwork/EfficientNetLite/MBConvBlock           BatchNorm2d-97      [1, 1152, 5, 5]           2,304           2,304
   RecycleNetwork/EfficientNetLite/MBConvBlock                Conv2d-98       [1, 192, 5, 5]         221,184         221,184
   RecycleNetwork/EfficientNetLite/MBConvBlock           BatchNorm2d-99       [1, 192, 5, 5]             384             384
   RecycleNetwork/EfficientNetLite/MBConvBlock               Conv2d-100      [1, 1152, 5, 5]         221,184         221,184
   RecycleNetwork/EfficientNetLite/MBConvBlock          BatchNorm2d-101      [1, 1152, 5, 5]           2,304           2,304
   RecycleNetwork/EfficientNetLite/MBConvBlock                ReLU6-102      [1, 1152, 5, 5]               0               0
   RecycleNetwork/EfficientNetLite/MBConvBlock               Conv2d-103      [1, 1152, 5, 5]          28,800          28,800
   RecycleNetwork/EfficientNetLite/MBConvBlock          BatchNorm2d-104      [1, 1152, 5, 5]           2,304           2,304
   RecycleNetwork/EfficientNetLite/MBConvBlock               Conv2d-105       [1, 192, 5, 5]         221,184         221,184
   RecycleNetwork/EfficientNetLite/MBConvBlock          BatchNorm2d-106       [1, 192, 5, 5]             384             384
   RecycleNetwork/EfficientNetLite/MBConvBlock               Conv2d-107      [1, 1152, 5, 5]         221,184         221,184
   RecycleNetwork/EfficientNetLite/MBConvBlock          BatchNorm2d-108      [1, 1152, 5, 5]           2,304           2,304
   RecycleNetwork/EfficientNetLite/MBConvBlock                ReLU6-109      [1, 1152, 5, 5]               0               0
   RecycleNetwork/EfficientNetLite/MBConvBlock               Conv2d-110      [1, 1152, 5, 5]          10,368          10,368
   RecycleNetwork/EfficientNetLite/MBConvBlock          BatchNorm2d-111      [1, 1152, 5, 5]           2,304           2,304
   RecycleNetwork/EfficientNetLite/MBConvBlock               Conv2d-112       [1, 320, 5, 5]         368,640         368,640
   RecycleNetwork/EfficientNetLite/MBConvBlock          BatchNorm2d-113       [1, 320, 5, 5]             640             640
               RecycleNetwork/EfficientNetLite               Conv2d-114      [1, 1280, 5, 5]         409,600         409,600
               RecycleNetwork/EfficientNetLite          BatchNorm2d-115      [1, 1280, 5, 5]           2,560           2,560
               RecycleNetwork/EfficientNetLite                ReLU6-116      [1, 1280, 5, 5]               0               0
               RecycleNetwork/EfficientNetLite    AdaptiveAvgPool2d-117      [1, 1280, 1, 1]               0               0
               RecycleNetwork/EfficientNetLite              Dropout-118            [1, 1280]               0               0
               RecycleNetwork/EfficientNetLite               Linear-119               [1, 5]           6,405           6,405
============================================================================================================================
Total params: 3,372,234
Trainable params: 3,372,234
Non-trainable params: 0
----------------------------------------------------------------------------------------------------------------------------
Ended Training Cycle
backbone.blocks.3.0._expand_conv
5

--------------------------------
…
        True, True, True, True, True, True, True, True, True, True, True, True,
        True, True, True, True, True, True, True, True])
torch.Size([80])
torch.Size([80])
Starting Training Cycle
----------------------------------------------------------------------------------------------------------------------------
                                 Parent Layers             Layer (type)         Output Shape         Param #     Tr. Param #
============================================================================================================================
               RecycleNetwork/EfficientNetLite                 Conv2d-1      [1, 27, 75, 75]             729             729
               RecycleNetwork/EfficientNetLite            BatchNorm2d-2      [1, 27, 75, 75]              54              54
               RecycleNetwork/EfficientNetLite                  ReLU6-3      [1, 27, 75, 75]               0               0
   RecycleNetwork/EfficientNetLite/MBConvBlock                 Conv2d-4      [1, 27, 75, 75]             243             243
   RecycleNetwork/EfficientNetLite/MBConvBlock            BatchNorm2d-5      [1, 27, 75, 75]              54              54
   RecycleNetwork/EfficientNetLite/MBConvBlock                  ReLU6-6      [1, 27, 75, 75]               0               0
   RecycleNetwork/EfficientNetLite/MBConvBlock                 Conv2d-7      [1, 16, 75, 75]             432             432
   RecycleNetwork/EfficientNetLite/MBConvBlock            BatchNorm2d-8      [1, 16, 75, 75]              32              32
   RecycleNetwork/EfficientNetLite/MBConvBlock                 Conv2d-9      [1, 89, 75, 75]           1,424           1,424
   RecycleNetwork/EfficientNetLite/MBConvBlock           BatchNorm2d-10      [1, 89, 75, 75]             178             178
   RecycleNetwork/EfficientNetLite/MBConvBlock                 ReLU6-11      [1, 89, 75, 75]               0               0
   RecycleNetwork/EfficientNetLite/MBConvBlock                Conv2d-12      [1, 89, 38, 38]             801             801
   RecycleNetwork/EfficientNetLite/MBConvBlock           BatchNorm2d-13      [1, 89, 38, 38]             178             178
   RecycleNetwork/EfficientNetLite/MBConvBlock                Conv2d-14      [1, 24, 38, 38]           2,136           2,136
   RecycleNetwork/EfficientNetLite/MBConvBlock           BatchNorm2d-15      [1, 24, 38, 38]              48              48
   RecycleNetwork/EfficientNetLite/MBConvBlock                Conv2d-16     [1, 131, 38, 38]           3,144           3,144
   RecycleNetwork/EfficientNetLite/MBConvBlock           BatchNorm2d-17     [1, 131, 38, 38]             262             262
   RecycleNetwork/EfficientNetLite/MBConvBlock                 ReLU6-18     [1, 131, 38, 38]               0               0
   RecycleNetwork/EfficientNetLite/MBConvBlock                Conv2d-19     [1, 131, 38, 38]           1,179           1,179
   RecycleNetwork/EfficientNetLite/MBConvBlock           BatchNorm2d-20     [1, 131, 38, 38]             262             262
   RecycleNetwork/EfficientNetLite/MBConvBlock                Conv2d-21      [1, 24, 38, 38]           3,144           3,144
   RecycleNetwork/EfficientNetLite/MBConvBlock           BatchNorm2d-22      [1, 24, 38, 38]              48              48
   RecycleNetwork/EfficientNetLite/MBConvBlock                Conv2d-23     [1, 139, 38, 38]           3,336           3,336
   RecycleNetwork/EfficientNetLite/MBConvBlock           BatchNorm2d-24     [1, 139, 38, 38]             278             278
   RecycleNetwork/EfficientNetLite/MBConvBlock                 ReLU6-25     [1, 139, 38, 38]               0               0
   RecycleNetwork/EfficientNetLite/MBConvBlock                Conv2d-26     [1, 139, 19, 19]           3,475           3,475
   RecycleNetwork/EfficientNetLite/MBConvBlock           BatchNorm2d-27     [1, 139, 19, 19]             278             278
   RecycleNetwork/EfficientNetLite/MBConvBlock                Conv2d-28      [1, 40, 19, 19]           5,560           5,560
   RecycleNetwork/EfficientNetLite/MBConvBlock           BatchNorm2d-29      [1, 40, 19, 19]              80              80
   RecycleNetwork/EfficientNetLite/MBConvBlock                Conv2d-30     [1, 210, 19, 19]           8,400           8,400
   RecycleNetwork/EfficientNetLite/MBConvBlock           BatchNorm2d-31     [1, 210, 19, 19]             420             420
   RecycleNetwork/EfficientNetLite/MBConvBlock                 ReLU6-32     [1, 210, 19, 19]               0               0
   RecycleNetwork/EfficientNetLite/MBConvBlock                Conv2d-33     [1, 210, 19, 19]           5,250           5,250
   RecycleNetwork/EfficientNetLite/MBConvBlock           BatchNorm2d-34     [1, 210, 19, 19]             420             420
   RecycleNetwork/EfficientNetLite/MBConvBlock                Conv2d-35      [1, 40, 19, 19]           8,400           8,400
   RecycleNetwork/EfficientNetLite/MBConvBlock           BatchNorm2d-36      [1, 40, 19, 19]              80              80
   RecycleNetwork/EfficientNetLite/MBConvBlock                Conv2d-37     [1, 235, 19, 19]           9,400           9,400
   RecycleNetwork/EfficientNetLite/MBConvBlock           BatchNorm2d-38     [1, 235, 19, 19]             470             470
   RecycleNetwork/EfficientNetLite/MBConvBlock                 ReLU6-39     [1, 235, 19, 19]               0               0
   RecycleNetwork/EfficientNetLite/MBConvBlock                Conv2d-40     [1, 235, 10, 10]           2,115           2,115
   RecycleNetwork/EfficientNetLite/MBConvBlock           BatchNorm2d-41     [1, 235, 10, 10]             470             470
   RecycleNetwork/EfficientNetLite/MBConvBlock                Conv2d-42      [1, 80, 10, 10]          18,800          18,800
   RecycleNetwork/EfficientNetLite/MBConvBlock           BatchNorm2d-43      [1, 80, 10, 10]             160             160
   RecycleNetwork/EfficientNetLite/MBConvBlock                Conv2d-44     [1, 480, 10, 10]          38,400          38,400
   RecycleNetwork/EfficientNetLite/MBConvBlock           BatchNorm2d-45     [1, 480, 10, 10]             960             960
   RecycleNetwork/EfficientNetLite/MBConvBlock                 ReLU6-46     [1, 480, 10, 10]               0               0
   RecycleNetwork/EfficientNetLite/MBConvBlock                Conv2d-47     [1, 480, 10, 10]           4,320           4,320
   RecycleNetwork/EfficientNetLite/MBConvBlock           BatchNorm2d-48     [1, 480, 10, 10]             960             960
   RecycleNetwork/EfficientNetLite/MBConvBlock                Conv2d-49      [1, 80, 10, 10]          38,400          38,400
   RecycleNetwork/EfficientNetLite/MBConvBlock           BatchNorm2d-50      [1, 80, 10, 10]             160             160
   RecycleNetwork/EfficientNetLite/MBConvBlock                Conv2d-51     [1, 480, 10, 10]          38,400          38,400
   RecycleNetwork/EfficientNetLite/MBConvBlock           BatchNorm2d-52     [1, 480, 10, 10]             960             960
   RecycleNetwork/EfficientNetLite/MBConvBlock                 ReLU6-53     [1, 480, 10, 10]               0               0
   RecycleNetwork/EfficientNetLite/MBConvBlock                Conv2d-54     [1, 480, 10, 10]           4,320           4,320
   RecycleNetwork/EfficientNetLite/MBConvBlock           BatchNorm2d-55     [1, 480, 10, 10]             960             960
   RecycleNetwork/EfficientNetLite/MBConvBlock                Conv2d-56      [1, 80, 10, 10]          38,400          38,400
   RecycleNetwork/EfficientNetLite/MBConvBlock           BatchNorm2d-57      [1, 80, 10, 10]             160             160
   RecycleNetwork/EfficientNetLite/MBConvBlock                Conv2d-58     [1, 480, 10, 10]          38,400          38,400
   RecycleNetwork/EfficientNetLite/MBConvBlock           BatchNorm2d-59     [1, 480, 10, 10]             960             960
   RecycleNetwork/EfficientNetLite/MBConvBlock                 ReLU6-60     [1, 480, 10, 10]               0               0
   RecycleNetwork/EfficientNetLite/MBConvBlock                Conv2d-61     [1, 480, 10, 10]          12,000          12,000
   RecycleNetwork/EfficientNetLite/MBConvBlock           BatchNorm2d-62     [1, 480, 10, 10]             960             960
   RecycleNetwork/EfficientNetLite/MBConvBlock                Conv2d-63     [1, 112, 10, 10]          53,760          53,760
   RecycleNetwork/EfficientNetLite/MBConvBlock           BatchNorm2d-64     [1, 112, 10, 10]             224             224
   RecycleNetwork/EfficientNetLite/MBConvBlock                Conv2d-65     [1, 672, 10, 10]          75,264          75,264
   RecycleNetwork/EfficientNetLite/MBConvBlock           BatchNorm2d-66     [1, 672, 10, 10]           1,344           1,344
   RecycleNetwork/EfficientNetLite/MBConvBlock                 ReLU6-67     [1, 672, 10, 10]               0               0
   RecycleNetwork/EfficientNetLite/MBConvBlock                Conv2d-68     [1, 672, 10, 10]          16,800          16,800
   RecycleNetwork/EfficientNetLite/MBConvBlock           BatchNorm2d-69     [1, 672, 10, 10]           1,344           1,344
   RecycleNetwork/EfficientNetLite/MBConvBlock                Conv2d-70     [1, 112, 10, 10]          75,264          75,264
   RecycleNetwork/EfficientNetLite/MBConvBlock           BatchNorm2d-71     [1, 112, 10, 10]             224             224
   RecycleNetwork/EfficientNetLite/MBConvBlock                Conv2d-72     [1, 672, 10, 10]          75,264          75,264
   RecycleNetwork/EfficientNetLite/MBConvBlock           BatchNorm2d-73     [1, 672, 10, 10]           1,344           1,344
   RecycleNetwork/EfficientNetLite/MBConvBlock                 ReLU6-74     [1, 672, 10, 10]               0               0
   RecycleNetwork/EfficientNetLite/MBConvBlock                Conv2d-75     [1, 672, 10, 10]          16,800          16,800
   RecycleNetwork/EfficientNetLite/MBConvBlock           BatchNorm2d-76     [1, 672, 10, 10]           1,344           1,344
   RecycleNetwork/EfficientNetLite/MBConvBlock                Conv2d-77     [1, 112, 10, 10]          75,264          75,264
   RecycleNetwork/EfficientNetLite/MBConvBlock           BatchNorm2d-78     [1, 112, 10, 10]             224             224
   RecycleNetwork/EfficientNetLite/MBConvBlock                Conv2d-79     [1, 672, 10, 10]          75,264          75,264
   RecycleNetwork/EfficientNetLite/MBConvBlock           BatchNorm2d-80     [1, 672, 10, 10]           1,344           1,344
   RecycleNetwork/EfficientNetLite/MBConvBlock                 ReLU6-81     [1, 672, 10, 10]               0               0
   RecycleNetwork/EfficientNetLite/MBConvBlock                Conv2d-82       [1, 672, 5, 5]          16,800          16,800
   RecycleNetwork/EfficientNetLite/MBConvBlock           BatchNorm2d-83       [1, 672, 5, 5]           1,344           1,344
   RecycleNetwork/EfficientNetLite/MBConvBlock                Conv2d-84       [1, 192, 5, 5]         129,024         129,024
   RecycleNetwork/EfficientNetLite/MBConvBlock           BatchNorm2d-85       [1, 192, 5, 5]             384             384
   RecycleNetwork/EfficientNetLite/MBConvBlock                Conv2d-86      [1, 1152, 5, 5]         221,184         221,184
   RecycleNetwork/EfficientNetLite/MBConvBlock           BatchNorm2d-87      [1, 1152, 5, 5]           2,304           2,304
   RecycleNetwork/EfficientNetLite/MBConvBlock                 ReLU6-88      [1, 1152, 5, 5]               0               0
   RecycleNetwork/EfficientNetLite/MBConvBlock                Conv2d-89      [1, 1152, 5, 5]          28,800          28,800
   RecycleNetwork/EfficientNetLite/MBConvBlock           BatchNorm2d-90      [1, 1152, 5, 5]           2,304           2,304
   RecycleNetwork/EfficientNetLite/MBConvBlock                Conv2d-91       [1, 192, 5, 5]         221,184         221,184
   RecycleNetwork/EfficientNetLite/MBConvBlock           BatchNorm2d-92       [1, 192, 5, 5]             384             384
   RecycleNetwork/EfficientNetLite/MBConvBlock                Conv2d-93      [1, 1152, 5, 5]         221,184         221,184
   RecycleNetwork/EfficientNetLite/MBConvBlock           BatchNorm2d-94      [1, 1152, 5, 5]           2,304           2,304
   RecycleNetwork/EfficientNetLite/MBConvBlock                 ReLU6-95      [1, 1152, 5, 5]               0               0
   RecycleNetwork/EfficientNetLite/MBConvBlock                Conv2d-96      [1, 1152, 5, 5]          28,800          28,800
   RecycleNetwork/EfficientNetLite/MBConvBlock           BatchNorm2d-97      [1, 1152, 5, 5]           2,304           2,304
   RecycleNetwork/EfficientNetLite/MBConvBlock                Conv2d-98       [1, 192, 5, 5]         221,184         221,184
   RecycleNetwork/EfficientNetLite/MBConvBlock           BatchNorm2d-99       [1, 192, 5, 5]             384             384
   RecycleNetwork/EfficientNetLite/MBConvBlock               Conv2d-100      [1, 1152, 5, 5]         221,184         221,184
   RecycleNetwork/EfficientNetLite/MBConvBlock          BatchNorm2d-101      [1, 1152, 5, 5]           2,304           2,304
   RecycleNetwork/EfficientNetLite/MBConvBlock                ReLU6-102      [1, 1152, 5, 5]               0               0
   RecycleNetwork/EfficientNetLite/MBConvBlock               Conv2d-103      [1, 1152, 5, 5]          28,800          28,800
   RecycleNetwork/EfficientNetLite/MBConvBlock          BatchNorm2d-104      [1, 1152, 5, 5]           2,304           2,304
   RecycleNetwork/EfficientNetLite/MBConvBlock               Conv2d-105       [1, 192, 5, 5]         221,184         221,184
   RecycleNetwork/EfficientNetLite/MBConvBlock          BatchNorm2d-106       [1, 192, 5, 5]             384             384
   RecycleNetwork/EfficientNetLite/MBConvBlock               Conv2d-107      [1, 1152, 5, 5]         221,184         221,184
   RecycleNetwork/EfficientNetLite/MBConvBlock          BatchNorm2d-108      [1, 1152, 5, 5]           2,304           2,304
   RecycleNetwork/EfficientNetLite/MBConvBlock                ReLU6-109      [1, 1152, 5, 5]               0               0
   RecycleNetwork/EfficientNetLite/MBConvBlock               Conv2d-110      [1, 1152, 5, 5]          10,368          10,368
   RecycleNetwork/EfficientNetLite/MBConvBlock          BatchNorm2d-111      [1, 1152, 5, 5]           2,304           2,304
   RecycleNetwork/EfficientNetLite/MBConvBlock               Conv2d-112       [1, 320, 5, 5]         368,640         368,640
   RecycleNetwork/EfficientNetLite/MBConvBlock          BatchNorm2d-113       [1, 320, 5, 5]             640             640
               RecycleNetwork/EfficientNetLite               Conv2d-114      [1, 1280, 5, 5]         409,600         409,600
               RecycleNetwork/EfficientNetLite          BatchNorm2d-115      [1, 1280, 5, 5]           2,560           2,560
               RecycleNetwork/EfficientNetLite                ReLU6-116      [1, 1280, 5, 5]               0               0
               RecycleNetwork/EfficientNetLite    AdaptiveAvgPool2d-117      [1, 1280, 1, 1]               0               0
               RecycleNetwork/EfficientNetLite              Dropout-118            [1, 1280]               0               0
               RecycleNetwork/EfficientNetLite               Linear-119               [1, 5]           6,405           6,405
============================================================================================================================
Total params: 3,371,569
Trainable params: 3,371,569
Non-trainable params: 0
----------------------------------------------------------------------------------------------------------------------------
Ended Training Cycle
backbone.blocks.3.1._expand_conv
24

…
        True, True, True, True, True, True, True, True, True, True, True, True,
        True, True, True, True, True, True, True, True])
torch.Size([80])
torch.Size([80])
Starting Training Cycle
----------------------------------------------------------------------------------------------------------------------------
                                 Parent Layers             Layer (type)         Output Shape         Param #     Tr. Param #
============================================================================================================================
               RecycleNetwork/EfficientNetLite                 Conv2d-1      [1, 27, 75, 75]             729             729
               RecycleNetwork/EfficientNetLite            BatchNorm2d-2      [1, 27, 75, 75]              54              54
               RecycleNetwork/EfficientNetLite                  ReLU6-3      [1, 27, 75, 75]               0               0
   RecycleNetwork/EfficientNetLite/MBConvBlock                 Conv2d-4      [1, 27, 75, 75]             243             243
   RecycleNetwork/EfficientNetLite/MBConvBlock            BatchNorm2d-5      [1, 27, 75, 75]              54              54
   RecycleNetwork/EfficientNetLite/MBConvBlock                  ReLU6-6      [1, 27, 75, 75]               0               0
   RecycleNetwork/EfficientNetLite/MBConvBlock                 Conv2d-7      [1, 16, 75, 75]             432             432
   RecycleNetwork/EfficientNetLite/MBConvBlock            BatchNorm2d-8      [1, 16, 75, 75]              32              32
   RecycleNetwork/EfficientNetLite/MBConvBlock                 Conv2d-9      [1, 89, 75, 75]           1,424           1,424
   RecycleNetwork/EfficientNetLite/MBConvBlock           BatchNorm2d-10      [1, 89, 75, 75]             178             178
   RecycleNetwork/EfficientNetLite/MBConvBlock                 ReLU6-11      [1, 89, 75, 75]               0               0
   RecycleNetwork/EfficientNetLite/MBConvBlock                Conv2d-12      [1, 89, 38, 38]             801             801
   RecycleNetwork/EfficientNetLite/MBConvBlock           BatchNorm2d-13      [1, 89, 38, 38]             178             178
   RecycleNetwork/EfficientNetLite/MBConvBlock                Conv2d-14      [1, 24, 38, 38]           2,136           2,136
   RecycleNetwork/EfficientNetLite/MBConvBlock           BatchNorm2d-15      [1, 24, 38, 38]              48              48
   RecycleNetwork/EfficientNetLite/MBConvBlock                Conv2d-16     [1, 131, 38, 38]           3,144           3,144
   RecycleNetwork/EfficientNetLite/MBConvBlock           BatchNorm2d-17     [1, 131, 38, 38]             262             262
   RecycleNetwork/EfficientNetLite/MBConvBlock                 ReLU6-18     [1, 131, 38, 38]               0               0
   RecycleNetwork/EfficientNetLite/MBConvBlock                Conv2d-19     [1, 131, 38, 38]           1,179           1,179
   RecycleNetwork/EfficientNetLite/MBConvBlock           BatchNorm2d-20     [1, 131, 38, 38]             262             262
   RecycleNetwork/EfficientNetLite/MBConvBlock                Conv2d-21      [1, 24, 38, 38]           3,144           3,144
   RecycleNetwork/EfficientNetLite/MBConvBlock           BatchNorm2d-22      [1, 24, 38, 38]              48              48
   RecycleNetwork/EfficientNetLite/MBConvBlock                Conv2d-23     [1, 139, 38, 38]           3,336           3,336
   RecycleNetwork/EfficientNetLite/MBConvBlock           BatchNorm2d-24     [1, 139, 38, 38]             278             278
   RecycleNetwork/EfficientNetLite/MBConvBlock                 ReLU6-25     [1, 139, 38, 38]               0               0
   RecycleNetwork/EfficientNetLite/MBConvBlock                Conv2d-26     [1, 139, 19, 19]           3,475           3,475
   RecycleNetwork/EfficientNetLite/MBConvBlock           BatchNorm2d-27     [1, 139, 19, 19]             278             278
   RecycleNetwork/EfficientNetLite/MBConvBlock                Conv2d-28      [1, 40, 19, 19]           5,560           5,560
   RecycleNetwork/EfficientNetLite/MBConvBlock           BatchNorm2d-29      [1, 40, 19, 19]              80              80
   RecycleNetwork/EfficientNetLite/MBConvBlock                Conv2d-30     [1, 210, 19, 19]           8,400           8,400
   RecycleNetwork/EfficientNetLite/MBConvBlock           BatchNorm2d-31     [1, 210, 19, 19]             420             420
   RecycleNetwork/EfficientNetLite/MBConvBlock                 ReLU6-32     [1, 210, 19, 19]               0               0
   RecycleNetwork/EfficientNetLite/MBConvBlock                Conv2d-33     [1, 210, 19, 19]           5,250           5,250
   RecycleNetwork/EfficientNetLite/MBConvBlock           BatchNorm2d-34     [1, 210, 19, 19]             420             420
   RecycleNetwork/EfficientNetLite/MBConvBlock                Conv2d-35      [1, 40, 19, 19]           8,400           8,400
   RecycleNetwork/EfficientNetLite/MBConvBlock           BatchNorm2d-36      [1, 40, 19, 19]              80              80
   RecycleNetwork/EfficientNetLite/MBConvBlock                Conv2d-37     [1, 235, 19, 19]           9,400           9,400
   RecycleNetwork/EfficientNetLite/MBConvBlock           BatchNorm2d-38     [1, 235, 19, 19]             470             470
   RecycleNetwork/EfficientNetLite/MBConvBlock                 ReLU6-39     [1, 235, 19, 19]               0               0
   RecycleNetwork/EfficientNetLite/MBConvBlock                Conv2d-40     [1, 235, 10, 10]           2,115           2,115
   RecycleNetwork/EfficientNetLite/MBConvBlock           BatchNorm2d-41     [1, 235, 10, 10]             470             470
   RecycleNetwork/EfficientNetLite/MBConvBlock                Conv2d-42      [1, 80, 10, 10]          18,800          18,800
   RecycleNetwork/EfficientNetLite/MBConvBlock           BatchNorm2d-43      [1, 80, 10, 10]             160             160
   RecycleNetwork/EfficientNetLite/MBConvBlock                Conv2d-44     [1, 391, 10, 10]          31,280          31,280
   RecycleNetwork/EfficientNetLite/MBConvBlock           BatchNorm2d-45     [1, 391, 10, 10]             782             782
   RecycleNetwork/EfficientNetLite/MBConvBlock                 ReLU6-46     [1, 391, 10, 10]               0               0
   RecycleNetwork/EfficientNetLite/MBConvBlock                Conv2d-47     [1, 391, 10, 10]           3,519           3,519
   RecycleNetwork/EfficientNetLite/MBConvBlock           BatchNorm2d-48     [1, 391, 10, 10]             782             782
   RecycleNetwork/EfficientNetLite/MBConvBlock                Conv2d-49      [1, 80, 10, 10]          31,280          31,280
   RecycleNetwork/EfficientNetLite/MBConvBlock           BatchNorm2d-50      [1, 80, 10, 10]             160             160
   RecycleNetwork/EfficientNetLite/MBConvBlock                Conv2d-51     [1, 480, 10, 10]          38,400          38,400
   RecycleNetwork/EfficientNetLite/MBConvBlock           BatchNorm2d-52     [1, 480, 10, 10]             960             960
   RecycleNetwork/EfficientNetLite/MBConvBlock                 ReLU6-53     [1, 480, 10, 10]               0               0
   RecycleNetwork/EfficientNetLite/MBConvBlock                Conv2d-54     [1, 480, 10, 10]           4,320           4,320
   RecycleNetwork/EfficientNetLite/MBConvBlock           BatchNorm2d-55     [1, 480, 10, 10]             960             960
   RecycleNetwork/EfficientNetLite/MBConvBlock                Conv2d-56      [1, 80, 10, 10]          38,400          38,400
   RecycleNetwork/EfficientNetLite/MBConvBlock           BatchNorm2d-57      [1, 80, 10, 10]             160             160
   RecycleNetwork/EfficientNetLite/MBConvBlock                Conv2d-58     [1, 480, 10, 10]          38,400          38,400
   RecycleNetwork/EfficientNetLite/MBConvBlock           BatchNorm2d-59     [1, 480, 10, 10]             960             960
   RecycleNetwork/EfficientNetLite/MBConvBlock                 ReLU6-60     [1, 480, 10, 10]               0               0
   RecycleNetwork/EfficientNetLite/MBConvBlock                Conv2d-61     [1, 480, 10, 10]          12,000          12,000
   RecycleNetwork/EfficientNetLite/MBConvBlock           BatchNorm2d-62     [1, 480, 10, 10]             960             960
   RecycleNetwork/EfficientNetLite/MBConvBlock                Conv2d-63     [1, 112, 10, 10]          53,760          53,760
   RecycleNetwork/EfficientNetLite/MBConvBlock           BatchNorm2d-64     [1, 112, 10, 10]             224             224
   RecycleNetwork/EfficientNetLite/MBConvBlock                Conv2d-65     [1, 672, 10, 10]          75,264          75,264
   RecycleNetwork/EfficientNetLite/MBConvBlock           BatchNorm2d-66     [1, 672, 10, 10]           1,344           1,344
   RecycleNetwork/EfficientNetLite/MBConvBlock                 ReLU6-67     [1, 672, 10, 10]               0               0
   RecycleNetwork/EfficientNetLite/MBConvBlock                Conv2d-68     [1, 672, 10, 10]          16,800          16,800
   RecycleNetwork/EfficientNetLite/MBConvBlock           BatchNorm2d-69     [1, 672, 10, 10]           1,344           1,344
   RecycleNetwork/EfficientNetLite/MBConvBlock                Conv2d-70     [1, 112, 10, 10]          75,264          75,264
   RecycleNetwork/EfficientNetLite/MBConvBlock           BatchNorm2d-71     [1, 112, 10, 10]             224             224
   RecycleNetwork/EfficientNetLite/MBConvBlock                Conv2d-72     [1, 672, 10, 10]          75,264          75,264
   RecycleNetwork/EfficientNetLite/MBConvBlock           BatchNorm2d-73     [1, 672, 10, 10]           1,344           1,344
   RecycleNetwork/EfficientNetLite/MBConvBlock                 ReLU6-74     [1, 672, 10, 10]               0               0
   RecycleNetwork/EfficientNetLite/MBConvBlock                Conv2d-75     [1, 672, 10, 10]          16,800          16,800
   RecycleNetwork/EfficientNetLite/MBConvBlock           BatchNorm2d-76     [1, 672, 10, 10]           1,344           1,344
   RecycleNetwork/EfficientNetLite/MBConvBlock                Conv2d-77     [1, 112, 10, 10]          75,264          75,264
   RecycleNetwork/EfficientNetLite/MBConvBlock           BatchNorm2d-78     [1, 112, 10, 10]             224             224
   RecycleNetwork/EfficientNetLite/MBConvBlock                Conv2d-79     [1, 672, 10, 10]          75,264          75,264
   RecycleNetwork/EfficientNetLite/MBConvBlock           BatchNorm2d-80     [1, 672, 10, 10]           1,344           1,344
   RecycleNetwork/EfficientNetLite/MBConvBlock                 ReLU6-81     [1, 672, 10, 10]               0               0
   RecycleNetwork/EfficientNetLite/MBConvBlock                Conv2d-82       [1, 672, 5, 5]          16,800          16,800
   RecycleNetwork/EfficientNetLite/MBConvBlock           BatchNorm2d-83       [1, 672, 5, 5]           1,344           1,344
   RecycleNetwork/EfficientNetLite/MBConvBlock                Conv2d-84       [1, 192, 5, 5]         129,024         129,024
   RecycleNetwork/EfficientNetLite/MBConvBlock           BatchNorm2d-85       [1, 192, 5, 5]             384             384
   RecycleNetwork/EfficientNetLite/MBConvBlock                Conv2d-86      [1, 1152, 5, 5]         221,184         221,184
   RecycleNetwork/EfficientNetLite/MBConvBlock           BatchNorm2d-87      [1, 1152, 5, 5]           2,304           2,304
   RecycleNetwork/EfficientNetLite/MBConvBlock                 ReLU6-88      [1, 1152, 5, 5]               0               0
   RecycleNetwork/EfficientNetLite/MBConvBlock                Conv2d-89      [1, 1152, 5, 5]          28,800          28,800
   RecycleNetwork/EfficientNetLite/MBConvBlock           BatchNorm2d-90      [1, 1152, 5, 5]           2,304           2,304
   RecycleNetwork/EfficientNetLite/MBConvBlock                Conv2d-91       [1, 192, 5, 5]         221,184         221,184
   RecycleNetwork/EfficientNetLite/MBConvBlock           BatchNorm2d-92       [1, 192, 5, 5]             384             384
   RecycleNetwork/EfficientNetLite/MBConvBlock                Conv2d-93      [1, 1152, 5, 5]         221,184         221,184
   RecycleNetwork/EfficientNetLite/MBConvBlock           BatchNorm2d-94      [1, 1152, 5, 5]           2,304           2,304
   RecycleNetwork/EfficientNetLite/MBConvBlock                 ReLU6-95      [1, 1152, 5, 5]               0               0
   RecycleNetwork/EfficientNetLite/MBConvBlock                Conv2d-96      [1, 1152, 5, 5]          28,800          28,800
   RecycleNetwork/EfficientNetLite/MBConvBlock           BatchNorm2d-97      [1, 1152, 5, 5]           2,304           2,304
   RecycleNetwork/EfficientNetLite/MBConvBlock                Conv2d-98       [1, 192, 5, 5]         221,184         221,184
   RecycleNetwork/EfficientNetLite/MBConvBlock           BatchNorm2d-99       [1, 192, 5, 5]             384             384
   RecycleNetwork/EfficientNetLite/MBConvBlock               Conv2d-100      [1, 1152, 5, 5]         221,184         221,184
   RecycleNetwork/EfficientNetLite/MBConvBlock          BatchNorm2d-101      [1, 1152, 5, 5]           2,304           2,304
   RecycleNetwork/EfficientNetLite/MBConvBlock                ReLU6-102      [1, 1152, 5, 5]               0               0
   RecycleNetwork/EfficientNetLite/MBConvBlock               Conv2d-103      [1, 1152, 5, 5]          28,800          28,800
   RecycleNetwork/EfficientNetLite/MBConvBlock          BatchNorm2d-104      [1, 1152, 5, 5]           2,304           2,304
   RecycleNetwork/EfficientNetLite/MBConvBlock               Conv2d-105       [1, 192, 5, 5]         221,184         221,184
   RecycleNetwork/EfficientNetLite/MBConvBlock          BatchNorm2d-106       [1, 192, 5, 5]             384             384
   RecycleNetwork/EfficientNetLite/MBConvBlock               Conv2d-107      [1, 1152, 5, 5]         221,184         221,184
   RecycleNetwork/EfficientNetLite/MBConvBlock          BatchNorm2d-108      [1, 1152, 5, 5]           2,304           2,304
   RecycleNetwork/EfficientNetLite/MBConvBlock                ReLU6-109      [1, 1152, 5, 5]               0               0
   RecycleNetwork/EfficientNetLite/MBConvBlock               Conv2d-110      [1, 1152, 5, 5]          10,368          10,368
   RecycleNetwork/EfficientNetLite/MBConvBlock          BatchNorm2d-111      [1, 1152, 5, 5]           2,304           2,304
   RecycleNetwork/EfficientNetLite/MBConvBlock               Conv2d-112       [1, 320, 5, 5]         368,640         368,640
   RecycleNetwork/EfficientNetLite/MBConvBlock          BatchNorm2d-113       [1, 320, 5, 5]             640             640
               RecycleNetwork/EfficientNetLite               Conv2d-114      [1, 1280, 5, 5]         409,600         409,600
               RecycleNetwork/EfficientNetLite          BatchNorm2d-115      [1, 1280, 5, 5]           2,560           2,560
               RecycleNetwork/EfficientNetLite                ReLU6-116      [1, 1280, 5, 5]               0               0
               RecycleNetwork/EfficientNetLite    AdaptiveAvgPool2d-117      [1, 1280, 1, 1]               0               0
               RecycleNetwork/EfficientNetLite              Dropout-118            [1, 1280]               0               0
               RecycleNetwork/EfficientNetLite               Linear-119               [1, 5]           6,405           6,405
============================================================================================================================
Total params: 3,356,172
Trainable params: 3,356,172
Non-trainable params: 0
----------------------------------------------------------------------------------------------------------------------------
Ended Training Cycle
backbone.blocks.3.2._expand_conv
18

…
        True, True, True, True, True, True, True, True, True, True, True, True,
        True, True, True, True, True, True, True, True])
torch.Size([80])
torch.Size([80])
Starting Training Cycle
----------------------------------------------------------------------------------------------------------------------------
                                 Parent Layers             Layer (type)         Output Shape         Param #     Tr. Param #
============================================================================================================================
               RecycleNetwork/EfficientNetLite                 Conv2d-1      [1, 27, 75, 75]             729             729
               RecycleNetwork/EfficientNetLite            BatchNorm2d-2      [1, 27, 75, 75]              54              54
               RecycleNetwork/EfficientNetLite                  ReLU6-3      [1, 27, 75, 75]               0               0
   RecycleNetwork/EfficientNetLite/MBConvBlock                 Conv2d-4      [1, 27, 75, 75]             243             243
   RecycleNetwork/EfficientNetLite/MBConvBlock            BatchNorm2d-5      [1, 27, 75, 75]              54              54
   RecycleNetwork/EfficientNetLite/MBConvBlock                  ReLU6-6      [1, 27, 75, 75]               0               0
   RecycleNetwork/EfficientNetLite/MBConvBlock                 Conv2d-7      [1, 16, 75, 75]             432             432
   RecycleNetwork/EfficientNetLite/MBConvBlock            BatchNorm2d-8      [1, 16, 75, 75]              32              32
   RecycleNetwork/EfficientNetLite/MBConvBlock                 Conv2d-9      [1, 89, 75, 75]           1,424           1,424
   RecycleNetwork/EfficientNetLite/MBConvBlock           BatchNorm2d-10      [1, 89, 75, 75]             178             178
   RecycleNetwork/EfficientNetLite/MBConvBlock                 ReLU6-11      [1, 89, 75, 75]               0               0
   RecycleNetwork/EfficientNetLite/MBConvBlock                Conv2d-12      [1, 89, 38, 38]             801             801
   RecycleNetwork/EfficientNetLite/MBConvBlock           BatchNorm2d-13      [1, 89, 38, 38]             178             178
   RecycleNetwork/EfficientNetLite/MBConvBlock                Conv2d-14      [1, 24, 38, 38]           2,136           2,136
   RecycleNetwork/EfficientNetLite/MBConvBlock           BatchNorm2d-15      [1, 24, 38, 38]              48              48
   RecycleNetwork/EfficientNetLite/MBConvBlock                Conv2d-16     [1, 131, 38, 38]           3,144           3,144
   RecycleNetwork/EfficientNetLite/MBConvBlock           BatchNorm2d-17     [1, 131, 38, 38]             262             262
   RecycleNetwork/EfficientNetLite/MBConvBlock                 ReLU6-18     [1, 131, 38, 38]               0               0
   RecycleNetwork/EfficientNetLite/MBConvBlock                Conv2d-19     [1, 131, 38, 38]           1,179           1,179
   RecycleNetwork/EfficientNetLite/MBConvBlock           BatchNorm2d-20     [1, 131, 38, 38]             262             262
   RecycleNetwork/EfficientNetLite/MBConvBlock                Conv2d-21      [1, 24, 38, 38]           3,144           3,144
   RecycleNetwork/EfficientNetLite/MBConvBlock           BatchNorm2d-22      [1, 24, 38, 38]              48              48
   RecycleNetwork/EfficientNetLite/MBConvBlock                Conv2d-23     [1, 139, 38, 38]           3,336           3,336
   RecycleNetwork/EfficientNetLite/MBConvBlock           BatchNorm2d-24     [1, 139, 38, 38]             278             278
   RecycleNetwork/EfficientNetLite/MBConvBlock                 ReLU6-25     [1, 139, 38, 38]               0               0
   RecycleNetwork/EfficientNetLite/MBConvBlock                Conv2d-26     [1, 139, 19, 19]           3,475           3,475
   RecycleNetwork/EfficientNetLite/MBConvBlock           BatchNorm2d-27     [1, 139, 19, 19]             278             278
   RecycleNetwork/EfficientNetLite/MBConvBlock                Conv2d-28      [1, 40, 19, 19]           5,560           5,560
   RecycleNetwork/EfficientNetLite/MBConvBlock           BatchNorm2d-29      [1, 40, 19, 19]              80              80
   RecycleNetwork/EfficientNetLite/MBConvBlock                Conv2d-30     [1, 210, 19, 19]           8,400           8,400
   RecycleNetwork/EfficientNetLite/MBConvBlock           BatchNorm2d-31     [1, 210, 19, 19]             420             420
   RecycleNetwork/EfficientNetLite/MBConvBlock                 ReLU6-32     [1, 210, 19, 19]               0               0
   RecycleNetwork/EfficientNetLite/MBConvBlock                Conv2d-33     [1, 210, 19, 19]           5,250           5,250
   RecycleNetwork/EfficientNetLite/MBConvBlock           BatchNorm2d-34     [1, 210, 19, 19]             420             420
   RecycleNetwork/EfficientNetLite/MBConvBlock                Conv2d-35      [1, 40, 19, 19]           8,400           8,400
   RecycleNetwork/EfficientNetLite/MBConvBlock           BatchNorm2d-36      [1, 40, 19, 19]              80              80
   RecycleNetwork/EfficientNetLite/MBConvBlock                Conv2d-37     [1, 235, 19, 19]           9,400           9,400
   RecycleNetwork/EfficientNetLite/MBConvBlock           BatchNorm2d-38     [1, 235, 19, 19]             470             470
   RecycleNetwork/EfficientNetLite/MBConvBlock                 ReLU6-39     [1, 235, 19, 19]               0               0
   RecycleNetwork/EfficientNetLite/MBConvBlock                Conv2d-40     [1, 235, 10, 10]           2,115           2,115
   RecycleNetwork/EfficientNetLite/MBConvBlock           BatchNorm2d-41     [1, 235, 10, 10]             470             470
   RecycleNetwork/EfficientNetLite/MBConvBlock                Conv2d-42      [1, 80, 10, 10]          18,800          18,800
   RecycleNetwork/EfficientNetLite/MBConvBlock           BatchNorm2d-43      [1, 80, 10, 10]             160             160
   RecycleNetwork/EfficientNetLite/MBConvBlock                Conv2d-44     [1, 391, 10, 10]          31,280          31,280
   RecycleNetwork/EfficientNetLite/MBConvBlock           BatchNorm2d-45     [1, 391, 10, 10]             782             782
   RecycleNetwork/EfficientNetLite/MBConvBlock                 ReLU6-46     [1, 391, 10, 10]               0               0
   RecycleNetwork/EfficientNetLite/MBConvBlock                Conv2d-47     [1, 391, 10, 10]           3,519           3,519
   RecycleNetwork/EfficientNetLite/MBConvBlock           BatchNorm2d-48     [1, 391, 10, 10]             782             782
   RecycleNetwork/EfficientNetLite/MBConvBlock                Conv2d-49      [1, 80, 10, 10]          31,280          31,280
   RecycleNetwork/EfficientNetLite/MBConvBlock           BatchNorm2d-50      [1, 80, 10, 10]             160             160
   RecycleNetwork/EfficientNetLite/MBConvBlock                Conv2d-51     [1, 364, 10, 10]          29,120          29,120
   RecycleNetwork/EfficientNetLite/MBConvBlock           BatchNorm2d-52     [1, 364, 10, 10]             728             728
   RecycleNetwork/EfficientNetLite/MBConvBlock                 ReLU6-53     [1, 364, 10, 10]               0               0
   RecycleNetwork/EfficientNetLite/MBConvBlock                Conv2d-54     [1, 364, 10, 10]           3,276           3,276
   RecycleNetwork/EfficientNetLite/MBConvBlock           BatchNorm2d-55     [1, 364, 10, 10]             728             728
   RecycleNetwork/EfficientNetLite/MBConvBlock                Conv2d-56      [1, 80, 10, 10]          29,120          29,120
   RecycleNetwork/EfficientNetLite/MBConvBlock           BatchNorm2d-57      [1, 80, 10, 10]             160             160
   RecycleNetwork/EfficientNetLite/MBConvBlock                Conv2d-58     [1, 480, 10, 10]          38,400          38,400
   RecycleNetwork/EfficientNetLite/MBConvBlock           BatchNorm2d-59     [1, 480, 10, 10]             960             960
   RecycleNetwork/EfficientNetLite/MBConvBlock                 ReLU6-60     [1, 480, 10, 10]               0               0
   RecycleNetwork/EfficientNetLite/MBConvBlock                Conv2d-61     [1, 480, 10, 10]          12,000          12,000
   RecycleNetwork/EfficientNetLite/MBConvBlock           BatchNorm2d-62     [1, 480, 10, 10]             960             960
   RecycleNetwork/EfficientNetLite/MBConvBlock                Conv2d-63     [1, 112, 10, 10]          53,760          53,760
   RecycleNetwork/EfficientNetLite/MBConvBlock           BatchNorm2d-64     [1, 112, 10, 10]             224             224
   RecycleNetwork/EfficientNetLite/MBConvBlock                Conv2d-65     [1, 672, 10, 10]          75,264          75,264
   RecycleNetwork/EfficientNetLite/MBConvBlock           BatchNorm2d-66     [1, 672, 10, 10]           1,344           1,344
   RecycleNetwork/EfficientNetLite/MBConvBlock                 ReLU6-67     [1, 672, 10, 10]               0               0
   RecycleNetwork/EfficientNetLite/MBConvBlock                Conv2d-68     [1, 672, 10, 10]          16,800          16,800
   RecycleNetwork/EfficientNetLite/MBConvBlock           BatchNorm2d-69     [1, 672, 10, 10]           1,344           1,344
   RecycleNetwork/EfficientNetLite/MBConvBlock                Conv2d-70     [1, 112, 10, 10]          75,264          75,264
   RecycleNetwork/EfficientNetLite/MBConvBlock           BatchNorm2d-71     [1, 112, 10, 10]             224             224
   RecycleNetwork/EfficientNetLite/MBConvBlock                Conv2d-72     [1, 672, 10, 10]          75,264          75,264
   RecycleNetwork/EfficientNetLite/MBConvBlock           BatchNorm2d-73     [1, 672, 10, 10]           1,344           1,344
   RecycleNetwork/EfficientNetLite/MBConvBlock                 ReLU6-74     [1, 672, 10, 10]               0               0
   RecycleNetwork/EfficientNetLite/MBConvBlock                Conv2d-75     [1, 672, 10, 10]          16,800          16,800
   RecycleNetwork/EfficientNetLite/MBConvBlock           BatchNorm2d-76     [1, 672, 10, 10]           1,344           1,344
   RecycleNetwork/EfficientNetLite/MBConvBlock                Conv2d-77     [1, 112, 10, 10]          75,264          75,264
   RecycleNetwork/EfficientNetLite/MBConvBlock           BatchNorm2d-78     [1, 112, 10, 10]             224             224
   RecycleNetwork/EfficientNetLite/MBConvBlock                Conv2d-79     [1, 672, 10, 10]          75,264          75,264
   RecycleNetwork/EfficientNetLite/MBConvBlock           BatchNorm2d-80     [1, 672, 10, 10]           1,344           1,344
   RecycleNetwork/EfficientNetLite/MBConvBlock                 ReLU6-81     [1, 672, 10, 10]               0               0
   RecycleNetwork/EfficientNetLite/MBConvBlock                Conv2d-82       [1, 672, 5, 5]          16,800          16,800
   RecycleNetwork/EfficientNetLite/MBConvBlock           BatchNorm2d-83       [1, 672, 5, 5]           1,344           1,344
   RecycleNetwork/EfficientNetLite/MBConvBlock                Conv2d-84       [1, 192, 5, 5]         129,024         129,024
   RecycleNetwork/EfficientNetLite/MBConvBlock           BatchNorm2d-85       [1, 192, 5, 5]             384             384
   RecycleNetwork/EfficientNetLite/MBConvBlock                Conv2d-86      [1, 1152, 5, 5]         221,184         221,184
   RecycleNetwork/EfficientNetLite/MBConvBlock           BatchNorm2d-87      [1, 1152, 5, 5]           2,304           2,304
   RecycleNetwork/EfficientNetLite/MBConvBlock                 ReLU6-88      [1, 1152, 5, 5]               0               0
   RecycleNetwork/EfficientNetLite/MBConvBlock                Conv2d-89      [1, 1152, 5, 5]          28,800          28,800
   RecycleNetwork/EfficientNetLite/MBConvBlock           BatchNorm2d-90      [1, 1152, 5, 5]           2,304           2,304
   RecycleNetwork/EfficientNetLite/MBConvBlock                Conv2d-91       [1, 192, 5, 5]         221,184         221,184
   RecycleNetwork/EfficientNetLite/MBConvBlock           BatchNorm2d-92       [1, 192, 5, 5]             384             384
   RecycleNetwork/EfficientNetLite/MBConvBlock                Conv2d-93      [1, 1152, 5, 5]         221,184         221,184
   RecycleNetwork/EfficientNetLite/MBConvBlock           BatchNorm2d-94      [1, 1152, 5, 5]           2,304           2,304
   RecycleNetwork/EfficientNetLite/MBConvBlock                 ReLU6-95      [1, 1152, 5, 5]               0               0
   RecycleNetwork/EfficientNetLite/MBConvBlock                Conv2d-96      [1, 1152, 5, 5]          28,800          28,800
   RecycleNetwork/EfficientNetLite/MBConvBlock           BatchNorm2d-97      [1, 1152, 5, 5]           2,304           2,304
   RecycleNetwork/EfficientNetLite/MBConvBlock                Conv2d-98       [1, 192, 5, 5]         221,184         221,184
   RecycleNetwork/EfficientNetLite/MBConvBlock           BatchNorm2d-99       [1, 192, 5, 5]             384             384
   RecycleNetwork/EfficientNetLite/MBConvBlock               Conv2d-100      [1, 1152, 5, 5]         221,184         221,184
   RecycleNetwork/EfficientNetLite/MBConvBlock          BatchNorm2d-101      [1, 1152, 5, 5]           2,304           2,304
   RecycleNetwork/EfficientNetLite/MBConvBlock                ReLU6-102      [1, 1152, 5, 5]               0               0
   RecycleNetwork/EfficientNetLite/MBConvBlock               Conv2d-103      [1, 1152, 5, 5]          28,800          28,800
   RecycleNetwork/EfficientNetLite/MBConvBlock          BatchNorm2d-104      [1, 1152, 5, 5]           2,304           2,304
   RecycleNetwork/EfficientNetLite/MBConvBlock               Conv2d-105       [1, 192, 5, 5]         221,184         221,184
   RecycleNetwork/EfficientNetLite/MBConvBlock          BatchNorm2d-106       [1, 192, 5, 5]             384             384
   RecycleNetwork/EfficientNetLite/MBConvBlock               Conv2d-107      [1, 1152, 5, 5]         221,184         221,184
   RecycleNetwork/EfficientNetLite/MBConvBlock          BatchNorm2d-108      [1, 1152, 5, 5]           2,304           2,304
   RecycleNetwork/EfficientNetLite/MBConvBlock                ReLU6-109      [1, 1152, 5, 5]               0               0
   RecycleNetwork/EfficientNetLite/MBConvBlock               Conv2d-110      [1, 1152, 5, 5]          10,368          10,368
   RecycleNetwork/EfficientNetLite/MBConvBlock          BatchNorm2d-111      [1, 1152, 5, 5]           2,304           2,304
   RecycleNetwork/EfficientNetLite/MBConvBlock               Conv2d-112       [1, 320, 5, 5]         368,640         368,640
   RecycleNetwork/EfficientNetLite/MBConvBlock          BatchNorm2d-113       [1, 320, 5, 5]             640             640
               RecycleNetwork/EfficientNetLite               Conv2d-114      [1, 1280, 5, 5]         409,600         409,600
               RecycleNetwork/EfficientNetLite          BatchNorm2d-115      [1, 1280, 5, 5]           2,560           2,560
               RecycleNetwork/EfficientNetLite                ReLU6-116      [1, 1280, 5, 5]               0               0
               RecycleNetwork/EfficientNetLite    AdaptiveAvgPool2d-117      [1, 1280, 1, 1]               0               0
               RecycleNetwork/EfficientNetLite              Dropout-118            [1, 1280]               0               0
               RecycleNetwork/EfficientNetLite               Linear-119               [1, 5]           6,405           6,405
============================================================================================================================
Total params: 3,336,104
Trainable params: 3,336,104
Non-trainable params: 0
----------------------------------------------------------------------------------------------------------------------------
Ended Training Cycle
backbone.blocks.4.0._expand_conv
8

--------------------------------
…
        True, True, True, True, True, True, True, True, True, True, True, True,
        True, True, True, True])
torch.Size([112])
torch.Size([112])
Starting Training Cycle
----------------------------------------------------------------------------------------------------------------------------
                                 Parent Layers             Layer (type)         Output Shape         Param #     Tr. Param #
============================================================================================================================
               RecycleNetwork/EfficientNetLite                 Conv2d-1      [1, 27, 75, 75]             729             729
               RecycleNetwork/EfficientNetLite            BatchNorm2d-2      [1, 27, 75, 75]              54              54
               RecycleNetwork/EfficientNetLite                  ReLU6-3      [1, 27, 75, 75]               0               0
   RecycleNetwork/EfficientNetLite/MBConvBlock                 Conv2d-4      [1, 27, 75, 75]             243             243
   RecycleNetwork/EfficientNetLite/MBConvBlock            BatchNorm2d-5      [1, 27, 75, 75]              54              54
   RecycleNetwork/EfficientNetLite/MBConvBlock                  ReLU6-6      [1, 27, 75, 75]               0               0
   RecycleNetwork/EfficientNetLite/MBConvBlock                 Conv2d-7      [1, 16, 75, 75]             432             432
   RecycleNetwork/EfficientNetLite/MBConvBlock            BatchNorm2d-8      [1, 16, 75, 75]              32              32
   RecycleNetwork/EfficientNetLite/MBConvBlock                 Conv2d-9      [1, 89, 75, 75]           1,424           1,424
   RecycleNetwork/EfficientNetLite/MBConvBlock           BatchNorm2d-10      [1, 89, 75, 75]             178             178
   RecycleNetwork/EfficientNetLite/MBConvBlock                 ReLU6-11      [1, 89, 75, 75]               0               0
   RecycleNetwork/EfficientNetLite/MBConvBlock                Conv2d-12      [1, 89, 38, 38]             801             801
   RecycleNetwork/EfficientNetLite/MBConvBlock           BatchNorm2d-13      [1, 89, 38, 38]             178             178
   RecycleNetwork/EfficientNetLite/MBConvBlock                Conv2d-14      [1, 24, 38, 38]           2,136           2,136
   RecycleNetwork/EfficientNetLite/MBConvBlock           BatchNorm2d-15      [1, 24, 38, 38]              48              48
   RecycleNetwork/EfficientNetLite/MBConvBlock                Conv2d-16     [1, 131, 38, 38]           3,144           3,144
   RecycleNetwork/EfficientNetLite/MBConvBlock           BatchNorm2d-17     [1, 131, 38, 38]             262             262
   RecycleNetwork/EfficientNetLite/MBConvBlock                 ReLU6-18     [1, 131, 38, 38]               0               0
   RecycleNetwork/EfficientNetLite/MBConvBlock                Conv2d-19     [1, 131, 38, 38]           1,179           1,179
   RecycleNetwork/EfficientNetLite/MBConvBlock           BatchNorm2d-20     [1, 131, 38, 38]             262             262
   RecycleNetwork/EfficientNetLite/MBConvBlock                Conv2d-21      [1, 24, 38, 38]           3,144           3,144
   RecycleNetwork/EfficientNetLite/MBConvBlock           BatchNorm2d-22      [1, 24, 38, 38]              48              48
   RecycleNetwork/EfficientNetLite/MBConvBlock                Conv2d-23     [1, 139, 38, 38]           3,336           3,336
   RecycleNetwork/EfficientNetLite/MBConvBlock           BatchNorm2d-24     [1, 139, 38, 38]             278             278
   RecycleNetwork/EfficientNetLite/MBConvBlock                 ReLU6-25     [1, 139, 38, 38]               0               0
   RecycleNetwork/EfficientNetLite/MBConvBlock                Conv2d-26     [1, 139, 19, 19]           3,475           3,475
   RecycleNetwork/EfficientNetLite/MBConvBlock           BatchNorm2d-27     [1, 139, 19, 19]             278             278
   RecycleNetwork/EfficientNetLite/MBConvBlock                Conv2d-28      [1, 40, 19, 19]           5,560           5,560
   RecycleNetwork/EfficientNetLite/MBConvBlock           BatchNorm2d-29      [1, 40, 19, 19]              80              80
   RecycleNetwork/EfficientNetLite/MBConvBlock                Conv2d-30     [1, 210, 19, 19]           8,400           8,400
   RecycleNetwork/EfficientNetLite/MBConvBlock           BatchNorm2d-31     [1, 210, 19, 19]             420             420
   RecycleNetwork/EfficientNetLite/MBConvBlock                 ReLU6-32     [1, 210, 19, 19]               0               0
   RecycleNetwork/EfficientNetLite/MBConvBlock                Conv2d-33     [1, 210, 19, 19]           5,250           5,250
   RecycleNetwork/EfficientNetLite/MBConvBlock           BatchNorm2d-34     [1, 210, 19, 19]             420             420
   RecycleNetwork/EfficientNetLite/MBConvBlock                Conv2d-35      [1, 40, 19, 19]           8,400           8,400
   RecycleNetwork/EfficientNetLite/MBConvBlock           BatchNorm2d-36      [1, 40, 19, 19]              80              80
   RecycleNetwork/EfficientNetLite/MBConvBlock                Conv2d-37     [1, 235, 19, 19]           9,400           9,400
   RecycleNetwork/EfficientNetLite/MBConvBlock           BatchNorm2d-38     [1, 235, 19, 19]             470             470
   RecycleNetwork/EfficientNetLite/MBConvBlock                 ReLU6-39     [1, 235, 19, 19]               0               0
   RecycleNetwork/EfficientNetLite/MBConvBlock                Conv2d-40     [1, 235, 10, 10]           2,115           2,115
   RecycleNetwork/EfficientNetLite/MBConvBlock           BatchNorm2d-41     [1, 235, 10, 10]             470             470
   RecycleNetwork/EfficientNetLite/MBConvBlock                Conv2d-42      [1, 80, 10, 10]          18,800          18,800
   RecycleNetwork/EfficientNetLite/MBConvBlock           BatchNorm2d-43      [1, 80, 10, 10]             160             160
   RecycleNetwork/EfficientNetLite/MBConvBlock                Conv2d-44     [1, 391, 10, 10]          31,280          31,280
   RecycleNetwork/EfficientNetLite/MBConvBlock           BatchNorm2d-45     [1, 391, 10, 10]             782             782
   RecycleNetwork/EfficientNetLite/MBConvBlock                 ReLU6-46     [1, 391, 10, 10]               0               0
   RecycleNetwork/EfficientNetLite/MBConvBlock                Conv2d-47     [1, 391, 10, 10]           3,519           3,519
   RecycleNetwork/EfficientNetLite/MBConvBlock           BatchNorm2d-48     [1, 391, 10, 10]             782             782
   RecycleNetwork/EfficientNetLite/MBConvBlock                Conv2d-49      [1, 80, 10, 10]          31,280          31,280
   RecycleNetwork/EfficientNetLite/MBConvBlock           BatchNorm2d-50      [1, 80, 10, 10]             160             160
   RecycleNetwork/EfficientNetLite/MBConvBlock                Conv2d-51     [1, 364, 10, 10]          29,120          29,120
   RecycleNetwork/EfficientNetLite/MBConvBlock           BatchNorm2d-52     [1, 364, 10, 10]             728             728
   RecycleNetwork/EfficientNetLite/MBConvBlock                 ReLU6-53     [1, 364, 10, 10]               0               0
   RecycleNetwork/EfficientNetLite/MBConvBlock                Conv2d-54     [1, 364, 10, 10]           3,276           3,276
   RecycleNetwork/EfficientNetLite/MBConvBlock           BatchNorm2d-55     [1, 364, 10, 10]             728             728
…
   RecycleNetwork/EfficientNetLite/MBConvBlock          BatchNorm2d-104      [1, 1152, 5, 5]           2,304           2,304
   RecycleNetwork/EfficientNetLite/MBConvBlock               Conv2d-105       [1, 192, 5, 5]         221,184         221,184
   RecycleNetwork/EfficientNetLite/MBConvBlock          BatchNorm2d-106       [1, 192, 5, 5]             384             384
   RecycleNetwork/EfficientNetLite/MBConvBlock               Conv2d-107      [1, 1152, 5, 5]         221,184         221,184
   RecycleNetwork/EfficientNetLite/MBConvBlock          BatchNorm2d-108      [1, 1152, 5, 5]           2,304           2,304
   RecycleNetwork/EfficientNetLite/MBConvBlock                ReLU6-109      [1, 1152, 5, 5]               0               0
   RecycleNetwork/EfficientNetLite/MBConvBlock               Conv2d-110      [1, 1152, 5, 5]          10,368          10,368
   RecycleNetwork/EfficientNetLite/MBConvBlock          BatchNorm2d-111      [1, 1152, 5, 5]           2,304           2,304
   RecycleNetwork/EfficientNetLite/MBConvBlock               Conv2d-112       [1, 320, 5, 5]         368,640         368,640
   RecycleNetwork/EfficientNetLite/MBConvBlock          BatchNorm2d-113       [1, 320, 5, 5]             640             640
               RecycleNetwork/EfficientNetLite               Conv2d-114      [1, 1280, 5, 5]         409,600         409,600
               RecycleNetwork/EfficientNetLite          BatchNorm2d-115      [1, 1280, 5, 5]           2,560           2,560
               RecycleNetwork/EfficientNetLite                ReLU6-116      [1, 1280, 5, 5]               0               0
               RecycleNetwork/EfficientNetLite    AdaptiveAvgPool2d-117      [1, 1280, 1, 1]               0               0
               RecycleNetwork/EfficientNetLite              Dropout-118            [1, 1280]               0               0
               RecycleNetwork/EfficientNetLite               Linear-119               [1, 5]           6,405           6,405
============================================================================================================================
Total params: 2,711,535
Trainable params: 2,711,535
Non-trainable params: 0
----------------------------------------------------------------------------------------------------------------------------
Ended Training Cycle
backbone.blocks.5.3._expand_conv
455
…
        True, True, True, True, True, True, True, True, True, True, True, True,
        True, True, True, True, True, True, True, True, True, True, True, True])
torch.Size([192])
torch.Size([192])
Starting Training Cycle
----------------------------------------------------------------------------------------------------------------------------
                                 Parent Layers             Layer (type)         Output Shape         Param #     Tr. Param #
============================================================================================================================
               RecycleNetwork/EfficientNetLite                 Conv2d-1      [1, 27, 75, 75]             729             729
               RecycleNetwork/EfficientNetLite            BatchNorm2d-2      [1, 27, 75, 75]              54              54
               RecycleNetwork/EfficientNetLite                  ReLU6-3      [1, 27, 75, 75]               0               0
   RecycleNetwork/EfficientNetLite/MBConvBlock                 Conv2d-4      [1, 27, 75, 75]             243             243
   RecycleNetwork/EfficientNetLite/MBConvBlock            BatchNorm2d-5      [1, 27, 75, 75]              54              54
   RecycleNetwork/EfficientNetLite/MBConvBlock                  ReLU6-6      [1, 27, 75, 75]               0               0
   RecycleNetwork/EfficientNetLite/MBConvBlock                 Conv2d-7      [1, 16, 75, 75]             432             432
   RecycleNetwork/EfficientNetLite/MBConvBlock            BatchNorm2d-8      [1, 16, 75, 75]              32              32
   RecycleNetwork/EfficientNetLite/MBConvBlock                 Conv2d-9      [1, 89, 75, 75]           1,424           1,424
   RecycleNetwork/EfficientNetLite/MBConvBlock           BatchNorm2d-10      [1, 89, 75, 75]             178             178
   RecycleNetwork/EfficientNetLite/MBConvBlock                 ReLU6-11      [1, 89, 75, 75]               0               0
   RecycleNetwork/EfficientNetLite/MBConvBlock                Conv2d-12      [1, 89, 38, 38]             801             801
   RecycleNetwork/EfficientNetLite/MBConvBlock           BatchNorm2d-13      [1, 89, 38, 38]             178             178
   RecycleNetwork/EfficientNetLite/MBConvBlock                Conv2d-14      [1, 24, 38, 38]           2,136           2,136
   RecycleNetwork/EfficientNetLite/MBConvBlock           BatchNorm2d-15      [1, 24, 38, 38]              48              48
   RecycleNetwork/EfficientNetLite/MBConvBlock                Conv2d-16     [1, 131, 38, 38]           3,144           3,144
   RecycleNetwork/EfficientNetLite/MBConvBlock           BatchNorm2d-17     [1, 131, 38, 38]             262             262
   RecycleNetwork/EfficientNetLite/MBConvBlock                 ReLU6-18     [1, 131, 38, 38]               0               0
   RecycleNetwork/EfficientNetLite/MBConvBlock                Conv2d-19     [1, 131, 38, 38]           1,179           1,179
   RecycleNetwork/EfficientNetLite/MBConvBlock           BatchNorm2d-20     [1, 131, 38, 38]             262             262
   RecycleNetwork/EfficientNetLite/MBConvBlock                Conv2d-21      [1, 24, 38, 38]           3,144           3,144
   RecycleNetwork/EfficientNetLite/MBConvBlock           BatchNorm2d-22      [1, 24, 38, 38]              48              48
   RecycleNetwork/EfficientNetLite/MBConvBlock                Conv2d-23     [1, 139, 38, 38]           3,336           3,336
   RecycleNetwork/EfficientNetLite/MBConvBlock           BatchNorm2d-24     [1, 139, 38, 38]             278             278
   RecycleNetwork/EfficientNetLite/MBConvBlock                 ReLU6-25     [1, 139, 38, 38]               0               0
   RecycleNetwork/EfficientNetLite/MBConvBlock                Conv2d-26     [1, 139, 19, 19]           3,475           3,475
   RecycleNetwork/EfficientNetLite/MBConvBlock           BatchNorm2d-27     [1, 139, 19, 19]             278             278
   RecycleNetwork/EfficientNetLite/MBConvBlock                Conv2d-28      [1, 40, 19, 19]           5,560           5,560
   RecycleNetwork/EfficientNetLite/MBConvBlock           BatchNorm2d-29      [1, 40, 19, 19]              80              80
   RecycleNetwork/EfficientNetLite/MBConvBlock                Conv2d-30     [1, 210, 19, 19]           8,400           8,400
   RecycleNetwork/EfficientNetLite/MBConvBlock           BatchNorm2d-31     [1, 210, 19, 19]             420             420
   RecycleNetwork/EfficientNetLite/MBConvBlock                 ReLU6-32     [1, 210, 19, 19]               0               0
   RecycleNetwork/EfficientNetLite/MBConvBlock                Conv2d-33     [1, 210, 19, 19]           5,250           5,250
   RecycleNetwork/EfficientNetLite/MBConvBlock           BatchNorm2d-34     [1, 210, 19, 19]             420             420
   RecycleNetwork/EfficientNetLite/MBConvBlock                Conv2d-35      [1, 40, 19, 19]           8,400           8,400
   RecycleNetwork/EfficientNetLite/MBConvBlock           BatchNorm2d-36      [1, 40, 19, 19]              80              80
   RecycleNetwork/EfficientNetLite/MBConvBlock                Conv2d-37     [1, 235, 19, 19]           9,400           9,400
   RecycleNetwork/EfficientNetLite/MBConvBlock           BatchNorm2d-38     [1, 235, 19, 19]             470             470
   RecycleNetwork/EfficientNetLite/MBConvBlock                 ReLU6-39     [1, 235, 19, 19]               0               0
   RecycleNetwork/EfficientNetLite/MBConvBlock                Conv2d-40     [1, 235, 10, 10]           2,115           2,115
   RecycleNetwork/EfficientNetLite/MBConvBlock           BatchNorm2d-41     [1, 235, 10, 10]             470             470
   RecycleNetwork/EfficientNetLite/MBConvBlock                Conv2d-42      [1, 80, 10, 10]          18,800          18,800
   RecycleNetwork/EfficientNetLite/MBConvBlock           BatchNorm2d-43      [1, 80, 10, 10]             160             160
   RecycleNetwork/EfficientNetLite/MBConvBlock                Conv2d-44     [1, 391, 10, 10]          31,280          31,280
   RecycleNetwork/EfficientNetLite/MBConvBlock           BatchNorm2d-45     [1, 391, 10, 10]             782             782
   RecycleNetwork/EfficientNetLite/MBConvBlock                 ReLU6-46     [1, 391, 10, 10]               0               0
   RecycleNetwork/EfficientNetLite/MBConvBlock                Conv2d-47     [1, 391, 10, 10]           3,519           3,519
   RecycleNetwork/EfficientNetLite/MBConvBlock           BatchNorm2d-48     [1, 391, 10, 10]             782             782
   RecycleNetwork/EfficientNetLite/MBConvBlock                Conv2d-49      [1, 80, 10, 10]          31,280          31,280
   RecycleNetwork/EfficientNetLite/MBConvBlock           BatchNorm2d-50      [1, 80, 10, 10]             160             160
   RecycleNetwork/EfficientNetLite/MBConvBlock                Conv2d-51     [1, 364, 10, 10]          29,120          29,120
   RecycleNetwork/EfficientNetLite/MBConvBlock           BatchNorm2d-52     [1, 364, 10, 10]             728             728
   RecycleNetwork/EfficientNetLite/MBConvBlock                 ReLU6-53     [1, 364, 10, 10]               0               0
   RecycleNetwork/EfficientNetLite/MBConvBlock                Conv2d-54     [1, 364, 10, 10]           3,276           3,276
   RecycleNetwork/EfficientNetLite/MBConvBlock           BatchNorm2d-55     [1, 364, 10, 10]             728             728
   RecycleNetwork/EfficientNetLite/MBConvBlock                Conv2d-56      [1, 80, 10, 10]          29,120          29,120
   RecycleNetwork/EfficientNetLite/MBConvBlock           BatchNorm2d-57      [1, 80, 10, 10]             160             160
   RecycleNetwork/EfficientNetLite/MBConvBlock                Conv2d-58     [1, 462, 10, 10]          36,960          36,960
   RecycleNetwork/EfficientNetLite/MBConvBlock           BatchNorm2d-59     [1, 462, 10, 10]             924             924
   RecycleNetwork/EfficientNetLite/MBConvBlock                 ReLU6-60     [1, 462, 10, 10]               0               0
   RecycleNetwork/EfficientNetLite/MBConvBlock                Conv2d-61     [1, 462, 10, 10]          11,550          11,550
   RecycleNetwork/EfficientNetLite/MBConvBlock           BatchNorm2d-62     [1, 462, 10, 10]             924             924
   RecycleNetwork/EfficientNetLite/MBConvBlock                Conv2d-63     [1, 112, 10, 10]          51,744          51,744
   RecycleNetwork/EfficientNetLite/MBConvBlock           BatchNorm2d-64     [1, 112, 10, 10]             224             224
   RecycleNetwork/EfficientNetLite/MBConvBlock                Conv2d-65     [1, 504, 10, 10]          56,448          56,448
   RecycleNetwork/EfficientNetLite/MBConvBlock           BatchNorm2d-66     [1, 504, 10, 10]           1,008           1,008
   RecycleNetwork/EfficientNetLite/MBConvBlock                 ReLU6-67     [1, 504, 10, 10]               0               0
   RecycleNetwork/EfficientNetLite/MBConvBlock                Conv2d-68     [1, 504, 10, 10]          12,600          12,600
   RecycleNetwork/EfficientNetLite/MBConvBlock           BatchNorm2d-69     [1, 504, 10, 10]           1,008           1,008
   RecycleNetwork/EfficientNetLite/MBConvBlock                Conv2d-70     [1, 112, 10, 10]          56,448          56,448
   RecycleNetwork/EfficientNetLite/MBConvBlock           BatchNorm2d-71     [1, 112, 10, 10]             224             224
   RecycleNetwork/EfficientNetLite/MBConvBlock                Conv2d-72     [1, 410, 10, 10]          45,920          45,920
   RecycleNetwork/EfficientNetLite/MBConvBlock           BatchNorm2d-73     [1, 410, 10, 10]             820             820
   RecycleNetwork/EfficientNetLite/MBConvBlock                 ReLU6-74     [1, 410, 10, 10]               0               0
   RecycleNetwork/EfficientNetLite/MBConvBlock                Conv2d-75     [1, 410, 10, 10]          10,250          10,250
   RecycleNetwork/EfficientNetLite/MBConvBlock           BatchNorm2d-76     [1, 410, 10, 10]             820             820
   RecycleNetwork/EfficientNetLite/MBConvBlock                Conv2d-77     [1, 112, 10, 10]          45,920          45,920
   RecycleNetwork/EfficientNetLite/MBConvBlock           BatchNorm2d-78     [1, 112, 10, 10]             224             224
   RecycleNetwork/EfficientNetLite/MBConvBlock                Conv2d-79     [1, 477, 10, 10]          53,424          53,424
   RecycleNetwork/EfficientNetLite/MBConvBlock           BatchNorm2d-80     [1, 477, 10, 10]             954             954
   RecycleNetwork/EfficientNetLite/MBConvBlock                 ReLU6-81     [1, 477, 10, 10]               0               0
   RecycleNetwork/EfficientNetLite/MBConvBlock                Conv2d-82       [1, 477, 5, 5]          11,925          11,925
   RecycleNetwork/EfficientNetLite/MBConvBlock           BatchNorm2d-83       [1, 477, 5, 5]             954             954
   RecycleNetwork/EfficientNetLite/MBConvBlock                Conv2d-84       [1, 192, 5, 5]          91,584          91,584
   RecycleNetwork/EfficientNetLite/MBConvBlock           BatchNorm2d-85       [1, 192, 5, 5]             384             384
   RecycleNetwork/EfficientNetLite/MBConvBlock                Conv2d-86       [1, 745, 5, 5]         143,040         143,040
   RecycleNetwork/EfficientNetLite/MBConvBlock           BatchNorm2d-87       [1, 745, 5, 5]           1,490           1,490
   RecycleNetwork/EfficientNetLite/MBConvBlock                 ReLU6-88       [1, 745, 5, 5]               0               0
   RecycleNetwork/EfficientNetLite/MBConvBlock                Conv2d-89       [1, 745, 5, 5]          18,625          18,625
   RecycleNetwork/EfficientNetLite/MBConvBlock           BatchNorm2d-90       [1, 745, 5, 5]           1,490           1,490
   RecycleNetwork/EfficientNetLite/MBConvBlock                Conv2d-91       [1, 192, 5, 5]         143,040         143,040
   RecycleNetwork/EfficientNetLite/MBConvBlock           BatchNorm2d-92       [1, 192, 5, 5]             384             384
   RecycleNetwork/EfficientNetLite/MBConvBlock                Conv2d-93       [1, 477, 5, 5]          91,584          91,584
   RecycleNetwork/EfficientNetLite/MBConvBlock           BatchNorm2d-94       [1, 477, 5, 5]             954             954
   RecycleNetwork/EfficientNetLite/MBConvBlock                 ReLU6-95       [1, 477, 5, 5]               0               0
   RecycleNetwork/EfficientNetLite/MBConvBlock                Conv2d-96       [1, 477, 5, 5]          11,925          11,925
   RecycleNetwork/EfficientNetLite/MBConvBlock           BatchNorm2d-97       [1, 477, 5, 5]             954             954
   RecycleNetwork/EfficientNetLite/MBConvBlock                Conv2d-98       [1, 192, 5, 5]          91,584          91,584
   RecycleNetwork/EfficientNetLite/MBConvBlock           BatchNorm2d-99       [1, 192, 5, 5]             384             384
   RecycleNetwork/EfficientNetLite/MBConvBlock               Conv2d-100       [1, 357, 5, 5]          68,544          68,544
   RecycleNetwork/EfficientNetLite/MBConvBlock          BatchNorm2d-101       [1, 357, 5, 5]             714             714
   RecycleNetwork/EfficientNetLite/MBConvBlock                ReLU6-102       [1, 357, 5, 5]               0               0
   RecycleNetwork/EfficientNetLite/MBConvBlock               Conv2d-103       [1, 357, 5, 5]           8,925           8,925
   RecycleNetwork/EfficientNetLite/MBConvBlock          BatchNorm2d-104       [1, 357, 5, 5]             714             714
   RecycleNetwork/EfficientNetLite/MBConvBlock               Conv2d-105       [1, 192, 5, 5]          68,544          68,544
   RecycleNetwork/EfficientNetLite/MBConvBlock          BatchNorm2d-106       [1, 192, 5, 5]             384             384
   RecycleNetwork/EfficientNetLite/MBConvBlock               Conv2d-107      [1, 1152, 5, 5]         221,184         221,184
   RecycleNetwork/EfficientNetLite/MBConvBlock          BatchNorm2d-108      [1, 1152, 5, 5]           2,304           2,304
   RecycleNetwork/EfficientNetLite/MBConvBlock                ReLU6-109      [1, 1152, 5, 5]               0               0
   RecycleNetwork/EfficientNetLite/MBConvBlock               Conv2d-110      [1, 1152, 5, 5]          10,368          10,368
   RecycleNetwork/EfficientNetLite/MBConvBlock          BatchNorm2d-111      [1, 1152, 5, 5]           2,304           2,304
   RecycleNetwork/EfficientNetLite/MBConvBlock               Conv2d-112       [1, 320, 5, 5]         368,640         368,640
   RecycleNetwork/EfficientNetLite/MBConvBlock          BatchNorm2d-113       [1, 320, 5, 5]             640             640
               RecycleNetwork/EfficientNetLite               Conv2d-114      [1, 1280, 5, 5]         409,600         409,600
               RecycleNetwork/EfficientNetLite          BatchNorm2d-115      [1, 1280, 5, 5]           2,560           2,560
               RecycleNetwork/EfficientNetLite                ReLU6-116      [1, 1280, 5, 5]               0               0
               RecycleNetwork/EfficientNetLite    AdaptiveAvgPool2d-117      [1, 1280, 1, 1]               0               0
               RecycleNetwork/EfficientNetLite              Dropout-118            [1, 1280]               0               0
               RecycleNetwork/EfficientNetLite               Linear-119               [1, 5]           6,405           6,405
============================================================================================================================
Total params: 2,383,200
Trainable params: 2,383,200
Non-trainable params: 0
----------------------------------------------------------------------------------------------------------------------------
Ended Training Cycle
backbone.blocks.6.0._expand_conv
484
…
        True, True, True, True, True, True, True, True, True, True, True, True,
        True, True, True, True, True, True, True, True])
torch.Size([320])
torch.Size([320])
Starting Training Cycle
----------------------------------------------------------------------------------------------------------------------------
                                 Parent Layers             Layer (type)         Output Shape         Param #     Tr. Param #
============================================================================================================================
               RecycleNetwork/EfficientNetLite                 Conv2d-1      [1, 27, 75, 75]             729             729
               RecycleNetwork/EfficientNetLite            BatchNorm2d-2      [1, 27, 75, 75]              54              54
               RecycleNetwork/EfficientNetLite                  ReLU6-3      [1, 27, 75, 75]               0               0
   RecycleNetwork/EfficientNetLite/MBConvBlock                 Conv2d-4      [1, 27, 75, 75]             243             243
   RecycleNetwork/EfficientNetLite/MBConvBlock            BatchNorm2d-5      [1, 27, 75, 75]              54              54
   RecycleNetwork/EfficientNetLite/MBConvBlock                  ReLU6-6      [1, 27, 75, 75]               0               0
   RecycleNetwork/EfficientNetLite/MBConvBlock                 Conv2d-7      [1, 16, 75, 75]             432             432
   RecycleNetwork/EfficientNetLite/MBConvBlock            BatchNorm2d-8      [1, 16, 75, 75]              32              32
   RecycleNetwork/EfficientNetLite/MBConvBlock                 Conv2d-9      [1, 89, 75, 75]           1,424           1,424
   RecycleNetwork/EfficientNetLite/MBConvBlock           BatchNorm2d-10      [1, 89, 75, 75]             178             178
   RecycleNetwork/EfficientNetLite/MBConvBlock                 ReLU6-11      [1, 89, 75, 75]               0               0
   RecycleNetwork/EfficientNetLite/MBConvBlock                Conv2d-12      [1, 89, 38, 38]             801             801
   RecycleNetwork/EfficientNetLite/MBConvBlock           BatchNorm2d-13      [1, 89, 38, 38]             178             178
   RecycleNetwork/EfficientNetLite/MBConvBlock                Conv2d-14      [1, 24, 38, 38]           2,136           2,136
   RecycleNetwork/EfficientNetLite/MBConvBlock           BatchNorm2d-15      [1, 24, 38, 38]              48              48
   RecycleNetwork/EfficientNetLite/MBConvBlock                Conv2d-16     [1, 131, 38, 38]           3,144           3,144
   RecycleNetwork/EfficientNetLite/MBConvBlock           BatchNorm2d-17     [1, 131, 38, 38]             262             262
   RecycleNetwork/EfficientNetLite/MBConvBlock                 ReLU6-18     [1, 131, 38, 38]               0               0
   RecycleNetwork/EfficientNetLite/MBConvBlock                Conv2d-19     [1, 131, 38, 38]           1,179           1,179
   RecycleNetwork/EfficientNetLite/MBConvBlock           BatchNorm2d-20     [1, 131, 38, 38]             262             262
   RecycleNetwork/EfficientNetLite/MBConvBlock                Conv2d-21      [1, 24, 38, 38]           3,144           3,144
   RecycleNetwork/EfficientNetLite/MBConvBlock           BatchNorm2d-22      [1, 24, 38, 38]              48              48
   RecycleNetwork/EfficientNetLite/MBConvBlock                Conv2d-23     [1, 139, 38, 38]           3,336           3,336
   RecycleNetwork/EfficientNetLite/MBConvBlock           BatchNorm2d-24     [1, 139, 38, 38]             278             278
   RecycleNetwork/EfficientNetLite/MBConvBlock                 ReLU6-25     [1, 139, 38, 38]               0               0
   RecycleNetwork/EfficientNetLite/MBConvBlock                Conv2d-26     [1, 139, 19, 19]           3,475           3,475
   RecycleNetwork/EfficientNetLite/MBConvBlock           BatchNorm2d-27     [1, 139, 19, 19]             278             278
   RecycleNetwork/EfficientNetLite/MBConvBlock                Conv2d-28      [1, 40, 19, 19]           5,560           5,560
   RecycleNetwork/EfficientNetLite/MBConvBlock           BatchNorm2d-29      [1, 40, 19, 19]              80              80
   RecycleNetwork/EfficientNetLite/MBConvBlock                Conv2d-30     [1, 210, 19, 19]           8,400           8,400
   RecycleNetwork/EfficientNetLite/MBConvBlock           BatchNorm2d-31     [1, 210, 19, 19]             420             420
   RecycleNetwork/EfficientNetLite/MBConvBlock                 ReLU6-32     [1, 210, 19, 19]               0               0
   RecycleNetwork/EfficientNetLite/MBConvBlock                Conv2d-33     [1, 210, 19, 19]           5,250           5,250
   RecycleNetwork/EfficientNetLite/MBConvBlock           BatchNorm2d-34     [1, 210, 19, 19]             420             420
   RecycleNetwork/EfficientNetLite/MBConvBlock                Conv2d-35      [1, 40, 19, 19]           8,400           8,400
   RecycleNetwork/EfficientNetLite/MBConvBlock           BatchNorm2d-36      [1, 40, 19, 19]              80              80
   RecycleNetwork/EfficientNetLite/MBConvBlock                Conv2d-37     [1, 235, 19, 19]           9,400           9,400
   RecycleNetwork/EfficientNetLite/MBConvBlock           BatchNorm2d-38     [1, 235, 19, 19]             470             470
   RecycleNetwork/EfficientNetLite/MBConvBlock                 ReLU6-39     [1, 235, 19, 19]               0               0
   RecycleNetwork/EfficientNetLite/MBConvBlock                Conv2d-40     [1, 235, 10, 10]           2,115           2,115
   RecycleNetwork/EfficientNetLite/MBConvBlock           BatchNorm2d-41     [1, 235, 10, 10]             470             470
   RecycleNetwork/EfficientNetLite/MBConvBlock                Conv2d-42      [1, 80, 10, 10]          18,800          18,800
   RecycleNetwork/EfficientNetLite/MBConvBlock           BatchNorm2d-43      [1, 80, 10, 10]             160             160
   RecycleNetwork/EfficientNetLite/MBConvBlock                Conv2d-44     [1, 391, 10, 10]          31,280          31,280
   RecycleNetwork/EfficientNetLite/MBConvBlock           BatchNorm2d-45     [1, 391, 10, 10]             782             782
   RecycleNetwork/EfficientNetLite/MBConvBlock                 ReLU6-46     [1, 391, 10, 10]               0               0
   RecycleNetwork/EfficientNetLite/MBConvBlock                Conv2d-47     [1, 391, 10, 10]           3,519           3,519
   RecycleNetwork/EfficientNetLite/MBConvBlock           BatchNorm2d-48     [1, 391, 10, 10]             782             782
   RecycleNetwork/EfficientNetLite/MBConvBlock                Conv2d-49      [1, 80, 10, 10]          31,280          31,280
   RecycleNetwork/EfficientNetLite/MBConvBlock           BatchNorm2d-50      [1, 80, 10, 10]             160             160
   RecycleNetwork/EfficientNetLite/MBConvBlock                Conv2d-51     [1, 364, 10, 10]          29,120          29,120
   RecycleNetwork/EfficientNetLite/MBConvBlock           BatchNorm2d-52     [1, 364, 10, 10]             728             728
   RecycleNetwork/EfficientNetLite/MBConvBlock                 ReLU6-53     [1, 364, 10, 10]               0               0
   RecycleNetwork/EfficientNetLite/MBConvBlock                Conv2d-54     [1, 364, 10, 10]           3,276           3,276
   RecycleNetwork/EfficientNetLite/MBConvBlock           BatchNorm2d-55     [1, 364, 10, 10]             728             728
   RecycleNetwork/EfficientNetLite/MBConvBlock                Conv2d-56      [1, 80, 10, 10]          29,120          29,120
   RecycleNetwork/EfficientNetLite/MBConvBlock           BatchNorm2d-57      [1, 80, 10, 10]             160             160
   RecycleNetwork/EfficientNetLite/MBConvBlock                Conv2d-58     [1, 462, 10, 10]          36,960          36,960
   RecycleNetwork/EfficientNetLite/MBConvBlock           BatchNorm2d-59     [1, 462, 10, 10]             924             924
   RecycleNetwork/EfficientNetLite/MBConvBlock                 ReLU6-60     [1, 462, 10, 10]               0               0
   RecycleNetwork/EfficientNetLite/MBConvBlock                Conv2d-61     [1, 462, 10, 10]          11,550          11,550
   RecycleNetwork/EfficientNetLite/MBConvBlock           BatchNorm2d-62     [1, 462, 10, 10]             924             924
   RecycleNetwork/EfficientNetLite/MBConvBlock                Conv2d-63     [1, 112, 10, 10]          51,744          51,744
   RecycleNetwork/EfficientNetLite/MBConvBlock           BatchNorm2d-64     [1, 112, 10, 10]             224             224
   RecycleNetwork/EfficientNetLite/MBConvBlock                Conv2d-65     [1, 504, 10, 10]          56,448          56,448
   RecycleNetwork/EfficientNetLite/MBConvBlock           BatchNorm2d-66     [1, 504, 10, 10]           1,008           1,008
   RecycleNetwork/EfficientNetLite/MBConvBlock                 ReLU6-67     [1, 504, 10, 10]               0               0
   RecycleNetwork/EfficientNetLite/MBConvBlock                Conv2d-68     [1, 504, 10, 10]          12,600          12,600
   RecycleNetwork/EfficientNetLite/MBConvBlock           BatchNorm2d-69     [1, 504, 10, 10]           1,008           1,008
   RecycleNetwork/EfficientNetLite/MBConvBlock                Conv2d-70     [1, 112, 10, 10]          56,448          56,448
   RecycleNetwork/EfficientNetLite/MBConvBlock           BatchNorm2d-71     [1, 112, 10, 10]             224             224
   RecycleNetwork/EfficientNetLite/MBConvBlock                Conv2d-72     [1, 410, 10, 10]          45,920          45,920
   RecycleNetwork/EfficientNetLite/MBConvBlock           BatchNorm2d-73     [1, 410, 10, 10]             820             820
   RecycleNetwork/EfficientNetLite/MBConvBlock                 ReLU6-74     [1, 410, 10, 10]               0               0
   RecycleNetwork/EfficientNetLite/MBConvBlock                Conv2d-75     [1, 410, 10, 10]          10,250          10,250
   RecycleNetwork/EfficientNetLite/MBConvBlock           BatchNorm2d-76     [1, 410, 10, 10]             820             820
   RecycleNetwork/EfficientNetLite/MBConvBlock                Conv2d-77     [1, 112, 10, 10]          45,920          45,920
   RecycleNetwork/EfficientNetLite/MBConvBlock           BatchNorm2d-78     [1, 112, 10, 10]             224             224
   RecycleNetwork/EfficientNetLite/MBConvBlock                Conv2d-79     [1, 477, 10, 10]          53,424          53,424
   RecycleNetwork/EfficientNetLite/MBConvBlock           BatchNorm2d-80     [1, 477, 10, 10]             954             954
   RecycleNetwork/EfficientNetLite/MBConvBlock                 ReLU6-81     [1, 477, 10, 10]               0               0
   RecycleNetwork/EfficientNetLite/MBConvBlock                Conv2d-82       [1, 477, 5, 5]          11,925          11,925
   RecycleNetwork/EfficientNetLite/MBConvBlock           BatchNorm2d-83       [1, 477, 5, 5]             954             954
   RecycleNetwork/EfficientNetLite/MBConvBlock                Conv2d-84       [1, 192, 5, 5]          91,584          91,584
   RecycleNetwork/EfficientNetLite/MBConvBlock           BatchNorm2d-85       [1, 192, 5, 5]             384             384
   RecycleNetwork/EfficientNetLite/MBConvBlock                Conv2d-86       [1, 745, 5, 5]         143,040         143,040
   RecycleNetwork/EfficientNetLite/MBConvBlock           BatchNorm2d-87       [1, 745, 5, 5]           1,490           1,490
   RecycleNetwork/EfficientNetLite/MBConvBlock                 ReLU6-88       [1, 745, 5, 5]               0               0
   RecycleNetwork/EfficientNetLite/MBConvBlock                Conv2d-89       [1, 745, 5, 5]          18,625          18,625
   RecycleNetwork/EfficientNetLite/MBConvBlock           BatchNorm2d-90       [1, 745, 5, 5]           1,490           1,490
   RecycleNetwork/EfficientNetLite/MBConvBlock                Conv2d-91       [1, 192, 5, 5]         143,040         143,040
   RecycleNetwork/EfficientNetLite/MBConvBlock           BatchNorm2d-92       [1, 192, 5, 5]             384             384
   RecycleNetwork/EfficientNetLite/MBConvBlock                Conv2d-93       [1, 477, 5, 5]          91,584          91,584
   RecycleNetwork/EfficientNetLite/MBConvBlock           BatchNorm2d-94       [1, 477, 5, 5]             954             954
   RecycleNetwork/EfficientNetLite/MBConvBlock                 ReLU6-95       [1, 477, 5, 5]               0               0
   RecycleNetwork/EfficientNetLite/MBConvBlock                Conv2d-96       [1, 477, 5, 5]          11,925          11,925
   RecycleNetwork/EfficientNetLite/MBConvBlock           BatchNorm2d-97       [1, 477, 5, 5]             954             954
   RecycleNetwork/EfficientNetLite/MBConvBlock                Conv2d-98       [1, 192, 5, 5]          91,584          91,584
   RecycleNetwork/EfficientNetLite/MBConvBlock           BatchNorm2d-99       [1, 192, 5, 5]             384             384
   RecycleNetwork/EfficientNetLite/MBConvBlock               Conv2d-100       [1, 357, 5, 5]          68,544          68,544
   RecycleNetwork/EfficientNetLite/MBConvBlock          BatchNorm2d-101       [1, 357, 5, 5]             714             714
   RecycleNetwork/EfficientNetLite/MBConvBlock                ReLU6-102       [1, 357, 5, 5]               0               0
   RecycleNetwork/EfficientNetLite/MBConvBlock               Conv2d-103       [1, 357, 5, 5]           8,925           8,925
   RecycleNetwork/EfficientNetLite/MBConvBlock          BatchNorm2d-104       [1, 357, 5, 5]             714             714
   RecycleNetwork/EfficientNetLite/MBConvBlock               Conv2d-105       [1, 192, 5, 5]          68,544          68,544
   RecycleNetwork/EfficientNetLite/MBConvBlock          BatchNorm2d-106       [1, 192, 5, 5]             384             384
   RecycleNetwork/EfficientNetLite/MBConvBlock               Conv2d-107       [1, 559, 5, 5]         107,328         107,328
   RecycleNetwork/EfficientNetLite/MBConvBlock          BatchNorm2d-108       [1, 559, 5, 5]           1,118           1,118
   RecycleNetwork/EfficientNetLite/MBConvBlock                ReLU6-109       [1, 559, 5, 5]               0               0
   RecycleNetwork/EfficientNetLite/MBConvBlock               Conv2d-110       [1, 559, 5, 5]           5,031           5,031
   RecycleNetwork/EfficientNetLite/MBConvBlock          BatchNorm2d-111       [1, 559, 5, 5]           1,118           1,118
   RecycleNetwork/EfficientNetLite/MBConvBlock               Conv2d-112       [1, 320, 5, 5]         178,880         178,880
   RecycleNetwork/EfficientNetLite/MBConvBlock          BatchNorm2d-113       [1, 320, 5, 5]             640             640
               RecycleNetwork/EfficientNetLite               Conv2d-114      [1, 1280, 5, 5]         409,600         409,600
               RecycleNetwork/EfficientNetLite          BatchNorm2d-115      [1, 1280, 5, 5]           2,560           2,560
               RecycleNetwork/EfficientNetLite                ReLU6-116      [1, 1280, 5, 5]               0               0
               RecycleNetwork/EfficientNetLite    AdaptiveAvgPool2d-117      [1, 1280, 1, 1]               0               0
               RecycleNetwork/EfficientNetLite              Dropout-118            [1, 1280]               0               0
               RecycleNetwork/EfficientNetLite               Linear-119               [1, 5]           6,405           6,405
============================================================================================================================
Total params: 2,071,875
Trainable params: 2,071,875
Non-trainable params: 0
----------------------------------------------------------------------------------------------------------------------------
Ended Training Cycle
backbone.head.0
821

--------------------------------
…
<bound method ConvPruner.prune_out_channels of <torch_pruning.pruner.function.ConvPruner object at 0x7f1909c29990>>
backbone.head.0
0
tensor([ True, False,  True,  ..., False,  True, False])
torch.Size([1280])
torch.Size([459])
4204
----------------------------------------------------------------------------------------------------------------------------
                                 Parent Layers             Layer (type)         Output Shape         Param #     Tr. Param #
============================================================================================================================
               RecycleNetwork/EfficientNetLite                 Conv2d-1      [1, 27, 75, 75]             729             729
               RecycleNetwork/EfficientNetLite            BatchNorm2d-2      [1, 27, 75, 75]              54              54
               RecycleNetwork/EfficientNetLite                  ReLU6-3      [1, 27, 75, 75]               0               0
   RecycleNetwork/EfficientNetLite/MBConvBlock                 Conv2d-4      [1, 27, 75, 75]             243             243
   RecycleNetwork/EfficientNetLite/MBConvBlock            BatchNorm2d-5      [1, 27, 75, 75]              54              54
   RecycleNetwork/EfficientNetLite/MBConvBlock                  ReLU6-6      [1, 27, 75, 75]               0               0
   RecycleNetwork/EfficientNetLite/MBConvBlock                 Conv2d-7      [1, 16, 75, 75]             432             432
   RecycleNetwork/EfficientNetLite/MBConvBlock            BatchNorm2d-8      [1, 16, 75, 75]              32              32
   RecycleNetwork/EfficientNetLite/MBConvBlock                 Conv2d-9      [1, 89, 75, 75]           1,424           1,424
   RecycleNetwork/EfficientNetLite/MBConvBlock           BatchNorm2d-10      [1, 89, 75, 75]             178             178
   RecycleNetwork/EfficientNetLite/MBConvBlock                 ReLU6-11      [1, 89, 75, 75]               0               0
   RecycleNetwork/EfficientNetLite/MBConvBlock                Conv2d-12      [1, 89, 38, 38]             801             801
   RecycleNetwork/EfficientNetLite/MBConvBlock           BatchNorm2d-13      [1, 89, 38, 38]             178             178
   RecycleNetwork/EfficientNetLite/MBConvBlock                Conv2d-14      [1, 24, 38, 38]           2,136           2,136
   RecycleNetwork/EfficientNetLite/MBConvBlock           BatchNorm2d-15      [1, 24, 38, 38]              48              48
   RecycleNetwork/EfficientNetLite/MBConvBlock                Conv2d-16     [1, 131, 38, 38]           3,144           3,144
   RecycleNetwork/EfficientNetLite/MBConvBlock           BatchNorm2d-17     [1, 131, 38, 38]             262             262
   RecycleNetwork/EfficientNetLite/MBConvBlock                 ReLU6-18     [1, 131, 38, 38]               0               0
   RecycleNetwork/EfficientNetLite/MBConvBlock                Conv2d-19     [1, 131, 38, 38]           1,179           1,179
   RecycleNetwork/EfficientNetLite/MBConvBlock           BatchNorm2d-20     [1, 131, 38, 38]             262             262
   RecycleNetwork/EfficientNetLite/MBConvBlock                Conv2d-21      [1, 24, 38, 38]           3,144           3,144
   RecycleNetwork/EfficientNetLite/MBConvBlock           BatchNorm2d-22      [1, 24, 38, 38]              48              48
   RecycleNetwork/EfficientNetLite/MBConvBlock                Conv2d-23     [1, 139, 38, 38]           3,336           3,336
   RecycleNetwork/EfficientNetLite/MBConvBlock           BatchNorm2d-24     [1, 139, 38, 38]             278             278
   RecycleNetwork/EfficientNetLite/MBConvBlock                 ReLU6-25     [1, 139, 38, 38]               0               0
   RecycleNetwork/EfficientNetLite/MBConvBlock                Conv2d-26     [1, 139, 19, 19]           3,475           3,475
   RecycleNetwork/EfficientNetLite/MBConvBlock           BatchNorm2d-27     [1, 139, 19, 19]             278             278
   RecycleNetwork/EfficientNetLite/MBConvBlock                Conv2d-28      [1, 40, 19, 19]           5,560           5,560
   RecycleNetwork/EfficientNetLite/MBConvBlock           BatchNorm2d-29      [1, 40, 19, 19]              80              80
   RecycleNetwork/EfficientNetLite/MBConvBlock                Conv2d-30     [1, 210, 19, 19]           8,400           8,400
   RecycleNetwork/EfficientNetLite/MBConvBlock           BatchNorm2d-31     [1, 210, 19, 19]             420             420
   RecycleNetwork/EfficientNetLite/MBConvBlock                 ReLU6-32     [1, 210, 19, 19]               0               0
   RecycleNetwork/EfficientNetLite/MBConvBlock                Conv2d-33     [1, 210, 19, 19]           5,250           5,250
   RecycleNetwork/EfficientNetLite/MBConvBlock           BatchNorm2d-34     [1, 210, 19, 19]             420             420
   RecycleNetwork/EfficientNetLite/MBConvBlock                Conv2d-35      [1, 40, 19, 19]           8,400           8,400
   RecycleNetwork/EfficientNetLite/MBConvBlock           BatchNorm2d-36      [1, 40, 19, 19]              80              80
   RecycleNetwork/EfficientNetLite/MBConvBlock                Conv2d-37     [1, 235, 19, 19]           9,400           9,400
   RecycleNetwork/EfficientNetLite/MBConvBlock           BatchNorm2d-38     [1, 235, 19, 19]             470             470
   RecycleNetwork/EfficientNetLite/MBConvBlock                 ReLU6-39     [1, 235, 19, 19]               0               0
   RecycleNetwork/EfficientNetLite/MBConvBlock                Conv2d-40     [1, 235, 10, 10]           2,115           2,115
   RecycleNetwork/EfficientNetLite/MBConvBlock           BatchNorm2d-41     [1, 235, 10, 10]             470             470
   RecycleNetwork/EfficientNetLite/MBConvBlock                Conv2d-42      [1, 80, 10, 10]          18,800          18,800
   RecycleNetwork/EfficientNetLite/MBConvBlock           BatchNorm2d-43      [1, 80, 10, 10]             160             160
   RecycleNetwork/EfficientNetLite/MBConvBlock                Conv2d-44     [1, 391, 10, 10]          31,280          31,280
   RecycleNetwork/EfficientNetLite/MBConvBlock           BatchNorm2d-45     [1, 391, 10, 10]             782             782
   RecycleNetwork/EfficientNetLite/MBConvBlock                 ReLU6-46     [1, 391, 10, 10]               0               0
   RecycleNetwork/EfficientNetLite/MBConvBlock                Conv2d-47     [1, 391, 10, 10]           3,519           3,519
   RecycleNetwork/EfficientNetLite/MBConvBlock           BatchNorm2d-48     [1, 391, 10, 10]             782             782
   RecycleNetwork/EfficientNetLite/MBConvBlock                Conv2d-49      [1, 80, 10, 10]          31,280          31,280
   RecycleNetwork/EfficientNetLite/MBConvBlock           BatchNorm2d-50      [1, 80, 10, 10]             160             160
   RecycleNetwork/EfficientNetLite/MBConvBlock                Conv2d-51     [1, 364, 10, 10]          29,120          29,120
   RecycleNetwork/EfficientNetLite/MBConvBlock           BatchNorm2d-52     [1, 364, 10, 10]             728             728
   RecycleNetwork/EfficientNetLite/MBConvBlock                 ReLU6-53     [1, 364, 10, 10]               0               0
   RecycleNetwork/EfficientNetLite/MBConvBlock                Conv2d-54     [1, 364, 10, 10]           3,276           3,276
   RecycleNetwork/EfficientNetLite/MBConvBlock           BatchNorm2d-55     [1, 364, 10, 10]             728             728
   RecycleNetwork/EfficientNetLite/MBConvBlock                Conv2d-56      [1, 80, 10, 10]          29,120          29,120
   RecycleNetwork/EfficientNetLite/MBConvBlock           BatchNorm2d-57      [1, 80, 10, 10]             160             160
   RecycleNetwork/EfficientNetLite/MBConvBlock                Conv2d-58     [1, 462, 10, 10]          36,960          36,960
   RecycleNetwork/EfficientNetLite/MBConvBlock           BatchNorm2d-59     [1, 462, 10, 10]             924             924
   RecycleNetwork/EfficientNetLite/MBConvBlock                 ReLU6-60     [1, 462, 10, 10]               0               0
   RecycleNetwork/EfficientNetLite/MBConvBlock                Conv2d-61     [1, 462, 10, 10]          11,550          11,550
   RecycleNetwork/EfficientNetLite/MBConvBlock           BatchNorm2d-62     [1, 462, 10, 10]             924             924
   RecycleNetwork/EfficientNetLite/MBConvBlock                Conv2d-63     [1, 112, 10, 10]          51,744          51,744
   RecycleNetwork/EfficientNetLite/MBConvBlock           BatchNorm2d-64     [1, 112, 10, 10]             224             224
   RecycleNetwork/EfficientNetLite/MBConvBlock                Conv2d-65     [1, 504, 10, 10]          56,448          56,448
   RecycleNetwork/EfficientNetLite/MBConvBlock           BatchNorm2d-66     [1, 504, 10, 10]           1,008           1,008
   RecycleNetwork/EfficientNetLite/MBConvBlock                 ReLU6-67     [1, 504, 10, 10]               0               0
   RecycleNetwork/EfficientNetLite/MBConvBlock                Conv2d-68     [1, 504, 10, 10]          12,600          12,600
   RecycleNetwork/EfficientNetLite/MBConvBlock           BatchNorm2d-69     [1, 504, 10, 10]           1,008           1,008
   RecycleNetwork/EfficientNetLite/MBConvBlock                Conv2d-70     [1, 112, 10, 10]          56,448          56,448
   RecycleNetwork/EfficientNetLite/MBConvBlock           BatchNorm2d-71     [1, 112, 10, 10]             224             224
   RecycleNetwork/EfficientNetLite/MBConvBlock                Conv2d-72     [1, 410, 10, 10]          45,920          45,920
   RecycleNetwork/EfficientNetLite/MBConvBlock           BatchNorm2d-73     [1, 410, 10, 10]             820             820
   RecycleNetwork/EfficientNetLite/MBConvBlock                 ReLU6-74     [1, 410, 10, 10]               0               0
   RecycleNetwork/EfficientNetLite/MBConvBlock                Conv2d-75     [1, 410, 10, 10]          10,250          10,250
   RecycleNetwork/EfficientNetLite/MBConvBlock           BatchNorm2d-76     [1, 410, 10, 10]             820             820
   RecycleNetwork/EfficientNetLite/MBConvBlock                Conv2d-77     [1, 112, 10, 10]          45,920          45,920
   RecycleNetwork/EfficientNetLite/MBConvBlock           BatchNorm2d-78     [1, 112, 10, 10]             224             224
   RecycleNetwork/EfficientNetLite/MBConvBlock                Conv2d-79     [1, 477, 10, 10]          53,424          53,424
   RecycleNetwork/EfficientNetLite/MBConvBlock           BatchNorm2d-80     [1, 477, 10, 10]             954             954
   RecycleNetwork/EfficientNetLite/MBConvBlock                 ReLU6-81     [1, 477, 10, 10]               0               0
   RecycleNetwork/EfficientNetLite/MBConvBlock                Conv2d-82       [1, 477, 5, 5]          11,925          11,925
   RecycleNetwork/EfficientNetLite/MBConvBlock           BatchNorm2d-83       [1, 477, 5, 5]             954             954
   RecycleNetwork/EfficientNetLite/MBConvBlock                Conv2d-84       [1, 192, 5, 5]          91,584          91,584
   RecycleNetwork/EfficientNetLite/MBConvBlock           BatchNorm2d-85       [1, 192, 5, 5]             384             384
   RecycleNetwork/EfficientNetLite/MBConvBlock                Conv2d-86       [1, 745, 5, 5]         143,040         143,040
   RecycleNetwork/EfficientNetLite/MBConvBlock           BatchNorm2d-87       [1, 745, 5, 5]           1,490           1,490
   RecycleNetwork/EfficientNetLite/MBConvBlock                 ReLU6-88       [1, 745, 5, 5]               0               0
   RecycleNetwork/EfficientNetLite/MBConvBlock                Conv2d-89       [1, 745, 5, 5]          18,625          18,625
   RecycleNetwork/EfficientNetLite/MBConvBlock           BatchNorm2d-90       [1, 745, 5, 5]           1,490           1,490
   RecycleNetwork/EfficientNetLite/MBConvBlock                Conv2d-91       [1, 192, 5, 5]         143,040         143,040
   RecycleNetwork/EfficientNetLite/MBConvBlock           BatchNorm2d-92       [1, 192, 5, 5]             384             384
   RecycleNetwork/EfficientNetLite/MBConvBlock                Conv2d-93       [1, 477, 5, 5]          91,584          91,584
   RecycleNetwork/EfficientNetLite/MBConvBlock           BatchNorm2d-94       [1, 477, 5, 5]             954             954
   RecycleNetwork/EfficientNetLite/MBConvBlock                 ReLU6-95       [1, 477, 5, 5]               0               0
   RecycleNetwork/EfficientNetLite/MBConvBlock                Conv2d-96       [1, 477, 5, 5]          11,925          11,925
   RecycleNetwork/EfficientNetLite/MBConvBlock           BatchNorm2d-97       [1, 477, 5, 5]             954             954
   RecycleNetwork/EfficientNetLite/MBConvBlock                Conv2d-98       [1, 192, 5, 5]          91,584          91,584
   RecycleNetwork/EfficientNetLite/MBConvBlock           BatchNorm2d-99       [1, 192, 5, 5]             384             384
   RecycleNetwork/EfficientNetLite/MBConvBlock               Conv2d-100       [1, 357, 5, 5]          68,544          68,544
   RecycleNetwork/EfficientNetLite/MBConvBlock          BatchNorm2d-101       [1, 357, 5, 5]             714             714
   RecycleNetwork/EfficientNetLite/MBConvBlock                ReLU6-102       [1, 357, 5, 5]               0               0
   RecycleNetwork/EfficientNetLite/MBConvBlock               Conv2d-103       [1, 357, 5, 5]           8,925           8,925
   RecycleNetwork/EfficientNetLite/MBConvBlock          BatchNorm2d-104       [1, 357, 5, 5]             714             714
   RecycleNetwork/EfficientNetLite/MBConvBlock               Conv2d-105       [1, 192, 5, 5]          68,544          68,544
   RecycleNetwork/EfficientNetLite/MBConvBlock          BatchNorm2d-106       [1, 192, 5, 5]             384             384
   RecycleNetwork/EfficientNetLite/MBConvBlock               Conv2d-107       [1, 559, 5, 5]         107,328         107,328
   RecycleNetwork/EfficientNetLite/MBConvBlock          BatchNorm2d-108       [1, 559, 5, 5]           1,118           1,118
   RecycleNetwork/EfficientNetLite/MBConvBlock                ReLU6-109       [1, 559, 5, 5]               0               0
   RecycleNetwork/EfficientNetLite/MBConvBlock               Conv2d-110       [1, 559, 5, 5]           5,031           5,031
   RecycleNetwork/EfficientNetLite/MBConvBlock          BatchNorm2d-111       [1, 559, 5, 5]           1,118           1,118
   RecycleNetwork/EfficientNetLite/MBConvBlock               Conv2d-112       [1, 320, 5, 5]         178,880         178,880
   RecycleNetwork/EfficientNetLite/MBConvBlock          BatchNorm2d-113       [1, 320, 5, 5]             640             640
               RecycleNetwork/EfficientNetLite               Conv2d-114       [1, 459, 5, 5]         146,880         146,880
               RecycleNetwork/EfficientNetLite          BatchNorm2d-115       [1, 459, 5, 5]             918             918
               RecycleNetwork/EfficientNetLite                ReLU6-116       [1, 459, 5, 5]               0               0
               RecycleNetwork/EfficientNetLite    AdaptiveAvgPool2d-117       [1, 459, 1, 1]               0               0
               RecycleNetwork/EfficientNetLite              Dropout-118             [1, 459]               0               0
               RecycleNetwork/EfficientNetLite               Linear-119               [1, 5]           2,300           2,300
============================================================================================================================
Total params: 1,803,408
Trainable params: 1,803,408
Non-trainable params: 0
----------------------------------------------------------------------------------------------------------------------------
Training Started
Epoch: 1, Training Loss: 0.755617, Validation Loss: 0.691807, Training Accuracy: 0.687084, Validation Accuracy: 0.725677
…
