…
tensor([True, True, True, True, True, True, True, True, True, True, True, True,
        True, True, True, True, True, True, True, True, True, True, True, True])
torch.Size([24])
torch.Size([24])
Starting Training Cycle
----------------------------------------------------------------------------------------------------------------------------
                                 Parent Layers             Layer (type)         Output Shape         Param #     Tr. Param #
============================================================================================================================
               RecycleNetwork/EfficientNetLite                 Conv2d-1      [1, 22, 75, 75]             594             594
               RecycleNetwork/EfficientNetLite            BatchNorm2d-2      [1, 22, 75, 75]              44              44
               RecycleNetwork/EfficientNetLite                  ReLU6-3      [1, 22, 75, 75]               0               0
   RecycleNetwork/EfficientNetLite/MBConvBlock                 Conv2d-4      [1, 22, 75, 75]             198             198
   RecycleNetwork/EfficientNetLite/MBConvBlock            BatchNorm2d-5      [1, 22, 75, 75]              44              44
   RecycleNetwork/EfficientNetLite/MBConvBlock                  ReLU6-6      [1, 22, 75, 75]               0               0
   RecycleNetwork/EfficientNetLite/MBConvBlock                 Conv2d-7      [1, 24, 75, 75]             528             528
   RecycleNetwork/EfficientNetLite/MBConvBlock            BatchNorm2d-8      [1, 24, 75, 75]              48              48
   RecycleNetwork/EfficientNetLite/MBConvBlock                 Conv2d-9     [1, 144, 75, 75]           3,456           3,456
   RecycleNetwork/EfficientNetLite/MBConvBlock           BatchNorm2d-10     [1, 144, 75, 75]             288             288
   RecycleNetwork/EfficientNetLite/MBConvBlock                 ReLU6-11     [1, 144, 75, 75]               0               0
   RecycleNetwork/EfficientNetLite/MBConvBlock                Conv2d-12     [1, 144, 38, 38]           1,296           1,296
   RecycleNetwork/EfficientNetLite/MBConvBlock           BatchNorm2d-13     [1, 144, 38, 38]             288             288
   RecycleNetwork/EfficientNetLite/MBConvBlock                Conv2d-14      [1, 32, 38, 38]           4,608           4,608
   RecycleNetwork/EfficientNetLite/MBConvBlock           BatchNorm2d-15      [1, 32, 38, 38]              64              64
   RecycleNetwork/EfficientNetLite/MBConvBlock                Conv2d-16     [1, 192, 38, 38]           6,144           6,144
   RecycleNetwork/EfficientNetLite/MBConvBlock           BatchNorm2d-17     [1, 192, 38, 38]             384             384
   RecycleNetwork/EfficientNetLite/MBConvBlock                 ReLU6-18     [1, 192, 38, 38]               0               0
   RecycleNetwork/EfficientNetLite/MBConvBlock                Conv2d-19     [1, 192, 38, 38]           1,728           1,728
   RecycleNetwork/EfficientNetLite/MBConvBlock           BatchNorm2d-20     [1, 192, 38, 38]             384             384
   RecycleNetwork/EfficientNetLite/MBConvBlock                Conv2d-21      [1, 32, 38, 38]           6,144           6,144
   RecycleNetwork/EfficientNetLite/MBConvBlock           BatchNorm2d-22      [1, 32, 38, 38]              64              64
   RecycleNetwork/EfficientNetLite/MBConvBlock                Conv2d-23     [1, 192, 38, 38]           6,144           6,144
   RecycleNetwork/EfficientNetLite/MBConvBlock           BatchNorm2d-24     [1, 192, 38, 38]             384             384
   RecycleNetwork/EfficientNetLite/MBConvBlock                 ReLU6-25     [1, 192, 38, 38]               0               0
   RecycleNetwork/EfficientNetLite/MBConvBlock                Conv2d-26     [1, 192, 38, 38]           1,728           1,728
   RecycleNetwork/EfficientNetLite/MBConvBlock           BatchNorm2d-27     [1, 192, 38, 38]             384             384
   RecycleNetwork/EfficientNetLite/MBConvBlock                Conv2d-28      [1, 32, 38, 38]           6,144           6,144
   RecycleNetwork/EfficientNetLite/MBConvBlock           BatchNorm2d-29      [1, 32, 38, 38]              64              64
   RecycleNetwork/EfficientNetLite/MBConvBlock                Conv2d-30     [1, 192, 38, 38]           6,144           6,144
   RecycleNetwork/EfficientNetLite/MBConvBlock           BatchNorm2d-31     [1, 192, 38, 38]             384             384
   RecycleNetwork/EfficientNetLite/MBConvBlock                 ReLU6-32     [1, 192, 38, 38]               0               0
   RecycleNetwork/EfficientNetLite/MBConvBlock                Conv2d-33     [1, 192, 38, 38]           1,728           1,728
   RecycleNetwork/EfficientNetLite/MBConvBlock           BatchNorm2d-34     [1, 192, 38, 38]             384             384
   RecycleNetwork/EfficientNetLite/MBConvBlock                Conv2d-35      [1, 32, 38, 38]           6,144           6,144
   RecycleNetwork/EfficientNetLite/MBConvBlock           BatchNorm2d-36      [1, 32, 38, 38]              64              64
   RecycleNetwork/EfficientNetLite/MBConvBlock                Conv2d-37     [1, 192, 38, 38]           6,144           6,144
   RecycleNetwork/EfficientNetLite/MBConvBlock           BatchNorm2d-38     [1, 192, 38, 38]             384             384
   RecycleNetwork/EfficientNetLite/MBConvBlock                 ReLU6-39     [1, 192, 38, 38]               0               0
   RecycleNetwork/EfficientNetLite/MBConvBlock                Conv2d-40     [1, 192, 19, 19]           4,800           4,800
   RecycleNetwork/EfficientNetLite/MBConvBlock           BatchNorm2d-41     [1, 192, 19, 19]             384             384
   RecycleNetwork/EfficientNetLite/MBConvBlock                Conv2d-42      [1, 56, 19, 19]          10,752          10,752
   RecycleNetwork/EfficientNetLite/MBConvBlock           BatchNorm2d-43      [1, 56, 19, 19]             112             112
   RecycleNetwork/EfficientNetLite/MBConvBlock                Conv2d-44     [1, 336, 19, 19]          18,816          18,816
   RecycleNetwork/EfficientNetLite/MBConvBlock           BatchNorm2d-45     [1, 336, 19, 19]             672             672
   RecycleNetwork/EfficientNetLite/MBConvBlock                 ReLU6-46     [1, 336, 19, 19]               0               0
   RecycleNetwork/EfficientNetLite/MBConvBlock                Conv2d-47     [1, 336, 19, 19]           8,400           8,400
   RecycleNetwork/EfficientNetLite/MBConvBlock           BatchNorm2d-48     [1, 336, 19, 19]             672             672
   RecycleNetwork/EfficientNetLite/MBConvBlock                Conv2d-49      [1, 56, 19, 19]          18,816          18,816
   RecycleNetwork/EfficientNetLite/MBConvBlock           BatchNorm2d-50      [1, 56, 19, 19]             112             112
   RecycleNetwork/EfficientNetLite/MBConvBlock                Conv2d-51     [1, 336, 19, 19]          18,816          18,816
   RecycleNetwork/EfficientNetLite/MBConvBlock           BatchNorm2d-52     [1, 336, 19, 19]             672             672
   RecycleNetwork/EfficientNetLite/MBConvBlock                 ReLU6-53     [1, 336, 19, 19]               0               0
   RecycleNetwork/EfficientNetLite/MBConvBlock                Conv2d-54     [1, 336, 19, 19]           8,400           8,400
   RecycleNetwork/EfficientNetLite/MBConvBlock           BatchNorm2d-55     [1, 336, 19, 19]             672             672
   RecycleNetwork/EfficientNetLite/MBConvBlock                Conv2d-56      [1, 56, 19, 19]          18,816          18,816
   RecycleNetwork/EfficientNetLite/MBConvBlock           BatchNorm2d-57      [1, 56, 19, 19]             112             112
   RecycleNetwork/EfficientNetLite/MBConvBlock                Conv2d-58     [1, 336, 19, 19]          18,816          18,816
   RecycleNetwork/EfficientNetLite/MBConvBlock           BatchNorm2d-59     [1, 336, 19, 19]             672             672
   RecycleNetwork/EfficientNetLite/MBConvBlock                 ReLU6-60     [1, 336, 19, 19]               0               0
   RecycleNetwork/EfficientNetLite/MBConvBlock                Conv2d-61     [1, 336, 19, 19]           8,400           8,400
   RecycleNetwork/EfficientNetLite/MBConvBlock           BatchNorm2d-62     [1, 336, 19, 19]             672             672
   RecycleNetwork/EfficientNetLite/MBConvBlock                Conv2d-63      [1, 56, 19, 19]          18,816          18,816
   RecycleNetwork/EfficientNetLite/MBConvBlock           BatchNorm2d-64      [1, 56, 19, 19]             112             112
   RecycleNetwork/EfficientNetLite/MBConvBlock                Conv2d-65     [1, 336, 19, 19]          18,816          18,816
   RecycleNetwork/EfficientNetLite/MBConvBlock           BatchNorm2d-66     [1, 336, 19, 19]             672             672
   RecycleNetwork/EfficientNetLite/MBConvBlock                 ReLU6-67     [1, 336, 19, 19]               0               0
   RecycleNetwork/EfficientNetLite/MBConvBlock                Conv2d-68     [1, 336, 10, 10]           3,024           3,024
   RecycleNetwork/EfficientNetLite/MBConvBlock           BatchNorm2d-69     [1, 336, 10, 10]             672             672
   RecycleNetwork/EfficientNetLite/MBConvBlock                Conv2d-70     [1, 112, 10, 10]          37,632          37,632
   RecycleNetwork/EfficientNetLite/MBConvBlock           BatchNorm2d-71     [1, 112, 10, 10]             224             224
   RecycleNetwork/EfficientNetLite/MBConvBlock                Conv2d-72     [1, 672, 10, 10]          75,264          75,264
   RecycleNetwork/EfficientNetLite/MBConvBlock           BatchNorm2d-73     [1, 672, 10, 10]           1,344           1,344
   RecycleNetwork/EfficientNetLite/MBConvBlock                 ReLU6-74     [1, 672, 10, 10]               0               0
   RecycleNetwork/EfficientNetLite/MBConvBlock                Conv2d-75     [1, 672, 10, 10]           6,048           6,048
   RecycleNetwork/EfficientNetLite/MBConvBlock           BatchNorm2d-76     [1, 672, 10, 10]           1,344           1,344
   RecycleNetwork/EfficientNetLite/MBConvBlock                Conv2d-77     [1, 112, 10, 10]          75,264          75,264
   RecycleNetwork/EfficientNetLite/MBConvBlock           BatchNorm2d-78     [1, 112, 10, 10]             224             224
   RecycleNetwork/EfficientNetLite/MBConvBlock                Conv2d-79     [1, 672, 10, 10]          75,264          75,264
   RecycleNetwork/EfficientNetLite/MBConvBlock           BatchNorm2d-80     [1, 672, 10, 10]           1,344           1,344
   RecycleNetwork/EfficientNetLite/MBConvBlock                 ReLU6-81     [1, 672, 10, 10]               0               0
   RecycleNetwork/EfficientNetLite/MBConvBlock                Conv2d-82     [1, 672, 10, 10]           6,048           6,048
   RecycleNetwork/EfficientNetLite/MBConvBlock           BatchNorm2d-83     [1, 672, 10, 10]           1,344           1,344
   RecycleNetwork/EfficientNetLite/MBConvBlock                Conv2d-84     [1, 112, 10, 10]          75,264          75,264
   RecycleNetwork/EfficientNetLite/MBConvBlock           BatchNorm2d-85     [1, 112, 10, 10]             224             224
   RecycleNetwork/EfficientNetLite/MBConvBlock                Conv2d-86     [1, 672, 10, 10]          75,264          75,264
   RecycleNetwork/EfficientNetLite/MBConvBlock           BatchNorm2d-87     [1, 672, 10, 10]           1,344           1,344
   RecycleNetwork/EfficientNetLite/MBConvBlock                 ReLU6-88     [1, 672, 10, 10]               0               0
   RecycleNetwork/EfficientNetLite/MBConvBlock                Conv2d-89     [1, 672, 10, 10]           6,048           6,048
   RecycleNetwork/EfficientNetLite/MBConvBlock           BatchNorm2d-90     [1, 672, 10, 10]           1,344           1,344
   RecycleNetwork/EfficientNetLite/MBConvBlock                Conv2d-91     [1, 112, 10, 10]          75,264          75,264
   RecycleNetwork/EfficientNetLite/MBConvBlock           BatchNorm2d-92     [1, 112, 10, 10]             224             224
   RecycleNetwork/EfficientNetLite/MBConvBlock                Conv2d-93     [1, 672, 10, 10]          75,264          75,264
   RecycleNetwork/EfficientNetLite/MBConvBlock           BatchNorm2d-94     [1, 672, 10, 10]           1,344           1,344
   RecycleNetwork/EfficientNetLite/MBConvBlock                 ReLU6-95     [1, 672, 10, 10]               0               0
   RecycleNetwork/EfficientNetLite/MBConvBlock                Conv2d-96     [1, 672, 10, 10]           6,048           6,048
   RecycleNetwork/EfficientNetLite/MBConvBlock           BatchNorm2d-97     [1, 672, 10, 10]           1,344           1,344
   RecycleNetwork/EfficientNetLite/MBConvBlock                Conv2d-98     [1, 112, 10, 10]          75,264          75,264
   RecycleNetwork/EfficientNetLite/MBConvBlock           BatchNorm2d-99     [1, 112, 10, 10]             224             224
   RecycleNetwork/EfficientNetLite/MBConvBlock               Conv2d-100     [1, 672, 10, 10]          75,264          75,264
   RecycleNetwork/EfficientNetLite/MBConvBlock          BatchNorm2d-101     [1, 672, 10, 10]           1,344           1,344
   RecycleNetwork/EfficientNetLite/MBConvBlock                ReLU6-102     [1, 672, 10, 10]               0               0
   RecycleNetwork/EfficientNetLite/MBConvBlock               Conv2d-103     [1, 672, 10, 10]           6,048           6,048
   RecycleNetwork/EfficientNetLite/MBConvBlock          BatchNorm2d-104     [1, 672, 10, 10]           1,344           1,344
   RecycleNetwork/EfficientNetLite/MBConvBlock               Conv2d-105     [1, 112, 10, 10]          75,264          75,264
   RecycleNetwork/EfficientNetLite/MBConvBlock          BatchNorm2d-106     [1, 112, 10, 10]             224             224
   RecycleNetwork/EfficientNetLite/MBConvBlock               Conv2d-107     [1, 672, 10, 10]          75,264          75,264
   RecycleNetwork/EfficientNetLite/MBConvBlock          BatchNorm2d-108     [1, 672, 10, 10]           1,344           1,344
   RecycleNetwork/EfficientNetLite/MBConvBlock                ReLU6-109     [1, 672, 10, 10]               0               0
   RecycleNetwork/EfficientNetLite/MBConvBlock               Conv2d-110     [1, 672, 10, 10]          16,800          16,800
   RecycleNetwork/EfficientNetLite/MBConvBlock          BatchNorm2d-111     [1, 672, 10, 10]           1,344           1,344
   RecycleNetwork/EfficientNetLite/MBConvBlock               Conv2d-112     [1, 160, 10, 10]         107,520         107,520
   RecycleNetwork/EfficientNetLite/MBConvBlock          BatchNorm2d-113     [1, 160, 10, 10]             320             320
   RecycleNetwork/EfficientNetLite/MBConvBlock               Conv2d-114     [1, 960, 10, 10]         153,600         153,600
   RecycleNetwork/EfficientNetLite/MBConvBlock          BatchNorm2d-115     [1, 960, 10, 10]           1,920           1,920
   RecycleNetwork/EfficientNetLite/MBConvBlock                ReLU6-116     [1, 960, 10, 10]               0               0
   RecycleNetwork/EfficientNetLite/MBConvBlock               Conv2d-117     [1, 960, 10, 10]          24,000          24,000
   RecycleNetwork/EfficientNetLite/MBConvBlock          BatchNorm2d-118     [1, 960, 10, 10]           1,920           1,920
   RecycleNetwork/EfficientNetLite/MBConvBlock               Conv2d-119     [1, 160, 10, 10]         153,600         153,600
   RecycleNetwork/EfficientNetLite/MBConvBlock          BatchNorm2d-120     [1, 160, 10, 10]             320             320
   RecycleNetwork/EfficientNetLite/MBConvBlock               Conv2d-121     [1, 960, 10, 10]         153,600         153,600
   RecycleNetwork/EfficientNetLite/MBConvBlock          BatchNorm2d-122     [1, 960, 10, 10]           1,920           1,920
   RecycleNetwork/EfficientNetLite/MBConvBlock                ReLU6-123     [1, 960, 10, 10]               0               0
   RecycleNetwork/EfficientNetLite/MBConvBlock               Conv2d-124     [1, 960, 10, 10]          24,000          24,000
   RecycleNetwork/EfficientNetLite/MBConvBlock          BatchNorm2d-125     [1, 960, 10, 10]           1,920           1,920
   RecycleNetwork/EfficientNetLite/MBConvBlock               Conv2d-126     [1, 160, 10, 10]         153,600         153,600
   RecycleNetwork/EfficientNetLite/MBConvBlock          BatchNorm2d-127     [1, 160, 10, 10]             320             320
   RecycleNetwork/EfficientNetLite/MBConvBlock               Conv2d-128     [1, 960, 10, 10]         153,600         153,600
   RecycleNetwork/EfficientNetLite/MBConvBlock          BatchNorm2d-129     [1, 960, 10, 10]           1,920           1,920
   RecycleNetwork/EfficientNetLite/MBConvBlock                ReLU6-130     [1, 960, 10, 10]               0               0
   RecycleNetwork/EfficientNetLite/MBConvBlock               Conv2d-131     [1, 960, 10, 10]          24,000          24,000
   RecycleNetwork/EfficientNetLite/MBConvBlock          BatchNorm2d-132     [1, 960, 10, 10]           1,920           1,920
   RecycleNetwork/EfficientNetLite/MBConvBlock               Conv2d-133     [1, 160, 10, 10]         153,600         153,600
   RecycleNetwork/EfficientNetLite/MBConvBlock          BatchNorm2d-134     [1, 160, 10, 10]             320             320
   RecycleNetwork/EfficientNetLite/MBConvBlock               Conv2d-135     [1, 960, 10, 10]         153,600         153,600
   RecycleNetwork/EfficientNetLite/MBConvBlock          BatchNorm2d-136     [1, 960, 10, 10]           1,920           1,920
   RecycleNetwork/EfficientNetLite/MBConvBlock                ReLU6-137     [1, 960, 10, 10]               0               0
   RecycleNetwork/EfficientNetLite/MBConvBlock               Conv2d-138     [1, 960, 10, 10]          24,000          24,000
   RecycleNetwork/EfficientNetLite/MBConvBlock          BatchNorm2d-139     [1, 960, 10, 10]           1,920           1,920
   RecycleNetwork/EfficientNetLite/MBConvBlock               Conv2d-140     [1, 160, 10, 10]         153,600         153,600
   RecycleNetwork/EfficientNetLite/MBConvBlock          BatchNorm2d-141     [1, 160, 10, 10]             320             320
   RecycleNetwork/EfficientNetLite/MBConvBlock               Conv2d-142     [1, 960, 10, 10]         153,600         153,600
   RecycleNetwork/EfficientNetLite/MBConvBlock          BatchNorm2d-143     [1, 960, 10, 10]           1,920           1,920
   RecycleNetwork/EfficientNetLite/MBConvBlock                ReLU6-144     [1, 960, 10, 10]               0               0
   RecycleNetwork/EfficientNetLite/MBConvBlock               Conv2d-145     [1, 960, 10, 10]          24,000          24,000
   RecycleNetwork/EfficientNetLite/MBConvBlock          BatchNorm2d-146     [1, 960, 10, 10]           1,920           1,920
   RecycleNetwork/EfficientNetLite/MBConvBlock               Conv2d-147     [1, 160, 10, 10]         153,600         153,600
   RecycleNetwork/EfficientNetLite/MBConvBlock          BatchNorm2d-148     [1, 160, 10, 10]             320             320
   RecycleNetwork/EfficientNetLite/MBConvBlock               Conv2d-149     [1, 960, 10, 10]         153,600         153,600
   RecycleNetwork/EfficientNetLite/MBConvBlock          BatchNorm2d-150     [1, 960, 10, 10]           1,920           1,920
   RecycleNetwork/EfficientNetLite/MBConvBlock                ReLU6-151     [1, 960, 10, 10]               0               0
   RecycleNetwork/EfficientNetLite/MBConvBlock               Conv2d-152       [1, 960, 5, 5]          24,000          24,000
   RecycleNetwork/EfficientNetLite/MBConvBlock          BatchNorm2d-153       [1, 960, 5, 5]           1,920           1,920
   RecycleNetwork/EfficientNetLite/MBConvBlock               Conv2d-154       [1, 272, 5, 5]         261,120         261,120
   RecycleNetwork/EfficientNetLite/MBConvBlock          BatchNorm2d-155       [1, 272, 5, 5]             544             544
   RecycleNetwork/EfficientNetLite/MBConvBlock               Conv2d-156      [1, 1632, 5, 5]         443,904         443,904
   RecycleNetwork/EfficientNetLite/MBConvBlock          BatchNorm2d-157      [1, 1632, 5, 5]           3,264           3,264
   RecycleNetwork/EfficientNetLite/MBConvBlock                ReLU6-158      [1, 1632, 5, 5]               0               0
   RecycleNetwork/EfficientNetLite/MBConvBlock               Conv2d-159      [1, 1632, 5, 5]          40,800          40,800
   RecycleNetwork/EfficientNetLite/MBConvBlock          BatchNorm2d-160      [1, 1632, 5, 5]           3,264           3,264
   RecycleNetwork/EfficientNetLite/MBConvBlock               Conv2d-161       [1, 272, 5, 5]         443,904         443,904
   RecycleNetwork/EfficientNetLite/MBConvBlock          BatchNorm2d-162       [1, 272, 5, 5]             544             544
   RecycleNetwork/EfficientNetLite/MBConvBlock               Conv2d-163      [1, 1632, 5, 5]         443,904         443,904
   RecycleNetwork/EfficientNetLite/MBConvBlock          BatchNorm2d-164      [1, 1632, 5, 5]           3,264           3,264
   RecycleNetwork/EfficientNetLite/MBConvBlock                ReLU6-165      [1, 1632, 5, 5]               0               0
   RecycleNetwork/EfficientNetLite/MBConvBlock               Conv2d-166      [1, 1632, 5, 5]          40,800          40,800
   RecycleNetwork/EfficientNetLite/MBConvBlock          BatchNorm2d-167      [1, 1632, 5, 5]           3,264           3,264
   RecycleNetwork/EfficientNetLite/MBConvBlock               Conv2d-168       [1, 272, 5, 5]         443,904         443,904
   RecycleNetwork/EfficientNetLite/MBConvBlock          BatchNorm2d-169       [1, 272, 5, 5]             544             544
   RecycleNetwork/EfficientNetLite/MBConvBlock               Conv2d-170      [1, 1632, 5, 5]         443,904         443,904
   RecycleNetwork/EfficientNetLite/MBConvBlock          BatchNorm2d-171      [1, 1632, 5, 5]           3,264           3,264
   RecycleNetwork/EfficientNetLite/MBConvBlock                ReLU6-172      [1, 1632, 5, 5]               0               0
   RecycleNetwork/EfficientNetLite/MBConvBlock               Conv2d-173      [1, 1632, 5, 5]          40,800          40,800
   RecycleNetwork/EfficientNetLite/MBConvBlock          BatchNorm2d-174      [1, 1632, 5, 5]           3,264           3,264
   RecycleNetwork/EfficientNetLite/MBConvBlock               Conv2d-175       [1, 272, 5, 5]         443,904         443,904
   RecycleNetwork/EfficientNetLite/MBConvBlock          BatchNorm2d-176       [1, 272, 5, 5]             544             544
   RecycleNetwork/EfficientNetLite/MBConvBlock               Conv2d-177      [1, 1632, 5, 5]         443,904         443,904
   RecycleNetwork/EfficientNetLite/MBConvBlock          BatchNorm2d-178      [1, 1632, 5, 5]           3,264           3,264
   RecycleNetwork/EfficientNetLite/MBConvBlock                ReLU6-179      [1, 1632, 5, 5]               0               0
   RecycleNetwork/EfficientNetLite/MBConvBlock               Conv2d-180      [1, 1632, 5, 5]          40,800          40,800
   RecycleNetwork/EfficientNetLite/MBConvBlock          BatchNorm2d-181      [1, 1632, 5, 5]           3,264           3,264
   RecycleNetwork/EfficientNetLite/MBConvBlock               Conv2d-182       [1, 272, 5, 5]         443,904         443,904
   RecycleNetwork/EfficientNetLite/MBConvBlock          BatchNorm2d-183       [1, 272, 5, 5]             544             544
   RecycleNetwork/EfficientNetLite/MBConvBlock               Conv2d-184      [1, 1632, 5, 5]         443,904         443,904
   RecycleNetwork/EfficientNetLite/MBConvBlock          BatchNorm2d-185      [1, 1632, 5, 5]           3,264           3,264
   RecycleNetwork/EfficientNetLite/MBConvBlock                ReLU6-186      [1, 1632, 5, 5]               0               0
   RecycleNetwork/EfficientNetLite/MBConvBlock               Conv2d-187      [1, 1632, 5, 5]          40,800          40,800
   RecycleNetwork/EfficientNetLite/MBConvBlock          BatchNorm2d-188      [1, 1632, 5, 5]           3,264           3,264
   RecycleNetwork/EfficientNetLite/MBConvBlock               Conv2d-189       [1, 272, 5, 5]         443,904         443,904
   RecycleNetwork/EfficientNetLite/MBConvBlock          BatchNorm2d-190       [1, 272, 5, 5]             544             544
   RecycleNetwork/EfficientNetLite/MBConvBlock               Conv2d-191      [1, 1632, 5, 5]         443,904         443,904
   RecycleNetwork/EfficientNetLite/MBConvBlock          BatchNorm2d-192      [1, 1632, 5, 5]           3,264           3,264
   RecycleNetwork/EfficientNetLite/MBConvBlock                ReLU6-193      [1, 1632, 5, 5]               0               0
   RecycleNetwork/EfficientNetLite/MBConvBlock               Conv2d-194      [1, 1632, 5, 5]          40,800          40,800
   RecycleNetwork/EfficientNetLite/MBConvBlock          BatchNorm2d-195      [1, 1632, 5, 5]           3,264           3,264
   RecycleNetwork/EfficientNetLite/MBConvBlock               Conv2d-196       [1, 272, 5, 5]         443,904         443,904
   RecycleNetwork/EfficientNetLite/MBConvBlock          BatchNorm2d-197       [1, 272, 5, 5]             544             544
   RecycleNetwork/EfficientNetLite/MBConvBlock               Conv2d-198      [1, 1632, 5, 5]         443,904         443,904
   RecycleNetwork/EfficientNetLite/MBConvBlock          BatchNorm2d-199      [1, 1632, 5, 5]           3,264           3,264
   RecycleNetwork/EfficientNetLite/MBConvBlock                ReLU6-200      [1, 1632, 5, 5]               0               0
   RecycleNetwork/EfficientNetLite/MBConvBlock               Conv2d-201      [1, 1632, 5, 5]          40,800          40,800
   RecycleNetwork/EfficientNetLite/MBConvBlock          BatchNorm2d-202      [1, 1632, 5, 5]           3,264           3,264
   RecycleNetwork/EfficientNetLite/MBConvBlock               Conv2d-203       [1, 272, 5, 5]         443,904         443,904
   RecycleNetwork/EfficientNetLite/MBConvBlock          BatchNorm2d-204       [1, 272, 5, 5]             544             544
   RecycleNetwork/EfficientNetLite/MBConvBlock               Conv2d-205      [1, 1632, 5, 5]         443,904         443,904
   RecycleNetwork/EfficientNetLite/MBConvBlock          BatchNorm2d-206      [1, 1632, 5, 5]           3,264           3,264
   RecycleNetwork/EfficientNetLite/MBConvBlock                ReLU6-207      [1, 1632, 5, 5]               0               0
   RecycleNetwork/EfficientNetLite/MBConvBlock               Conv2d-208      [1, 1632, 5, 5]          14,688          14,688
   RecycleNetwork/EfficientNetLite/MBConvBlock          BatchNorm2d-209      [1, 1632, 5, 5]           3,264           3,264
   RecycleNetwork/EfficientNetLite/MBConvBlock               Conv2d-210       [1, 448, 5, 5]         731,136         731,136
   RecycleNetwork/EfficientNetLite/MBConvBlock          BatchNorm2d-211       [1, 448, 5, 5]             896             896
               RecycleNetwork/EfficientNetLite               Conv2d-212      [1, 1280, 5, 5]         573,440         573,440
               RecycleNetwork/EfficientNetLite          BatchNorm2d-213      [1, 1280, 5, 5]           2,560           2,560
               RecycleNetwork/EfficientNetLite                ReLU6-214      [1, 1280, 5, 5]               0               0
               RecycleNetwork/EfficientNetLite    AdaptiveAvgPool2d-215      [1, 1280, 1, 1]               0               0
               RecycleNetwork/EfficientNetLite              Dropout-216            [1, 1280]               0               0
               RecycleNetwork/EfficientNetLite               Linear-217               [1, 5]           6,405           6,405
============================================================================================================================
Total params: 11,731,333
Trainable params: 11,731,333
Non-trainable params: 0
----------------------------------------------------------------------------------------------------------------------------
Training Started
Epoch: 1, Training Loss: 0.239686, Validation Loss: 0.267680, Training Accuracy: 0.955618, Validation Accuracy: 0.927731
…
        True, True, True, True, True, True, True, True, True, True, True, True,
        True, True, True, True, True, True, True, True])
torch.Size([32])
torch.Size([32])
Starting Training Cycle
----------------------------------------------------------------------------------------------------------------------------
                                 Parent Layers             Layer (type)         Output Shape         Param #     Tr. Param #
============================================================================================================================
               RecycleNetwork/EfficientNetLite                 Conv2d-1      [1, 22, 75, 75]             594             594
               RecycleNetwork/EfficientNetLite            BatchNorm2d-2      [1, 22, 75, 75]              44              44
               RecycleNetwork/EfficientNetLite                  ReLU6-3      [1, 22, 75, 75]               0               0
   RecycleNetwork/EfficientNetLite/MBConvBlock                 Conv2d-4      [1, 22, 75, 75]             198             198
   RecycleNetwork/EfficientNetLite/MBConvBlock            BatchNorm2d-5      [1, 22, 75, 75]              44              44
   RecycleNetwork/EfficientNetLite/MBConvBlock                  ReLU6-6      [1, 22, 75, 75]               0               0
   RecycleNetwork/EfficientNetLite/MBConvBlock                 Conv2d-7      [1, 24, 75, 75]             528             528
   RecycleNetwork/EfficientNetLite/MBConvBlock            BatchNorm2d-8      [1, 24, 75, 75]              48              48
   RecycleNetwork/EfficientNetLite/MBConvBlock                 Conv2d-9     [1, 135, 75, 75]           3,240           3,240
   RecycleNetwork/EfficientNetLite/MBConvBlock           BatchNorm2d-10     [1, 135, 75, 75]             270             270
   RecycleNetwork/EfficientNetLite/MBConvBlock                 ReLU6-11     [1, 135, 75, 75]               0               0
   RecycleNetwork/EfficientNetLite/MBConvBlock                Conv2d-12     [1, 135, 38, 38]           1,215           1,215
   RecycleNetwork/EfficientNetLite/MBConvBlock           BatchNorm2d-13     [1, 135, 38, 38]             270             270
   RecycleNetwork/EfficientNetLite/MBConvBlock                Conv2d-14      [1, 32, 38, 38]           4,320           4,320
   RecycleNetwork/EfficientNetLite/MBConvBlock           BatchNorm2d-15      [1, 32, 38, 38]              64              64
   RecycleNetwork/EfficientNetLite/MBConvBlock                Conv2d-16     [1, 192, 38, 38]           6,144           6,144
   RecycleNetwork/EfficientNetLite/MBConvBlock           BatchNorm2d-17     [1, 192, 38, 38]             384             384
   RecycleNetwork/EfficientNetLite/MBConvBlock                 ReLU6-18     [1, 192, 38, 38]               0               0
   RecycleNetwork/EfficientNetLite/MBConvBlock                Conv2d-19     [1, 192, 38, 38]           1,728           1,728
   RecycleNetwork/EfficientNetLite/MBConvBlock           BatchNorm2d-20     [1, 192, 38, 38]             384             384
   RecycleNetwork/EfficientNetLite/MBConvBlock                Conv2d-21      [1, 32, 38, 38]           6,144           6,144
   RecycleNetwork/EfficientNetLite/MBConvBlock           BatchNorm2d-22      [1, 32, 38, 38]              64              64
   RecycleNetwork/EfficientNetLite/MBConvBlock                Conv2d-23     [1, 192, 38, 38]           6,144           6,144
   RecycleNetwork/EfficientNetLite/MBConvBlock           BatchNorm2d-24     [1, 192, 38, 38]             384             384
   RecycleNetwork/EfficientNetLite/MBConvBlock                 ReLU6-25     [1, 192, 38, 38]               0               0
   RecycleNetwork/EfficientNetLite/MBConvBlock                Conv2d-26     [1, 192, 38, 38]           1,728           1,728
   RecycleNetwork/EfficientNetLite/MBConvBlock           BatchNorm2d-27     [1, 192, 38, 38]             384             384
   RecycleNetwork/EfficientNetLite/MBConvBlock                Conv2d-28      [1, 32, 38, 38]           6,144           6,144
   RecycleNetwork/EfficientNetLite/MBConvBlock           BatchNorm2d-29      [1, 32, 38, 38]              64              64
   RecycleNetwork/EfficientNetLite/MBConvBlock                Conv2d-30     [1, 192, 38, 38]           6,144           6,144
   RecycleNetwork/EfficientNetLite/MBConvBlock           BatchNorm2d-31     [1, 192, 38, 38]             384             384
   RecycleNetwork/EfficientNetLite/MBConvBlock                 ReLU6-32     [1, 192, 38, 38]               0               0
   RecycleNetwork/EfficientNetLite/MBConvBlock                Conv2d-33     [1, 192, 38, 38]           1,728           1,728
   RecycleNetwork/EfficientNetLite/MBConvBlock           BatchNorm2d-34     [1, 192, 38, 38]             384             384
   RecycleNetwork/EfficientNetLite/MBConvBlock                Conv2d-35      [1, 32, 38, 38]           6,144           6,144
   RecycleNetwork/EfficientNetLite/MBConvBlock           BatchNorm2d-36      [1, 32, 38, 38]              64              64
   RecycleNetwork/EfficientNetLite/MBConvBlock                Conv2d-37     [1, 192, 38, 38]           6,144           6,144
   RecycleNetwork/EfficientNetLite/MBConvBlock           BatchNorm2d-38     [1, 192, 38, 38]             384             384
   RecycleNetwork/EfficientNetLite/MBConvBlock                 ReLU6-39     [1, 192, 38, 38]               0               0
   RecycleNetwork/EfficientNetLite/MBConvBlock                Conv2d-40     [1, 192, 19, 19]           4,800           4,800
   RecycleNetwork/EfficientNetLite/MBConvBlock           BatchNorm2d-41     [1, 192, 19, 19]             384             384
   RecycleNetwork/EfficientNetLite/MBConvBlock                Conv2d-42      [1, 56, 19, 19]          10,752          10,752
   RecycleNetwork/EfficientNetLite/MBConvBlock           BatchNorm2d-43      [1, 56, 19, 19]             112             112
   RecycleNetwork/EfficientNetLite/MBConvBlock                Conv2d-44     [1, 336, 19, 19]          18,816          18,816
   RecycleNetwork/EfficientNetLite/MBConvBlock           BatchNorm2d-45     [1, 336, 19, 19]             672             672
   RecycleNetwork/EfficientNetLite/MBConvBlock                 ReLU6-46     [1, 336, 19, 19]               0               0
   RecycleNetwork/EfficientNetLite/MBConvBlock                Conv2d-47     [1, 336, 19, 19]           8,400           8,400
   RecycleNetwork/EfficientNetLite/MBConvBlock           BatchNorm2d-48     [1, 336, 19, 19]             672             672
   RecycleNetwork/EfficientNetLite/MBConvBlock                Conv2d-49      [1, 56, 19, 19]          18,816          18,816
   RecycleNetwork/EfficientNetLite/MBConvBlock           BatchNorm2d-50      [1, 56, 19, 19]             112             112
   RecycleNetwork/EfficientNetLite/MBConvBlock                Conv2d-51     [1, 336, 19, 19]          18,816          18,816
   RecycleNetwork/EfficientNetLite/MBConvBlock           BatchNorm2d-52     [1, 336, 19, 19]             672             672
   RecycleNetwork/EfficientNetLite/MBConvBlock                 ReLU6-53     [1, 336, 19, 19]               0               0
   RecycleNetwork/EfficientNetLite/MBConvBlock                Conv2d-54     [1, 336, 19, 19]           8,400           8,400
   RecycleNetwork/EfficientNetLite/MBConvBlock           BatchNorm2d-55     [1, 336, 19, 19]             672             672
   RecycleNetwork/EfficientNetLite/MBConvBlock                Conv2d-56      [1, 56, 19, 19]          18,816          18,816
   RecycleNetwork/EfficientNetLite/MBConvBlock           BatchNorm2d-57      [1, 56, 19, 19]             112             112
   RecycleNetwork/EfficientNetLite/MBConvBlock                Conv2d-58     [1, 336, 19, 19]          18,816          18,816
   RecycleNetwork/EfficientNetLite/MBConvBlock           BatchNorm2d-59     [1, 336, 19, 19]             672             672
   RecycleNetwork/EfficientNetLite/MBConvBlock                 ReLU6-60     [1, 336, 19, 19]               0               0
   RecycleNetwork/EfficientNetLite/MBConvBlock                Conv2d-61     [1, 336, 19, 19]           8,400           8,400
   RecycleNetwork/EfficientNetLite/MBConvBlock           BatchNorm2d-62     [1, 336, 19, 19]             672             672
   RecycleNetwork/EfficientNetLite/MBConvBlock                Conv2d-63      [1, 56, 19, 19]          18,816          18,816
   RecycleNetwork/EfficientNetLite/MBConvBlock           BatchNorm2d-64      [1, 56, 19, 19]             112             112
   RecycleNetwork/EfficientNetLite/MBConvBlock                Conv2d-65     [1, 336, 19, 19]          18,816          18,816
   RecycleNetwork/EfficientNetLite/MBConvBlock           BatchNorm2d-66     [1, 336, 19, 19]             672             672
   RecycleNetwork/EfficientNetLite/MBConvBlock                 ReLU6-67     [1, 336, 19, 19]               0               0
   RecycleNetwork/EfficientNetLite/MBConvBlock                Conv2d-68     [1, 336, 10, 10]           3,024           3,024
   RecycleNetwork/EfficientNetLite/MBConvBlock           BatchNorm2d-69     [1, 336, 10, 10]             672             672
   RecycleNetwork/EfficientNetLite/MBConvBlock                Conv2d-70     [1, 112, 10, 10]          37,632          37,632
   RecycleNetwork/EfficientNetLite/MBConvBlock           BatchNorm2d-71     [1, 112, 10, 10]             224             224
   RecycleNetwork/EfficientNetLite/MBConvBlock                Conv2d-72     [1, 672, 10, 10]          75,264          75,264
   RecycleNetwork/EfficientNetLite/MBConvBlock           BatchNorm2d-73     [1, 672, 10, 10]           1,344           1,344
   RecycleNetwork/EfficientNetLite/MBConvBlock                 ReLU6-74     [1, 672, 10, 10]               0               0
   RecycleNetwork/EfficientNetLite/MBConvBlock                Conv2d-75     [1, 672, 10, 10]           6,048           6,048
   RecycleNetwork/EfficientNetLite/MBConvBlock           BatchNorm2d-76     [1, 672, 10, 10]           1,344           1,344
   RecycleNetwork/EfficientNetLite/MBConvBlock                Conv2d-77     [1, 112, 10, 10]          75,264          75,264
   RecycleNetwork/EfficientNetLite/MBConvBlock           BatchNorm2d-78     [1, 112, 10, 10]             224             224
   RecycleNetwork/EfficientNetLite/MBConvBlock                Conv2d-79     [1, 672, 10, 10]          75,264          75,264
   RecycleNetwork/EfficientNetLite/MBConvBlock           BatchNorm2d-80     [1, 672, 10, 10]           1,344           1,344
   RecycleNetwork/EfficientNetLite/MBConvBlock                 ReLU6-81     [1, 672, 10, 10]               0               0
   RecycleNetwork/EfficientNetLite/MBConvBlock                Conv2d-82     [1, 672, 10, 10]           6,048           6,048
   RecycleNetwork/EfficientNetLite/MBConvBlock           BatchNorm2d-83     [1, 672, 10, 10]           1,344           1,344
   RecycleNetwork/EfficientNetLite/MBConvBlock                Conv2d-84     [1, 112, 10, 10]          75,264          75,264
   RecycleNetwork/EfficientNetLite/MBConvBlock           BatchNorm2d-85     [1, 112, 10, 10]             224             224
   RecycleNetwork/EfficientNetLite/MBConvBlock                Conv2d-86     [1, 672, 10, 10]          75,264          75,264
   RecycleNetwork/EfficientNetLite/MBConvBlock           BatchNorm2d-87     [1, 672, 10, 10]           1,344           1,344
   RecycleNetwork/EfficientNetLite/MBConvBlock                 ReLU6-88     [1, 672, 10, 10]               0               0
   RecycleNetwork/EfficientNetLite/MBConvBlock                Conv2d-89     [1, 672, 10, 10]           6,048           6,048
   RecycleNetwork/EfficientNetLite/MBConvBlock           BatchNorm2d-90     [1, 672, 10, 10]           1,344           1,344
   RecycleNetwork/EfficientNetLite/MBConvBlock                Conv2d-91     [1, 112, 10, 10]          75,264          75,264
   RecycleNetwork/EfficientNetLite/MBConvBlock           BatchNorm2d-92     [1, 112, 10, 10]             224             224
   RecycleNetwork/EfficientNetLite/MBConvBlock                Conv2d-93     [1, 672, 10, 10]          75,264          75,264
   RecycleNetwork/EfficientNetLite/MBConvBlock           BatchNorm2d-94     [1, 672, 10, 10]           1,344           1,344
   RecycleNetwork/EfficientNetLite/MBConvBlock                 ReLU6-95     [1, 672, 10, 10]               0               0
   RecycleNetwork/EfficientNetLite/MBConvBlock                Conv2d-96     [1, 672, 10, 10]           6,048           6,048
   RecycleNetwork/EfficientNetLite/MBConvBlock           BatchNorm2d-97     [1, 672, 10, 10]           1,344           1,344
   RecycleNetwork/EfficientNetLite/MBConvBlock                Conv2d-98     [1, 112, 10, 10]          75,264          75,264
   RecycleNetwork/EfficientNetLite/MBConvBlock           BatchNorm2d-99     [1, 112, 10, 10]             224             224
   RecycleNetwork/EfficientNetLite/MBConvBlock               Conv2d-100     [1, 672, 10, 10]          75,264          75,264
   RecycleNetwork/EfficientNetLite/MBConvBlock          BatchNorm2d-101     [1, 672, 10, 10]           1,344           1,344
   RecycleNetwork/EfficientNetLite/MBConvBlock                ReLU6-102     [1, 672, 10, 10]               0               0
   RecycleNetwork/EfficientNetLite/MBConvBlock               Conv2d-103     [1, 672, 10, 10]           6,048           6,048
   RecycleNetwork/EfficientNetLite/MBConvBlock          BatchNorm2d-104     [1, 672, 10, 10]           1,344           1,344
   RecycleNetwork/EfficientNetLite/MBConvBlock               Conv2d-105     [1, 112, 10, 10]          75,264          75,264
   RecycleNetwork/EfficientNetLite/MBConvBlock          BatchNorm2d-106     [1, 112, 10, 10]             224             224
   RecycleNetwork/EfficientNetLite/MBConvBlock               Conv2d-107     [1, 672, 10, 10]          75,264          75,264
   RecycleNetwork/EfficientNetLite/MBConvBlock          BatchNorm2d-108     [1, 672, 10, 10]           1,344           1,344
   RecycleNetwork/EfficientNetLite/MBConvBlock                ReLU6-109     [1, 672, 10, 10]               0               0
   RecycleNetwork/EfficientNetLite/MBConvBlock               Conv2d-110     [1, 672, 10, 10]          16,800          16,800
   RecycleNetwork/EfficientNetLite/MBConvBlock          BatchNorm2d-111     [1, 672, 10, 10]           1,344           1,344
   RecycleNetwork/EfficientNetLite/MBConvBlock               Conv2d-112     [1, 160, 10, 10]         107,520         107,520
   RecycleNetwork/EfficientNetLite/MBConvBlock          BatchNorm2d-113     [1, 160, 10, 10]             320             320
   RecycleNetwork/EfficientNetLite/MBConvBlock               Conv2d-114     [1, 960, 10, 10]         153,600         153,600
   RecycleNetwork/EfficientNetLite/MBConvBlock          BatchNorm2d-115     [1, 960, 10, 10]           1,920           1,920
   RecycleNetwork/EfficientNetLite/MBConvBlock                ReLU6-116     [1, 960, 10, 10]               0               0
   RecycleNetwork/EfficientNetLite/MBConvBlock               Conv2d-117     [1, 960, 10, 10]          24,000          24,000
   RecycleNetwork/EfficientNetLite/MBConvBlock          BatchNorm2d-118     [1, 960, 10, 10]           1,920           1,920
   RecycleNetwork/EfficientNetLite/MBConvBlock               Conv2d-119     [1, 160, 10, 10]         153,600         153,600
   RecycleNetwork/EfficientNetLite/MBConvBlock          BatchNorm2d-120     [1, 160, 10, 10]             320             320
   RecycleNetwork/EfficientNetLite/MBConvBlock               Conv2d-121     [1, 960, 10, 10]         153,600         153,600
   RecycleNetwork/EfficientNetLite/MBConvBlock          BatchNorm2d-122     [1, 960, 10, 10]           1,920           1,920
   RecycleNetwork/EfficientNetLite/MBConvBlock                ReLU6-123     [1, 960, 10, 10]               0               0
   RecycleNetwork/EfficientNetLite/MBConvBlock               Conv2d-124     [1, 960, 10, 10]          24,000          24,000
   RecycleNetwork/EfficientNetLite/MBConvBlock          BatchNorm2d-125     [1, 960, 10, 10]           1,920           1,920
   RecycleNetwork/EfficientNetLite/MBConvBlock               Conv2d-126     [1, 160, 10, 10]         153,600         153,600
   RecycleNetwork/EfficientNetLite/MBConvBlock          BatchNorm2d-127     [1, 160, 10, 10]             320             320
   RecycleNetwork/EfficientNetLite/MBConvBlock               Conv2d-128     [1, 960, 10, 10]         153,600         153,600
   RecycleNetwork/EfficientNetLite/MBConvBlock          BatchNorm2d-129     [1, 960, 10, 10]           1,920           1,920
   RecycleNetwork/EfficientNetLite/MBConvBlock                ReLU6-130     [1, 960, 10, 10]               0               0
   RecycleNetwork/EfficientNetLite/MBConvBlock               Conv2d-131     [1, 960, 10, 10]          24,000          24,000
   RecycleNetwork/EfficientNetLite/MBConvBlock          BatchNorm2d-132     [1, 960, 10, 10]           1,920           1,920
   RecycleNetwork/EfficientNetLite/MBConvBlock               Conv2d-133     [1, 160, 10, 10]         153,600         153,600
   RecycleNetwork/EfficientNetLite/MBConvBlock          BatchNorm2d-134     [1, 160, 10, 10]             320             320
   RecycleNetwork/EfficientNetLite/MBConvBlock               Conv2d-135     [1, 960, 10, 10]         153,600         153,600
   RecycleNetwork/EfficientNetLite/MBConvBlock          BatchNorm2d-136     [1, 960, 10, 10]           1,920           1,920
   RecycleNetwork/EfficientNetLite/MBConvBlock                ReLU6-137     [1, 960, 10, 10]               0               0
   RecycleNetwork/EfficientNetLite/MBConvBlock               Conv2d-138     [1, 960, 10, 10]          24,000          24,000
   RecycleNetwork/EfficientNetLite/MBConvBlock          BatchNorm2d-139     [1, 960, 10, 10]           1,920           1,920
   RecycleNetwork/EfficientNetLite/MBConvBlock               Conv2d-140     [1, 160, 10, 10]         153,600         153,600
   RecycleNetwork/EfficientNetLite/MBConvBlock          BatchNorm2d-141     [1, 160, 10, 10]             320             320
   RecycleNetwork/EfficientNetLite/MBConvBlock               Conv2d-142     [1, 960, 10, 10]         153,600         153,600
   RecycleNetwork/EfficientNetLite/MBConvBlock          BatchNorm2d-143     [1, 960, 10, 10]           1,920           1,920
   RecycleNetwork/EfficientNetLite/MBConvBlock                ReLU6-144     [1, 960, 10, 10]               0               0
   RecycleNetwork/EfficientNetLite/MBConvBlock               Conv2d-145     [1, 960, 10, 10]          24,000          24,000
   RecycleNetwork/EfficientNetLite/MBConvBlock          BatchNorm2d-146     [1, 960, 10, 10]           1,920           1,920
   RecycleNetwork/EfficientNetLite/MBConvBlock               Conv2d-147     [1, 160, 10, 10]         153,600         153,600
   RecycleNetwork/EfficientNetLite/MBConvBlock          BatchNorm2d-148     [1, 160, 10, 10]             320             320
   RecycleNetwork/EfficientNetLite/MBConvBlock               Conv2d-149     [1, 960, 10, 10]         153,600         153,600
   RecycleNetwork/EfficientNetLite/MBConvBlock          BatchNorm2d-150     [1, 960, 10, 10]           1,920           1,920
   RecycleNetwork/EfficientNetLite/MBConvBlock                ReLU6-151     [1, 960, 10, 10]               0               0
   RecycleNetwork/EfficientNetLite/MBConvBlock               Conv2d-152       [1, 960, 5, 5]          24,000          24,000
   RecycleNetwork/EfficientNetLite/MBConvBlock          BatchNorm2d-153       [1, 960, 5, 5]           1,920           1,920
   RecycleNetwork/EfficientNetLite/MBConvBlock               Conv2d-154       [1, 272, 5, 5]         261,120         261,120
   RecycleNetwork/EfficientNetLite/MBConvBlock          BatchNorm2d-155       [1, 272, 5, 5]             544             544
   RecycleNetwork/EfficientNetLite/MBConvBlock               Conv2d-156      [1, 1632, 5, 5]         443,904         443,904
   RecycleNetwork/EfficientNetLite/MBConvBlock          BatchNorm2d-157      [1, 1632, 5, 5]           3,264           3,264
   RecycleNetwork/EfficientNetLite/MBConvBlock                ReLU6-158      [1, 1632, 5, 5]               0               0
   RecycleNetwork/EfficientNetLite/MBConvBlock               Conv2d-159      [1, 1632, 5, 5]          40,800          40,800
   RecycleNetwork/EfficientNetLite/MBConvBlock          BatchNorm2d-160      [1, 1632, 5, 5]           3,264           3,264
   RecycleNetwork/EfficientNetLite/MBConvBlock               Conv2d-161       [1, 272, 5, 5]         443,904         443,904
   RecycleNetwork/EfficientNetLite/MBConvBlock          BatchNorm2d-162       [1, 272, 5, 5]             544             544
   RecycleNetwork/EfficientNetLite/MBConvBlock               Conv2d-163      [1, 1632, 5, 5]         443,904         443,904
   RecycleNetwork/EfficientNetLite/MBConvBlock          BatchNorm2d-164      [1, 1632, 5, 5]           3,264           3,264
   RecycleNetwork/EfficientNetLite/MBConvBlock                ReLU6-165      [1, 1632, 5, 5]               0               0
   RecycleNetwork/EfficientNetLite/MBConvBlock               Conv2d-166      [1, 1632, 5, 5]          40,800          40,800
   RecycleNetwork/EfficientNetLite/MBConvBlock          BatchNorm2d-167      [1, 1632, 5, 5]           3,264           3,264
   RecycleNetwork/EfficientNetLite/MBConvBlock               Conv2d-168       [1, 272, 5, 5]         443,904         443,904
   RecycleNetwork/EfficientNetLite/MBConvBlock          BatchNorm2d-169       [1, 272, 5, 5]             544             544
   RecycleNetwork/EfficientNetLite/MBConvBlock               Conv2d-170      [1, 1632, 5, 5]         443,904         443,904
   RecycleNetwork/EfficientNetLite/MBConvBlock          BatchNorm2d-171      [1, 1632, 5, 5]           3,264           3,264
   RecycleNetwork/EfficientNetLite/MBConvBlock                ReLU6-172      [1, 1632, 5, 5]               0               0
   RecycleNetwork/EfficientNetLite/MBConvBlock               Conv2d-173      [1, 1632, 5, 5]          40,800          40,800
   RecycleNetwork/EfficientNetLite/MBConvBlock          BatchNorm2d-174      [1, 1632, 5, 5]           3,264           3,264
   RecycleNetwork/EfficientNetLite/MBConvBlock               Conv2d-175       [1, 272, 5, 5]         443,904         443,904
   RecycleNetwork/EfficientNetLite/MBConvBlock          BatchNorm2d-176       [1, 272, 5, 5]             544             544
   RecycleNetwork/EfficientNetLite/MBConvBlock               Conv2d-177      [1, 1632, 5, 5]         443,904         443,904
   RecycleNetwork/EfficientNetLite/MBConvBlock          BatchNorm2d-178      [1, 1632, 5, 5]           3,264           3,264
   RecycleNetwork/EfficientNetLite/MBConvBlock                ReLU6-179      [1, 1632, 5, 5]               0               0
   RecycleNetwork/EfficientNetLite/MBConvBlock               Conv2d-180      [1, 1632, 5, 5]          40,800          40,800
   RecycleNetwork/EfficientNetLite/MBConvBlock          BatchNorm2d-181      [1, 1632, 5, 5]           3,264           3,264
   RecycleNetwork/EfficientNetLite/MBConvBlock               Conv2d-182       [1, 272, 5, 5]         443,904         443,904
   RecycleNetwork/EfficientNetLite/MBConvBlock          BatchNorm2d-183       [1, 272, 5, 5]             544             544
   RecycleNetwork/EfficientNetLite/MBConvBlock               Conv2d-184      [1, 1632, 5, 5]         443,904         443,904
   RecycleNetwork/EfficientNetLite/MBConvBlock          BatchNorm2d-185      [1, 1632, 5, 5]           3,264           3,264
   RecycleNetwork/EfficientNetLite/MBConvBlock                ReLU6-186      [1, 1632, 5, 5]               0               0
   RecycleNetwork/EfficientNetLite/MBConvBlock               Conv2d-187      [1, 1632, 5, 5]          40,800          40,800
   RecycleNetwork/EfficientNetLite/MBConvBlock          BatchNorm2d-188      [1, 1632, 5, 5]           3,264           3,264
   RecycleNetwork/EfficientNetLite/MBConvBlock               Conv2d-189       [1, 272, 5, 5]         443,904         443,904
   RecycleNetwork/EfficientNetLite/MBConvBlock          BatchNorm2d-190       [1, 272, 5, 5]             544             544
   RecycleNetwork/EfficientNetLite/MBConvBlock               Conv2d-191      [1, 1632, 5, 5]         443,904         443,904
   RecycleNetwork/EfficientNetLite/MBConvBlock          BatchNorm2d-192      [1, 1632, 5, 5]           3,264           3,264
   RecycleNetwork/EfficientNetLite/MBConvBlock                ReLU6-193      [1, 1632, 5, 5]               0               0
   RecycleNetwork/EfficientNetLite/MBConvBlock               Conv2d-194      [1, 1632, 5, 5]          40,800          40,800
   RecycleNetwork/EfficientNetLite/MBConvBlock          BatchNorm2d-195      [1, 1632, 5, 5]           3,264           3,264
   RecycleNetwork/EfficientNetLite/MBConvBlock               Conv2d-196       [1, 272, 5, 5]         443,904         443,904
   RecycleNetwork/EfficientNetLite/MBConvBlock          BatchNorm2d-197       [1, 272, 5, 5]             544             544
   RecycleNetwork/EfficientNetLite/MBConvBlock               Conv2d-198      [1, 1632, 5, 5]         443,904         443,904
   RecycleNetwork/EfficientNetLite/MBConvBlock          BatchNorm2d-199      [1, 1632, 5, 5]           3,264           3,264
   RecycleNetwork/EfficientNetLite/MBConvBlock                ReLU6-200      [1, 1632, 5, 5]               0               0
   RecycleNetwork/EfficientNetLite/MBConvBlock               Conv2d-201      [1, 1632, 5, 5]          40,800          40,800
   RecycleNetwork/EfficientNetLite/MBConvBlock          BatchNorm2d-202      [1, 1632, 5, 5]           3,264           3,264
   RecycleNetwork/EfficientNetLite/MBConvBlock               Conv2d-203       [1, 272, 5, 5]         443,904         443,904
   RecycleNetwork/EfficientNetLite/MBConvBlock          BatchNorm2d-204       [1, 272, 5, 5]             544             544
   RecycleNetwork/EfficientNetLite/MBConvBlock               Conv2d-205      [1, 1632, 5, 5]         443,904         443,904
   RecycleNetwork/EfficientNetLite/MBConvBlock          BatchNorm2d-206      [1, 1632, 5, 5]           3,264           3,264
   RecycleNetwork/EfficientNetLite/MBConvBlock                ReLU6-207      [1, 1632, 5, 5]               0               0
   RecycleNetwork/EfficientNetLite/MBConvBlock               Conv2d-208      [1, 1632, 5, 5]          14,688          14,688
   RecycleNetwork/EfficientNetLite/MBConvBlock          BatchNorm2d-209      [1, 1632, 5, 5]           3,264           3,264
   RecycleNetwork/EfficientNetLite/MBConvBlock               Conv2d-210       [1, 448, 5, 5]         731,136         731,136
   RecycleNetwork/EfficientNetLite/MBConvBlock          BatchNorm2d-211       [1, 448, 5, 5]             896             896
               RecycleNetwork/EfficientNetLite               Conv2d-212      [1, 1280, 5, 5]         573,440         573,440
               RecycleNetwork/EfficientNetLite          BatchNorm2d-213      [1, 1280, 5, 5]           2,560           2,560
               RecycleNetwork/EfficientNetLite                ReLU6-214      [1, 1280, 5, 5]               0               0
               RecycleNetwork/EfficientNetLite    AdaptiveAvgPool2d-215      [1, 1280, 1, 1]               0               0
               RecycleNetwork/EfficientNetLite              Dropout-216            [1, 1280]               0               0
               RecycleNetwork/EfficientNetLite               Linear-217               [1, 5]           6,405           6,405
============================================================================================================================
Total params: 11,730,712
Trainable params: 11,730,712
Non-trainable params: 0
----------------------------------------------------------------------------------------------------------------------------
Training Started
Epoch: 1, Training Loss: 0.241372, Validation Loss: 0.269242, Training Accuracy: 0.956676, Validation Accuracy: 0.930159
…
        True, True, True, True, True, True, True, True, True, True, True, True,
        True, True, True, True, True, True, True, True])
torch.Size([32])
torch.Size([32])
Starting Training Cycle
----------------------------------------------------------------------------------------------------------------------------
                                 Parent Layers             Layer (type)         Output Shape         Param #     Tr. Param #
============================================================================================================================
               RecycleNetwork/EfficientNetLite                 Conv2d-1      [1, 22, 75, 75]             594             594
               RecycleNetwork/EfficientNetLite            BatchNorm2d-2      [1, 22, 75, 75]              44              44
               RecycleNetwork/EfficientNetLite                  ReLU6-3      [1, 22, 75, 75]               0               0
   RecycleNetwork/EfficientNetLite/MBConvBlock                 Conv2d-4      [1, 22, 75, 75]             198             198
   RecycleNetwork/EfficientNetLite/MBConvBlock            BatchNorm2d-5      [1, 22, 75, 75]              44              44
   RecycleNetwork/EfficientNetLite/MBConvBlock                  ReLU6-6      [1, 22, 75, 75]               0               0
   RecycleNetwork/EfficientNetLite/MBConvBlock                 Conv2d-7      [1, 24, 75, 75]             528             528
   RecycleNetwork/EfficientNetLite/MBConvBlock            BatchNorm2d-8      [1, 24, 75, 75]              48              48
   RecycleNetwork/EfficientNetLite/MBConvBlock                 Conv2d-9     [1, 135, 75, 75]           3,240           3,240
   RecycleNetwork/EfficientNetLite/MBConvBlock           BatchNorm2d-10     [1, 135, 75, 75]             270             270
   RecycleNetwork/EfficientNetLite/MBConvBlock                 ReLU6-11     [1, 135, 75, 75]               0               0
   RecycleNetwork/EfficientNetLite/MBConvBlock                Conv2d-12     [1, 135, 38, 38]           1,215           1,215
   RecycleNetwork/EfficientNetLite/MBConvBlock           BatchNorm2d-13     [1, 135, 38, 38]             270             270
   RecycleNetwork/EfficientNetLite/MBConvBlock                Conv2d-14      [1, 32, 38, 38]           4,320           4,320
   RecycleNetwork/EfficientNetLite/MBConvBlock           BatchNorm2d-15      [1, 32, 38, 38]              64              64
   RecycleNetwork/EfficientNetLite/MBConvBlock                Conv2d-16     [1, 135, 38, 38]           4,320           4,320
   RecycleNetwork/EfficientNetLite/MBConvBlock           BatchNorm2d-17     [1, 135, 38, 38]             270             270
   RecycleNetwork/EfficientNetLite/MBConvBlock                 ReLU6-18     [1, 135, 38, 38]               0               0
   RecycleNetwork/EfficientNetLite/MBConvBlock                Conv2d-19     [1, 135, 38, 38]           1,215           1,215
   RecycleNetwork/EfficientNetLite/MBConvBlock           BatchNorm2d-20     [1, 135, 38, 38]             270             270
   RecycleNetwork/EfficientNetLite/MBConvBlock                Conv2d-21      [1, 32, 38, 38]           4,320           4,320
   RecycleNetwork/EfficientNetLite/MBConvBlock           BatchNorm2d-22      [1, 32, 38, 38]              64              64
   RecycleNetwork/EfficientNetLite/MBConvBlock                Conv2d-23     [1, 192, 38, 38]           6,144           6,144
   RecycleNetwork/EfficientNetLite/MBConvBlock           BatchNorm2d-24     [1, 192, 38, 38]             384             384
   RecycleNetwork/EfficientNetLite/MBConvBlock                 ReLU6-25     [1, 192, 38, 38]               0               0
   RecycleNetwork/EfficientNetLite/MBConvBlock                Conv2d-26     [1, 192, 38, 38]           1,728           1,728
   RecycleNetwork/EfficientNetLite/MBConvBlock           BatchNorm2d-27     [1, 192, 38, 38]             384             384
   RecycleNetwork/EfficientNetLite/MBConvBlock                Conv2d-28      [1, 32, 38, 38]           6,144           6,144
   RecycleNetwork/EfficientNetLite/MBConvBlock           BatchNorm2d-29      [1, 32, 38, 38]              64              64
   RecycleNetwork/EfficientNetLite/MBConvBlock                Conv2d-30     [1, 192, 38, 38]           6,144           6,144
   RecycleNetwork/EfficientNetLite/MBConvBlock           BatchNorm2d-31     [1, 192, 38, 38]             384             384
   RecycleNetwork/EfficientNetLite/MBConvBlock                 ReLU6-32     [1, 192, 38, 38]               0               0
   RecycleNetwork/EfficientNetLite/MBConvBlock                Conv2d-33     [1, 192, 38, 38]           1,728           1,728
   RecycleNetwork/EfficientNetLite/MBConvBlock           BatchNorm2d-34     [1, 192, 38, 38]             384             384
   RecycleNetwork/EfficientNetLite/MBConvBlock                Conv2d-35      [1, 32, 38, 38]           6,144           6,144
   RecycleNetwork/EfficientNetLite/MBConvBlock           BatchNorm2d-36      [1, 32, 38, 38]              64              64
   RecycleNetwork/EfficientNetLite/MBConvBlock                Conv2d-37     [1, 192, 38, 38]           6,144           6,144
   RecycleNetwork/EfficientNetLite/MBConvBlock           BatchNorm2d-38     [1, 192, 38, 38]             384             384
   RecycleNetwork/EfficientNetLite/MBConvBlock                 ReLU6-39     [1, 192, 38, 38]               0               0
   RecycleNetwork/EfficientNetLite/MBConvBlock                Conv2d-40     [1, 192, 19, 19]           4,800           4,800
   RecycleNetwork/EfficientNetLite/MBConvBlock           BatchNorm2d-41     [1, 192, 19, 19]             384             384
   RecycleNetwork/EfficientNetLite/MBConvBlock                Conv2d-42      [1, 56, 19, 19]          10,752          10,752
   RecycleNetwork/EfficientNetLite/MBConvBlock           BatchNorm2d-43      [1, 56, 19, 19]             112             112
   RecycleNetwork/EfficientNetLite/MBConvBlock                Conv2d-44     [1, 336, 19, 19]          18,816          18,816
   RecycleNetwork/EfficientNetLite/MBConvBlock           BatchNorm2d-45     [1, 336, 19, 19]             672             672
   RecycleNetwork/EfficientNetLite/MBConvBlock                 ReLU6-46     [1, 336, 19, 19]               0               0
   RecycleNetwork/EfficientNetLite/MBConvBlock                Conv2d-47     [1, 336, 19, 19]           8,400           8,400
   RecycleNetwork/EfficientNetLite/MBConvBlock           BatchNorm2d-48     [1, 336, 19, 19]             672             672
   RecycleNetwork/EfficientNetLite/MBConvBlock                Conv2d-49      [1, 56, 19, 19]          18,816          18,816
   RecycleNetwork/EfficientNetLite/MBConvBlock           BatchNorm2d-50      [1, 56, 19, 19]             112             112
   RecycleNetwork/EfficientNetLite/MBConvBlock                Conv2d-51     [1, 336, 19, 19]          18,816          18,816
   RecycleNetwork/EfficientNetLite/MBConvBlock           BatchNorm2d-52     [1, 336, 19, 19]             672             672
   RecycleNetwork/EfficientNetLite/MBConvBlock                 ReLU6-53     [1, 336, 19, 19]               0               0
   RecycleNetwork/EfficientNetLite/MBConvBlock                Conv2d-54     [1, 336, 19, 19]           8,400           8,400
   RecycleNetwork/EfficientNetLite/MBConvBlock           BatchNorm2d-55     [1, 336, 19, 19]             672             672
   RecycleNetwork/EfficientNetLite/MBConvBlock                Conv2d-56      [1, 56, 19, 19]          18,816          18,816
   RecycleNetwork/EfficientNetLite/MBConvBlock           BatchNorm2d-57      [1, 56, 19, 19]             112             112
   RecycleNetwork/EfficientNetLite/MBConvBlock                Conv2d-58     [1, 336, 19, 19]          18,816          18,816
   RecycleNetwork/EfficientNetLite/MBConvBlock           BatchNorm2d-59     [1, 336, 19, 19]             672             672
   RecycleNetwork/EfficientNetLite/MBConvBlock                 ReLU6-60     [1, 336, 19, 19]               0               0
   RecycleNetwork/EfficientNetLite/MBConvBlock                Conv2d-61     [1, 336, 19, 19]           8,400           8,400
   RecycleNetwork/EfficientNetLite/MBConvBlock           BatchNorm2d-62     [1, 336, 19, 19]             672             672
   RecycleNetwork/EfficientNetLite/MBConvBlock                Conv2d-63      [1, 56, 19, 19]          18,816          18,816
   RecycleNetwork/EfficientNetLite/MBConvBlock           BatchNorm2d-64      [1, 56, 19, 19]             112             112
   RecycleNetwork/EfficientNetLite/MBConvBlock                Conv2d-65     [1, 336, 19, 19]          18,816          18,816
   RecycleNetwork/EfficientNetLite/MBConvBlock           BatchNorm2d-66     [1, 336, 19, 19]             672             672
   RecycleNetwork/EfficientNetLite/MBConvBlock                 ReLU6-67     [1, 336, 19, 19]               0               0
   RecycleNetwork/EfficientNetLite/MBConvBlock                Conv2d-68     [1, 336, 10, 10]           3,024           3,024
   RecycleNetwork/EfficientNetLite/MBConvBlock           BatchNorm2d-69     [1, 336, 10, 10]             672             672
   RecycleNetwork/EfficientNetLite/MBConvBlock                Conv2d-70     [1, 112, 10, 10]          37,632          37,632
   RecycleNetwork/EfficientNetLite/MBConvBlock           BatchNorm2d-71     [1, 112, 10, 10]             224             224
   RecycleNetwork/EfficientNetLite/MBConvBlock                Conv2d-72     [1, 672, 10, 10]          75,264          75,264
   RecycleNetwork/EfficientNetLite/MBConvBlock           BatchNorm2d-73     [1, 672, 10, 10]           1,344           1,344
   RecycleNetwork/EfficientNetLite/MBConvBlock                 ReLU6-74     [1, 672, 10, 10]               0               0
   RecycleNetwork/EfficientNetLite/MBConvBlock                Conv2d-75     [1, 672, 10, 10]           6,048           6,048
   RecycleNetwork/EfficientNetLite/MBConvBlock           BatchNorm2d-76     [1, 672, 10, 10]           1,344           1,344
   RecycleNetwork/EfficientNetLite/MBConvBlock                Conv2d-77     [1, 112, 10, 10]          75,264          75,264
   RecycleNetwork/EfficientNetLite/MBConvBlock           BatchNorm2d-78     [1, 112, 10, 10]             224             224
   RecycleNetwork/EfficientNetLite/MBConvBlock                Conv2d-79     [1, 672, 10, 10]          75,264          75,264
   RecycleNetwork/EfficientNetLite/MBConvBlock           BatchNorm2d-80     [1, 672, 10, 10]           1,344           1,344
   RecycleNetwork/EfficientNetLite/MBConvBlock                 ReLU6-81     [1, 672, 10, 10]               0               0
   RecycleNetwork/EfficientNetLite/MBConvBlock                Conv2d-82     [1, 672, 10, 10]           6,048           6,048
   RecycleNetwork/EfficientNetLite/MBConvBlock           BatchNorm2d-83     [1, 672, 10, 10]           1,344           1,344
   RecycleNetwork/EfficientNetLite/MBConvBlock                Conv2d-84     [1, 112, 10, 10]          75,264          75,264
   RecycleNetwork/EfficientNetLite/MBConvBlock           BatchNorm2d-85     [1, 112, 10, 10]             224             224
   RecycleNetwork/EfficientNetLite/MBConvBlock                Conv2d-86     [1, 672, 10, 10]          75,264          75,264
   RecycleNetwork/EfficientNetLite/MBConvBlock           BatchNorm2d-87     [1, 672, 10, 10]           1,344           1,344
   RecycleNetwork/EfficientNetLite/MBConvBlock                 ReLU6-88     [1, 672, 10, 10]               0               0
   RecycleNetwork/EfficientNetLite/MBConvBlock                Conv2d-89     [1, 672, 10, 10]           6,048           6,048
   RecycleNetwork/EfficientNetLite/MBConvBlock           BatchNorm2d-90     [1, 672, 10, 10]           1,344           1,344
   RecycleNetwork/EfficientNetLite/MBConvBlock                Conv2d-91     [1, 112, 10, 10]          75,264          75,264
   RecycleNetwork/EfficientNetLite/MBConvBlock           BatchNorm2d-92     [1, 112, 10, 10]             224             224
   RecycleNetwork/EfficientNetLite/MBConvBlock                Conv2d-93     [1, 672, 10, 10]          75,264          75,264
   RecycleNetwork/EfficientNetLite/MBConvBlock           BatchNorm2d-94     [1, 672, 10, 10]           1,344           1,344
   RecycleNetwork/EfficientNetLite/MBConvBlock                 ReLU6-95     [1, 672, 10, 10]               0               0
   RecycleNetwork/EfficientNetLite/MBConvBlock                Conv2d-96     [1, 672, 10, 10]           6,048           6,048
   RecycleNetwork/EfficientNetLite/MBConvBlock           BatchNorm2d-97     [1, 672, 10, 10]           1,344           1,344
   RecycleNetwork/EfficientNetLite/MBConvBlock                Conv2d-98     [1, 112, 10, 10]          75,264          75,264
   RecycleNetwork/EfficientNetLite/MBConvBlock           BatchNorm2d-99     [1, 112, 10, 10]             224             224
   RecycleNetwork/EfficientNetLite/MBConvBlock               Conv2d-100     [1, 672, 10, 10]          75,264          75,264
   RecycleNetwork/EfficientNetLite/MBConvBlock          BatchNorm2d-101     [1, 672, 10, 10]           1,344           1,344
   RecycleNetwork/EfficientNetLite/MBConvBlock                ReLU6-102     [1, 672, 10, 10]               0               0
   RecycleNetwork/EfficientNetLite/MBConvBlock               Conv2d-103     [1, 672, 10, 10]           6,048           6,048
   RecycleNetwork/EfficientNetLite/MBConvBlock          BatchNorm2d-104     [1, 672, 10, 10]           1,344           1,344
   RecycleNetwork/EfficientNetLite/MBConvBlock               Conv2d-105     [1, 112, 10, 10]          75,264          75,264
   RecycleNetwork/EfficientNetLite/MBConvBlock          BatchNorm2d-106     [1, 112, 10, 10]             224             224
   RecycleNetwork/EfficientNetLite/MBConvBlock               Conv2d-107     [1, 672, 10, 10]          75,264          75,264
   RecycleNetwork/EfficientNetLite/MBConvBlock          BatchNorm2d-108     [1, 672, 10, 10]           1,344           1,344
   RecycleNetwork/EfficientNetLite/MBConvBlock                ReLU6-109     [1, 672, 10, 10]               0               0
   RecycleNetwork/EfficientNetLite/MBConvBlock               Conv2d-110     [1, 672, 10, 10]          16,800          16,800
   RecycleNetwork/EfficientNetLite/MBConvBlock          BatchNorm2d-111     [1, 672, 10, 10]           1,344           1,344
   RecycleNetwork/EfficientNetLite/MBConvBlock               Conv2d-112     [1, 160, 10, 10]         107,520         107,520
   RecycleNetwork/EfficientNetLite/MBConvBlock          BatchNorm2d-113     [1, 160, 10, 10]             320             320
   RecycleNetwork/EfficientNetLite/MBConvBlock               Conv2d-114     [1, 960, 10, 10]         153,600         153,600
   RecycleNetwork/EfficientNetLite/MBConvBlock          BatchNorm2d-115     [1, 960, 10, 10]           1,920           1,920
   RecycleNetwork/EfficientNetLite/MBConvBlock                ReLU6-116     [1, 960, 10, 10]               0               0
   RecycleNetwork/EfficientNetLite/MBConvBlock               Conv2d-117     [1, 960, 10, 10]          24,000          24,000
   RecycleNetwork/EfficientNetLite/MBConvBlock          BatchNorm2d-118     [1, 960, 10, 10]           1,920           1,920
   RecycleNetwork/EfficientNetLite/MBConvBlock               Conv2d-119     [1, 160, 10, 10]         153,600         153,600
   RecycleNetwork/EfficientNetLite/MBConvBlock          BatchNorm2d-120     [1, 160, 10, 10]             320             320
   RecycleNetwork/EfficientNetLite/MBConvBlock               Conv2d-121     [1, 960, 10, 10]         153,600         153,600
   RecycleNetwork/EfficientNetLite/MBConvBlock          BatchNorm2d-122     [1, 960, 10, 10]           1,920           1,920
   RecycleNetwork/EfficientNetLite/MBConvBlock                ReLU6-123     [1, 960, 10, 10]               0               0
   RecycleNetwork/EfficientNetLite/MBConvBlock               Conv2d-124     [1, 960, 10, 10]          24,000          24,000
   RecycleNetwork/EfficientNetLite/MBConvBlock          BatchNorm2d-125     [1, 960, 10, 10]           1,920           1,920
   RecycleNetwork/EfficientNetLite/MBConvBlock               Conv2d-126     [1, 160, 10, 10]         153,600         153,600
   RecycleNetwork/EfficientNetLite/MBConvBlock          BatchNorm2d-127     [1, 160, 10, 10]             320             320
   RecycleNetwork/EfficientNetLite/MBConvBlock               Conv2d-128     [1, 960, 10, 10]         153,600         153,600
   RecycleNetwork/EfficientNetLite/MBConvBlock          BatchNorm2d-129     [1, 960, 10, 10]           1,920           1,920
   RecycleNetwork/EfficientNetLite/MBConvBlock                ReLU6-130     [1, 960, 10, 10]               0               0
   RecycleNetwork/EfficientNetLite/MBConvBlock               Conv2d-131     [1, 960, 10, 10]          24,000          24,000
   RecycleNetwork/EfficientNetLite/MBConvBlock          BatchNorm2d-132     [1, 960, 10, 10]           1,920           1,920
   RecycleNetwork/EfficientNetLite/MBConvBlock               Conv2d-133     [1, 160, 10, 10]         153,600         153,600
   RecycleNetwork/EfficientNetLite/MBConvBlock          BatchNorm2d-134     [1, 160, 10, 10]             320             320
   RecycleNetwork/EfficientNetLite/MBConvBlock               Conv2d-135     [1, 960, 10, 10]         153,600         153,600
   RecycleNetwork/EfficientNetLite/MBConvBlock          BatchNorm2d-136     [1, 960, 10, 10]           1,920           1,920
   RecycleNetwork/EfficientNetLite/MBConvBlock                ReLU6-137     [1, 960, 10, 10]               0               0
   RecycleNetwork/EfficientNetLite/MBConvBlock               Conv2d-138     [1, 960, 10, 10]          24,000          24,000
   RecycleNetwork/EfficientNetLite/MBConvBlock          BatchNorm2d-139     [1, 960, 10, 10]           1,920           1,920
   RecycleNetwork/EfficientNetLite/MBConvBlock               Conv2d-140     [1, 160, 10, 10]         153,600         153,600
   RecycleNetwork/EfficientNetLite/MBConvBlock          BatchNorm2d-141     [1, 160, 10, 10]             320             320
   RecycleNetwork/EfficientNetLite/MBConvBlock               Conv2d-142     [1, 960, 10, 10]         153,600         153,600
   RecycleNetwork/EfficientNetLite/MBConvBlock          BatchNorm2d-143     [1, 960, 10, 10]           1,920           1,920
   RecycleNetwork/EfficientNetLite/MBConvBlock                ReLU6-144     [1, 960, 10, 10]               0               0
   RecycleNetwork/EfficientNetLite/MBConvBlock               Conv2d-145     [1, 960, 10, 10]          24,000          24,000
   RecycleNetwork/EfficientNetLite/MBConvBlock          BatchNorm2d-146     [1, 960, 10, 10]           1,920           1,920
   RecycleNetwork/EfficientNetLite/MBConvBlock               Conv2d-147     [1, 160, 10, 10]         153,600         153,600
   RecycleNetwork/EfficientNetLite/MBConvBlock          BatchNorm2d-148     [1, 160, 10, 10]             320             320
   RecycleNetwork/EfficientNetLite/MBConvBlock               Conv2d-149     [1, 960, 10, 10]         153,600         153,600
   RecycleNetwork/EfficientNetLite/MBConvBlock          BatchNorm2d-150     [1, 960, 10, 10]           1,920           1,920
   RecycleNetwork/EfficientNetLite/MBConvBlock                ReLU6-151     [1, 960, 10, 10]               0               0
   RecycleNetwork/EfficientNetLite/MBConvBlock               Conv2d-152       [1, 960, 5, 5]          24,000          24,000
   RecycleNetwork/EfficientNetLite/MBConvBlock          BatchNorm2d-153       [1, 960, 5, 5]           1,920           1,920
   RecycleNetwork/EfficientNetLite/MBConvBlock               Conv2d-154       [1, 272, 5, 5]         261,120         261,120
   RecycleNetwork/EfficientNetLite/MBConvBlock          BatchNorm2d-155       [1, 272, 5, 5]             544             544
   RecycleNetwork/EfficientNetLite/MBConvBlock               Conv2d-156      [1, 1632, 5, 5]         443,904         443,904
   RecycleNetwork/EfficientNetLite/MBConvBlock          BatchNorm2d-157      [1, 1632, 5, 5]           3,264           3,264
   RecycleNetwork/EfficientNetLite/MBConvBlock                ReLU6-158      [1, 1632, 5, 5]               0               0
   RecycleNetwork/EfficientNetLite/MBConvBlock               Conv2d-159      [1, 1632, 5, 5]          40,800          40,800
   RecycleNetwork/EfficientNetLite/MBConvBlock          BatchNorm2d-160      [1, 1632, 5, 5]           3,264           3,264
   RecycleNetwork/EfficientNetLite/MBConvBlock               Conv2d-161       [1, 272, 5, 5]         443,904         443,904
   RecycleNetwork/EfficientNetLite/MBConvBlock          BatchNorm2d-162       [1, 272, 5, 5]             544             544
   RecycleNetwork/EfficientNetLite/MBConvBlock               Conv2d-163      [1, 1632, 5, 5]         443,904         443,904
   RecycleNetwork/EfficientNetLite/MBConvBlock          BatchNorm2d-164      [1, 1632, 5, 5]           3,264           3,264
   RecycleNetwork/EfficientNetLite/MBConvBlock                ReLU6-165      [1, 1632, 5, 5]               0               0
   RecycleNetwork/EfficientNetLite/MBConvBlock               Conv2d-166      [1, 1632, 5, 5]          40,800          40,800
   RecycleNetwork/EfficientNetLite/MBConvBlock          BatchNorm2d-167      [1, 1632, 5, 5]           3,264           3,264
   RecycleNetwork/EfficientNetLite/MBConvBlock               Conv2d-168       [1, 272, 5, 5]         443,904         443,904
   RecycleNetwork/EfficientNetLite/MBConvBlock          BatchNorm2d-169       [1, 272, 5, 5]             544             544
   RecycleNetwork/EfficientNetLite/MBConvBlock               Conv2d-170      [1, 1632, 5, 5]         443,904         443,904
   RecycleNetwork/EfficientNetLite/MBConvBlock          BatchNorm2d-171      [1, 1632, 5, 5]           3,264           3,264
   RecycleNetwork/EfficientNetLite/MBConvBlock                ReLU6-172      [1, 1632, 5, 5]               0               0
   RecycleNetwork/EfficientNetLite/MBConvBlock               Conv2d-173      [1, 1632, 5, 5]          40,800          40,800
   RecycleNetwork/EfficientNetLite/MBConvBlock          BatchNorm2d-174      [1, 1632, 5, 5]           3,264           3,264
   RecycleNetwork/EfficientNetLite/MBConvBlock               Conv2d-175       [1, 272, 5, 5]         443,904         443,904
   RecycleNetwork/EfficientNetLite/MBConvBlock          BatchNorm2d-176       [1, 272, 5, 5]             544             544
   RecycleNetwork/EfficientNetLite/MBConvBlock               Conv2d-177      [1, 1632, 5, 5]         443,904         443,904
   RecycleNetwork/EfficientNetLite/MBConvBlock          BatchNorm2d-178      [1, 1632, 5, 5]           3,264           3,264
   RecycleNetwork/EfficientNetLite/MBConvBlock                ReLU6-179      [1, 1632, 5, 5]               0               0
   RecycleNetwork/EfficientNetLite/MBConvBlock               Conv2d-180      [1, 1632, 5, 5]          40,800          40,800
   RecycleNetwork/EfficientNetLite/MBConvBlock          BatchNorm2d-181      [1, 1632, 5, 5]           3,264           3,264
   RecycleNetwork/EfficientNetLite/MBConvBlock               Conv2d-182       [1, 272, 5, 5]         443,904         443,904
   RecycleNetwork/EfficientNetLite/MBConvBlock          BatchNorm2d-183       [1, 272, 5, 5]             544             544
   RecycleNetwork/EfficientNetLite/MBConvBlock               Conv2d-184      [1, 1632, 5, 5]         443,904         443,904
   RecycleNetwork/EfficientNetLite/MBConvBlock          BatchNorm2d-185      [1, 1632, 5, 5]           3,264           3,264
   RecycleNetwork/EfficientNetLite/MBConvBlock                ReLU6-186      [1, 1632, 5, 5]               0               0
   RecycleNetwork/EfficientNetLite/MBConvBlock               Conv2d-187      [1, 1632, 5, 5]          40,800          40,800
   RecycleNetwork/EfficientNetLite/MBConvBlock          BatchNorm2d-188      [1, 1632, 5, 5]           3,264           3,264
   RecycleNetwork/EfficientNetLite/MBConvBlock               Conv2d-189       [1, 272, 5, 5]         443,904         443,904
   RecycleNetwork/EfficientNetLite/MBConvBlock          BatchNorm2d-190       [1, 272, 5, 5]             544             544
   RecycleNetwork/EfficientNetLite/MBConvBlock               Conv2d-191      [1, 1632, 5, 5]         443,904         443,904
   RecycleNetwork/EfficientNetLite/MBConvBlock          BatchNorm2d-192      [1, 1632, 5, 5]           3,264           3,264
   RecycleNetwork/EfficientNetLite/MBConvBlock                ReLU6-193      [1, 1632, 5, 5]               0               0
   RecycleNetwork/EfficientNetLite/MBConvBlock               Conv2d-194      [1, 1632, 5, 5]          40,800          40,800
   RecycleNetwork/EfficientNetLite/MBConvBlock          BatchNorm2d-195      [1, 1632, 5, 5]           3,264           3,264
   RecycleNetwork/EfficientNetLite/MBConvBlock               Conv2d-196       [1, 272, 5, 5]         443,904         443,904
   RecycleNetwork/EfficientNetLite/MBConvBlock          BatchNorm2d-197       [1, 272, 5, 5]             544             544
   RecycleNetwork/EfficientNetLite/MBConvBlock               Conv2d-198      [1, 1632, 5, 5]         443,904         443,904
   RecycleNetwork/EfficientNetLite/MBConvBlock          BatchNorm2d-199      [1, 1632, 5, 5]           3,264           3,264
   RecycleNetwork/EfficientNetLite/MBConvBlock                ReLU6-200      [1, 1632, 5, 5]               0               0
   RecycleNetwork/EfficientNetLite/MBConvBlock               Conv2d-201      [1, 1632, 5, 5]          40,800          40,800
   RecycleNetwork/EfficientNetLite/MBConvBlock          BatchNorm2d-202      [1, 1632, 5, 5]           3,264           3,264
   RecycleNetwork/EfficientNetLite/MBConvBlock               Conv2d-203       [1, 272, 5, 5]         443,904         443,904
   RecycleNetwork/EfficientNetLite/MBConvBlock          BatchNorm2d-204       [1, 272, 5, 5]             544             544
   RecycleNetwork/EfficientNetLite/MBConvBlock               Conv2d-205      [1, 1632, 5, 5]         443,904         443,904
   RecycleNetwork/EfficientNetLite/MBConvBlock          BatchNorm2d-206      [1, 1632, 5, 5]           3,264           3,264
   RecycleNetwork/EfficientNetLite/MBConvBlock                ReLU6-207      [1, 1632, 5, 5]               0               0
   RecycleNetwork/EfficientNetLite/MBConvBlock               Conv2d-208      [1, 1632, 5, 5]          14,688          14,688
   RecycleNetwork/EfficientNetLite/MBConvBlock          BatchNorm2d-209      [1, 1632, 5, 5]           3,264           3,264
   RecycleNetwork/EfficientNetLite/MBConvBlock               Conv2d-210       [1, 448, 5, 5]         731,136         731,136
   RecycleNetwork/EfficientNetLite/MBConvBlock          BatchNorm2d-211       [1, 448, 5, 5]             896             896
               RecycleNetwork/EfficientNetLite               Conv2d-212      [1, 1280, 5, 5]         573,440         573,440
               RecycleNetwork/EfficientNetLite          BatchNorm2d-213      [1, 1280, 5, 5]           2,560           2,560
               RecycleNetwork/EfficientNetLite                ReLU6-214      [1, 1280, 5, 5]               0               0
               RecycleNetwork/EfficientNetLite    AdaptiveAvgPool2d-215      [1, 1280, 1, 1]               0               0
               RecycleNetwork/EfficientNetLite              Dropout-216            [1, 1280]               0               0
               RecycleNetwork/EfficientNetLite               Linear-217               [1, 5]           6,405           6,405
============================================================================================================================
Total params: 11,726,323
Trainable params: 11,726,323
Non-trainable params: 0
----------------------------------------------------------------------------------------------------------------------------
Training Started
Epoch: 1, Training Loss: 0.235379, Validation Loss: 0.265394, Training Accuracy: 0.960473, Validation Accuracy: 0.928852
…
        True, True, True, True, True, True, True, True, True, True, True, True,
        True, True, True, True, True, True, True, True])
torch.Size([32])
torch.Size([32])
Starting Training Cycle
----------------------------------------------------------------------------------------------------------------------------
                                 Parent Layers             Layer (type)         Output Shape         Param #     Tr. Param #
============================================================================================================================
               RecycleNetwork/EfficientNetLite                 Conv2d-1      [1, 22, 75, 75]             594             594
               RecycleNetwork/EfficientNetLite            BatchNorm2d-2      [1, 22, 75, 75]              44              44
               RecycleNetwork/EfficientNetLite                  ReLU6-3      [1, 22, 75, 75]               0               0
   RecycleNetwork/EfficientNetLite/MBConvBlock                 Conv2d-4      [1, 22, 75, 75]             198             198
   RecycleNetwork/EfficientNetLite/MBConvBlock            BatchNorm2d-5      [1, 22, 75, 75]              44              44
   RecycleNetwork/EfficientNetLite/MBConvBlock                  ReLU6-6      [1, 22, 75, 75]               0               0
   RecycleNetwork/EfficientNetLite/MBConvBlock                 Conv2d-7      [1, 24, 75, 75]             528             528
   RecycleNetwork/EfficientNetLite/MBConvBlock            BatchNorm2d-8      [1, 24, 75, 75]              48              48
   RecycleNetwork/EfficientNetLite/MBConvBlock                 Conv2d-9     [1, 135, 75, 75]           3,240           3,240
   RecycleNetwork/EfficientNetLite/MBConvBlock           BatchNorm2d-10     [1, 135, 75, 75]             270             270
   RecycleNetwork/EfficientNetLite/MBConvBlock                 ReLU6-11     [1, 135, 75, 75]               0               0
   RecycleNetwork/EfficientNetLite/MBConvBlock                Conv2d-12     [1, 135, 38, 38]           1,215           1,215
   RecycleNetwork/EfficientNetLite/MBConvBlock           BatchNorm2d-13     [1, 135, 38, 38]             270             270
   RecycleNetwork/EfficientNetLite/MBConvBlock                Conv2d-14      [1, 32, 38, 38]           4,320           4,320
   RecycleNetwork/EfficientNetLite/MBConvBlock           BatchNorm2d-15      [1, 32, 38, 38]              64              64
   RecycleNetwork/EfficientNetLite/MBConvBlock                Conv2d-16     [1, 135, 38, 38]           4,320           4,320
   RecycleNetwork/EfficientNetLite/MBConvBlock           BatchNorm2d-17     [1, 135, 38, 38]             270             270
   RecycleNetwork/EfficientNetLite/MBConvBlock                 ReLU6-18     [1, 135, 38, 38]               0               0
   RecycleNetwork/EfficientNetLite/MBConvBlock                Conv2d-19     [1, 135, 38, 38]           1,215           1,215
   RecycleNetwork/EfficientNetLite/MBConvBlock           BatchNorm2d-20     [1, 135, 38, 38]             270             270
   RecycleNetwork/EfficientNetLite/MBConvBlock                Conv2d-21      [1, 32, 38, 38]           4,320           4,320
   RecycleNetwork/EfficientNetLite/MBConvBlock           BatchNorm2d-22      [1, 32, 38, 38]              64              64
   RecycleNetwork/EfficientNetLite/MBConvBlock                Conv2d-23     [1, 111, 38, 38]           3,552           3,552
   RecycleNetwork/EfficientNetLite/MBConvBlock           BatchNorm2d-24     [1, 111, 38, 38]             222             222
   RecycleNetwork/EfficientNetLite/MBConvBlock                 ReLU6-25     [1, 111, 38, 38]               0               0
   RecycleNetwork/EfficientNetLite/MBConvBlock                Conv2d-26     [1, 111, 38, 38]             999             999
   RecycleNetwork/EfficientNetLite/MBConvBlock           BatchNorm2d-27     [1, 111, 38, 38]             222             222
   RecycleNetwork/EfficientNetLite/MBConvBlock                Conv2d-28      [1, 32, 38, 38]           3,552           3,552
   RecycleNetwork/EfficientNetLite/MBConvBlock           BatchNorm2d-29      [1, 32, 38, 38]              64              64
   RecycleNetwork/EfficientNetLite/MBConvBlock                Conv2d-30     [1, 192, 38, 38]           6,144           6,144
   RecycleNetwork/EfficientNetLite/MBConvBlock           BatchNorm2d-31     [1, 192, 38, 38]             384             384
   RecycleNetwork/EfficientNetLite/MBConvBlock                 ReLU6-32     [1, 192, 38, 38]               0               0
   RecycleNetwork/EfficientNetLite/MBConvBlock                Conv2d-33     [1, 192, 38, 38]           1,728           1,728
   RecycleNetwork/EfficientNetLite/MBConvBlock           BatchNorm2d-34     [1, 192, 38, 38]             384             384
   RecycleNetwork/EfficientNetLite/MBConvBlock                Conv2d-35      [1, 32, 38, 38]           6,144           6,144
   RecycleNetwork/EfficientNetLite/MBConvBlock           BatchNorm2d-36      [1, 32, 38, 38]              64              64
   RecycleNetwork/EfficientNetLite/MBConvBlock                Conv2d-37     [1, 192, 38, 38]           6,144           6,144
   RecycleNetwork/EfficientNetLite/MBConvBlock           BatchNorm2d-38     [1, 192, 38, 38]             384             384
   RecycleNetwork/EfficientNetLite/MBConvBlock                 ReLU6-39     [1, 192, 38, 38]               0               0
   RecycleNetwork/EfficientNetLite/MBConvBlock                Conv2d-40     [1, 192, 19, 19]           4,800           4,800
   RecycleNetwork/EfficientNetLite/MBConvBlock           BatchNorm2d-41     [1, 192, 19, 19]             384             384
   RecycleNetwork/EfficientNetLite/MBConvBlock                Conv2d-42      [1, 56, 19, 19]          10,752          10,752
   RecycleNetwork/EfficientNetLite/MBConvBlock           BatchNorm2d-43      [1, 56, 19, 19]             112             112
   RecycleNetwork/EfficientNetLite/MBConvBlock                Conv2d-44     [1, 336, 19, 19]          18,816          18,816
   RecycleNetwork/EfficientNetLite/MBConvBlock           BatchNorm2d-45     [1, 336, 19, 19]             672             672
   RecycleNetwork/EfficientNetLite/MBConvBlock                 ReLU6-46     [1, 336, 19, 19]               0               0
   RecycleNetwork/EfficientNetLite/MBConvBlock                Conv2d-47     [1, 336, 19, 19]           8,400           8,400
   RecycleNetwork/EfficientNetLite/MBConvBlock           BatchNorm2d-48     [1, 336, 19, 19]             672             672
   RecycleNetwork/EfficientNetLite/MBConvBlock                Conv2d-49      [1, 56, 19, 19]          18,816          18,816
   RecycleNetwork/EfficientNetLite/MBConvBlock           BatchNorm2d-50      [1, 56, 19, 19]             112             112
   RecycleNetwork/EfficientNetLite/MBConvBlock                Conv2d-51     [1, 336, 19, 19]          18,816          18,816
   RecycleNetwork/EfficientNetLite/MBConvBlock           BatchNorm2d-52     [1, 336, 19, 19]             672             672
   RecycleNetwork/EfficientNetLite/MBConvBlock                 ReLU6-53     [1, 336, 19, 19]               0               0
   RecycleNetwork/EfficientNetLite/MBConvBlock                Conv2d-54     [1, 336, 19, 19]           8,400           8,400
   RecycleNetwork/EfficientNetLite/MBConvBlock           BatchNorm2d-55     [1, 336, 19, 19]             672             672
   RecycleNetwork/EfficientNetLite/MBConvBlock                Conv2d-56      [1, 56, 19, 19]          18,816          18,816
   RecycleNetwork/EfficientNetLite/MBConvBlock           BatchNorm2d-57      [1, 56, 19, 19]             112             112
   RecycleNetwork/EfficientNetLite/MBConvBlock                Conv2d-58     [1, 336, 19, 19]          18,816          18,816
   RecycleNetwork/EfficientNetLite/MBConvBlock           BatchNorm2d-59     [1, 336, 19, 19]             672             672
   RecycleNetwork/EfficientNetLite/MBConvBlock                 ReLU6-60     [1, 336, 19, 19]               0               0
   RecycleNetwork/EfficientNetLite/MBConvBlock                Conv2d-61     [1, 336, 19, 19]           8,400           8,400
   RecycleNetwork/EfficientNetLite/MBConvBlock           BatchNorm2d-62     [1, 336, 19, 19]             672             672
   RecycleNetwork/EfficientNetLite/MBConvBlock                Conv2d-63      [1, 56, 19, 19]          18,816          18,816
   RecycleNetwork/EfficientNetLite/MBConvBlock           BatchNorm2d-64      [1, 56, 19, 19]             112             112
   RecycleNetwork/EfficientNetLite/MBConvBlock                Conv2d-65     [1, 336, 19, 19]          18,816          18,816
   RecycleNetwork/EfficientNetLite/MBConvBlock           BatchNorm2d-66     [1, 336, 19, 19]             672             672
   RecycleNetwork/EfficientNetLite/MBConvBlock                 ReLU6-67     [1, 336, 19, 19]               0               0
   RecycleNetwork/EfficientNetLite/MBConvBlock                Conv2d-68     [1, 336, 10, 10]           3,024           3,024
   RecycleNetwork/EfficientNetLite/MBConvBlock           BatchNorm2d-69     [1, 336, 10, 10]             672             672
   RecycleNetwork/EfficientNetLite/MBConvBlock                Conv2d-70     [1, 112, 10, 10]          37,632          37,632
   RecycleNetwork/EfficientNetLite/MBConvBlock           BatchNorm2d-71     [1, 112, 10, 10]             224             224
   RecycleNetwork/EfficientNetLite/MBConvBlock                Conv2d-72     [1, 672, 10, 10]          75,264          75,264
   RecycleNetwork/EfficientNetLite/MBConvBlock           BatchNorm2d-73     [1, 672, 10, 10]           1,344           1,344
   RecycleNetwork/EfficientNetLite/MBConvBlock                 ReLU6-74     [1, 672, 10, 10]               0               0
   RecycleNetwork/EfficientNetLite/MBConvBlock                Conv2d-75     [1, 672, 10, 10]           6,048           6,048
   RecycleNetwork/EfficientNetLite/MBConvBlock           BatchNorm2d-76     [1, 672, 10, 10]           1,344           1,344
   RecycleNetwork/EfficientNetLite/MBConvBlock                Conv2d-77     [1, 112, 10, 10]          75,264          75,264
   RecycleNetwork/EfficientNetLite/MBConvBlock           BatchNorm2d-78     [1, 112, 10, 10]             224             224
   RecycleNetwork/EfficientNetLite/MBConvBlock                Conv2d-79     [1, 672, 10, 10]          75,264          75,264
   RecycleNetwork/EfficientNetLite/MBConvBlock           BatchNorm2d-80     [1, 672, 10, 10]           1,344           1,344
   RecycleNetwork/EfficientNetLite/MBConvBlock                 ReLU6-81     [1, 672, 10, 10]               0               0
   RecycleNetwork/EfficientNetLite/MBConvBlock                Conv2d-82     [1, 672, 10, 10]           6,048           6,048
   RecycleNetwork/EfficientNetLite/MBConvBlock           BatchNorm2d-83     [1, 672, 10, 10]           1,344           1,344
   RecycleNetwork/EfficientNetLite/MBConvBlock                Conv2d-84     [1, 112, 10, 10]          75,264          75,264
   RecycleNetwork/EfficientNetLite/MBConvBlock           BatchNorm2d-85     [1, 112, 10, 10]             224             224
   RecycleNetwork/EfficientNetLite/MBConvBlock                Conv2d-86     [1, 672, 10, 10]          75,264          75,264
   RecycleNetwork/EfficientNetLite/MBConvBlock           BatchNorm2d-87     [1, 672, 10, 10]           1,344           1,344
   RecycleNetwork/EfficientNetLite/MBConvBlock                 ReLU6-88     [1, 672, 10, 10]               0               0
   RecycleNetwork/EfficientNetLite/MBConvBlock                Conv2d-89     [1, 672, 10, 10]           6,048           6,048
   RecycleNetwork/EfficientNetLite/MBConvBlock           BatchNorm2d-90     [1, 672, 10, 10]           1,344           1,344
   RecycleNetwork/EfficientNetLite/MBConvBlock                Conv2d-91     [1, 112, 10, 10]          75,264          75,264
   RecycleNetwork/EfficientNetLite/MBConvBlock           BatchNorm2d-92     [1, 112, 10, 10]             224             224
   RecycleNetwork/EfficientNetLite/MBConvBlock                Conv2d-93     [1, 672, 10, 10]          75,264          75,264
   RecycleNetwork/EfficientNetLite/MBConvBlock           BatchNorm2d-94     [1, 672, 10, 10]           1,344           1,344
   RecycleNetwork/EfficientNetLite/MBConvBlock                 ReLU6-95     [1, 672, 10, 10]               0               0
   RecycleNetwork/EfficientNetLite/MBConvBlock                Conv2d-96     [1, 672, 10, 10]           6,048           6,048
   RecycleNetwork/EfficientNetLite/MBConvBlock           BatchNorm2d-97     [1, 672, 10, 10]           1,344           1,344
   RecycleNetwork/EfficientNetLite/MBConvBlock                Conv2d-98     [1, 112, 10, 10]          75,264          75,264
   RecycleNetwork/EfficientNetLite/MBConvBlock           BatchNorm2d-99     [1, 112, 10, 10]             224             224
   RecycleNetwork/EfficientNetLite/MBConvBlock               Conv2d-100     [1, 672, 10, 10]          75,264          75,264
   RecycleNetwork/EfficientNetLite/MBConvBlock          BatchNorm2d-101     [1, 672, 10, 10]           1,344           1,344
   RecycleNetwork/EfficientNetLite/MBConvBlock                ReLU6-102     [1, 672, 10, 10]               0               0
   RecycleNetwork/EfficientNetLite/MBConvBlock               Conv2d-103     [1, 672, 10, 10]           6,048           6,048
   RecycleNetwork/EfficientNetLite/MBConvBlock          BatchNorm2d-104     [1, 672, 10, 10]           1,344           1,344
   RecycleNetwork/EfficientNetLite/MBConvBlock               Conv2d-105     [1, 112, 10, 10]          75,264          75,264
   RecycleNetwork/EfficientNetLite/MBConvBlock          BatchNorm2d-106     [1, 112, 10, 10]             224             224
   RecycleNetwork/EfficientNetLite/MBConvBlock               Conv2d-107     [1, 672, 10, 10]          75,264          75,264
   RecycleNetwork/EfficientNetLite/MBConvBlock          BatchNorm2d-108     [1, 672, 10, 10]           1,344           1,344
   RecycleNetwork/EfficientNetLite/MBConvBlock                ReLU6-109     [1, 672, 10, 10]               0               0
   RecycleNetwork/EfficientNetLite/MBConvBlock               Conv2d-110     [1, 672, 10, 10]          16,800          16,800
   RecycleNetwork/EfficientNetLite/MBConvBlock          BatchNorm2d-111     [1, 672, 10, 10]           1,344           1,344
   RecycleNetwork/EfficientNetLite/MBConvBlock               Conv2d-112     [1, 160, 10, 10]         107,520         107,520
   RecycleNetwork/EfficientNetLite/MBConvBlock          BatchNorm2d-113     [1, 160, 10, 10]             320             320
   RecycleNetwork/EfficientNetLite/MBConvBlock               Conv2d-114     [1, 960, 10, 10]         153,600         153,600
   RecycleNetwork/EfficientNetLite/MBConvBlock          BatchNorm2d-115     [1, 960, 10, 10]           1,920           1,920
   RecycleNetwork/EfficientNetLite/MBConvBlock                ReLU6-116     [1, 960, 10, 10]               0               0
   RecycleNetwork/EfficientNetLite/MBConvBlock               Conv2d-117     [1, 960, 10, 10]          24,000          24,000
   RecycleNetwork/EfficientNetLite/MBConvBlock          BatchNorm2d-118     [1, 960, 10, 10]           1,920           1,920
   RecycleNetwork/EfficientNetLite/MBConvBlock               Conv2d-119     [1, 160, 10, 10]         153,600         153,600
   RecycleNetwork/EfficientNetLite/MBConvBlock          BatchNorm2d-120     [1, 160, 10, 10]             320             320
   RecycleNetwork/EfficientNetLite/MBConvBlock               Conv2d-121     [1, 960, 10, 10]         153,600         153,600
   RecycleNetwork/EfficientNetLite/MBConvBlock          BatchNorm2d-122     [1, 960, 10, 10]           1,920           1,920
   RecycleNetwork/EfficientNetLite/MBConvBlock                ReLU6-123     [1, 960, 10, 10]               0               0
   RecycleNetwork/EfficientNetLite/MBConvBlock               Conv2d-124     [1, 960, 10, 10]          24,000          24,000
   RecycleNetwork/EfficientNetLite/MBConvBlock          BatchNorm2d-125     [1, 960, 10, 10]           1,920           1,920
   RecycleNetwork/EfficientNetLite/MBConvBlock               Conv2d-126     [1, 160, 10, 10]         153,600         153,600
   RecycleNetwork/EfficientNetLite/MBConvBlock          BatchNorm2d-127     [1, 160, 10, 10]             320             320
   RecycleNetwork/EfficientNetLite/MBConvBlock               Conv2d-128     [1, 960, 10, 10]         153,600         153,600
   RecycleNetwork/EfficientNetLite/MBConvBlock          BatchNorm2d-129     [1, 960, 10, 10]           1,920           1,920
   RecycleNetwork/EfficientNetLite/MBConvBlock                ReLU6-130     [1, 960, 10, 10]               0               0
   RecycleNetwork/EfficientNetLite/MBConvBlock               Conv2d-131     [1, 960, 10, 10]          24,000          24,000
   RecycleNetwork/EfficientNetLite/MBConvBlock          BatchNorm2d-132     [1, 960, 10, 10]           1,920           1,920
   RecycleNetwork/EfficientNetLite/MBConvBlock               Conv2d-133     [1, 160, 10, 10]         153,600         153,600
   RecycleNetwork/EfficientNetLite/MBConvBlock          BatchNorm2d-134     [1, 160, 10, 10]             320             320
   RecycleNetwork/EfficientNetLite/MBConvBlock               Conv2d-135     [1, 960, 10, 10]         153,600         153,600
   RecycleNetwork/EfficientNetLite/MBConvBlock          BatchNorm2d-136     [1, 960, 10, 10]           1,920           1,920
   RecycleNetwork/EfficientNetLite/MBConvBlock                ReLU6-137     [1, 960, 10, 10]               0               0
   RecycleNetwork/EfficientNetLite/MBConvBlock               Conv2d-138     [1, 960, 10, 10]          24,000          24,000
   RecycleNetwork/EfficientNetLite/MBConvBlock          BatchNorm2d-139     [1, 960, 10, 10]           1,920           1,920
   RecycleNetwork/EfficientNetLite/MBConvBlock               Conv2d-140     [1, 160, 10, 10]         153,600         153,600
   RecycleNetwork/EfficientNetLite/MBConvBlock          BatchNorm2d-141     [1, 160, 10, 10]             320             320
   RecycleNetwork/EfficientNetLite/MBConvBlock               Conv2d-142     [1, 960, 10, 10]         153,600         153,600
   RecycleNetwork/EfficientNetLite/MBConvBlock          BatchNorm2d-143     [1, 960, 10, 10]           1,920           1,920
   RecycleNetwork/EfficientNetLite/MBConvBlock                ReLU6-144     [1, 960, 10, 10]               0               0
   RecycleNetwork/EfficientNetLite/MBConvBlock               Conv2d-145     [1, 960, 10, 10]          24,000          24,000
   RecycleNetwork/EfficientNetLite/MBConvBlock          BatchNorm2d-146     [1, 960, 10, 10]           1,920           1,920
   RecycleNetwork/EfficientNetLite/MBConvBlock               Conv2d-147     [1, 160, 10, 10]         153,600         153,600
   RecycleNetwork/EfficientNetLite/MBConvBlock          BatchNorm2d-148     [1, 160, 10, 10]             320             320
   RecycleNetwork/EfficientNetLite/MBConvBlock               Conv2d-149     [1, 960, 10, 10]         153,600         153,600
   RecycleNetwork/EfficientNetLite/MBConvBlock          BatchNorm2d-150     [1, 960, 10, 10]           1,920           1,920
   RecycleNetwork/EfficientNetLite/MBConvBlock                ReLU6-151     [1, 960, 10, 10]               0               0
   RecycleNetwork/EfficientNetLite/MBConvBlock               Conv2d-152       [1, 960, 5, 5]          24,000          24,000
   RecycleNetwork/EfficientNetLite/MBConvBlock          BatchNorm2d-153       [1, 960, 5, 5]           1,920           1,920
   RecycleNetwork/EfficientNetLite/MBConvBlock               Conv2d-154       [1, 272, 5, 5]         261,120         261,120
   RecycleNetwork/EfficientNetLite/MBConvBlock          BatchNorm2d-155       [1, 272, 5, 5]             544             544
   RecycleNetwork/EfficientNetLite/MBConvBlock               Conv2d-156      [1, 1632, 5, 5]         443,904         443,904
   RecycleNetwork/EfficientNetLite/MBConvBlock          BatchNorm2d-157      [1, 1632, 5, 5]           3,264           3,264
   RecycleNetwork/EfficientNetLite/MBConvBlock                ReLU6-158      [1, 1632, 5, 5]               0               0
   RecycleNetwork/EfficientNetLite/MBConvBlock               Conv2d-159      [1, 1632, 5, 5]          40,800          40,800
   RecycleNetwork/EfficientNetLite/MBConvBlock          BatchNorm2d-160      [1, 1632, 5, 5]           3,264           3,264
   RecycleNetwork/EfficientNetLite/MBConvBlock               Conv2d-161       [1, 272, 5, 5]         443,904         443,904
   RecycleNetwork/EfficientNetLite/MBConvBlock          BatchNorm2d-162       [1, 272, 5, 5]             544             544
   RecycleNetwork/EfficientNetLite/MBConvBlock               Conv2d-163      [1, 1632, 5, 5]         443,904         443,904
   RecycleNetwork/EfficientNetLite/MBConvBlock          BatchNorm2d-164      [1, 1632, 5, 5]           3,264           3,264
   RecycleNetwork/EfficientNetLite/MBConvBlock                ReLU6-165      [1, 1632, 5, 5]               0               0
   RecycleNetwork/EfficientNetLite/MBConvBlock               Conv2d-166      [1, 1632, 5, 5]          40,800          40,800
   RecycleNetwork/EfficientNetLite/MBConvBlock          BatchNorm2d-167      [1, 1632, 5, 5]           3,264           3,264
   RecycleNetwork/EfficientNetLite/MBConvBlock               Conv2d-168       [1, 272, 5, 5]         443,904         443,904
   RecycleNetwork/EfficientNetLite/MBConvBlock          BatchNorm2d-169       [1, 272, 5, 5]             544             544
   RecycleNetwork/EfficientNetLite/MBConvBlock               Conv2d-170      [1, 1632, 5, 5]         443,904         443,904
   RecycleNetwork/EfficientNetLite/MBConvBlock          BatchNorm2d-171      [1, 1632, 5, 5]           3,264           3,264
   RecycleNetwork/EfficientNetLite/MBConvBlock                ReLU6-172      [1, 1632, 5, 5]               0               0
   RecycleNetwork/EfficientNetLite/MBConvBlock               Conv2d-173      [1, 1632, 5, 5]          40,800          40,800
   RecycleNetwork/EfficientNetLite/MBConvBlock          BatchNorm2d-174      [1, 1632, 5, 5]           3,264           3,264
   RecycleNetwork/EfficientNetLite/MBConvBlock               Conv2d-175       [1, 272, 5, 5]         443,904         443,904
   RecycleNetwork/EfficientNetLite/MBConvBlock          BatchNorm2d-176       [1, 272, 5, 5]             544             544
   RecycleNetwork/EfficientNetLite/MBConvBlock               Conv2d-177      [1, 1632, 5, 5]         443,904         443,904
   RecycleNetwork/EfficientNetLite/MBConvBlock          BatchNorm2d-178      [1, 1632, 5, 5]           3,264           3,264
   RecycleNetwork/EfficientNetLite/MBConvBlock                ReLU6-179      [1, 1632, 5, 5]               0               0
   RecycleNetwork/EfficientNetLite/MBConvBlock               Conv2d-180      [1, 1632, 5, 5]          40,800          40,800
   RecycleNetwork/EfficientNetLite/MBConvBlock          BatchNorm2d-181      [1, 1632, 5, 5]           3,264           3,264
   RecycleNetwork/EfficientNetLite/MBConvBlock               Conv2d-182       [1, 272, 5, 5]         443,904         443,904
   RecycleNetwork/EfficientNetLite/MBConvBlock          BatchNorm2d-183       [1, 272, 5, 5]             544             544
   RecycleNetwork/EfficientNetLite/MBConvBlock               Conv2d-184      [1, 1632, 5, 5]         443,904         443,904
   RecycleNetwork/EfficientNetLite/MBConvBlock          BatchNorm2d-185      [1, 1632, 5, 5]           3,264           3,264
   RecycleNetwork/EfficientNetLite/MBConvBlock                ReLU6-186      [1, 1632, 5, 5]               0               0
   RecycleNetwork/EfficientNetLite/MBConvBlock               Conv2d-187      [1, 1632, 5, 5]          40,800          40,800
   RecycleNetwork/EfficientNetLite/MBConvBlock          BatchNorm2d-188      [1, 1632, 5, 5]           3,264           3,264
   RecycleNetwork/EfficientNetLite/MBConvBlock               Conv2d-189       [1, 272, 5, 5]         443,904         443,904
   RecycleNetwork/EfficientNetLite/MBConvBlock          BatchNorm2d-190       [1, 272, 5, 5]             544             544
   RecycleNetwork/EfficientNetLite/MBConvBlock               Conv2d-191      [1, 1632, 5, 5]         443,904         443,904
   RecycleNetwork/EfficientNetLite/MBConvBlock          BatchNorm2d-192      [1, 1632, 5, 5]           3,264           3,264
   RecycleNetwork/EfficientNetLite/MBConvBlock                ReLU6-193      [1, 1632, 5, 5]               0               0
   RecycleNetwork/EfficientNetLite/MBConvBlock               Conv2d-194      [1, 1632, 5, 5]          40,800          40,800
   RecycleNetwork/EfficientNetLite/MBConvBlock          BatchNorm2d-195      [1, 1632, 5, 5]           3,264           3,264
   RecycleNetwork/EfficientNetLite/MBConvBlock               Conv2d-196       [1, 272, 5, 5]         443,904         443,904
   RecycleNetwork/EfficientNetLite/MBConvBlock          BatchNorm2d-197       [1, 272, 5, 5]             544             544
   RecycleNetwork/EfficientNetLite/MBConvBlock               Conv2d-198      [1, 1632, 5, 5]         443,904         443,904
   RecycleNetwork/EfficientNetLite/MBConvBlock          BatchNorm2d-199      [1, 1632, 5, 5]           3,264           3,264
   RecycleNetwork/EfficientNetLite/MBConvBlock                ReLU6-200      [1, 1632, 5, 5]               0               0
   RecycleNetwork/EfficientNetLite/MBConvBlock               Conv2d-201      [1, 1632, 5, 5]          40,800          40,800
   RecycleNetwork/EfficientNetLite/MBConvBlock          BatchNorm2d-202      [1, 1632, 5, 5]           3,264           3,264
   RecycleNetwork/EfficientNetLite/MBConvBlock               Conv2d-203       [1, 272, 5, 5]         443,904         443,904
   RecycleNetwork/EfficientNetLite/MBConvBlock          BatchNorm2d-204       [1, 272, 5, 5]             544             544
   RecycleNetwork/EfficientNetLite/MBConvBlock               Conv2d-205      [1, 1632, 5, 5]         443,904         443,904
   RecycleNetwork/EfficientNetLite/MBConvBlock          BatchNorm2d-206      [1, 1632, 5, 5]           3,264           3,264
   RecycleNetwork/EfficientNetLite/MBConvBlock                ReLU6-207      [1, 1632, 5, 5]               0               0
   RecycleNetwork/EfficientNetLite/MBConvBlock               Conv2d-208      [1, 1632, 5, 5]          14,688          14,688
   RecycleNetwork/EfficientNetLite/MBConvBlock          BatchNorm2d-209      [1, 1632, 5, 5]           3,264           3,264
   RecycleNetwork/EfficientNetLite/MBConvBlock               Conv2d-210       [1, 448, 5, 5]         731,136         731,136
   RecycleNetwork/EfficientNetLite/MBConvBlock          BatchNorm2d-211       [1, 448, 5, 5]             896             896
               RecycleNetwork/EfficientNetLite               Conv2d-212      [1, 1280, 5, 5]         573,440         573,440
               RecycleNetwork/EfficientNetLite          BatchNorm2d-213      [1, 1280, 5, 5]           2,560           2,560
               RecycleNetwork/EfficientNetLite                ReLU6-214      [1, 1280, 5, 5]               0               0
               RecycleNetwork/EfficientNetLite    AdaptiveAvgPool2d-215      [1, 1280, 1, 1]               0               0
               RecycleNetwork/EfficientNetLite              Dropout-216            [1, 1280]               0               0
               RecycleNetwork/EfficientNetLite               Linear-217               [1, 5]           6,405           6,405
============================================================================================================================
Total params: 11,720,086
Trainable params: 11,720,086
Non-trainable params: 0
----------------------------------------------------------------------------------------------------------------------------
Training Started
Epoch: 1, Training Loss: 0.237562, Validation Loss: 0.267756, Training Accuracy: 0.961407, Validation Accuracy: 0.928852
…
        True, True, True, True, True, True, True, True, True, True, True, True,
        True, True, True, True, True, True, True, True])
torch.Size([32])
torch.Size([32])
Starting Training Cycle
----------------------------------------------------------------------------------------------------------------------------
                                 Parent Layers             Layer (type)         Output Shape         Param #     Tr. Param #
============================================================================================================================
               RecycleNetwork/EfficientNetLite                 Conv2d-1      [1, 22, 75, 75]             594             594
               RecycleNetwork/EfficientNetLite            BatchNorm2d-2      [1, 22, 75, 75]              44              44
               RecycleNetwork/EfficientNetLite                  ReLU6-3      [1, 22, 75, 75]               0               0
   RecycleNetwork/EfficientNetLite/MBConvBlock                 Conv2d-4      [1, 22, 75, 75]             198             198
   RecycleNetwork/EfficientNetLite/MBConvBlock            BatchNorm2d-5      [1, 22, 75, 75]              44              44
   RecycleNetwork/EfficientNetLite/MBConvBlock                  ReLU6-6      [1, 22, 75, 75]               0               0
   RecycleNetwork/EfficientNetLite/MBConvBlock                 Conv2d-7      [1, 24, 75, 75]             528             528
   RecycleNetwork/EfficientNetLite/MBConvBlock            BatchNorm2d-8      [1, 24, 75, 75]              48              48
   RecycleNetwork/EfficientNetLite/MBConvBlock                 Conv2d-9     [1, 135, 75, 75]           3,240           3,240
   RecycleNetwork/EfficientNetLite/MBConvBlock           BatchNorm2d-10     [1, 135, 75, 75]             270             270
   RecycleNetwork/EfficientNetLite/MBConvBlock                 ReLU6-11     [1, 135, 75, 75]               0               0
   RecycleNetwork/EfficientNetLite/MBConvBlock                Conv2d-12     [1, 135, 38, 38]           1,215           1,215
   RecycleNetwork/EfficientNetLite/MBConvBlock           BatchNorm2d-13     [1, 135, 38, 38]             270             270
   RecycleNetwork/EfficientNetLite/MBConvBlock                Conv2d-14      [1, 32, 38, 38]           4,320           4,320
   RecycleNetwork/EfficientNetLite/MBConvBlock           BatchNorm2d-15      [1, 32, 38, 38]              64              64
   RecycleNetwork/EfficientNetLite/MBConvBlock                Conv2d-16     [1, 135, 38, 38]           4,320           4,320
   RecycleNetwork/EfficientNetLite/MBConvBlock           BatchNorm2d-17     [1, 135, 38, 38]             270             270
   RecycleNetwork/EfficientNetLite/MBConvBlock                 ReLU6-18     [1, 135, 38, 38]               0               0
   RecycleNetwork/EfficientNetLite/MBConvBlock                Conv2d-19     [1, 135, 38, 38]           1,215           1,215
   RecycleNetwork/EfficientNetLite/MBConvBlock           BatchNorm2d-20     [1, 135, 38, 38]             270             270
   RecycleNetwork/EfficientNetLite/MBConvBlock                Conv2d-21      [1, 32, 38, 38]           4,320           4,320
   RecycleNetwork/EfficientNetLite/MBConvBlock           BatchNorm2d-22      [1, 32, 38, 38]              64              64
   RecycleNetwork/EfficientNetLite/MBConvBlock                Conv2d-23     [1, 111, 38, 38]           3,552           3,552
   RecycleNetwork/EfficientNetLite/MBConvBlock           BatchNorm2d-24     [1, 111, 38, 38]             222             222
   RecycleNetwork/EfficientNetLite/MBConvBlock                 ReLU6-25     [1, 111, 38, 38]               0               0
   RecycleNetwork/EfficientNetLite/MBConvBlock                Conv2d-26     [1, 111, 38, 38]             999             999
   RecycleNetwork/EfficientNetLite/MBConvBlock           BatchNorm2d-27     [1, 111, 38, 38]             222             222
   RecycleNetwork/EfficientNetLite/MBConvBlock                Conv2d-28      [1, 32, 38, 38]           3,552           3,552
   RecycleNetwork/EfficientNetLite/MBConvBlock           BatchNorm2d-29      [1, 32, 38, 38]              64              64
   RecycleNetwork/EfficientNetLite/MBConvBlock                Conv2d-30      [1, 83, 38, 38]           2,656           2,656
   RecycleNetwork/EfficientNetLite/MBConvBlock           BatchNorm2d-31      [1, 83, 38, 38]             166             166
   RecycleNetwork/EfficientNetLite/MBConvBlock                 ReLU6-32      [1, 83, 38, 38]               0               0
   RecycleNetwork/EfficientNetLite/MBConvBlock                Conv2d-33      [1, 83, 38, 38]             747             747
   RecycleNetwork/EfficientNetLite/MBConvBlock           BatchNorm2d-34      [1, 83, 38, 38]             166             166
   RecycleNetwork/EfficientNetLite/MBConvBlock                Conv2d-35      [1, 32, 38, 38]           2,656           2,656
   RecycleNetwork/EfficientNetLite/MBConvBlock           BatchNorm2d-36      [1, 32, 38, 38]              64              64
   RecycleNetwork/EfficientNetLite/MBConvBlock                Conv2d-37     [1, 192, 38, 38]           6,144           6,144
   RecycleNetwork/EfficientNetLite/MBConvBlock           BatchNorm2d-38     [1, 192, 38, 38]             384             384
   RecycleNetwork/EfficientNetLite/MBConvBlock                 ReLU6-39     [1, 192, 38, 38]               0               0
   RecycleNetwork/EfficientNetLite/MBConvBlock                Conv2d-40     [1, 192, 19, 19]           4,800           4,800
   RecycleNetwork/EfficientNetLite/MBConvBlock           BatchNorm2d-41     [1, 192, 19, 19]             384             384
   RecycleNetwork/EfficientNetLite/MBConvBlock                Conv2d-42      [1, 56, 19, 19]          10,752          10,752
   RecycleNetwork/EfficientNetLite/MBConvBlock           BatchNorm2d-43      [1, 56, 19, 19]             112             112
   RecycleNetwork/EfficientNetLite/MBConvBlock                Conv2d-44     [1, 336, 19, 19]          18,816          18,816
   RecycleNetwork/EfficientNetLite/MBConvBlock           BatchNorm2d-45     [1, 336, 19, 19]             672             672
   RecycleNetwork/EfficientNetLite/MBConvBlock                 ReLU6-46     [1, 336, 19, 19]               0               0
   RecycleNetwork/EfficientNetLite/MBConvBlock                Conv2d-47     [1, 336, 19, 19]           8,400           8,400
   RecycleNetwork/EfficientNetLite/MBConvBlock           BatchNorm2d-48     [1, 336, 19, 19]             672             672
   RecycleNetwork/EfficientNetLite/MBConvBlock                Conv2d-49      [1, 56, 19, 19]          18,816          18,816
   RecycleNetwork/EfficientNetLite/MBConvBlock           BatchNorm2d-50      [1, 56, 19, 19]             112             112
   RecycleNetwork/EfficientNetLite/MBConvBlock                Conv2d-51     [1, 336, 19, 19]          18,816          18,816
   RecycleNetwork/EfficientNetLite/MBConvBlock           BatchNorm2d-52     [1, 336, 19, 19]             672             672
   RecycleNetwork/EfficientNetLite/MBConvBlock                 ReLU6-53     [1, 336, 19, 19]               0               0
   RecycleNetwork/EfficientNetLite/MBConvBlock                Conv2d-54     [1, 336, 19, 19]           8,400           8,400
   RecycleNetwork/EfficientNetLite/MBConvBlock           BatchNorm2d-55     [1, 336, 19, 19]             672             672
   RecycleNetwork/EfficientNetLite/MBConvBlock                Conv2d-56      [1, 56, 19, 19]          18,816          18,816
   RecycleNetwork/EfficientNetLite/MBConvBlock           BatchNorm2d-57      [1, 56, 19, 19]             112             112
   RecycleNetwork/EfficientNetLite/MBConvBlock                Conv2d-58     [1, 336, 19, 19]          18,816          18,816
   RecycleNetwork/EfficientNetLite/MBConvBlock           BatchNorm2d-59     [1, 336, 19, 19]             672             672
   RecycleNetwork/EfficientNetLite/MBConvBlock                 ReLU6-60     [1, 336, 19, 19]               0               0
   RecycleNetwork/EfficientNetLite/MBConvBlock                Conv2d-61     [1, 336, 19, 19]           8,400           8,400
   RecycleNetwork/EfficientNetLite/MBConvBlock           BatchNorm2d-62     [1, 336, 19, 19]             672             672
   RecycleNetwork/EfficientNetLite/MBConvBlock                Conv2d-63      [1, 56, 19, 19]          18,816          18,816
   RecycleNetwork/EfficientNetLite/MBConvBlock           BatchNorm2d-64      [1, 56, 19, 19]             112             112
   RecycleNetwork/EfficientNetLite/MBConvBlock                Conv2d-65     [1, 336, 19, 19]          18,816          18,816
   RecycleNetwork/EfficientNetLite/MBConvBlock           BatchNorm2d-66     [1, 336, 19, 19]             672             672
   RecycleNetwork/EfficientNetLite/MBConvBlock                 ReLU6-67     [1, 336, 19, 19]               0               0
   RecycleNetwork/EfficientNetLite/MBConvBlock                Conv2d-68     [1, 336, 10, 10]           3,024           3,024
   RecycleNetwork/EfficientNetLite/MBConvBlock           BatchNorm2d-69     [1, 336, 10, 10]             672             672
   RecycleNetwork/EfficientNetLite/MBConvBlock                Conv2d-70     [1, 112, 10, 10]          37,632          37,632
   RecycleNetwork/EfficientNetLite/MBConvBlock           BatchNorm2d-71     [1, 112, 10, 10]             224             224
   RecycleNetwork/EfficientNetLite/MBConvBlock                Conv2d-72     [1, 672, 10, 10]          75,264          75,264
   RecycleNetwork/EfficientNetLite/MBConvBlock           BatchNorm2d-73     [1, 672, 10, 10]           1,344           1,344
   RecycleNetwork/EfficientNetLite/MBConvBlock                 ReLU6-74     [1, 672, 10, 10]               0               0
   RecycleNetwork/EfficientNetLite/MBConvBlock                Conv2d-75     [1, 672, 10, 10]           6,048           6,048
   RecycleNetwork/EfficientNetLite/MBConvBlock           BatchNorm2d-76     [1, 672, 10, 10]           1,344           1,344
   RecycleNetwork/EfficientNetLite/MBConvBlock                Conv2d-77     [1, 112, 10, 10]          75,264          75,264
   RecycleNetwork/EfficientNetLite/MBConvBlock           BatchNorm2d-78     [1, 112, 10, 10]             224             224
   RecycleNetwork/EfficientNetLite/MBConvBlock                Conv2d-79     [1, 672, 10, 10]          75,264          75,264
   RecycleNetwork/EfficientNetLite/MBConvBlock           BatchNorm2d-80     [1, 672, 10, 10]           1,344           1,344
   RecycleNetwork/EfficientNetLite/MBConvBlock                 ReLU6-81     [1, 672, 10, 10]               0               0
   RecycleNetwork/EfficientNetLite/MBConvBlock                Conv2d-82     [1, 672, 10, 10]           6,048           6,048
   RecycleNetwork/EfficientNetLite/MBConvBlock           BatchNorm2d-83     [1, 672, 10, 10]           1,344           1,344
   RecycleNetwork/EfficientNetLite/MBConvBlock                Conv2d-84     [1, 112, 10, 10]          75,264          75,264
   RecycleNetwork/EfficientNetLite/MBConvBlock           BatchNorm2d-85     [1, 112, 10, 10]             224             224
   RecycleNetwork/EfficientNetLite/MBConvBlock                Conv2d-86     [1, 672, 10, 10]          75,264          75,264
   RecycleNetwork/EfficientNetLite/MBConvBlock           BatchNorm2d-87     [1, 672, 10, 10]           1,344           1,344
   RecycleNetwork/EfficientNetLite/MBConvBlock                 ReLU6-88     [1, 672, 10, 10]               0               0
   RecycleNetwork/EfficientNetLite/MBConvBlock                Conv2d-89     [1, 672, 10, 10]           6,048           6,048
   RecycleNetwork/EfficientNetLite/MBConvBlock           BatchNorm2d-90     [1, 672, 10, 10]           1,344           1,344
   RecycleNetwork/EfficientNetLite/MBConvBlock                Conv2d-91     [1, 112, 10, 10]          75,264          75,264
   RecycleNetwork/EfficientNetLite/MBConvBlock           BatchNorm2d-92     [1, 112, 10, 10]             224             224
   RecycleNetwork/EfficientNetLite/MBConvBlock                Conv2d-93     [1, 672, 10, 10]          75,264          75,264
   RecycleNetwork/EfficientNetLite/MBConvBlock           BatchNorm2d-94     [1, 672, 10, 10]           1,344           1,344
   RecycleNetwork/EfficientNetLite/MBConvBlock                 ReLU6-95     [1, 672, 10, 10]               0               0
   RecycleNetwork/EfficientNetLite/MBConvBlock                Conv2d-96     [1, 672, 10, 10]           6,048           6,048
   RecycleNetwork/EfficientNetLite/MBConvBlock           BatchNorm2d-97     [1, 672, 10, 10]           1,344           1,344
   RecycleNetwork/EfficientNetLite/MBConvBlock                Conv2d-98     [1, 112, 10, 10]          75,264          75,264
   RecycleNetwork/EfficientNetLite/MBConvBlock           BatchNorm2d-99     [1, 112, 10, 10]             224             224
   RecycleNetwork/EfficientNetLite/MBConvBlock               Conv2d-100     [1, 672, 10, 10]          75,264          75,264
   RecycleNetwork/EfficientNetLite/MBConvBlock          BatchNorm2d-101     [1, 672, 10, 10]           1,344           1,344
   RecycleNetwork/EfficientNetLite/MBConvBlock                ReLU6-102     [1, 672, 10, 10]               0               0
   RecycleNetwork/EfficientNetLite/MBConvBlock               Conv2d-103     [1, 672, 10, 10]           6,048           6,048
   RecycleNetwork/EfficientNetLite/MBConvBlock          BatchNorm2d-104     [1, 672, 10, 10]           1,344           1,344
   RecycleNetwork/EfficientNetLite/MBConvBlock               Conv2d-105     [1, 112, 10, 10]          75,264          75,264
   RecycleNetwork/EfficientNetLite/MBConvBlock          BatchNorm2d-106     [1, 112, 10, 10]             224             224
   RecycleNetwork/EfficientNetLite/MBConvBlock               Conv2d-107     [1, 672, 10, 10]          75,264          75,264
   RecycleNetwork/EfficientNetLite/MBConvBlock          BatchNorm2d-108     [1, 672, 10, 10]           1,344           1,344
   RecycleNetwork/EfficientNetLite/MBConvBlock                ReLU6-109     [1, 672, 10, 10]               0               0
   RecycleNetwork/EfficientNetLite/MBConvBlock               Conv2d-110     [1, 672, 10, 10]          16,800          16,800
   RecycleNetwork/EfficientNetLite/MBConvBlock          BatchNorm2d-111     [1, 672, 10, 10]           1,344           1,344
   RecycleNetwork/EfficientNetLite/MBConvBlock               Conv2d-112     [1, 160, 10, 10]         107,520         107,520
   RecycleNetwork/EfficientNetLite/MBConvBlock          BatchNorm2d-113     [1, 160, 10, 10]             320             320
   RecycleNetwork/EfficientNetLite/MBConvBlock               Conv2d-114     [1, 960, 10, 10]         153,600         153,600
   RecycleNetwork/EfficientNetLite/MBConvBlock          BatchNorm2d-115     [1, 960, 10, 10]           1,920           1,920
   RecycleNetwork/EfficientNetLite/MBConvBlock                ReLU6-116     [1, 960, 10, 10]               0               0
   RecycleNetwork/EfficientNetLite/MBConvBlock               Conv2d-117     [1, 960, 10, 10]          24,000          24,000
   RecycleNetwork/EfficientNetLite/MBConvBlock          BatchNorm2d-118     [1, 960, 10, 10]           1,920           1,920
   RecycleNetwork/EfficientNetLite/MBConvBlock               Conv2d-119     [1, 160, 10, 10]         153,600         153,600
   RecycleNetwork/EfficientNetLite/MBConvBlock          BatchNorm2d-120     [1, 160, 10, 10]             320             320
   RecycleNetwork/EfficientNetLite/MBConvBlock               Conv2d-121     [1, 960, 10, 10]         153,600         153,600
   RecycleNetwork/EfficientNetLite/MBConvBlock          BatchNorm2d-122     [1, 960, 10, 10]           1,920           1,920
   RecycleNetwork/EfficientNetLite/MBConvBlock                ReLU6-123     [1, 960, 10, 10]               0               0
   RecycleNetwork/EfficientNetLite/MBConvBlock               Conv2d-124     [1, 960, 10, 10]          24,000          24,000
   RecycleNetwork/EfficientNetLite/MBConvBlock          BatchNorm2d-125     [1, 960, 10, 10]           1,920           1,920
   RecycleNetwork/EfficientNetLite/MBConvBlock               Conv2d-126     [1, 160, 10, 10]         153,600         153,600
   RecycleNetwork/EfficientNetLite/MBConvBlock          BatchNorm2d-127     [1, 160, 10, 10]             320             320
   RecycleNetwork/EfficientNetLite/MBConvBlock               Conv2d-128     [1, 960, 10, 10]         153,600         153,600
   RecycleNetwork/EfficientNetLite/MBConvBlock          BatchNorm2d-129     [1, 960, 10, 10]           1,920           1,920
   RecycleNetwork/EfficientNetLite/MBConvBlock                ReLU6-130     [1, 960, 10, 10]               0               0
   RecycleNetwork/EfficientNetLite/MBConvBlock               Conv2d-131     [1, 960, 10, 10]          24,000          24,000
   RecycleNetwork/EfficientNetLite/MBConvBlock          BatchNorm2d-132     [1, 960, 10, 10]           1,920           1,920
   RecycleNetwork/EfficientNetLite/MBConvBlock               Conv2d-133     [1, 160, 10, 10]         153,600         153,600
   RecycleNetwork/EfficientNetLite/MBConvBlock          BatchNorm2d-134     [1, 160, 10, 10]             320             320
   RecycleNetwork/EfficientNetLite/MBConvBlock               Conv2d-135     [1, 960, 10, 10]         153,600         153,600
   RecycleNetwork/EfficientNetLite/MBConvBlock          BatchNorm2d-136     [1, 960, 10, 10]           1,920           1,920
   RecycleNetwork/EfficientNetLite/MBConvBlock                ReLU6-137     [1, 960, 10, 10]               0               0
   RecycleNetwork/EfficientNetLite/MBConvBlock               Conv2d-138     [1, 960, 10, 10]          24,000          24,000
   RecycleNetwork/EfficientNetLite/MBConvBlock          BatchNorm2d-139     [1, 960, 10, 10]           1,920           1,920
   RecycleNetwork/EfficientNetLite/MBConvBlock               Conv2d-140     [1, 160, 10, 10]         153,600         153,600
   RecycleNetwork/EfficientNetLite/MBConvBlock          BatchNorm2d-141     [1, 160, 10, 10]             320             320
   RecycleNetwork/EfficientNetLite/MBConvBlock               Conv2d-142     [1, 960, 10, 10]         153,600         153,600
   RecycleNetwork/EfficientNetLite/MBConvBlock          BatchNorm2d-143     [1, 960, 10, 10]           1,920           1,920
   RecycleNetwork/EfficientNetLite/MBConvBlock                ReLU6-144     [1, 960, 10, 10]               0               0
   RecycleNetwork/EfficientNetLite/MBConvBlock               Conv2d-145     [1, 960, 10, 10]          24,000          24,000
   RecycleNetwork/EfficientNetLite/MBConvBlock          BatchNorm2d-146     [1, 960, 10, 10]           1,920           1,920
   RecycleNetwork/EfficientNetLite/MBConvBlock               Conv2d-147     [1, 160, 10, 10]         153,600         153,600
   RecycleNetwork/EfficientNetLite/MBConvBlock          BatchNorm2d-148     [1, 160, 10, 10]             320             320
   RecycleNetwork/EfficientNetLite/MBConvBlock               Conv2d-149     [1, 960, 10, 10]         153,600         153,600
   RecycleNetwork/EfficientNetLite/MBConvBlock          BatchNorm2d-150     [1, 960, 10, 10]           1,920           1,920
   RecycleNetwork/EfficientNetLite/MBConvBlock                ReLU6-151     [1, 960, 10, 10]               0               0
   RecycleNetwork/EfficientNetLite/MBConvBlock               Conv2d-152       [1, 960, 5, 5]          24,000          24,000
   RecycleNetwork/EfficientNetLite/MBConvBlock          BatchNorm2d-153       [1, 960, 5, 5]           1,920           1,920
   RecycleNetwork/EfficientNetLite/MBConvBlock               Conv2d-154       [1, 272, 5, 5]         261,120         261,120
   RecycleNetwork/EfficientNetLite/MBConvBlock          BatchNorm2d-155       [1, 272, 5, 5]             544             544
   RecycleNetwork/EfficientNetLite/MBConvBlock               Conv2d-156      [1, 1632, 5, 5]         443,904         443,904
   RecycleNetwork/EfficientNetLite/MBConvBlock          BatchNorm2d-157      [1, 1632, 5, 5]           3,264           3,264
   RecycleNetwork/EfficientNetLite/MBConvBlock                ReLU6-158      [1, 1632, 5, 5]               0               0
   RecycleNetwork/EfficientNetLite/MBConvBlock               Conv2d-159      [1, 1632, 5, 5]          40,800          40,800
   RecycleNetwork/EfficientNetLite/MBConvBlock          BatchNorm2d-160      [1, 1632, 5, 5]           3,264           3,264
   RecycleNetwork/EfficientNetLite/MBConvBlock               Conv2d-161       [1, 272, 5, 5]         443,904         443,904
   RecycleNetwork/EfficientNetLite/MBConvBlock          BatchNorm2d-162       [1, 272, 5, 5]             544             544
   RecycleNetwork/EfficientNetLite/MBConvBlock               Conv2d-163      [1, 1632, 5, 5]         443,904         443,904
   RecycleNetwork/EfficientNetLite/MBConvBlock          BatchNorm2d-164      [1, 1632, 5, 5]           3,264           3,264
   RecycleNetwork/EfficientNetLite/MBConvBlock                ReLU6-165      [1, 1632, 5, 5]               0               0
   RecycleNetwork/EfficientNetLite/MBConvBlock               Conv2d-166      [1, 1632, 5, 5]          40,800          40,800
   RecycleNetwork/EfficientNetLite/MBConvBlock          BatchNorm2d-167      [1, 1632, 5, 5]           3,264           3,264
   RecycleNetwork/EfficientNetLite/MBConvBlock               Conv2d-168       [1, 272, 5, 5]         443,904         443,904
   RecycleNetwork/EfficientNetLite/MBConvBlock          BatchNorm2d-169       [1, 272, 5, 5]             544             544
   RecycleNetwork/EfficientNetLite/MBConvBlock               Conv2d-170      [1, 1632, 5, 5]         443,904         443,904
   RecycleNetwork/EfficientNetLite/MBConvBlock          BatchNorm2d-171      [1, 1632, 5, 5]           3,264           3,264
   RecycleNetwork/EfficientNetLite/MBConvBlock                ReLU6-172      [1, 1632, 5, 5]               0               0
   RecycleNetwork/EfficientNetLite/MBConvBlock               Conv2d-173      [1, 1632, 5, 5]          40,800          40,800
   RecycleNetwork/EfficientNetLite/MBConvBlock          BatchNorm2d-174      [1, 1632, 5, 5]           3,264           3,264
   RecycleNetwork/EfficientNetLite/MBConvBlock               Conv2d-175       [1, 272, 5, 5]         443,904         443,904
   RecycleNetwork/EfficientNetLite/MBConvBlock          BatchNorm2d-176       [1, 272, 5, 5]             544             544
   RecycleNetwork/EfficientNetLite/MBConvBlock               Conv2d-177      [1, 1632, 5, 5]         443,904         443,904
   RecycleNetwork/EfficientNetLite/MBConvBlock          BatchNorm2d-178      [1, 1632, 5, 5]           3,264           3,264
   RecycleNetwork/EfficientNetLite/MBConvBlock                ReLU6-179      [1, 1632, 5, 5]               0               0
   RecycleNetwork/EfficientNetLite/MBConvBlock               Conv2d-180      [1, 1632, 5, 5]          40,800          40,800
   RecycleNetwork/EfficientNetLite/MBConvBlock          BatchNorm2d-181      [1, 1632, 5, 5]           3,264           3,264
   RecycleNetwork/EfficientNetLite/MBConvBlock               Conv2d-182       [1, 272, 5, 5]         443,904         443,904
   RecycleNetwork/EfficientNetLite/MBConvBlock          BatchNorm2d-183       [1, 272, 5, 5]             544             544
   RecycleNetwork/EfficientNetLite/MBConvBlock               Conv2d-184      [1, 1632, 5, 5]         443,904         443,904
   RecycleNetwork/EfficientNetLite/MBConvBlock          BatchNorm2d-185      [1, 1632, 5, 5]           3,264           3,264
   RecycleNetwork/EfficientNetLite/MBConvBlock                ReLU6-186      [1, 1632, 5, 5]               0               0
   RecycleNetwork/EfficientNetLite/MBConvBlock               Conv2d-187      [1, 1632, 5, 5]          40,800          40,800
   RecycleNetwork/EfficientNetLite/MBConvBlock          BatchNorm2d-188      [1, 1632, 5, 5]           3,264           3,264
   RecycleNetwork/EfficientNetLite/MBConvBlock               Conv2d-189       [1, 272, 5, 5]         443,904         443,904
   RecycleNetwork/EfficientNetLite/MBConvBlock          BatchNorm2d-190       [1, 272, 5, 5]             544             544
   RecycleNetwork/EfficientNetLite/MBConvBlock               Conv2d-191      [1, 1632, 5, 5]         443,904         443,904
   RecycleNetwork/EfficientNetLite/MBConvBlock          BatchNorm2d-192      [1, 1632, 5, 5]           3,264           3,264
   RecycleNetwork/EfficientNetLite/MBConvBlock                ReLU6-193      [1, 1632, 5, 5]               0               0
   RecycleNetwork/EfficientNetLite/MBConvBlock               Conv2d-194      [1, 1632, 5, 5]          40,800          40,800
   RecycleNetwork/EfficientNetLite/MBConvBlock          BatchNorm2d-195      [1, 1632, 5, 5]           3,264           3,264
   RecycleNetwork/EfficientNetLite/MBConvBlock               Conv2d-196       [1, 272, 5, 5]         443,904         443,904
   RecycleNetwork/EfficientNetLite/MBConvBlock          BatchNorm2d-197       [1, 272, 5, 5]             544             544
   RecycleNetwork/EfficientNetLite/MBConvBlock               Conv2d-198      [1, 1632, 5, 5]         443,904         443,904
   RecycleNetwork/EfficientNetLite/MBConvBlock          BatchNorm2d-199      [1, 1632, 5, 5]           3,264           3,264
   RecycleNetwork/EfficientNetLite/MBConvBlock                ReLU6-200      [1, 1632, 5, 5]               0               0
   RecycleNetwork/EfficientNetLite/MBConvBlock               Conv2d-201      [1, 1632, 5, 5]          40,800          40,800
   RecycleNetwork/EfficientNetLite/MBConvBlock          BatchNorm2d-202      [1, 1632, 5, 5]           3,264           3,264
   RecycleNetwork/EfficientNetLite/MBConvBlock               Conv2d-203       [1, 272, 5, 5]         443,904         443,904
   RecycleNetwork/EfficientNetLite/MBConvBlock          BatchNorm2d-204       [1, 272, 5, 5]             544             544
   RecycleNetwork/EfficientNetLite/MBConvBlock               Conv2d-205      [1, 1632, 5, 5]         443,904         443,904
   RecycleNetwork/EfficientNetLite/MBConvBlock          BatchNorm2d-206      [1, 1632, 5, 5]           3,264           3,264
   RecycleNetwork/EfficientNetLite/MBConvBlock                ReLU6-207      [1, 1632, 5, 5]               0               0
   RecycleNetwork/EfficientNetLite/MBConvBlock               Conv2d-208      [1, 1632, 5, 5]          14,688          14,688
   RecycleNetwork/EfficientNetLite/MBConvBlock          BatchNorm2d-209      [1, 1632, 5, 5]           3,264           3,264
   RecycleNetwork/EfficientNetLite/MBConvBlock               Conv2d-210       [1, 448, 5, 5]         731,136         731,136
   RecycleNetwork/EfficientNetLite/MBConvBlock          BatchNorm2d-211       [1, 448, 5, 5]             896             896
               RecycleNetwork/EfficientNetLite               Conv2d-212      [1, 1280, 5, 5]         573,440         573,440
               RecycleNetwork/EfficientNetLite          BatchNorm2d-213      [1, 1280, 5, 5]           2,560           2,560
               RecycleNetwork/EfficientNetLite                ReLU6-214      [1, 1280, 5, 5]               0               0
               RecycleNetwork/EfficientNetLite    AdaptiveAvgPool2d-215      [1, 1280, 1, 1]               0               0
               RecycleNetwork/EfficientNetLite              Dropout-216            [1, 1280]               0               0
               RecycleNetwork/EfficientNetLite               Linear-217               [1, 5]           6,405           6,405
============================================================================================================================
Total params: 11,711,693
Trainable params: 11,711,693
Non-trainable params: 0
----------------------------------------------------------------------------------------------------------------------------
Training Started
Epoch: 1, Training Loss: 0.227201, Validation Loss: 0.267585, Training Accuracy: 0.964830, Validation Accuracy: 0.929225
…
        True, True, True, True, True, True, True, True, True, True, True, True,
        True, True, True, True, True, True, True, True])
torch.Size([56])
torch.Size([56])
Starting Training Cycle
----------------------------------------------------------------------------------------------------------------------------
                                 Parent Layers             Layer (type)         Output Shape         Param #     Tr. Param #
============================================================================================================================
               RecycleNetwork/EfficientNetLite                 Conv2d-1      [1, 22, 75, 75]             594             594
               RecycleNetwork/EfficientNetLite            BatchNorm2d-2      [1, 22, 75, 75]              44              44
               RecycleNetwork/EfficientNetLite                  ReLU6-3      [1, 22, 75, 75]               0               0
   RecycleNetwork/EfficientNetLite/MBConvBlock                 Conv2d-4      [1, 22, 75, 75]             198             198
   RecycleNetwork/EfficientNetLite/MBConvBlock            BatchNorm2d-5      [1, 22, 75, 75]              44              44
   RecycleNetwork/EfficientNetLite/MBConvBlock                  ReLU6-6      [1, 22, 75, 75]               0               0
   RecycleNetwork/EfficientNetLite/MBConvBlock                 Conv2d-7      [1, 24, 75, 75]             528             528
   RecycleNetwork/EfficientNetLite/MBConvBlock            BatchNorm2d-8      [1, 24, 75, 75]              48              48
   RecycleNetwork/EfficientNetLite/MBConvBlock                 Conv2d-9     [1, 135, 75, 75]           3,240           3,240
   RecycleNetwork/EfficientNetLite/MBConvBlock           BatchNorm2d-10     [1, 135, 75, 75]             270             270
   RecycleNetwork/EfficientNetLite/MBConvBlock                 ReLU6-11     [1, 135, 75, 75]               0               0
   RecycleNetwork/EfficientNetLite/MBConvBlock                Conv2d-12     [1, 135, 38, 38]           1,215           1,215
   RecycleNetwork/EfficientNetLite/MBConvBlock           BatchNorm2d-13     [1, 135, 38, 38]             270             270
   RecycleNetwork/EfficientNetLite/MBConvBlock                Conv2d-14      [1, 32, 38, 38]           4,320           4,320
   RecycleNetwork/EfficientNetLite/MBConvBlock           BatchNorm2d-15      [1, 32, 38, 38]              64              64
   RecycleNetwork/EfficientNetLite/MBConvBlock                Conv2d-16     [1, 135, 38, 38]           4,320           4,320
   RecycleNetwork/EfficientNetLite/MBConvBlock           BatchNorm2d-17     [1, 135, 38, 38]             270             270
   RecycleNetwork/EfficientNetLite/MBConvBlock                 ReLU6-18     [1, 135, 38, 38]               0               0
   RecycleNetwork/EfficientNetLite/MBConvBlock                Conv2d-19     [1, 135, 38, 38]           1,215           1,215
   RecycleNetwork/EfficientNetLite/MBConvBlock           BatchNorm2d-20     [1, 135, 38, 38]             270             270
   RecycleNetwork/EfficientNetLite/MBConvBlock                Conv2d-21      [1, 32, 38, 38]           4,320           4,320
   RecycleNetwork/EfficientNetLite/MBConvBlock           BatchNorm2d-22      [1, 32, 38, 38]              64              64
   RecycleNetwork/EfficientNetLite/MBConvBlock                Conv2d-23     [1, 111, 38, 38]           3,552           3,552
   RecycleNetwork/EfficientNetLite/MBConvBlock           BatchNorm2d-24     [1, 111, 38, 38]             222             222
   RecycleNetwork/EfficientNetLite/MBConvBlock                 ReLU6-25     [1, 111, 38, 38]               0               0
   RecycleNetwork/EfficientNetLite/MBConvBlock                Conv2d-26     [1, 111, 38, 38]             999             999
   RecycleNetwork/EfficientNetLite/MBConvBlock           BatchNorm2d-27     [1, 111, 38, 38]             222             222
   RecycleNetwork/EfficientNetLite/MBConvBlock                Conv2d-28      [1, 32, 38, 38]           3,552           3,552
   RecycleNetwork/EfficientNetLite/MBConvBlock           BatchNorm2d-29      [1, 32, 38, 38]              64              64
   RecycleNetwork/EfficientNetLite/MBConvBlock                Conv2d-30      [1, 83, 38, 38]           2,656           2,656
   RecycleNetwork/EfficientNetLite/MBConvBlock           BatchNorm2d-31      [1, 83, 38, 38]             166             166
   RecycleNetwork/EfficientNetLite/MBConvBlock                 ReLU6-32      [1, 83, 38, 38]               0               0
   RecycleNetwork/EfficientNetLite/MBConvBlock                Conv2d-33      [1, 83, 38, 38]             747             747
   RecycleNetwork/EfficientNetLite/MBConvBlock           BatchNorm2d-34      [1, 83, 38, 38]             166             166
   RecycleNetwork/EfficientNetLite/MBConvBlock                Conv2d-35      [1, 32, 38, 38]           2,656           2,656
   RecycleNetwork/EfficientNetLite/MBConvBlock           BatchNorm2d-36      [1, 32, 38, 38]              64              64
   RecycleNetwork/EfficientNetLite/MBConvBlock                Conv2d-37     [1, 182, 38, 38]           5,824           5,824
   RecycleNetwork/EfficientNetLite/MBConvBlock           BatchNorm2d-38     [1, 182, 38, 38]             364             364
   RecycleNetwork/EfficientNetLite/MBConvBlock                 ReLU6-39     [1, 182, 38, 38]               0               0
   RecycleNetwork/EfficientNetLite/MBConvBlock                Conv2d-40     [1, 182, 19, 19]           4,550           4,550
   RecycleNetwork/EfficientNetLite/MBConvBlock           BatchNorm2d-41     [1, 182, 19, 19]             364             364
   RecycleNetwork/EfficientNetLite/MBConvBlock                Conv2d-42      [1, 56, 19, 19]          10,192          10,192
   RecycleNetwork/EfficientNetLite/MBConvBlock           BatchNorm2d-43      [1, 56, 19, 19]             112             112
   RecycleNetwork/EfficientNetLite/MBConvBlock                Conv2d-44     [1, 336, 19, 19]          18,816          18,816
   RecycleNetwork/EfficientNetLite/MBConvBlock           BatchNorm2d-45     [1, 336, 19, 19]             672             672
   RecycleNetwork/EfficientNetLite/MBConvBlock                 ReLU6-46     [1, 336, 19, 19]               0               0
   RecycleNetwork/EfficientNetLite/MBConvBlock                Conv2d-47     [1, 336, 19, 19]           8,400           8,400
   RecycleNetwork/EfficientNetLite/MBConvBlock           BatchNorm2d-48     [1, 336, 19, 19]             672             672
   RecycleNetwork/EfficientNetLite/MBConvBlock                Conv2d-49      [1, 56, 19, 19]          18,816          18,816
   RecycleNetwork/EfficientNetLite/MBConvBlock           BatchNorm2d-50      [1, 56, 19, 19]             112             112
   RecycleNetwork/EfficientNetLite/MBConvBlock                Conv2d-51     [1, 336, 19, 19]          18,816          18,816
   RecycleNetwork/EfficientNetLite/MBConvBlock           BatchNorm2d-52     [1, 336, 19, 19]             672             672
   RecycleNetwork/EfficientNetLite/MBConvBlock                 ReLU6-53     [1, 336, 19, 19]               0               0
   RecycleNetwork/EfficientNetLite/MBConvBlock                Conv2d-54     [1, 336, 19, 19]           8,400           8,400
   RecycleNetwork/EfficientNetLite/MBConvBlock           BatchNorm2d-55     [1, 336, 19, 19]             672             672
   RecycleNetwork/EfficientNetLite/MBConvBlock                Conv2d-56      [1, 56, 19, 19]          18,816          18,816
   RecycleNetwork/EfficientNetLite/MBConvBlock           BatchNorm2d-57      [1, 56, 19, 19]             112             112
   RecycleNetwork/EfficientNetLite/MBConvBlock                Conv2d-58     [1, 336, 19, 19]          18,816          18,816
   RecycleNetwork/EfficientNetLite/MBConvBlock           BatchNorm2d-59     [1, 336, 19, 19]             672             672
   RecycleNetwork/EfficientNetLite/MBConvBlock                 ReLU6-60     [1, 336, 19, 19]               0               0
   RecycleNetwork/EfficientNetLite/MBConvBlock                Conv2d-61     [1, 336, 19, 19]           8,400           8,400
   RecycleNetwork/EfficientNetLite/MBConvBlock           BatchNorm2d-62     [1, 336, 19, 19]             672             672
   RecycleNetwork/EfficientNetLite/MBConvBlock                Conv2d-63      [1, 56, 19, 19]          18,816          18,816
   RecycleNetwork/EfficientNetLite/MBConvBlock           BatchNorm2d-64      [1, 56, 19, 19]             112             112
   RecycleNetwork/EfficientNetLite/MBConvBlock                Conv2d-65     [1, 336, 19, 19]          18,816          18,816
   RecycleNetwork/EfficientNetLite/MBConvBlock           BatchNorm2d-66     [1, 336, 19, 19]             672             672
   RecycleNetwork/EfficientNetLite/MBConvBlock                 ReLU6-67     [1, 336, 19, 19]               0               0
   RecycleNetwork/EfficientNetLite/MBConvBlock                Conv2d-68     [1, 336, 10, 10]           3,024           3,024
…
   RecycleNetwork/EfficientNetLite/MBConvBlock                Conv2d-47     [1, 174, 19, 19]           4,350           4,350
   RecycleNetwork/EfficientNetLite/MBConvBlock           BatchNorm2d-48     [1, 174, 19, 19]             348             348
   RecycleNetwork/EfficientNetLite/MBConvBlock                Conv2d-49      [1, 56, 19, 19]           9,744           9,744
   RecycleNetwork/EfficientNetLite/MBConvBlock           BatchNorm2d-50      [1, 56, 19, 19]             112             112
   RecycleNetwork/EfficientNetLite/MBConvBlock                Conv2d-51     [1, 115, 19, 19]           6,440           6,440
   RecycleNetwork/EfficientNetLite/MBConvBlock           BatchNorm2d-52     [1, 115, 19, 19]             230             230
   RecycleNetwork/EfficientNetLite/MBConvBlock                 ReLU6-53     [1, 115, 19, 19]               0               0
   RecycleNetwork/EfficientNetLite/MBConvBlock                Conv2d-54     [1, 115, 19, 19]           2,875           2,875
   RecycleNetwork/EfficientNetLite/MBConvBlock           BatchNorm2d-55     [1, 115, 19, 19]             230             230
   RecycleNetwork/EfficientNetLite/MBConvBlock                Conv2d-56      [1, 56, 19, 19]           6,440           6,440
   RecycleNetwork/EfficientNetLite/MBConvBlock           BatchNorm2d-57      [1, 56, 19, 19]             112             112
   RecycleNetwork/EfficientNetLite/MBConvBlock                Conv2d-58      [1, 92, 19, 19]           5,152           5,152
   RecycleNetwork/EfficientNetLite/MBConvBlock           BatchNorm2d-59      [1, 92, 19, 19]             184             184
   RecycleNetwork/EfficientNetLite/MBConvBlock                 ReLU6-60      [1, 92, 19, 19]               0               0
   RecycleNetwork/EfficientNetLite/MBConvBlock                Conv2d-61      [1, 92, 19, 19]           2,300           2,300
   RecycleNetwork/EfficientNetLite/MBConvBlock           BatchNorm2d-62      [1, 92, 19, 19]             184             184
   RecycleNetwork/EfficientNetLite/MBConvBlock                Conv2d-63      [1, 56, 19, 19]           5,152           5,152
   RecycleNetwork/EfficientNetLite/MBConvBlock           BatchNorm2d-64      [1, 56, 19, 19]             112             112
   RecycleNetwork/EfficientNetLite/MBConvBlock                Conv2d-65     [1, 309, 19, 19]          17,304          17,304
   RecycleNetwork/EfficientNetLite/MBConvBlock           BatchNorm2d-66     [1, 309, 19, 19]             618             618
   RecycleNetwork/EfficientNetLite/MBConvBlock                 ReLU6-67     [1, 309, 19, 19]               0               0
   RecycleNetwork/EfficientNetLite/MBConvBlock                Conv2d-68     [1, 309, 10, 10]           2,781           2,781
   RecycleNetwork/EfficientNetLite/MBConvBlock           BatchNorm2d-69     [1, 309, 10, 10]             618             618
   RecycleNetwork/EfficientNetLite/MBConvBlock                Conv2d-70     [1, 112, 10, 10]          34,608          34,608
   RecycleNetwork/EfficientNetLite/MBConvBlock           BatchNorm2d-71     [1, 112, 10, 10]             224             224
   RecycleNetwork/EfficientNetLite/MBConvBlock                Conv2d-72      [1, 56, 10, 10]           6,272           6,272
   RecycleNetwork/EfficientNetLite/MBConvBlock           BatchNorm2d-73      [1, 56, 10, 10]             112             112
   RecycleNetwork/EfficientNetLite/MBConvBlock                 ReLU6-74      [1, 56, 10, 10]               0               0
   RecycleNetwork/EfficientNetLite/MBConvBlock                Conv2d-75      [1, 56, 10, 10]             504             504
   RecycleNetwork/EfficientNetLite/MBConvBlock           BatchNorm2d-76      [1, 56, 10, 10]             112             112
   RecycleNetwork/EfficientNetLite/MBConvBlock                Conv2d-77     [1, 112, 10, 10]           6,272           6,272
   RecycleNetwork/EfficientNetLite/MBConvBlock           BatchNorm2d-78     [1, 112, 10, 10]             224             224
   RecycleNetwork/EfficientNetLite/MBConvBlock                Conv2d-79      [1, 34, 10, 10]           3,808           3,808
   RecycleNetwork/EfficientNetLite/MBConvBlock           BatchNorm2d-80      [1, 34, 10, 10]              68              68
   RecycleNetwork/EfficientNetLite/MBConvBlock                 ReLU6-81      [1, 34, 10, 10]               0               0
   RecycleNetwork/EfficientNetLite/MBConvBlock                Conv2d-82      [1, 34, 10, 10]             306             306
   RecycleNetwork/EfficientNetLite/MBConvBlock           BatchNorm2d-83      [1, 34, 10, 10]              68              68
   RecycleNetwork/EfficientNetLite/MBConvBlock                Conv2d-84     [1, 112, 10, 10]           3,808           3,808
   RecycleNetwork/EfficientNetLite/MBConvBlock           BatchNorm2d-85     [1, 112, 10, 10]             224             224
   RecycleNetwork/EfficientNetLite/MBConvBlock                Conv2d-86      [1, 32, 10, 10]           3,584           3,584
   RecycleNetwork/EfficientNetLite/MBConvBlock           BatchNorm2d-87      [1, 32, 10, 10]              64              64
   RecycleNetwork/EfficientNetLite/MBConvBlock                 ReLU6-88      [1, 32, 10, 10]               0               0
   RecycleNetwork/EfficientNetLite/MBConvBlock                Conv2d-89      [1, 32, 10, 10]             288             288
   RecycleNetwork/EfficientNetLite/MBConvBlock           BatchNorm2d-90      [1, 32, 10, 10]              64              64
   RecycleNetwork/EfficientNetLite/MBConvBlock                Conv2d-91     [1, 112, 10, 10]           3,584           3,584
   RecycleNetwork/EfficientNetLite/MBConvBlock           BatchNorm2d-92     [1, 112, 10, 10]             224             224
   RecycleNetwork/EfficientNetLite/MBConvBlock                Conv2d-93      [1, 20, 10, 10]           2,240           2,240
   RecycleNetwork/EfficientNetLite/MBConvBlock           BatchNorm2d-94      [1, 20, 10, 10]              40              40
   RecycleNetwork/EfficientNetLite/MBConvBlock                 ReLU6-95      [1, 20, 10, 10]               0               0
   RecycleNetwork/EfficientNetLite/MBConvBlock                Conv2d-96      [1, 20, 10, 10]             180             180
   RecycleNetwork/EfficientNetLite/MBConvBlock           BatchNorm2d-97      [1, 20, 10, 10]              40              40
   RecycleNetwork/EfficientNetLite/MBConvBlock                Conv2d-98     [1, 112, 10, 10]           2,240           2,240
   RecycleNetwork/EfficientNetLite/MBConvBlock           BatchNorm2d-99     [1, 112, 10, 10]             224             224
   RecycleNetwork/EfficientNetLite/MBConvBlock               Conv2d-100      [1, 15, 10, 10]           1,680           1,680
   RecycleNetwork/EfficientNetLite/MBConvBlock          BatchNorm2d-101      [1, 15, 10, 10]              30              30
   RecycleNetwork/EfficientNetLite/MBConvBlock                ReLU6-102      [1, 15, 10, 10]               0               0
   RecycleNetwork/EfficientNetLite/MBConvBlock               Conv2d-103      [1, 15, 10, 10]             135             135
   RecycleNetwork/EfficientNetLite/MBConvBlock          BatchNorm2d-104      [1, 15, 10, 10]              30              30
   RecycleNetwork/EfficientNetLite/MBConvBlock               Conv2d-105     [1, 112, 10, 10]           1,680           1,680
   RecycleNetwork/EfficientNetLite/MBConvBlock          BatchNorm2d-106     [1, 112, 10, 10]             224             224
   RecycleNetwork/EfficientNetLite/MBConvBlock               Conv2d-107     [1, 612, 10, 10]          68,544          68,544
   RecycleNetwork/EfficientNetLite/MBConvBlock          BatchNorm2d-108     [1, 612, 10, 10]           1,224           1,224
   RecycleNetwork/EfficientNetLite/MBConvBlock                ReLU6-109     [1, 612, 10, 10]               0               0
   RecycleNetwork/EfficientNetLite/MBConvBlock               Conv2d-110     [1, 612, 10, 10]          15,300          15,300
   RecycleNetwork/EfficientNetLite/MBConvBlock          BatchNorm2d-111     [1, 612, 10, 10]           1,224           1,224
   RecycleNetwork/EfficientNetLite/MBConvBlock               Conv2d-112     [1, 160, 10, 10]          97,920          97,920
   RecycleNetwork/EfficientNetLite/MBConvBlock          BatchNorm2d-113     [1, 160, 10, 10]             320             320
   RecycleNetwork/EfficientNetLite/MBConvBlock               Conv2d-114     [1, 144, 10, 10]          23,040          23,040
   RecycleNetwork/EfficientNetLite/MBConvBlock          BatchNorm2d-115     [1, 144, 10, 10]             288             288
   RecycleNetwork/EfficientNetLite/MBConvBlock                ReLU6-116     [1, 144, 10, 10]               0               0
   RecycleNetwork/EfficientNetLite/MBConvBlock               Conv2d-117     [1, 144, 10, 10]           3,600           3,600
   RecycleNetwork/EfficientNetLite/MBConvBlock          BatchNorm2d-118     [1, 144, 10, 10]             288             288
   RecycleNetwork/EfficientNetLite/MBConvBlock               Conv2d-119     [1, 160, 10, 10]          23,040          23,040
   RecycleNetwork/EfficientNetLite/MBConvBlock          BatchNorm2d-120     [1, 160, 10, 10]             320             320
   RecycleNetwork/EfficientNetLite/MBConvBlock               Conv2d-121     [1, 126, 10, 10]          20,160          20,160
   RecycleNetwork/EfficientNetLite/MBConvBlock          BatchNorm2d-122     [1, 126, 10, 10]             252             252
   RecycleNetwork/EfficientNetLite/MBConvBlock                ReLU6-123     [1, 126, 10, 10]               0               0
   RecycleNetwork/EfficientNetLite/MBConvBlock               Conv2d-124     [1, 126, 10, 10]           3,150           3,150
   RecycleNetwork/EfficientNetLite/MBConvBlock          BatchNorm2d-125     [1, 126, 10, 10]             252             252
   RecycleNetwork/EfficientNetLite/MBConvBlock               Conv2d-126     [1, 160, 10, 10]          20,160          20,160
   RecycleNetwork/EfficientNetLite/MBConvBlock          BatchNorm2d-127     [1, 160, 10, 10]             320             320
   RecycleNetwork/EfficientNetLite/MBConvBlock               Conv2d-128     [1, 111, 10, 10]          17,760          17,760
   RecycleNetwork/EfficientNetLite/MBConvBlock          BatchNorm2d-129     [1, 111, 10, 10]             222             222
   RecycleNetwork/EfficientNetLite/MBConvBlock                ReLU6-130     [1, 111, 10, 10]               0               0
   RecycleNetwork/EfficientNetLite/MBConvBlock               Conv2d-131     [1, 111, 10, 10]           2,775           2,775
   RecycleNetwork/EfficientNetLite/MBConvBlock          BatchNorm2d-132     [1, 111, 10, 10]             222             222
   RecycleNetwork/EfficientNetLite/MBConvBlock               Conv2d-133     [1, 160, 10, 10]          17,760          17,760
   RecycleNetwork/EfficientNetLite/MBConvBlock          BatchNorm2d-134     [1, 160, 10, 10]             320             320
   RecycleNetwork/EfficientNetLite/MBConvBlock               Conv2d-135      [1, 99, 10, 10]          15,840          15,840
   RecycleNetwork/EfficientNetLite/MBConvBlock          BatchNorm2d-136      [1, 99, 10, 10]             198             198
   RecycleNetwork/EfficientNetLite/MBConvBlock                ReLU6-137      [1, 99, 10, 10]               0               0
   RecycleNetwork/EfficientNetLite/MBConvBlock               Conv2d-138      [1, 99, 10, 10]           2,475           2,475
   RecycleNetwork/EfficientNetLite/MBConvBlock          BatchNorm2d-139      [1, 99, 10, 10]             198             198
   RecycleNetwork/EfficientNetLite/MBConvBlock               Conv2d-140     [1, 160, 10, 10]          15,840          15,840
   RecycleNetwork/EfficientNetLite/MBConvBlock          BatchNorm2d-141     [1, 160, 10, 10]             320             320
   RecycleNetwork/EfficientNetLite/MBConvBlock               Conv2d-142     [1, 104, 10, 10]          16,640          16,640
   RecycleNetwork/EfficientNetLite/MBConvBlock          BatchNorm2d-143     [1, 104, 10, 10]             208             208
   RecycleNetwork/EfficientNetLite/MBConvBlock                ReLU6-144     [1, 104, 10, 10]               0               0
   RecycleNetwork/EfficientNetLite/MBConvBlock               Conv2d-145     [1, 104, 10, 10]           2,600           2,600
   RecycleNetwork/EfficientNetLite/MBConvBlock          BatchNorm2d-146     [1, 104, 10, 10]             208             208
   RecycleNetwork/EfficientNetLite/MBConvBlock               Conv2d-147     [1, 160, 10, 10]          16,640          16,640
   RecycleNetwork/EfficientNetLite/MBConvBlock          BatchNorm2d-148     [1, 160, 10, 10]             320             320
   RecycleNetwork/EfficientNetLite/MBConvBlock               Conv2d-149     [1, 700, 10, 10]         112,000         112,000
   RecycleNetwork/EfficientNetLite/MBConvBlock          BatchNorm2d-150     [1, 700, 10, 10]           1,400           1,400
   RecycleNetwork/EfficientNetLite/MBConvBlock                ReLU6-151     [1, 700, 10, 10]               0               0
   RecycleNetwork/EfficientNetLite/MBConvBlock               Conv2d-152       [1, 700, 5, 5]          17,500          17,500
   RecycleNetwork/EfficientNetLite/MBConvBlock          BatchNorm2d-153       [1, 700, 5, 5]           1,400           1,400
   RecycleNetwork/EfficientNetLite/MBConvBlock               Conv2d-154       [1, 272, 5, 5]         190,400         190,400
   RecycleNetwork/EfficientNetLite/MBConvBlock          BatchNorm2d-155       [1, 272, 5, 5]             544             544
   RecycleNetwork/EfficientNetLite/MBConvBlock               Conv2d-156       [1, 101, 5, 5]          27,472          27,472
   RecycleNetwork/EfficientNetLite/MBConvBlock          BatchNorm2d-157       [1, 101, 5, 5]             202             202
   RecycleNetwork/EfficientNetLite/MBConvBlock                ReLU6-158       [1, 101, 5, 5]               0               0
   RecycleNetwork/EfficientNetLite/MBConvBlock               Conv2d-159       [1, 101, 5, 5]           2,525           2,525
   RecycleNetwork/EfficientNetLite/MBConvBlock          BatchNorm2d-160       [1, 101, 5, 5]             202             202
   RecycleNetwork/EfficientNetLite/MBConvBlock               Conv2d-161       [1, 272, 5, 5]          27,472          27,472
   RecycleNetwork/EfficientNetLite/MBConvBlock          BatchNorm2d-162       [1, 272, 5, 5]             544             544
   RecycleNetwork/EfficientNetLite/MBConvBlock               Conv2d-163        [1, 95, 5, 5]          25,840          25,840
   RecycleNetwork/EfficientNetLite/MBConvBlock          BatchNorm2d-164        [1, 95, 5, 5]             190             190
   RecycleNetwork/EfficientNetLite/MBConvBlock                ReLU6-165        [1, 95, 5, 5]               0               0
   RecycleNetwork/EfficientNetLite/MBConvBlock               Conv2d-166        [1, 95, 5, 5]           2,375           2,375
   RecycleNetwork/EfficientNetLite/MBConvBlock          BatchNorm2d-167        [1, 95, 5, 5]             190             190
   RecycleNetwork/EfficientNetLite/MBConvBlock               Conv2d-168       [1, 272, 5, 5]          25,840          25,840
   RecycleNetwork/EfficientNetLite/MBConvBlock          BatchNorm2d-169       [1, 272, 5, 5]             544             544
   RecycleNetwork/EfficientNetLite/MBConvBlock               Conv2d-170        [1, 80, 5, 5]          21,760          21,760
   RecycleNetwork/EfficientNetLite/MBConvBlock          BatchNorm2d-171        [1, 80, 5, 5]             160             160
   RecycleNetwork/EfficientNetLite/MBConvBlock                ReLU6-172        [1, 80, 5, 5]               0               0
   RecycleNetwork/EfficientNetLite/MBConvBlock               Conv2d-173        [1, 80, 5, 5]           2,000           2,000
   RecycleNetwork/EfficientNetLite/MBConvBlock          BatchNorm2d-174        [1, 80, 5, 5]             160             160
   RecycleNetwork/EfficientNetLite/MBConvBlock               Conv2d-175       [1, 272, 5, 5]          21,760          21,760
   RecycleNetwork/EfficientNetLite/MBConvBlock          BatchNorm2d-176       [1, 272, 5, 5]             544             544
   RecycleNetwork/EfficientNetLite/MBConvBlock               Conv2d-177        [1, 72, 5, 5]          19,584          19,584
   RecycleNetwork/EfficientNetLite/MBConvBlock          BatchNorm2d-178        [1, 72, 5, 5]             144             144
   RecycleNetwork/EfficientNetLite/MBConvBlock                ReLU6-179        [1, 72, 5, 5]               0               0
   RecycleNetwork/EfficientNetLite/MBConvBlock               Conv2d-180        [1, 72, 5, 5]           1,800           1,800
   RecycleNetwork/EfficientNetLite/MBConvBlock          BatchNorm2d-181        [1, 72, 5, 5]             144             144
   RecycleNetwork/EfficientNetLite/MBConvBlock               Conv2d-182       [1, 272, 5, 5]          19,584          19,584
   RecycleNetwork/EfficientNetLite/MBConvBlock          BatchNorm2d-183       [1, 272, 5, 5]             544             544
   RecycleNetwork/EfficientNetLite/MBConvBlock               Conv2d-184        [1, 77, 5, 5]          20,944          20,944
   RecycleNetwork/EfficientNetLite/MBConvBlock          BatchNorm2d-185        [1, 77, 5, 5]             154             154
   RecycleNetwork/EfficientNetLite/MBConvBlock                ReLU6-186        [1, 77, 5, 5]               0               0
   RecycleNetwork/EfficientNetLite/MBConvBlock               Conv2d-187        [1, 77, 5, 5]           1,925           1,925
   RecycleNetwork/EfficientNetLite/MBConvBlock          BatchNorm2d-188        [1, 77, 5, 5]             154             154
   RecycleNetwork/EfficientNetLite/MBConvBlock               Conv2d-189       [1, 272, 5, 5]          20,944          20,944
   RecycleNetwork/EfficientNetLite/MBConvBlock          BatchNorm2d-190       [1, 272, 5, 5]             544             544
   RecycleNetwork/EfficientNetLite/MBConvBlock               Conv2d-191        [1, 64, 5, 5]          17,408          17,408
   RecycleNetwork/EfficientNetLite/MBConvBlock          BatchNorm2d-192        [1, 64, 5, 5]             128             128
   RecycleNetwork/EfficientNetLite/MBConvBlock                ReLU6-193        [1, 64, 5, 5]               0               0
   RecycleNetwork/EfficientNetLite/MBConvBlock               Conv2d-194        [1, 64, 5, 5]           1,600           1,600
   RecycleNetwork/EfficientNetLite/MBConvBlock          BatchNorm2d-195        [1, 64, 5, 5]             128             128
   RecycleNetwork/EfficientNetLite/MBConvBlock               Conv2d-196       [1, 272, 5, 5]          17,408          17,408
   RecycleNetwork/EfficientNetLite/MBConvBlock          BatchNorm2d-197       [1, 272, 5, 5]             544             544
   RecycleNetwork/EfficientNetLite/MBConvBlock               Conv2d-198        [1, 61, 5, 5]          16,592          16,592
   RecycleNetwork/EfficientNetLite/MBConvBlock          BatchNorm2d-199        [1, 61, 5, 5]             122             122
   RecycleNetwork/EfficientNetLite/MBConvBlock                ReLU6-200        [1, 61, 5, 5]               0               0
   RecycleNetwork/EfficientNetLite/MBConvBlock               Conv2d-201        [1, 61, 5, 5]           1,525           1,525
   RecycleNetwork/EfficientNetLite/MBConvBlock          BatchNorm2d-202        [1, 61, 5, 5]             122             122
   RecycleNetwork/EfficientNetLite/MBConvBlock               Conv2d-203       [1, 272, 5, 5]          16,592          16,592
   RecycleNetwork/EfficientNetLite/MBConvBlock          BatchNorm2d-204       [1, 272, 5, 5]             544             544
   RecycleNetwork/EfficientNetLite/MBConvBlock               Conv2d-205       [1, 145, 5, 5]          39,440          39,440
   RecycleNetwork/EfficientNetLite/MBConvBlock          BatchNorm2d-206       [1, 145, 5, 5]             290             290
   RecycleNetwork/EfficientNetLite/MBConvBlock                ReLU6-207       [1, 145, 5, 5]               0               0
   RecycleNetwork/EfficientNetLite/MBConvBlock               Conv2d-208       [1, 145, 5, 5]           1,305           1,305
   RecycleNetwork/EfficientNetLite/MBConvBlock          BatchNorm2d-209       [1, 145, 5, 5]             290             290
   RecycleNetwork/EfficientNetLite/MBConvBlock               Conv2d-210       [1, 448, 5, 5]          64,960          64,960
   RecycleNetwork/EfficientNetLite/MBConvBlock          BatchNorm2d-211       [1, 448, 5, 5]             896             896
               RecycleNetwork/EfficientNetLite               Conv2d-212      [1, 1280, 5, 5]         573,440         573,440
               RecycleNetwork/EfficientNetLite          BatchNorm2d-213      [1, 1280, 5, 5]           2,560           2,560
               RecycleNetwork/EfficientNetLite                ReLU6-214      [1, 1280, 5, 5]               0               0
               RecycleNetwork/EfficientNetLite    AdaptiveAvgPool2d-215      [1, 1280, 1, 1]               0               0
               RecycleNetwork/EfficientNetLite              Dropout-216            [1, 1280]               0               0
               RecycleNetwork/EfficientNetLite               Linear-217               [1, 5]           6,405           6,405
============================================================================================================================
Total params: 1,928,041
Trainable params: 1,928,041
Non-trainable params: 0
----------------------------------------------------------------------------------------------------------------------------
Training Started
Epoch: 1, Training Loss: 0.214473, Validation Loss: 0.326560, Training Accuracy: 0.978711, Validation Accuracy: 0.916340
…
<bound method ConvPruner.prune_out_channels of <torch_pruning.pruner.function.ConvPruner object at 0x7fa9fca323b0>>
backbone.head.0
0
tensor([True, True, True,  ..., True, True, True])
torch.Size([1280])
torch.Size([1279])
21031
----------------------------------------------------------------------------------------------------------------------------
                                 Parent Layers             Layer (type)         Output Shape         Param #     Tr. Param #
============================================================================================================================
               RecycleNetwork/EfficientNetLite                 Conv2d-1      [1, 22, 75, 75]             594             594
               RecycleNetwork/EfficientNetLite            BatchNorm2d-2      [1, 22, 75, 75]              44              44
               RecycleNetwork/EfficientNetLite                  ReLU6-3      [1, 22, 75, 75]               0               0
   RecycleNetwork/EfficientNetLite/MBConvBlock                 Conv2d-4      [1, 22, 75, 75]             198             198
   RecycleNetwork/EfficientNetLite/MBConvBlock            BatchNorm2d-5      [1, 22, 75, 75]              44              44
   RecycleNetwork/EfficientNetLite/MBConvBlock                  ReLU6-6      [1, 22, 75, 75]               0               0
   RecycleNetwork/EfficientNetLite/MBConvBlock                 Conv2d-7      [1, 24, 75, 75]             528             528
   RecycleNetwork/EfficientNetLite/MBConvBlock            BatchNorm2d-8      [1, 24, 75, 75]              48              48
   RecycleNetwork/EfficientNetLite/MBConvBlock                 Conv2d-9     [1, 135, 75, 75]           3,240           3,240
   RecycleNetwork/EfficientNetLite/MBConvBlock           BatchNorm2d-10     [1, 135, 75, 75]             270             270
   RecycleNetwork/EfficientNetLite/MBConvBlock                 ReLU6-11     [1, 135, 75, 75]               0               0
   RecycleNetwork/EfficientNetLite/MBConvBlock                Conv2d-12     [1, 135, 38, 38]           1,215           1,215
   RecycleNetwork/EfficientNetLite/MBConvBlock           BatchNorm2d-13     [1, 135, 38, 38]             270             270
   RecycleNetwork/EfficientNetLite/MBConvBlock                Conv2d-14      [1, 32, 38, 38]           4,320           4,320
   RecycleNetwork/EfficientNetLite/MBConvBlock           BatchNorm2d-15      [1, 32, 38, 38]              64              64
   RecycleNetwork/EfficientNetLite/MBConvBlock                Conv2d-16     [1, 135, 38, 38]           4,320           4,320
   RecycleNetwork/EfficientNetLite/MBConvBlock           BatchNorm2d-17     [1, 135, 38, 38]             270             270
   RecycleNetwork/EfficientNetLite/MBConvBlock                 ReLU6-18     [1, 135, 38, 38]               0               0
   RecycleNetwork/EfficientNetLite/MBConvBlock                Conv2d-19     [1, 135, 38, 38]           1,215           1,215
   RecycleNetwork/EfficientNetLite/MBConvBlock           BatchNorm2d-20     [1, 135, 38, 38]             270             270
   RecycleNetwork/EfficientNetLite/MBConvBlock                Conv2d-21      [1, 32, 38, 38]           4,320           4,320
   RecycleNetwork/EfficientNetLite/MBConvBlock           BatchNorm2d-22      [1, 32, 38, 38]              64              64
   RecycleNetwork/EfficientNetLite/MBConvBlock                Conv2d-23     [1, 111, 38, 38]           3,552           3,552
   RecycleNetwork/EfficientNetLite/MBConvBlock           BatchNorm2d-24     [1, 111, 38, 38]             222             222
   RecycleNetwork/EfficientNetLite/MBConvBlock                 ReLU6-25     [1, 111, 38, 38]               0               0
   RecycleNetwork/EfficientNetLite/MBConvBlock                Conv2d-26     [1, 111, 38, 38]             999             999
   RecycleNetwork/EfficientNetLite/MBConvBlock           BatchNorm2d-27     [1, 111, 38, 38]             222             222
   RecycleNetwork/EfficientNetLite/MBConvBlock                Conv2d-28      [1, 32, 38, 38]           3,552           3,552
   RecycleNetwork/EfficientNetLite/MBConvBlock           BatchNorm2d-29      [1, 32, 38, 38]              64              64
   RecycleNetwork/EfficientNetLite/MBConvBlock                Conv2d-30      [1, 83, 38, 38]           2,656           2,656
   RecycleNetwork/EfficientNetLite/MBConvBlock           BatchNorm2d-31      [1, 83, 38, 38]             166             166
   RecycleNetwork/EfficientNetLite/MBConvBlock                 ReLU6-32      [1, 83, 38, 38]               0               0
   RecycleNetwork/EfficientNetLite/MBConvBlock                Conv2d-33      [1, 83, 38, 38]             747             747
   RecycleNetwork/EfficientNetLite/MBConvBlock           BatchNorm2d-34      [1, 83, 38, 38]             166             166
   RecycleNetwork/EfficientNetLite/MBConvBlock                Conv2d-35      [1, 32, 38, 38]           2,656           2,656
   RecycleNetwork/EfficientNetLite/MBConvBlock           BatchNorm2d-36      [1, 32, 38, 38]              64              64
   RecycleNetwork/EfficientNetLite/MBConvBlock                Conv2d-37     [1, 182, 38, 38]           5,824           5,824
   RecycleNetwork/EfficientNetLite/MBConvBlock           BatchNorm2d-38     [1, 182, 38, 38]             364             364
   RecycleNetwork/EfficientNetLite/MBConvBlock                 ReLU6-39     [1, 182, 38, 38]               0               0
   RecycleNetwork/EfficientNetLite/MBConvBlock                Conv2d-40     [1, 182, 19, 19]           4,550           4,550
   RecycleNetwork/EfficientNetLite/MBConvBlock           BatchNorm2d-41     [1, 182, 19, 19]             364             364
   RecycleNetwork/EfficientNetLite/MBConvBlock                Conv2d-42      [1, 56, 19, 19]          10,192          10,192
   RecycleNetwork/EfficientNetLite/MBConvBlock           BatchNorm2d-43      [1, 56, 19, 19]             112             112
   RecycleNetwork/EfficientNetLite/MBConvBlock                Conv2d-44     [1, 174, 19, 19]           9,744           9,744
   RecycleNetwork/EfficientNetLite/MBConvBlock           BatchNorm2d-45     [1, 174, 19, 19]             348             348
   RecycleNetwork/EfficientNetLite/MBConvBlock                 ReLU6-46     [1, 174, 19, 19]               0               0
   RecycleNetwork/EfficientNetLite/MBConvBlock                Conv2d-47     [1, 174, 19, 19]           4,350           4,350
   RecycleNetwork/EfficientNetLite/MBConvBlock           BatchNorm2d-48     [1, 174, 19, 19]             348             348
   RecycleNetwork/EfficientNetLite/MBConvBlock                Conv2d-49      [1, 56, 19, 19]           9,744           9,744
   RecycleNetwork/EfficientNetLite/MBConvBlock           BatchNorm2d-50      [1, 56, 19, 19]             112             112
   RecycleNetwork/EfficientNetLite/MBConvBlock                Conv2d-51     [1, 115, 19, 19]           6,440           6,440
   RecycleNetwork/EfficientNetLite/MBConvBlock           BatchNorm2d-52     [1, 115, 19, 19]             230             230
   RecycleNetwork/EfficientNetLite/MBConvBlock                 ReLU6-53     [1, 115, 19, 19]               0               0
   RecycleNetwork/EfficientNetLite/MBConvBlock                Conv2d-54     [1, 115, 19, 19]           2,875           2,875
   RecycleNetwork/EfficientNetLite/MBConvBlock           BatchNorm2d-55     [1, 115, 19, 19]             230             230
   RecycleNetwork/EfficientNetLite/MBConvBlock                Conv2d-56      [1, 56, 19, 19]           6,440           6,440
   RecycleNetwork/EfficientNetLite/MBConvBlock           BatchNorm2d-57      [1, 56, 19, 19]             112             112
   RecycleNetwork/EfficientNetLite/MBConvBlock                Conv2d-58      [1, 92, 19, 19]           5,152           5,152
   RecycleNetwork/EfficientNetLite/MBConvBlock           BatchNorm2d-59      [1, 92, 19, 19]             184             184
   RecycleNetwork/EfficientNetLite/MBConvBlock                 ReLU6-60      [1, 92, 19, 19]               0               0
   RecycleNetwork/EfficientNetLite/MBConvBlock                Conv2d-61      [1, 92, 19, 19]           2,300           2,300
   RecycleNetwork/EfficientNetLite/MBConvBlock           BatchNorm2d-62      [1, 92, 19, 19]             184             184
   RecycleNetwork/EfficientNetLite/MBConvBlock                Conv2d-63      [1, 56, 19, 19]           5,152           5,152
   RecycleNetwork/EfficientNetLite/MBConvBlock           BatchNorm2d-64      [1, 56, 19, 19]             112             112
   RecycleNetwork/EfficientNetLite/MBConvBlock                Conv2d-65     [1, 309, 19, 19]          17,304          17,304
   RecycleNetwork/EfficientNetLite/MBConvBlock           BatchNorm2d-66     [1, 309, 19, 19]             618             618
   RecycleNetwork/EfficientNetLite/MBConvBlock                 ReLU6-67     [1, 309, 19, 19]               0               0
   RecycleNetwork/EfficientNetLite/MBConvBlock                Conv2d-68     [1, 309, 10, 10]           2,781           2,781
   RecycleNetwork/EfficientNetLite/MBConvBlock           BatchNorm2d-69     [1, 309, 10, 10]             618             618
   RecycleNetwork/EfficientNetLite/MBConvBlock                Conv2d-70     [1, 112, 10, 10]          34,608          34,608
   RecycleNetwork/EfficientNetLite/MBConvBlock           BatchNorm2d-71     [1, 112, 10, 10]             224             224
   RecycleNetwork/EfficientNetLite/MBConvBlock                Conv2d-72      [1, 56, 10, 10]           6,272           6,272
   RecycleNetwork/EfficientNetLite/MBConvBlock           BatchNorm2d-73      [1, 56, 10, 10]             112             112
   RecycleNetwork/EfficientNetLite/MBConvBlock                 ReLU6-74      [1, 56, 10, 10]               0               0
   RecycleNetwork/EfficientNetLite/MBConvBlock                Conv2d-75      [1, 56, 10, 10]             504             504
   RecycleNetwork/EfficientNetLite/MBConvBlock           BatchNorm2d-76      [1, 56, 10, 10]             112             112
   RecycleNetwork/EfficientNetLite/MBConvBlock                Conv2d-77     [1, 112, 10, 10]           6,272           6,272
   RecycleNetwork/EfficientNetLite/MBConvBlock           BatchNorm2d-78     [1, 112, 10, 10]             224             224
   RecycleNetwork/EfficientNetLite/MBConvBlock                Conv2d-79      [1, 34, 10, 10]           3,808           3,808
   RecycleNetwork/EfficientNetLite/MBConvBlock           BatchNorm2d-80      [1, 34, 10, 10]              68              68
   RecycleNetwork/EfficientNetLite/MBConvBlock                 ReLU6-81      [1, 34, 10, 10]               0               0
   RecycleNetwork/EfficientNetLite/MBConvBlock                Conv2d-82      [1, 34, 10, 10]             306             306
   RecycleNetwork/EfficientNetLite/MBConvBlock           BatchNorm2d-83      [1, 34, 10, 10]              68              68
   RecycleNetwork/EfficientNetLite/MBConvBlock                Conv2d-84     [1, 112, 10, 10]           3,808           3,808
   RecycleNetwork/EfficientNetLite/MBConvBlock           BatchNorm2d-85     [1, 112, 10, 10]             224             224
   RecycleNetwork/EfficientNetLite/MBConvBlock                Conv2d-86      [1, 32, 10, 10]           3,584           3,584
   RecycleNetwork/EfficientNetLite/MBConvBlock           BatchNorm2d-87      [1, 32, 10, 10]              64              64
   RecycleNetwork/EfficientNetLite/MBConvBlock                 ReLU6-88      [1, 32, 10, 10]               0               0
   RecycleNetwork/EfficientNetLite/MBConvBlock                Conv2d-89      [1, 32, 10, 10]             288             288
   RecycleNetwork/EfficientNetLite/MBConvBlock           BatchNorm2d-90      [1, 32, 10, 10]              64              64
   RecycleNetwork/EfficientNetLite/MBConvBlock                Conv2d-91     [1, 112, 10, 10]           3,584           3,584
   RecycleNetwork/EfficientNetLite/MBConvBlock           BatchNorm2d-92     [1, 112, 10, 10]             224             224
   RecycleNetwork/EfficientNetLite/MBConvBlock                Conv2d-93      [1, 20, 10, 10]           2,240           2,240
   RecycleNetwork/EfficientNetLite/MBConvBlock           BatchNorm2d-94      [1, 20, 10, 10]              40              40
   RecycleNetwork/EfficientNetLite/MBConvBlock                 ReLU6-95      [1, 20, 10, 10]               0               0
   RecycleNetwork/EfficientNetLite/MBConvBlock                Conv2d-96      [1, 20, 10, 10]             180             180
   RecycleNetwork/EfficientNetLite/MBConvBlock           BatchNorm2d-97      [1, 20, 10, 10]              40              40
   RecycleNetwork/EfficientNetLite/MBConvBlock                Conv2d-98     [1, 112, 10, 10]           2,240           2,240
   RecycleNetwork/EfficientNetLite/MBConvBlock           BatchNorm2d-99     [1, 112, 10, 10]             224             224
   RecycleNetwork/EfficientNetLite/MBConvBlock               Conv2d-100      [1, 15, 10, 10]           1,680           1,680
   RecycleNetwork/EfficientNetLite/MBConvBlock          BatchNorm2d-101      [1, 15, 10, 10]              30              30
   RecycleNetwork/EfficientNetLite/MBConvBlock                ReLU6-102      [1, 15, 10, 10]               0               0
   RecycleNetwork/EfficientNetLite/MBConvBlock               Conv2d-103      [1, 15, 10, 10]             135             135
   RecycleNetwork/EfficientNetLite/MBConvBlock          BatchNorm2d-104      [1, 15, 10, 10]              30              30
   RecycleNetwork/EfficientNetLite/MBConvBlock               Conv2d-105     [1, 112, 10, 10]           1,680           1,680
   RecycleNetwork/EfficientNetLite/MBConvBlock          BatchNorm2d-106     [1, 112, 10, 10]             224             224
   RecycleNetwork/EfficientNetLite/MBConvBlock               Conv2d-107     [1, 612, 10, 10]          68,544          68,544
   RecycleNetwork/EfficientNetLite/MBConvBlock          BatchNorm2d-108     [1, 612, 10, 10]           1,224           1,224
   RecycleNetwork/EfficientNetLite/MBConvBlock                ReLU6-109     [1, 612, 10, 10]               0               0
   RecycleNetwork/EfficientNetLite/MBConvBlock               Conv2d-110     [1, 612, 10, 10]          15,300          15,300
   RecycleNetwork/EfficientNetLite/MBConvBlock          BatchNorm2d-111     [1, 612, 10, 10]           1,224           1,224
   RecycleNetwork/EfficientNetLite/MBConvBlock               Conv2d-112     [1, 160, 10, 10]          97,920          97,920
   RecycleNetwork/EfficientNetLite/MBConvBlock          BatchNorm2d-113     [1, 160, 10, 10]             320             320
   RecycleNetwork/EfficientNetLite/MBConvBlock               Conv2d-114     [1, 144, 10, 10]          23,040          23,040
   RecycleNetwork/EfficientNetLite/MBConvBlock          BatchNorm2d-115     [1, 144, 10, 10]             288             288
   RecycleNetwork/EfficientNetLite/MBConvBlock                ReLU6-116     [1, 144, 10, 10]               0               0
   RecycleNetwork/EfficientNetLite/MBConvBlock               Conv2d-117     [1, 144, 10, 10]           3,600           3,600
   RecycleNetwork/EfficientNetLite/MBConvBlock          BatchNorm2d-118     [1, 144, 10, 10]             288             288
   RecycleNetwork/EfficientNetLite/MBConvBlock               Conv2d-119     [1, 160, 10, 10]          23,040          23,040
   RecycleNetwork/EfficientNetLite/MBConvBlock          BatchNorm2d-120     [1, 160, 10, 10]             320             320
   RecycleNetwork/EfficientNetLite/MBConvBlock               Conv2d-121     [1, 126, 10, 10]          20,160          20,160
   RecycleNetwork/EfficientNetLite/MBConvBlock          BatchNorm2d-122     [1, 126, 10, 10]             252             252
   RecycleNetwork/EfficientNetLite/MBConvBlock                ReLU6-123     [1, 126, 10, 10]               0               0
   RecycleNetwork/EfficientNetLite/MBConvBlock               Conv2d-124     [1, 126, 10, 10]           3,150           3,150
   RecycleNetwork/EfficientNetLite/MBConvBlock          BatchNorm2d-125     [1, 126, 10, 10]             252             252
   RecycleNetwork/EfficientNetLite/MBConvBlock               Conv2d-126     [1, 160, 10, 10]          20,160          20,160
   RecycleNetwork/EfficientNetLite/MBConvBlock          BatchNorm2d-127     [1, 160, 10, 10]             320             320
   RecycleNetwork/EfficientNetLite/MBConvBlock               Conv2d-128     [1, 111, 10, 10]          17,760          17,760
   RecycleNetwork/EfficientNetLite/MBConvBlock          BatchNorm2d-129     [1, 111, 10, 10]             222             222
   RecycleNetwork/EfficientNetLite/MBConvBlock                ReLU6-130     [1, 111, 10, 10]               0               0
   RecycleNetwork/EfficientNetLite/MBConvBlock               Conv2d-131     [1, 111, 10, 10]           2,775           2,775
   RecycleNetwork/EfficientNetLite/MBConvBlock          BatchNorm2d-132     [1, 111, 10, 10]             222             222
   RecycleNetwork/EfficientNetLite/MBConvBlock               Conv2d-133     [1, 160, 10, 10]          17,760          17,760
   RecycleNetwork/EfficientNetLite/MBConvBlock          BatchNorm2d-134     [1, 160, 10, 10]             320             320
   RecycleNetwork/EfficientNetLite/MBConvBlock               Conv2d-135      [1, 99, 10, 10]          15,840          15,840
   RecycleNetwork/EfficientNetLite/MBConvBlock          BatchNorm2d-136      [1, 99, 10, 10]             198             198
   RecycleNetwork/EfficientNetLite/MBConvBlock                ReLU6-137      [1, 99, 10, 10]               0               0
   RecycleNetwork/EfficientNetLite/MBConvBlock               Conv2d-138      [1, 99, 10, 10]           2,475           2,475
   RecycleNetwork/EfficientNetLite/MBConvBlock          BatchNorm2d-139      [1, 99, 10, 10]             198             198
   RecycleNetwork/EfficientNetLite/MBConvBlock               Conv2d-140     [1, 160, 10, 10]          15,840          15,840
   RecycleNetwork/EfficientNetLite/MBConvBlock          BatchNorm2d-141     [1, 160, 10, 10]             320             320
   RecycleNetwork/EfficientNetLite/MBConvBlock               Conv2d-142     [1, 104, 10, 10]          16,640          16,640
   RecycleNetwork/EfficientNetLite/MBConvBlock          BatchNorm2d-143     [1, 104, 10, 10]             208             208
   RecycleNetwork/EfficientNetLite/MBConvBlock                ReLU6-144     [1, 104, 10, 10]               0               0
   RecycleNetwork/EfficientNetLite/MBConvBlock               Conv2d-145     [1, 104, 10, 10]           2,600           2,600
   RecycleNetwork/EfficientNetLite/MBConvBlock          BatchNorm2d-146     [1, 104, 10, 10]             208             208
   RecycleNetwork/EfficientNetLite/MBConvBlock               Conv2d-147     [1, 160, 10, 10]          16,640          16,640
   RecycleNetwork/EfficientNetLite/MBConvBlock          BatchNorm2d-148     [1, 160, 10, 10]             320             320
   RecycleNetwork/EfficientNetLite/MBConvBlock               Conv2d-149     [1, 700, 10, 10]         112,000         112,000
   RecycleNetwork/EfficientNetLite/MBConvBlock          BatchNorm2d-150     [1, 700, 10, 10]           1,400           1,400
   RecycleNetwork/EfficientNetLite/MBConvBlock                ReLU6-151     [1, 700, 10, 10]               0               0
   RecycleNetwork/EfficientNetLite/MBConvBlock               Conv2d-152       [1, 700, 5, 5]          17,500          17,500
   RecycleNetwork/EfficientNetLite/MBConvBlock          BatchNorm2d-153       [1, 700, 5, 5]           1,400           1,400
   RecycleNetwork/EfficientNetLite/MBConvBlock               Conv2d-154       [1, 272, 5, 5]         190,400         190,400
   RecycleNetwork/EfficientNetLite/MBConvBlock          BatchNorm2d-155       [1, 272, 5, 5]             544             544
   RecycleNetwork/EfficientNetLite/MBConvBlock               Conv2d-156       [1, 101, 5, 5]          27,472          27,472
   RecycleNetwork/EfficientNetLite/MBConvBlock          BatchNorm2d-157       [1, 101, 5, 5]             202             202
   RecycleNetwork/EfficientNetLite/MBConvBlock                ReLU6-158       [1, 101, 5, 5]               0               0
   RecycleNetwork/EfficientNetLite/MBConvBlock               Conv2d-159       [1, 101, 5, 5]           2,525           2,525
   RecycleNetwork/EfficientNetLite/MBConvBlock          BatchNorm2d-160       [1, 101, 5, 5]             202             202
   RecycleNetwork/EfficientNetLite/MBConvBlock               Conv2d-161       [1, 272, 5, 5]          27,472          27,472
   RecycleNetwork/EfficientNetLite/MBConvBlock          BatchNorm2d-162       [1, 272, 5, 5]             544             544
   RecycleNetwork/EfficientNetLite/MBConvBlock               Conv2d-163        [1, 95, 5, 5]          25,840          25,840
   RecycleNetwork/EfficientNetLite/MBConvBlock          BatchNorm2d-164        [1, 95, 5, 5]             190             190
   RecycleNetwork/EfficientNetLite/MBConvBlock                ReLU6-165        [1, 95, 5, 5]               0               0
   RecycleNetwork/EfficientNetLite/MBConvBlock               Conv2d-166        [1, 95, 5, 5]           2,375           2,375
   RecycleNetwork/EfficientNetLite/MBConvBlock          BatchNorm2d-167        [1, 95, 5, 5]             190             190
   RecycleNetwork/EfficientNetLite/MBConvBlock               Conv2d-168       [1, 272, 5, 5]          25,840          25,840
   RecycleNetwork/EfficientNetLite/MBConvBlock          BatchNorm2d-169       [1, 272, 5, 5]             544             544
   RecycleNetwork/EfficientNetLite/MBConvBlock               Conv2d-170        [1, 80, 5, 5]          21,760          21,760
   RecycleNetwork/EfficientNetLite/MBConvBlock          BatchNorm2d-171        [1, 80, 5, 5]             160             160
   RecycleNetwork/EfficientNetLite/MBConvBlock                ReLU6-172        [1, 80, 5, 5]               0               0
   RecycleNetwork/EfficientNetLite/MBConvBlock               Conv2d-173        [1, 80, 5, 5]           2,000           2,000
   RecycleNetwork/EfficientNetLite/MBConvBlock          BatchNorm2d-174        [1, 80, 5, 5]             160             160
   RecycleNetwork/EfficientNetLite/MBConvBlock               Conv2d-175       [1, 272, 5, 5]          21,760          21,760
   RecycleNetwork/EfficientNetLite/MBConvBlock          BatchNorm2d-176       [1, 272, 5, 5]             544             544
   RecycleNetwork/EfficientNetLite/MBConvBlock               Conv2d-177        [1, 72, 5, 5]          19,584          19,584
   RecycleNetwork/EfficientNetLite/MBConvBlock          BatchNorm2d-178        [1, 72, 5, 5]             144             144
   RecycleNetwork/EfficientNetLite/MBConvBlock                ReLU6-179        [1, 72, 5, 5]               0               0
   RecycleNetwork/EfficientNetLite/MBConvBlock               Conv2d-180        [1, 72, 5, 5]           1,800           1,800
   RecycleNetwork/EfficientNetLite/MBConvBlock          BatchNorm2d-181        [1, 72, 5, 5]             144             144
   RecycleNetwork/EfficientNetLite/MBConvBlock               Conv2d-182       [1, 272, 5, 5]          19,584          19,584
   RecycleNetwork/EfficientNetLite/MBConvBlock          BatchNorm2d-183       [1, 272, 5, 5]             544             544
   RecycleNetwork/EfficientNetLite/MBConvBlock               Conv2d-184        [1, 77, 5, 5]          20,944          20,944
   RecycleNetwork/EfficientNetLite/MBConvBlock          BatchNorm2d-185        [1, 77, 5, 5]             154             154
   RecycleNetwork/EfficientNetLite/MBConvBlock                ReLU6-186        [1, 77, 5, 5]               0               0
   RecycleNetwork/EfficientNetLite/MBConvBlock               Conv2d-187        [1, 77, 5, 5]           1,925           1,925
   RecycleNetwork/EfficientNetLite/MBConvBlock          BatchNorm2d-188        [1, 77, 5, 5]             154             154
   RecycleNetwork/EfficientNetLite/MBConvBlock               Conv2d-189       [1, 272, 5, 5]          20,944          20,944
   RecycleNetwork/EfficientNetLite/MBConvBlock          BatchNorm2d-190       [1, 272, 5, 5]             544             544
   RecycleNetwork/EfficientNetLite/MBConvBlock               Conv2d-191        [1, 64, 5, 5]          17,408          17,408
   RecycleNetwork/EfficientNetLite/MBConvBlock          BatchNorm2d-192        [1, 64, 5, 5]             128             128
   RecycleNetwork/EfficientNetLite/MBConvBlock                ReLU6-193        [1, 64, 5, 5]               0               0
   RecycleNetwork/EfficientNetLite/MBConvBlock               Conv2d-194        [1, 64, 5, 5]           1,600           1,600
   RecycleNetwork/EfficientNetLite/MBConvBlock          BatchNorm2d-195        [1, 64, 5, 5]             128             128
   RecycleNetwork/EfficientNetLite/MBConvBlock               Conv2d-196       [1, 272, 5, 5]          17,408          17,408
   RecycleNetwork/EfficientNetLite/MBConvBlock          BatchNorm2d-197       [1, 272, 5, 5]             544             544
   RecycleNetwork/EfficientNetLite/MBConvBlock               Conv2d-198        [1, 61, 5, 5]          16,592          16,592
   RecycleNetwork/EfficientNetLite/MBConvBlock          BatchNorm2d-199        [1, 61, 5, 5]             122             122
   RecycleNetwork/EfficientNetLite/MBConvBlock                ReLU6-200        [1, 61, 5, 5]               0               0
   RecycleNetwork/EfficientNetLite/MBConvBlock               Conv2d-201        [1, 61, 5, 5]           1,525           1,525
   RecycleNetwork/EfficientNetLite/MBConvBlock          BatchNorm2d-202        [1, 61, 5, 5]             122             122
   RecycleNetwork/EfficientNetLite/MBConvBlock               Conv2d-203       [1, 272, 5, 5]          16,592          16,592
   RecycleNetwork/EfficientNetLite/MBConvBlock          BatchNorm2d-204       [1, 272, 5, 5]             544             544
   RecycleNetwork/EfficientNetLite/MBConvBlock               Conv2d-205       [1, 145, 5, 5]          39,440          39,440
   RecycleNetwork/EfficientNetLite/MBConvBlock          BatchNorm2d-206       [1, 145, 5, 5]             290             290
   RecycleNetwork/EfficientNetLite/MBConvBlock                ReLU6-207       [1, 145, 5, 5]               0               0
   RecycleNetwork/EfficientNetLite/MBConvBlock               Conv2d-208       [1, 145, 5, 5]           1,305           1,305
   RecycleNetwork/EfficientNetLite/MBConvBlock          BatchNorm2d-209       [1, 145, 5, 5]             290             290
   RecycleNetwork/EfficientNetLite/MBConvBlock               Conv2d-210       [1, 448, 5, 5]          64,960          64,960
   RecycleNetwork/EfficientNetLite/MBConvBlock          BatchNorm2d-211       [1, 448, 5, 5]             896             896
               RecycleNetwork/EfficientNetLite               Conv2d-212      [1, 1279, 5, 5]         572,992         572,992
               RecycleNetwork/EfficientNetLite          BatchNorm2d-213      [1, 1279, 5, 5]           2,558           2,558
               RecycleNetwork/EfficientNetLite                ReLU6-214      [1, 1279, 5, 5]               0               0
               RecycleNetwork/EfficientNetLite    AdaptiveAvgPool2d-215      [1, 1279, 1, 1]               0               0
               RecycleNetwork/EfficientNetLite              Dropout-216            [1, 1279]               0               0
               RecycleNetwork/EfficientNetLite               Linear-217               [1, 5]           6,400           6,400
============================================================================================================================
Total params: 1,927,586
Trainable params: 1,927,586
Non-trainable params: 0
----------------------------------------------------------------------------------------------------------------------------
Training Started
Epoch: 1, Training Loss: 0.215357, Validation Loss: 0.311829, Training Accuracy: 0.978214, Validation Accuracy: 0.919701
…
