----------------------------------------------------------------------------------------------------------------------------
                                 Parent Layers             Layer (type)         Output Shape         Param #     Tr. Param #
============================================================================================================================
               RecycleNetwork/EfficientNetLite                 Conv2d-1      [1, 32, 75, 75]             864             864
               RecycleNetwork/EfficientNetLite            BatchNorm2d-2      [1, 32, 75, 75]              64              64
               RecycleNetwork/EfficientNetLite                  ReLU6-3      [1, 32, 75, 75]               0               0
   RecycleNetwork/EfficientNetLite/MBConvBlock                 Conv2d-4      [1, 32, 75, 75]             288             288
   RecycleNetwork/EfficientNetLite/MBConvBlock            BatchNorm2d-5      [1, 32, 75, 75]              64              64
   RecycleNetwork/EfficientNetLite/MBConvBlock                  ReLU6-6      [1, 32, 75, 75]               0               0
   RecycleNetwork/EfficientNetLite/MBConvBlock                 Conv2d-7      [1, 16, 75, 75]             512             512
   RecycleNetwork/EfficientNetLite/MBConvBlock            BatchNorm2d-8      [1, 16, 75, 75]              32              32
   RecycleNetwork/EfficientNetLite/MBConvBlock                 Conv2d-9      [1, 96, 75, 75]           1,536           1,536
   RecycleNetwork/EfficientNetLite/MBConvBlock           BatchNorm2d-10      [1, 96, 75, 75]             192             192
   RecycleNetwork/EfficientNetLite/MBConvBlock                 ReLU6-11      [1, 96, 75, 75]               0               0
   RecycleNetwork/EfficientNetLite/MBConvBlock                Conv2d-12      [1, 96, 38, 38]             864             864
   RecycleNetwork/EfficientNetLite/MBConvBlock           BatchNorm2d-13      [1, 96, 38, 38]             192             192
   RecycleNetwork/EfficientNetLite/MBConvBlock                Conv2d-14      [1, 24, 38, 38]           2,304           2,304
   RecycleNetwork/EfficientNetLite/MBConvBlock           BatchNorm2d-15      [1, 24, 38, 38]              48              48
   RecycleNetwork/EfficientNetLite/MBConvBlock                Conv2d-16     [1, 144, 38, 38]           3,456           3,456
   RecycleNetwork/EfficientNetLite/MBConvBlock           BatchNorm2d-17     [1, 144, 38, 38]             288             288
   RecycleNetwork/EfficientNetLite/MBConvBlock                 ReLU6-18     [1, 144, 38, 38]               0               0
   RecycleNetwork/EfficientNetLite/MBConvBlock                Conv2d-19     [1, 144, 38, 38]           1,296           1,296
   RecycleNetwork/EfficientNetLite/MBConvBlock           BatchNorm2d-20     [1, 144, 38, 38]             288             288
   RecycleNetwork/EfficientNetLite/MBConvBlock                Conv2d-21      [1, 24, 38, 38]           3,456           3,456
   RecycleNetwork/EfficientNetLite/MBConvBlock           BatchNorm2d-22      [1, 24, 38, 38]              48              48
   RecycleNetwork/EfficientNetLite/MBConvBlock                Conv2d-23     [1, 144, 38, 38]           3,456           3,456
   RecycleNetwork/EfficientNetLite/MBConvBlock           BatchNorm2d-24     [1, 144, 38, 38]             288             288
   RecycleNetwork/EfficientNetLite/MBConvBlock                 ReLU6-25     [1, 144, 38, 38]               0               0
   RecycleNetwork/EfficientNetLite/MBConvBlock                Conv2d-26     [1, 144, 19, 19]           3,600           3,600
   RecycleNetwork/EfficientNetLite/MBConvBlock           BatchNorm2d-27     [1, 144, 19, 19]             288             288
   RecycleNetwork/EfficientNetLite/MBConvBlock                Conv2d-28      [1, 40, 19, 19]           5,760           5,760
   RecycleNetwork/EfficientNetLite/MBConvBlock           BatchNorm2d-29      [1, 40, 19, 19]              80              80
   RecycleNetwork/EfficientNetLite/MBConvBlock                Conv2d-30     [1, 240, 19, 19]           9,600           9,600
   RecycleNetwork/EfficientNetLite/MBConvBlock           BatchNorm2d-31     [1, 240, 19, 19]             480             480
   RecycleNetwork/EfficientNetLite/MBConvBlock                 ReLU6-32     [1, 240, 19, 19]               0               0
   RecycleNetwork/EfficientNetLite/MBConvBlock                Conv2d-33     [1, 240, 19, 19]           6,000           6,000
   RecycleNetwork/EfficientNetLite/MBConvBlock           BatchNorm2d-34     [1, 240, 19, 19]             480             480
   RecycleNetwork/EfficientNetLite/MBConvBlock                Conv2d-35      [1, 40, 19, 19]           9,600           9,600
   RecycleNetwork/EfficientNetLite/MBConvBlock           BatchNorm2d-36      [1, 40, 19, 19]              80              80
   RecycleNetwork/EfficientNetLite/MBConvBlock                Conv2d-37     [1, 240, 19, 19]           9,600           9,600
   RecycleNetwork/EfficientNetLite/MBConvBlock           BatchNorm2d-38     [1, 240, 19, 19]             480             480
   RecycleNetwork/EfficientNetLite/MBConvBlock                 ReLU6-39     [1, 240, 19, 19]               0               0
   RecycleNetwork/EfficientNetLite/MBConvBlock                Conv2d-40     [1, 240, 10, 10]           2,160           2,160
   RecycleNetwork/EfficientNetLite/MBConvBlock           BatchNorm2d-41     [1, 240, 10, 10]             480             480
   RecycleNetwork/EfficientNetLite/MBConvBlock                Conv2d-42      [1, 80, 10, 10]          19,200          19,200
   RecycleNetwork/EfficientNetLite/MBConvBlock           BatchNorm2d-43      [1, 80, 10, 10]             160             160
   RecycleNetwork/EfficientNetLite/MBConvBlock                Conv2d-44     [1, 480, 10, 10]          38,400          38,400
   RecycleNetwork/EfficientNetLite/MBConvBlock           BatchNorm2d-45     [1, 480, 10, 10]             960             960
   RecycleNetwork/EfficientNetLite/MBConvBlock                 ReLU6-46     [1, 480, 10, 10]               0               0
   RecycleNetwork/EfficientNetLite/MBConvBlock                Conv2d-47     [1, 480, 10, 10]           4,320           4,320
   RecycleNetwork/EfficientNetLite/MBConvBlock           BatchNorm2d-48     [1, 480, 10, 10]             960             960
   RecycleNetwork/EfficientNetLite/MBConvBlock                Conv2d-49      [1, 80, 10, 10]          38,400          38,400
   RecycleNetwork/EfficientNetLite/MBConvBlock           BatchNorm2d-50      [1, 80, 10, 10]             160             160
   RecycleNetwork/EfficientNetLite/MBConvBlock                Conv2d-51     [1, 480, 10, 10]          38,400          38,400
   RecycleNetwork/EfficientNetLite/MBConvBlock           BatchNorm2d-52     [1, 480, 10, 10]             960             960
   RecycleNetwork/EfficientNetLite/MBConvBlock                 ReLU6-53     [1, 480, 10, 10]               0               0
   RecycleNetwork/EfficientNetLite/MBConvBlock                Conv2d-54     [1, 480, 10, 10]           4,320           4,320
   RecycleNetwork/EfficientNetLite/MBConvBlock           BatchNorm2d-55     [1, 480, 10, 10]             960             960
   RecycleNetwork/EfficientNetLite/MBConvBlock                Conv2d-56      [1, 80, 10, 10]          38,400          38,400
   RecycleNetwork/EfficientNetLite/MBConvBlock           BatchNorm2d-57      [1, 80, 10, 10]             160             160
   RecycleNetwork/EfficientNetLite/MBConvBlock                Conv2d-58     [1, 480, 10, 10]          38,400          38,400
   RecycleNetwork/EfficientNetLite/MBConvBlock           BatchNorm2d-59     [1, 480, 10, 10]             960             960
   RecycleNetwork/EfficientNetLite/MBConvBlock                 ReLU6-60     [1, 480, 10, 10]               0               0
   RecycleNetwork/EfficientNetLite/MBConvBlock                Conv2d-61     [1, 480, 10, 10]          12,000          12,000
   RecycleNetwork/EfficientNetLite/MBConvBlock           BatchNorm2d-62     [1, 480, 10, 10]             960             960
   RecycleNetwork/EfficientNetLite/MBConvBlock                Conv2d-63     [1, 112, 10, 10]          53,760          53,760
   RecycleNetwork/EfficientNetLite/MBConvBlock           BatchNorm2d-64     [1, 112, 10, 10]             224             224
   RecycleNetwork/EfficientNetLite/MBConvBlock                Conv2d-65     [1, 672, 10, 10]          75,264          75,264
   RecycleNetwork/EfficientNetLite/MBConvBlock           BatchNorm2d-66     [1, 672, 10, 10]           1,344           1,344
   RecycleNetwork/EfficientNetLite/MBConvBlock                 ReLU6-67     [1, 672, 10, 10]               0               0
   RecycleNetwork/EfficientNetLite/MBConvBlock                Conv2d-68     [1, 672, 10, 10]          16,800          16,800
   RecycleNetwork/EfficientNetLite/MBConvBlock           BatchNorm2d-69     [1, 672, 10, 10]           1,344           1,344
   RecycleNetwork/EfficientNetLite/MBConvBlock                Conv2d-70     [1, 112, 10, 10]          75,264          75,264
   RecycleNetwork/EfficientNetLite/MBConvBlock           BatchNorm2d-71     [1, 112, 10, 10]             224             224
   RecycleNetwork/EfficientNetLite/MBConvBlock                Conv2d-72     [1, 672, 10, 10]          75,264          75,264
   RecycleNetwork/EfficientNetLite/MBConvBlock           BatchNorm2d-73     [1, 672, 10, 10]           1,344           1,344
   RecycleNetwork/EfficientNetLite/MBConvBlock                 ReLU6-74     [1, 672, 10, 10]               0               0
   RecycleNetwork/EfficientNetLite/MBConvBlock                Conv2d-75     [1, 672, 10, 10]          16,800          16,800
   RecycleNetwork/EfficientNetLite/MBConvBlock           BatchNorm2d-76     [1, 672, 10, 10]           1,344           1,344
   RecycleNetwork/EfficientNetLite/MBConvBlock                Conv2d-77     [1, 112, 10, 10]          75,264          75,264
   RecycleNetwork/EfficientNetLite/MBConvBlock           BatchNorm2d-78     [1, 112, 10, 10]             224             224
   RecycleNetwork/EfficientNetLite/MBConvBlock                Conv2d-79     [1, 672, 10, 10]          75,264          75,264
   RecycleNetwork/EfficientNetLite/MBConvBlock           BatchNorm2d-80     [1, 672, 10, 10]           1,344           1,344
   RecycleNetwork/EfficientNetLite/MBConvBlock                 ReLU6-81     [1, 672, 10, 10]               0               0
   RecycleNetwork/EfficientNetLite/MBConvBlock                Conv2d-82       [1, 672, 5, 5]          16,800          16,800
   RecycleNetwork/EfficientNetLite/MBConvBlock           BatchNorm2d-83       [1, 672, 5, 5]           1,344           1,344
   RecycleNetwork/EfficientNetLite/MBConvBlock                Conv2d-84       [1, 192, 5, 5]         129,024         129,024
   RecycleNetwork/EfficientNetLite/MBConvBlock           BatchNorm2d-85       [1, 192, 5, 5]             384             384
   RecycleNetwork/EfficientNetLite/MBConvBlock                Conv2d-86      [1, 1152, 5, 5]         221,184         221,184
   RecycleNetwork/EfficientNetLite/MBConvBlock           BatchNorm2d-87      [1, 1152, 5, 5]           2,304           2,304
   RecycleNetwork/EfficientNetLite/MBConvBlock                 ReLU6-88      [1, 1152, 5, 5]               0               0
   RecycleNetwork/EfficientNetLite/MBConvBlock                Conv2d-89      [1, 1152, 5, 5]          28,800          28,800
   RecycleNetwork/EfficientNetLite/MBConvBlock           BatchNorm2d-90      [1, 1152, 5, 5]           2,304           2,304
   RecycleNetwork/EfficientNetLite/MBConvBlock                Conv2d-91       [1, 192, 5, 5]         221,184         221,184
   RecycleNetwork/EfficientNetLite/MBConvBlock           BatchNorm2d-92       [1, 192, 5, 5]             384             384
   RecycleNetwork/EfficientNetLite/MBConvBlock                Conv2d-93      [1, 1152, 5, 5]         221,184         221,184
   RecycleNetwork/EfficientNetLite/MBConvBlock           BatchNorm2d-94      [1, 1152, 5, 5]           2,304           2,304
   RecycleNetwork/EfficientNetLite/MBConvBlock                 ReLU6-95      [1, 1152, 5, 5]               0               0
   RecycleNetwork/EfficientNetLite/MBConvBlock                Conv2d-96      [1, 1152, 5, 5]          28,800          28,800
   RecycleNetwork/EfficientNetLite/MBConvBlock           BatchNorm2d-97      [1, 1152, 5, 5]           2,304           2,304
   RecycleNetwork/EfficientNetLite/MBConvBlock                Conv2d-98       [1, 192, 5, 5]         221,184         221,184
   RecycleNetwork/EfficientNetLite/MBConvBlock           BatchNorm2d-99       [1, 192, 5, 5]             384             384
   RecycleNetwork/EfficientNetLite/MBConvBlock               Conv2d-100      [1, 1152, 5, 5]         221,184         221,184
   RecycleNetwork/EfficientNetLite/MBConvBlock          BatchNorm2d-101      [1, 1152, 5, 5]           2,304           2,304
   RecycleNetwork/EfficientNetLite/MBConvBlock                ReLU6-102      [1, 1152, 5, 5]               0               0
   RecycleNetwork/EfficientNetLite/MBConvBlock               Conv2d-103      [1, 1152, 5, 5]          28,800          28,800
   RecycleNetwork/EfficientNetLite/MBConvBlock          BatchNorm2d-104      [1, 1152, 5, 5]           2,304           2,304
   RecycleNetwork/EfficientNetLite/MBConvBlock               Conv2d-105       [1, 192, 5, 5]         221,184         221,184
   RecycleNetwork/EfficientNetLite/MBConvBlock          BatchNorm2d-106       [1, 192, 5, 5]             384             384
   RecycleNetwork/EfficientNetLite/MBConvBlock               Conv2d-107      [1, 1152, 5, 5]         221,184         221,184
   RecycleNetwork/EfficientNetLite/MBConvBlock          BatchNorm2d-108      [1, 1152, 5, 5]           2,304           2,304
   RecycleNetwork/EfficientNetLite/MBConvBlock                ReLU6-109      [1, 1152, 5, 5]               0               0
   RecycleNetwork/EfficientNetLite/MBConvBlock               Conv2d-110      [1, 1152, 5, 5]          10,368          10,368
   RecycleNetwork/EfficientNetLite/MBConvBlock          BatchNorm2d-111      [1, 1152, 5, 5]           2,304           2,304
   RecycleNetwork/EfficientNetLite/MBConvBlock               Conv2d-112       [1, 320, 5, 5]         368,640         368,640
   RecycleNetwork/EfficientNetLite/MBConvBlock          BatchNorm2d-113       [1, 320, 5, 5]             640             640
               RecycleNetwork/EfficientNetLite               Conv2d-114      [1, 1280, 5, 5]         409,600         409,600
               RecycleNetwork/EfficientNetLite          BatchNorm2d-115      [1, 1280, 5, 5]           2,560           2,560
               RecycleNetwork/EfficientNetLite                ReLU6-116      [1, 1280, 5, 5]               0               0
               RecycleNetwork/EfficientNetLite    AdaptiveAvgPool2d-117      [1, 1280, 1, 1]               0               0
               RecycleNetwork/EfficientNetLite              Dropout-118            [1, 1280]               0               0
               RecycleNetwork/EfficientNetLite               Linear-119               [1, 5]           6,405           6,405
============================================================================================================================
Total params: 3,377,413
Trainable params: 3,377,413
Non-trainable params: 0
----------------------------------------------------------------------------------------------------------------------------
17
tensor([2, 2, 0, 3, 2, 3, 0, 2, 2, 2, 2, 2, 1, 2, 3, 2, 0, 0, 2, 2, 4, 2, 2, 2,
…
tensor([True, True, True, True, True, True, True, True, True, True, True, True,
        True, True, True, True])
torch.Size([16])
torch.Size([16])
Starting Training Cycle
----------------------------------------------------------------------------------------------------------------------------
                                 Parent Layers             Layer (type)         Output Shape         Param #     Tr. Param #
============================================================================================================================
               RecycleNetwork/EfficientNetLite                 Conv2d-1      [1, 27, 75, 75]             729             729
               RecycleNetwork/EfficientNetLite            BatchNorm2d-2      [1, 27, 75, 75]              54              54
               RecycleNetwork/EfficientNetLite                  ReLU6-3      [1, 27, 75, 75]               0               0
   RecycleNetwork/EfficientNetLite/MBConvBlock                 Conv2d-4      [1, 27, 75, 75]             243             243
   RecycleNetwork/EfficientNetLite/MBConvBlock            BatchNorm2d-5      [1, 27, 75, 75]              54              54
   RecycleNetwork/EfficientNetLite/MBConvBlock                  ReLU6-6      [1, 27, 75, 75]               0               0
   RecycleNetwork/EfficientNetLite/MBConvBlock                 Conv2d-7      [1, 16, 75, 75]             432             432
   RecycleNetwork/EfficientNetLite/MBConvBlock            BatchNorm2d-8      [1, 16, 75, 75]              32              32
   RecycleNetwork/EfficientNetLite/MBConvBlock                 Conv2d-9      [1, 96, 75, 75]           1,536           1,536
   RecycleNetwork/EfficientNetLite/MBConvBlock           BatchNorm2d-10      [1, 96, 75, 75]             192             192
   RecycleNetwork/EfficientNetLite/MBConvBlock                 ReLU6-11      [1, 96, 75, 75]               0               0
   RecycleNetwork/EfficientNetLite/MBConvBlock                Conv2d-12      [1, 96, 38, 38]             864             864
   RecycleNetwork/EfficientNetLite/MBConvBlock           BatchNorm2d-13      [1, 96, 38, 38]             192             192
   RecycleNetwork/EfficientNetLite/MBConvBlock                Conv2d-14      [1, 24, 38, 38]           2,304           2,304
   RecycleNetwork/EfficientNetLite/MBConvBlock           BatchNorm2d-15      [1, 24, 38, 38]              48              48
   RecycleNetwork/EfficientNetLite/MBConvBlock                Conv2d-16     [1, 144, 38, 38]           3,456           3,456
   RecycleNetwork/EfficientNetLite/MBConvBlock           BatchNorm2d-17     [1, 144, 38, 38]             288             288
   RecycleNetwork/EfficientNetLite/MBConvBlock                 ReLU6-18     [1, 144, 38, 38]               0               0
   RecycleNetwork/EfficientNetLite/MBConvBlock                Conv2d-19     [1, 144, 38, 38]           1,296           1,296
   RecycleNetwork/EfficientNetLite/MBConvBlock           BatchNorm2d-20     [1, 144, 38, 38]             288             288
   RecycleNetwork/EfficientNetLite/MBConvBlock                Conv2d-21      [1, 24, 38, 38]           3,456           3,456
   RecycleNetwork/EfficientNetLite/MBConvBlock           BatchNorm2d-22      [1, 24, 38, 38]              48              48
   RecycleNetwork/EfficientNetLite/MBConvBlock                Conv2d-23     [1, 144, 38, 38]           3,456           3,456
   RecycleNetwork/EfficientNetLite/MBConvBlock           BatchNorm2d-24     [1, 144, 38, 38]             288             288
   RecycleNetwork/EfficientNetLite/MBConvBlock                 ReLU6-25     [1, 144, 38, 38]               0               0
   RecycleNetwork/EfficientNetLite/MBConvBlock                Conv2d-26     [1, 144, 19, 19]           3,600           3,600
   RecycleNetwork/EfficientNetLite/MBConvBlock           BatchNorm2d-27     [1, 144, 19, 19]             288             288
   RecycleNetwork/EfficientNetLite/MBConvBlock                Conv2d-28      [1, 40, 19, 19]           5,760           5,760
   RecycleNetwork/EfficientNetLite/MBConvBlock           BatchNorm2d-29      [1, 40, 19, 19]              80              80
   RecycleNetwork/EfficientNetLite/MBConvBlock                Conv2d-30     [1, 240, 19, 19]           9,600           9,600
   RecycleNetwork/EfficientNetLite/MBConvBlock           BatchNorm2d-31     [1, 240, 19, 19]             480             480
   RecycleNetwork/EfficientNetLite/MBConvBlock                 ReLU6-32     [1, 240, 19, 19]               0               0
   RecycleNetwork/EfficientNetLite/MBConvBlock                Conv2d-33     [1, 240, 19, 19]           6,000           6,000
   RecycleNetwork/EfficientNetLite/MBConvBlock           BatchNorm2d-34     [1, 240, 19, 19]             480             480
   RecycleNetwork/EfficientNetLite/MBConvBlock                Conv2d-35      [1, 40, 19, 19]           9,600           9,600
   RecycleNetwork/EfficientNetLite/MBConvBlock           BatchNorm2d-36      [1, 40, 19, 19]              80              80
   RecycleNetwork/EfficientNetLite/MBConvBlock                Conv2d-37     [1, 240, 19, 19]           9,600           9,600
   RecycleNetwork/EfficientNetLite/MBConvBlock           BatchNorm2d-38     [1, 240, 19, 19]             480             480
   RecycleNetwork/EfficientNetLite/MBConvBlock                 ReLU6-39     [1, 240, 19, 19]               0               0
   RecycleNetwork/EfficientNetLite/MBConvBlock                Conv2d-40     [1, 240, 10, 10]           2,160           2,160
   RecycleNetwork/EfficientNetLite/MBConvBlock           BatchNorm2d-41     [1, 240, 10, 10]             480             480
   RecycleNetwork/EfficientNetLite/MBConvBlock                Conv2d-42      [1, 80, 10, 10]          19,200          19,200
   RecycleNetwork/EfficientNetLite/MBConvBlock           BatchNorm2d-43      [1, 80, 10, 10]             160             160
   RecycleNetwork/EfficientNetLite/MBConvBlock                Conv2d-44     [1, 480, 10, 10]          38,400          38,400
   RecycleNetwork/EfficientNetLite/MBConvBlock           BatchNorm2d-45     [1, 480, 10, 10]             960             960
   RecycleNetwork/EfficientNetLite/MBConvBlock                 ReLU6-46     [1, 480, 10, 10]               0               0
   RecycleNetwork/EfficientNetLite/MBConvBlock                Conv2d-47     [1, 480, 10, 10]           4,320           4,320
   RecycleNetwork/EfficientNetLite/MBConvBlock           BatchNorm2d-48     [1, 480, 10, 10]             960             960
   RecycleNetwork/EfficientNetLite/MBConvBlock                Conv2d-49      [1, 80, 10, 10]          38,400          38,400
   RecycleNetwork/EfficientNetLite/MBConvBlock           BatchNorm2d-50      [1, 80, 10, 10]             160             160
   RecycleNetwork/EfficientNetLite/MBConvBlock                Conv2d-51     [1, 480, 10, 10]          38,400          38,400
   RecycleNetwork/EfficientNetLite/MBConvBlock           BatchNorm2d-52     [1, 480, 10, 10]             960             960
   RecycleNetwork/EfficientNetLite/MBConvBlock                 ReLU6-53     [1, 480, 10, 10]               0               0
   RecycleNetwork/EfficientNetLite/MBConvBlock                Conv2d-54     [1, 480, 10, 10]           4,320           4,320
   RecycleNetwork/EfficientNetLite/MBConvBlock           BatchNorm2d-55     [1, 480, 10, 10]             960             960
   RecycleNetwork/EfficientNetLite/MBConvBlock                Conv2d-56      [1, 80, 10, 10]          38,400          38,400
   RecycleNetwork/EfficientNetLite/MBConvBlock           BatchNorm2d-57      [1, 80, 10, 10]             160             160
   RecycleNetwork/EfficientNetLite/MBConvBlock                Conv2d-58     [1, 480, 10, 10]          38,400          38,400
   RecycleNetwork/EfficientNetLite/MBConvBlock           BatchNorm2d-59     [1, 480, 10, 10]             960             960
   RecycleNetwork/EfficientNetLite/MBConvBlock                 ReLU6-60     [1, 480, 10, 10]               0               0
   RecycleNetwork/EfficientNetLite/MBConvBlock                Conv2d-61     [1, 480, 10, 10]          12,000          12,000
   RecycleNetwork/EfficientNetLite/MBConvBlock           BatchNorm2d-62     [1, 480, 10, 10]             960             960
   RecycleNetwork/EfficientNetLite/MBConvBlock                Conv2d-63     [1, 112, 10, 10]          53,760          53,760
   RecycleNetwork/EfficientNetLite/MBConvBlock           BatchNorm2d-64     [1, 112, 10, 10]             224             224
   RecycleNetwork/EfficientNetLite/MBConvBlock                Conv2d-65     [1, 672, 10, 10]          75,264          75,264
   RecycleNetwork/EfficientNetLite/MBConvBlock           BatchNorm2d-66     [1, 672, 10, 10]           1,344           1,344
   RecycleNetwork/EfficientNetLite/MBConvBlock                 ReLU6-67     [1, 672, 10, 10]               0               0
   RecycleNetwork/EfficientNetLite/MBConvBlock                Conv2d-68     [1, 672, 10, 10]          16,800          16,800
   RecycleNetwork/EfficientNetLite/MBConvBlock           BatchNorm2d-69     [1, 672, 10, 10]           1,344           1,344
   RecycleNetwork/EfficientNetLite/MBConvBlock                Conv2d-70     [1, 112, 10, 10]          75,264          75,264
   RecycleNetwork/EfficientNetLite/MBConvBlock           BatchNorm2d-71     [1, 112, 10, 10]             224             224
   RecycleNetwork/EfficientNetLite/MBConvBlock                Conv2d-72     [1, 672, 10, 10]          75,264          75,264
   RecycleNetwork/EfficientNetLite/MBConvBlock           BatchNorm2d-73     [1, 672, 10, 10]           1,344           1,344
   RecycleNetwork/EfficientNetLite/MBConvBlock                 ReLU6-74     [1, 672, 10, 10]               0               0
   RecycleNetwork/EfficientNetLite/MBConvBlock                Conv2d-75     [1, 672, 10, 10]          16,800          16,800
   RecycleNetwork/EfficientNetLite/MBConvBlock           BatchNorm2d-76     [1, 672, 10, 10]           1,344           1,344
   RecycleNetwork/EfficientNetLite/MBConvBlock                Conv2d-77     [1, 112, 10, 10]          75,264          75,264
   RecycleNetwork/EfficientNetLite/MBConvBlock           BatchNorm2d-78     [1, 112, 10, 10]             224             224
   RecycleNetwork/EfficientNetLite/MBConvBlock                Conv2d-79     [1, 672, 10, 10]          75,264          75,264
   RecycleNetwork/EfficientNetLite/MBConvBlock           BatchNorm2d-80     [1, 672, 10, 10]           1,344           1,344
   RecycleNetwork/EfficientNetLite/MBConvBlock                 ReLU6-81     [1, 672, 10, 10]               0               0
   RecycleNetwork/EfficientNetLite/MBConvBlock                Conv2d-82       [1, 672, 5, 5]          16,800          16,800
   RecycleNetwork/EfficientNetLite/MBConvBlock           BatchNorm2d-83       [1, 672, 5, 5]           1,344           1,344
   RecycleNetwork/EfficientNetLite/MBConvBlock                Conv2d-84       [1, 192, 5, 5]         129,024         129,024
   RecycleNetwork/EfficientNetLite/MBConvBlock           BatchNorm2d-85       [1, 192, 5, 5]             384             384
   RecycleNetwork/EfficientNetLite/MBConvBlock                Conv2d-86      [1, 1152, 5, 5]         221,184         221,184
   RecycleNetwork/EfficientNetLite/MBConvBlock           BatchNorm2d-87      [1, 1152, 5, 5]           2,304           2,304
   RecycleNetwork/EfficientNetLite/MBConvBlock                 ReLU6-88      [1, 1152, 5, 5]               0               0
   RecycleNetwork/EfficientNetLite/MBConvBlock                Conv2d-89      [1, 1152, 5, 5]          28,800          28,800
   RecycleNetwork/EfficientNetLite/MBConvBlock           BatchNorm2d-90      [1, 1152, 5, 5]           2,304           2,304
   RecycleNetwork/EfficientNetLite/MBConvBlock                Conv2d-91       [1, 192, 5, 5]         221,184         221,184
   RecycleNetwork/EfficientNetLite/MBConvBlock           BatchNorm2d-92       [1, 192, 5, 5]             384             384
   RecycleNetwork/EfficientNetLite/MBConvBlock                Conv2d-93      [1, 1152, 5, 5]         221,184         221,184
   RecycleNetwork/EfficientNetLite/MBConvBlock           BatchNorm2d-94      [1, 1152, 5, 5]           2,304           2,304
   RecycleNetwork/EfficientNetLite/MBConvBlock                 ReLU6-95      [1, 1152, 5, 5]               0               0
   RecycleNetwork/EfficientNetLite/MBConvBlock                Conv2d-96      [1, 1152, 5, 5]          28,800          28,800
   RecycleNetwork/EfficientNetLite/MBConvBlock           BatchNorm2d-97      [1, 1152, 5, 5]           2,304           2,304
   RecycleNetwork/EfficientNetLite/MBConvBlock                Conv2d-98       [1, 192, 5, 5]         221,184         221,184
   RecycleNetwork/EfficientNetLite/MBConvBlock           BatchNorm2d-99       [1, 192, 5, 5]             384             384
   RecycleNetwork/EfficientNetLite/MBConvBlock               Conv2d-100      [1, 1152, 5, 5]         221,184         221,184
   RecycleNetwork/EfficientNetLite/MBConvBlock          BatchNorm2d-101      [1, 1152, 5, 5]           2,304           2,304
   RecycleNetwork/EfficientNetLite/MBConvBlock                ReLU6-102      [1, 1152, 5, 5]               0               0
   RecycleNetwork/EfficientNetLite/MBConvBlock               Conv2d-103      [1, 1152, 5, 5]          28,800          28,800
   RecycleNetwork/EfficientNetLite/MBConvBlock          BatchNorm2d-104      [1, 1152, 5, 5]           2,304           2,304
   RecycleNetwork/EfficientNetLite/MBConvBlock               Conv2d-105       [1, 192, 5, 5]         221,184         221,184
   RecycleNetwork/EfficientNetLite/MBConvBlock          BatchNorm2d-106       [1, 192, 5, 5]             384             384
   RecycleNetwork/EfficientNetLite/MBConvBlock               Conv2d-107      [1, 1152, 5, 5]         221,184         221,184
   RecycleNetwork/EfficientNetLite/MBConvBlock          BatchNorm2d-108      [1, 1152, 5, 5]           2,304           2,304
   RecycleNetwork/EfficientNetLite/MBConvBlock                ReLU6-109      [1, 1152, 5, 5]               0               0
   RecycleNetwork/EfficientNetLite/MBConvBlock               Conv2d-110      [1, 1152, 5, 5]          10,368          10,368
   RecycleNetwork/EfficientNetLite/MBConvBlock          BatchNorm2d-111      [1, 1152, 5, 5]           2,304           2,304
   RecycleNetwork/EfficientNetLite/MBConvBlock               Conv2d-112       [1, 320, 5, 5]         368,640         368,640
   RecycleNetwork/EfficientNetLite/MBConvBlock          BatchNorm2d-113       [1, 320, 5, 5]             640             640
               RecycleNetwork/EfficientNetLite               Conv2d-114      [1, 1280, 5, 5]         409,600         409,600
               RecycleNetwork/EfficientNetLite          BatchNorm2d-115      [1, 1280, 5, 5]           2,560           2,560
               RecycleNetwork/EfficientNetLite                ReLU6-116      [1, 1280, 5, 5]               0               0
               RecycleNetwork/EfficientNetLite    AdaptiveAvgPool2d-117      [1, 1280, 1, 1]               0               0
               RecycleNetwork/EfficientNetLite              Dropout-118            [1, 1280]               0               0
               RecycleNetwork/EfficientNetLite               Linear-119               [1, 5]           6,405           6,405
============================================================================================================================
Total params: 3,377,133
Trainable params: 3,377,133
Non-trainable params: 0
----------------------------------------------------------------------------------------------------------------------------
Ended Training Cycle
backbone.blocks.1.0._expand_conv
7

--------------------------------
…
tensor([True, True, True, True, True, True, True, True, True, True, True, True,
        True, True, True, True, True, True, True, True, True, True, True, True])
torch.Size([24])
torch.Size([24])
Starting Training Cycle
----------------------------------------------------------------------------------------------------------------------------
                                 Parent Layers             Layer (type)         Output Shape         Param #     Tr. Param #
============================================================================================================================
               RecycleNetwork/EfficientNetLite                 Conv2d-1      [1, 27, 75, 75]             729             729
               RecycleNetwork/EfficientNetLite            BatchNorm2d-2      [1, 27, 75, 75]              54              54
               RecycleNetwork/EfficientNetLite                  ReLU6-3      [1, 27, 75, 75]               0               0
   RecycleNetwork/EfficientNetLite/MBConvBlock                 Conv2d-4      [1, 27, 75, 75]             243             243
   RecycleNetwork/EfficientNetLite/MBConvBlock            BatchNorm2d-5      [1, 27, 75, 75]              54              54
   RecycleNetwork/EfficientNetLite/MBConvBlock                  ReLU6-6      [1, 27, 75, 75]               0               0
   RecycleNetwork/EfficientNetLite/MBConvBlock                 Conv2d-7      [1, 16, 75, 75]             432             432
   RecycleNetwork/EfficientNetLite/MBConvBlock            BatchNorm2d-8      [1, 16, 75, 75]              32              32
   RecycleNetwork/EfficientNetLite/MBConvBlock                 Conv2d-9      [1, 89, 75, 75]           1,424           1,424
   RecycleNetwork/EfficientNetLite/MBConvBlock           BatchNorm2d-10      [1, 89, 75, 75]             178             178
   RecycleNetwork/EfficientNetLite/MBConvBlock                 ReLU6-11      [1, 89, 75, 75]               0               0
   RecycleNetwork/EfficientNetLite/MBConvBlock                Conv2d-12      [1, 89, 38, 38]             801             801
   RecycleNetwork/EfficientNetLite/MBConvBlock           BatchNorm2d-13      [1, 89, 38, 38]             178             178
   RecycleNetwork/EfficientNetLite/MBConvBlock                Conv2d-14      [1, 24, 38, 38]           2,136           2,136
   RecycleNetwork/EfficientNetLite/MBConvBlock           BatchNorm2d-15      [1, 24, 38, 38]              48              48
   RecycleNetwork/EfficientNetLite/MBConvBlock                Conv2d-16     [1, 144, 38, 38]           3,456           3,456
   RecycleNetwork/EfficientNetLite/MBConvBlock           BatchNorm2d-17     [1, 144, 38, 38]             288             288
   RecycleNetwork/EfficientNetLite/MBConvBlock                 ReLU6-18     [1, 144, 38, 38]               0               0
   RecycleNetwork/EfficientNetLite/MBConvBlock                Conv2d-19     [1, 144, 38, 38]           1,296           1,296
   RecycleNetwork/EfficientNetLite/MBConvBlock           BatchNorm2d-20     [1, 144, 38, 38]             288             288
   RecycleNetwork/EfficientNetLite/MBConvBlock                Conv2d-21      [1, 24, 38, 38]           3,456           3,456
   RecycleNetwork/EfficientNetLite/MBConvBlock           BatchNorm2d-22      [1, 24, 38, 38]              48              48
   RecycleNetwork/EfficientNetLite/MBConvBlock                Conv2d-23     [1, 144, 38, 38]           3,456           3,456
   RecycleNetwork/EfficientNetLite/MBConvBlock           BatchNorm2d-24     [1, 144, 38, 38]             288             288
   RecycleNetwork/EfficientNetLite/MBConvBlock                 ReLU6-25     [1, 144, 38, 38]               0               0
   RecycleNetwork/EfficientNetLite/MBConvBlock                Conv2d-26     [1, 144, 19, 19]           3,600           3,600
   RecycleNetwork/EfficientNetLite/MBConvBlock           BatchNorm2d-27     [1, 144, 19, 19]             288             288
   RecycleNetwork/EfficientNetLite/MBConvBlock                Conv2d-28      [1, 40, 19, 19]           5,760           5,760
   RecycleNetwork/EfficientNetLite/MBConvBlock           BatchNorm2d-29      [1, 40, 19, 19]              80              80
   RecycleNetwork/EfficientNetLite/MBConvBlock                Conv2d-30     [1, 240, 19, 19]           9,600           9,600
   RecycleNetwork/EfficientNetLite/MBConvBlock           BatchNorm2d-31     [1, 240, 19, 19]             480             480
   RecycleNetwork/EfficientNetLite/MBConvBlock                 ReLU6-32     [1, 240, 19, 19]               0               0
   RecycleNetwork/EfficientNetLite/MBConvBlock                Conv2d-33     [1, 240, 19, 19]           6,000           6,000
   RecycleNetwork/EfficientNetLite/MBConvBlock           BatchNorm2d-34     [1, 240, 19, 19]             480             480
   RecycleNetwork/EfficientNetLite/MBConvBlock                Conv2d-35      [1, 40, 19, 19]           9,600           9,600
   RecycleNetwork/EfficientNetLite/MBConvBlock           BatchNorm2d-36      [1, 40, 19, 19]              80              80
   RecycleNetwork/EfficientNetLite/MBConvBlock                Conv2d-37     [1, 240, 19, 19]           9,600           9,600
   RecycleNetwork/EfficientNetLite/MBConvBlock           BatchNorm2d-38     [1, 240, 19, 19]             480             480
   RecycleNetwork/EfficientNetLite/MBConvBlock                 ReLU6-39     [1, 240, 19, 19]               0               0
   RecycleNetwork/EfficientNetLite/MBConvBlock                Conv2d-40     [1, 240, 10, 10]           2,160           2,160
   RecycleNetwork/EfficientNetLite/MBConvBlock           BatchNorm2d-41     [1, 240, 10, 10]             480             480
   RecycleNetwork/EfficientNetLite/MBConvBlock                Conv2d-42      [1, 80, 10, 10]          19,200          19,200
   RecycleNetwork/EfficientNetLite/MBConvBlock           BatchNorm2d-43      [1, 80, 10, 10]             160             160
   RecycleNetwork/EfficientNetLite/MBConvBlock                Conv2d-44     [1, 480, 10, 10]          38,400          38,400
   RecycleNetwork/EfficientNetLite/MBConvBlock           BatchNorm2d-45     [1, 480, 10, 10]             960             960
   RecycleNetwork/EfficientNetLite/MBConvBlock                 ReLU6-46     [1, 480, 10, 10]               0               0
   RecycleNetwork/EfficientNetLite/MBConvBlock                Conv2d-47     [1, 480, 10, 10]           4,320           4,320
   RecycleNetwork/EfficientNetLite/MBConvBlock           BatchNorm2d-48     [1, 480, 10, 10]             960             960
   RecycleNetwork/EfficientNetLite/MBConvBlock                Conv2d-49      [1, 80, 10, 10]          38,400          38,400
   RecycleNetwork/EfficientNetLite/MBConvBlock           BatchNorm2d-50      [1, 80, 10, 10]             160             160
   RecycleNetwork/EfficientNetLite/MBConvBlock                Conv2d-51     [1, 480, 10, 10]          38,400          38,400
   RecycleNetwork/EfficientNetLite/MBConvBlock           BatchNorm2d-52     [1, 480, 10, 10]             960             960
   RecycleNetwork/EfficientNetLite/MBConvBlock                 ReLU6-53     [1, 480, 10, 10]               0               0
   RecycleNetwork/EfficientNetLite/MBConvBlock                Conv2d-54     [1, 480, 10, 10]           4,320           4,320
   RecycleNetwork/EfficientNetLite/MBConvBlock           BatchNorm2d-55     [1, 480, 10, 10]             960             960
   RecycleNetwork/EfficientNetLite/MBConvBlock                Conv2d-56      [1, 80, 10, 10]          38,400          38,400
   RecycleNetwork/EfficientNetLite/MBConvBlock           BatchNorm2d-57      [1, 80, 10, 10]             160             160
   RecycleNetwork/EfficientNetLite/MBConvBlock                Conv2d-58     [1, 480, 10, 10]          38,400          38,400
   RecycleNetwork/EfficientNetLite/MBConvBlock           BatchNorm2d-59     [1, 480, 10, 10]             960             960
   RecycleNetwork/EfficientNetLite/MBConvBlock                 ReLU6-60     [1, 480, 10, 10]               0               0
   RecycleNetwork/EfficientNetLite/MBConvBlock                Conv2d-61     [1, 480, 10, 10]          12,000          12,000
   RecycleNetwork/EfficientNetLite/MBConvBlock           BatchNorm2d-62     [1, 480, 10, 10]             960             960
   RecycleNetwork/EfficientNetLite/MBConvBlock                Conv2d-63     [1, 112, 10, 10]          53,760          53,760
   RecycleNetwork/EfficientNetLite/MBConvBlock           BatchNorm2d-64     [1, 112, 10, 10]             224             224
   RecycleNetwork/EfficientNetLite/MBConvBlock                Conv2d-65     [1, 672, 10, 10]          75,264          75,264
   RecycleNetwork/EfficientNetLite/MBConvBlock           BatchNorm2d-66     [1, 672, 10, 10]           1,344           1,344
   RecycleNetwork/EfficientNetLite/MBConvBlock                 ReLU6-67     [1, 672, 10, 10]               0               0
   RecycleNetwork/EfficientNetLite/MBConvBlock                Conv2d-68     [1, 672, 10, 10]          16,800          16,800
   RecycleNetwork/EfficientNetLite/MBConvBlock           BatchNorm2d-69     [1, 672, 10, 10]           1,344           1,344
   RecycleNetwork/EfficientNetLite/MBConvBlock                Conv2d-70     [1, 112, 10, 10]          75,264          75,264
   RecycleNetwork/EfficientNetLite/MBConvBlock           BatchNorm2d-71     [1, 112, 10, 10]             224             224
   RecycleNetwork/EfficientNetLite/MBConvBlock                Conv2d-72     [1, 672, 10, 10]          75,264          75,264
   RecycleNetwork/EfficientNetLite/MBConvBlock           BatchNorm2d-73     [1, 672, 10, 10]           1,344           1,344
   RecycleNetwork/EfficientNetLite/MBConvBlock                 ReLU6-74     [1, 672, 10, 10]               0               0
   RecycleNetwork/EfficientNetLite/MBConvBlock                Conv2d-75     [1, 672, 10, 10]          16,800          16,800
   RecycleNetwork/EfficientNetLite/MBConvBlock           BatchNorm2d-76     [1, 672, 10, 10]           1,344           1,344
   RecycleNetwork/EfficientNetLite/MBConvBlock                Conv2d-77     [1, 112, 10, 10]          75,264          75,264
   RecycleNetwork/EfficientNetLite/MBConvBlock           BatchNorm2d-78     [1, 112, 10, 10]             224             224
   RecycleNetwork/EfficientNetLite/MBConvBlock                Conv2d-79     [1, 672, 10, 10]          75,264          75,264
   RecycleNetwork/EfficientNetLite/MBConvBlock           BatchNorm2d-80     [1, 672, 10, 10]           1,344           1,344
   RecycleNetwork/EfficientNetLite/MBConvBlock                 ReLU6-81     [1, 672, 10, 10]               0               0
   RecycleNetwork/EfficientNetLite/MBConvBlock                Conv2d-82       [1, 672, 5, 5]          16,800          16,800
   RecycleNetwork/EfficientNetLite/MBConvBlock           BatchNorm2d-83       [1, 672, 5, 5]           1,344           1,344
   RecycleNetwork/EfficientNetLite/MBConvBlock                Conv2d-84       [1, 192, 5, 5]         129,024         129,024
   RecycleNetwork/EfficientNetLite/MBConvBlock           BatchNorm2d-85       [1, 192, 5, 5]             384             384
   RecycleNetwork/EfficientNetLite/MBConvBlock                Conv2d-86      [1, 1152, 5, 5]         221,184         221,184
   RecycleNetwork/EfficientNetLite/MBConvBlock           BatchNorm2d-87      [1, 1152, 5, 5]           2,304           2,304
   RecycleNetwork/EfficientNetLite/MBConvBlock                 ReLU6-88      [1, 1152, 5, 5]               0               0
   RecycleNetwork/EfficientNetLite/MBConvBlock                Conv2d-89      [1, 1152, 5, 5]          28,800          28,800
   RecycleNetwork/EfficientNetLite/MBConvBlock           BatchNorm2d-90      [1, 1152, 5, 5]           2,304           2,304
   RecycleNetwork/EfficientNetLite/MBConvBlock                Conv2d-91       [1, 192, 5, 5]         221,184         221,184
   RecycleNetwork/EfficientNetLite/MBConvBlock           BatchNorm2d-92       [1, 192, 5, 5]             384             384
   RecycleNetwork/EfficientNetLite/MBConvBlock                Conv2d-93      [1, 1152, 5, 5]         221,184         221,184
   RecycleNetwork/EfficientNetLite/MBConvBlock           BatchNorm2d-94      [1, 1152, 5, 5]           2,304           2,304
   RecycleNetwork/EfficientNetLite/MBConvBlock                 ReLU6-95      [1, 1152, 5, 5]               0               0
   RecycleNetwork/EfficientNetLite/MBConvBlock                Conv2d-96      [1, 1152, 5, 5]          28,800          28,800
   RecycleNetwork/EfficientNetLite/MBConvBlock           BatchNorm2d-97      [1, 1152, 5, 5]           2,304           2,304
   RecycleNetwork/EfficientNetLite/MBConvBlock                Conv2d-98       [1, 192, 5, 5]         221,184         221,184
   RecycleNetwork/EfficientNetLite/MBConvBlock           BatchNorm2d-99       [1, 192, 5, 5]             384             384
   RecycleNetwork/EfficientNetLite/MBConvBlock               Conv2d-100      [1, 1152, 5, 5]         221,184         221,184
   RecycleNetwork/EfficientNetLite/MBConvBlock          BatchNorm2d-101      [1, 1152, 5, 5]           2,304           2,304
   RecycleNetwork/EfficientNetLite/MBConvBlock                ReLU6-102      [1, 1152, 5, 5]               0               0
   RecycleNetwork/EfficientNetLite/MBConvBlock               Conv2d-103      [1, 1152, 5, 5]          28,800          28,800
   RecycleNetwork/EfficientNetLite/MBConvBlock          BatchNorm2d-104      [1, 1152, 5, 5]           2,304           2,304
   RecycleNetwork/EfficientNetLite/MBConvBlock               Conv2d-105       [1, 192, 5, 5]         221,184         221,184
   RecycleNetwork/EfficientNetLite/MBConvBlock          BatchNorm2d-106       [1, 192, 5, 5]             384             384
   RecycleNetwork/EfficientNetLite/MBConvBlock               Conv2d-107      [1, 1152, 5, 5]         221,184         221,184
   RecycleNetwork/EfficientNetLite/MBConvBlock          BatchNorm2d-108      [1, 1152, 5, 5]           2,304           2,304
   RecycleNetwork/EfficientNetLite/MBConvBlock                ReLU6-109      [1, 1152, 5, 5]               0               0
   RecycleNetwork/EfficientNetLite/MBConvBlock               Conv2d-110      [1, 1152, 5, 5]          10,368          10,368
   RecycleNetwork/EfficientNetLite/MBConvBlock          BatchNorm2d-111      [1, 1152, 5, 5]           2,304           2,304
   RecycleNetwork/EfficientNetLite/MBConvBlock               Conv2d-112       [1, 320, 5, 5]         368,640         368,640
   RecycleNetwork/EfficientNetLite/MBConvBlock          BatchNorm2d-113       [1, 320, 5, 5]             640             640
               RecycleNetwork/EfficientNetLite               Conv2d-114      [1, 1280, 5, 5]         409,600         409,600
               RecycleNetwork/EfficientNetLite          BatchNorm2d-115      [1, 1280, 5, 5]           2,560           2,560
               RecycleNetwork/EfficientNetLite                ReLU6-116      [1, 1280, 5, 5]               0               0
               RecycleNetwork/EfficientNetLite    AdaptiveAvgPool2d-117      [1, 1280, 1, 1]               0               0
               RecycleNetwork/EfficientNetLite              Dropout-118            [1, 1280]               0               0
               RecycleNetwork/EfficientNetLite               Linear-119               [1, 5]           6,405           6,405
============================================================================================================================
Total params: 3,376,762
Trainable params: 3,376,762
Non-trainable params: 0
----------------------------------------------------------------------------------------------------------------------------
Ended Training Cycle
backbone.blocks.1.1._expand_conv
6

--------------------------------
…
tensor([True, True, True, True, True, True, True, True, True, True, True, True,
        True, True, True, True, True, True, True, True, True, True, True, True])
torch.Size([24])
torch.Size([24])
Starting Training Cycle
----------------------------------------------------------------------------------------------------------------------------
                                 Parent Layers             Layer (type)         Output Shape         Param #     Tr. Param #
============================================================================================================================
               RecycleNetwork/EfficientNetLite                 Conv2d-1      [1, 27, 75, 75]             729             729
               RecycleNetwork/EfficientNetLite            BatchNorm2d-2      [1, 27, 75, 75]              54              54
               RecycleNetwork/EfficientNetLite                  ReLU6-3      [1, 27, 75, 75]               0               0
   RecycleNetwork/EfficientNetLite/MBConvBlock                 Conv2d-4      [1, 27, 75, 75]             243             243
   RecycleNetwork/EfficientNetLite/MBConvBlock            BatchNorm2d-5      [1, 27, 75, 75]              54              54
   RecycleNetwork/EfficientNetLite/MBConvBlock                  ReLU6-6      [1, 27, 75, 75]               0               0
   RecycleNetwork/EfficientNetLite/MBConvBlock                 Conv2d-7      [1, 16, 75, 75]             432             432
   RecycleNetwork/EfficientNetLite/MBConvBlock            BatchNorm2d-8      [1, 16, 75, 75]              32              32
   RecycleNetwork/EfficientNetLite/MBConvBlock                 Conv2d-9      [1, 89, 75, 75]           1,424           1,424
   RecycleNetwork/EfficientNetLite/MBConvBlock           BatchNorm2d-10      [1, 89, 75, 75]             178             178
   RecycleNetwork/EfficientNetLite/MBConvBlock                 ReLU6-11      [1, 89, 75, 75]               0               0
   RecycleNetwork/EfficientNetLite/MBConvBlock                Conv2d-12      [1, 89, 38, 38]             801             801
   RecycleNetwork/EfficientNetLite/MBConvBlock           BatchNorm2d-13      [1, 89, 38, 38]             178             178
   RecycleNetwork/EfficientNetLite/MBConvBlock                Conv2d-14      [1, 24, 38, 38]           2,136           2,136
   RecycleNetwork/EfficientNetLite/MBConvBlock           BatchNorm2d-15      [1, 24, 38, 38]              48              48
   RecycleNetwork/EfficientNetLite/MBConvBlock                Conv2d-16     [1, 129, 38, 38]           3,096           3,096
   RecycleNetwork/EfficientNetLite/MBConvBlock           BatchNorm2d-17     [1, 129, 38, 38]             258             258
   RecycleNetwork/EfficientNetLite/MBConvBlock                 ReLU6-18     [1, 129, 38, 38]               0               0
   RecycleNetwork/EfficientNetLite/MBConvBlock                Conv2d-19     [1, 129, 38, 38]           1,161           1,161
   RecycleNetwork/EfficientNetLite/MBConvBlock           BatchNorm2d-20     [1, 129, 38, 38]             258             258
   RecycleNetwork/EfficientNetLite/MBConvBlock                Conv2d-21      [1, 24, 38, 38]           3,096           3,096
   RecycleNetwork/EfficientNetLite/MBConvBlock           BatchNorm2d-22      [1, 24, 38, 38]              48              48
   RecycleNetwork/EfficientNetLite/MBConvBlock                Conv2d-23     [1, 144, 38, 38]           3,456           3,456
   RecycleNetwork/EfficientNetLite/MBConvBlock           BatchNorm2d-24     [1, 144, 38, 38]             288             288
   RecycleNetwork/EfficientNetLite/MBConvBlock                 ReLU6-25     [1, 144, 38, 38]               0               0
   RecycleNetwork/EfficientNetLite/MBConvBlock                Conv2d-26     [1, 144, 19, 19]           3,600           3,600
   RecycleNetwork/EfficientNetLite/MBConvBlock           BatchNorm2d-27     [1, 144, 19, 19]             288             288
   RecycleNetwork/EfficientNetLite/MBConvBlock                Conv2d-28      [1, 40, 19, 19]           5,760           5,760
   RecycleNetwork/EfficientNetLite/MBConvBlock           BatchNorm2d-29      [1, 40, 19, 19]              80              80
   RecycleNetwork/EfficientNetLite/MBConvBlock                Conv2d-30     [1, 240, 19, 19]           9,600           9,600
   RecycleNetwork/EfficientNetLite/MBConvBlock           BatchNorm2d-31     [1, 240, 19, 19]             480             480
   RecycleNetwork/EfficientNetLite/MBConvBlock                 ReLU6-32     [1, 240, 19, 19]               0               0
   RecycleNetwork/EfficientNetLite/MBConvBlock                Conv2d-33     [1, 240, 19, 19]           6,000           6,000
   RecycleNetwork/EfficientNetLite/MBConvBlock           BatchNorm2d-34     [1, 240, 19, 19]             480             480
   RecycleNetwork/EfficientNetLite/MBConvBlock                Conv2d-35      [1, 40, 19, 19]           9,600           9,600
   RecycleNetwork/EfficientNetLite/MBConvBlock           BatchNorm2d-36      [1, 40, 19, 19]              80              80
   RecycleNetwork/EfficientNetLite/MBConvBlock                Conv2d-37     [1, 240, 19, 19]           9,600           9,600
   RecycleNetwork/EfficientNetLite/MBConvBlock           BatchNorm2d-38     [1, 240, 19, 19]             480             480
   RecycleNetwork/EfficientNetLite/MBConvBlock                 ReLU6-39     [1, 240, 19, 19]               0               0
   RecycleNetwork/EfficientNetLite/MBConvBlock                Conv2d-40     [1, 240, 10, 10]           2,160           2,160
   RecycleNetwork/EfficientNetLite/MBConvBlock           BatchNorm2d-41     [1, 240, 10, 10]             480             480
   RecycleNetwork/EfficientNetLite/MBConvBlock                Conv2d-42      [1, 80, 10, 10]          19,200          19,200
   RecycleNetwork/EfficientNetLite/MBConvBlock           BatchNorm2d-43      [1, 80, 10, 10]             160             160
   RecycleNetwork/EfficientNetLite/MBConvBlock                Conv2d-44     [1, 480, 10, 10]          38,400          38,400
   RecycleNetwork/EfficientNetLite/MBConvBlock           BatchNorm2d-45     [1, 480, 10, 10]             960             960
   RecycleNetwork/EfficientNetLite/MBConvBlock                 ReLU6-46     [1, 480, 10, 10]               0               0
   RecycleNetwork/EfficientNetLite/MBConvBlock                Conv2d-47     [1, 480, 10, 10]           4,320           4,320
   RecycleNetwork/EfficientNetLite/MBConvBlock           BatchNorm2d-48     [1, 480, 10, 10]             960             960
   RecycleNetwork/EfficientNetLite/MBConvBlock                Conv2d-49      [1, 80, 10, 10]          38,400          38,400
   RecycleNetwork/EfficientNetLite/MBConvBlock           BatchNorm2d-50      [1, 80, 10, 10]             160             160
   RecycleNetwork/EfficientNetLite/MBConvBlock                Conv2d-51     [1, 480, 10, 10]          38,400          38,400
   RecycleNetwork/EfficientNetLite/MBConvBlock           BatchNorm2d-52     [1, 480, 10, 10]             960             960
   RecycleNetwork/EfficientNetLite/MBConvBlock                 ReLU6-53     [1, 480, 10, 10]               0               0
   RecycleNetwork/EfficientNetLite/MBConvBlock                Conv2d-54     [1, 480, 10, 10]           4,320           4,320
   RecycleNetwork/EfficientNetLite/MBConvBlock           BatchNorm2d-55     [1, 480, 10, 10]             960             960
   RecycleNetwork/EfficientNetLite/MBConvBlock                Conv2d-56      [1, 80, 10, 10]          38,400          38,400
   RecycleNetwork/EfficientNetLite/MBConvBlock           BatchNorm2d-57      [1, 80, 10, 10]             160             160
   RecycleNetwork/EfficientNetLite/MBConvBlock                Conv2d-58     [1, 480, 10, 10]          38,400          38,400
   RecycleNetwork/EfficientNetLite/MBConvBlock           BatchNorm2d-59     [1, 480, 10, 10]             960             960
   RecycleNetwork/EfficientNetLite/MBConvBlock                 ReLU6-60     [1, 480, 10, 10]               0               0
   RecycleNetwork/EfficientNetLite/MBConvBlock                Conv2d-61     [1, 480, 10, 10]          12,000          12,000
   RecycleNetwork/EfficientNetLite/MBConvBlock           BatchNorm2d-62     [1, 480, 10, 10]             960             960
   RecycleNetwork/EfficientNetLite/MBConvBlock                Conv2d-63     [1, 112, 10, 10]          53,760          53,760
   RecycleNetwork/EfficientNetLite/MBConvBlock           BatchNorm2d-64     [1, 112, 10, 10]             224             224
   RecycleNetwork/EfficientNetLite/MBConvBlock                Conv2d-65     [1, 672, 10, 10]          75,264          75,264
   RecycleNetwork/EfficientNetLite/MBConvBlock           BatchNorm2d-66     [1, 672, 10, 10]           1,344           1,344
   RecycleNetwork/EfficientNetLite/MBConvBlock                 ReLU6-67     [1, 672, 10, 10]               0               0
   RecycleNetwork/EfficientNetLite/MBConvBlock                Conv2d-68     [1, 672, 10, 10]          16,800          16,800
   RecycleNetwork/EfficientNetLite/MBConvBlock           BatchNorm2d-69     [1, 672, 10, 10]           1,344           1,344
   RecycleNetwork/EfficientNetLite/MBConvBlock                Conv2d-70     [1, 112, 10, 10]          75,264          75,264
   RecycleNetwork/EfficientNetLite/MBConvBlock           BatchNorm2d-71     [1, 112, 10, 10]             224             224
   RecycleNetwork/EfficientNetLite/MBConvBlock                Conv2d-72     [1, 672, 10, 10]          75,264          75,264
   RecycleNetwork/EfficientNetLite/MBConvBlock           BatchNorm2d-73     [1, 672, 10, 10]           1,344           1,344
   RecycleNetwork/EfficientNetLite/MBConvBlock                 ReLU6-74     [1, 672, 10, 10]               0               0
   RecycleNetwork/EfficientNetLite/MBConvBlock                Conv2d-75     [1, 672, 10, 10]          16,800          16,800
   RecycleNetwork/EfficientNetLite/MBConvBlock           BatchNorm2d-76     [1, 672, 10, 10]           1,344           1,344
   RecycleNetwork/EfficientNetLite/MBConvBlock                Conv2d-77     [1, 112, 10, 10]          75,264          75,264
   RecycleNetwork/EfficientNetLite/MBConvBlock           BatchNorm2d-78     [1, 112, 10, 10]             224             224
   RecycleNetwork/EfficientNetLite/MBConvBlock                Conv2d-79     [1, 672, 10, 10]          75,264          75,264
   RecycleNetwork/EfficientNetLite/MBConvBlock           BatchNorm2d-80     [1, 672, 10, 10]           1,344           1,344
   RecycleNetwork/EfficientNetLite/MBConvBlock                 ReLU6-81     [1, 672, 10, 10]               0               0
   RecycleNetwork/EfficientNetLite/MBConvBlock                Conv2d-82       [1, 672, 5, 5]          16,800          16,800
   RecycleNetwork/EfficientNetLite/MBConvBlock           BatchNorm2d-83       [1, 672, 5, 5]           1,344           1,344
   RecycleNetwork/EfficientNetLite/MBConvBlock                Conv2d-84       [1, 192, 5, 5]         129,024         129,024
   RecycleNetwork/EfficientNetLite/MBConvBlock           BatchNorm2d-85       [1, 192, 5, 5]             384             384
   RecycleNetwork/EfficientNetLite/MBConvBlock                Conv2d-86      [1, 1152, 5, 5]         221,184         221,184
   RecycleNetwork/EfficientNetLite/MBConvBlock           BatchNorm2d-87      [1, 1152, 5, 5]           2,304           2,304
   RecycleNetwork/EfficientNetLite/MBConvBlock                 ReLU6-88      [1, 1152, 5, 5]               0               0
   RecycleNetwork/EfficientNetLite/MBConvBlock                Conv2d-89      [1, 1152, 5, 5]          28,800          28,800
   RecycleNetwork/EfficientNetLite/MBConvBlock           BatchNorm2d-90      [1, 1152, 5, 5]           2,304           2,304
   RecycleNetwork/EfficientNetLite/MBConvBlock                Conv2d-91       [1, 192, 5, 5]         221,184         221,184
   RecycleNetwork/EfficientNetLite/MBConvBlock           BatchNorm2d-92       [1, 192, 5, 5]             384             384
   RecycleNetwork/EfficientNetLite/MBConvBlock                Conv2d-93      [1, 1152, 5, 5]         221,184         221,184
   RecycleNetwork/EfficientNetLite/MBConvBlock           BatchNorm2d-94      [1, 1152, 5, 5]           2,304           2,304
   RecycleNetwork/EfficientNetLite/MBConvBlock                 ReLU6-95      [1, 1152, 5, 5]               0               0
   RecycleNetwork/EfficientNetLite/MBConvBlock                Conv2d-96      [1, 1152, 5, 5]          28,800          28,800
   RecycleNetwork/EfficientNetLite/MBConvBlock           BatchNorm2d-97      [1, 1152, 5, 5]           2,304           2,304
   RecycleNetwork/EfficientNetLite/MBConvBlock                Conv2d-98       [1, 192, 5, 5]         221,184         221,184
   RecycleNetwork/EfficientNetLite/MBConvBlock           BatchNorm2d-99       [1, 192, 5, 5]             384             384
   RecycleNetwork/EfficientNetLite/MBConvBlock               Conv2d-100      [1, 1152, 5, 5]         221,184         221,184
   RecycleNetwork/EfficientNetLite/MBConvBlock          BatchNorm2d-101      [1, 1152, 5, 5]           2,304           2,304
   RecycleNetwork/EfficientNetLite/MBConvBlock                ReLU6-102      [1, 1152, 5, 5]               0               0
   RecycleNetwork/EfficientNetLite/MBConvBlock               Conv2d-103      [1, 1152, 5, 5]          28,800          28,800
   RecycleNetwork/EfficientNetLite/MBConvBlock          BatchNorm2d-104      [1, 1152, 5, 5]           2,304           2,304
   RecycleNetwork/EfficientNetLite/MBConvBlock               Conv2d-105       [1, 192, 5, 5]         221,184         221,184
   RecycleNetwork/EfficientNetLite/MBConvBlock          BatchNorm2d-106       [1, 192, 5, 5]             384             384
   RecycleNetwork/EfficientNetLite/MBConvBlock               Conv2d-107      [1, 1152, 5, 5]         221,184         221,184
   RecycleNetwork/EfficientNetLite/MBConvBlock          BatchNorm2d-108      [1, 1152, 5, 5]           2,304           2,304
   RecycleNetwork/EfficientNetLite/MBConvBlock                ReLU6-109      [1, 1152, 5, 5]               0               0
   RecycleNetwork/EfficientNetLite/MBConvBlock               Conv2d-110      [1, 1152, 5, 5]          10,368          10,368
   RecycleNetwork/EfficientNetLite/MBConvBlock          BatchNorm2d-111      [1, 1152, 5, 5]           2,304           2,304
   RecycleNetwork/EfficientNetLite/MBConvBlock               Conv2d-112       [1, 320, 5, 5]         368,640         368,640
   RecycleNetwork/EfficientNetLite/MBConvBlock          BatchNorm2d-113       [1, 320, 5, 5]             640             640
               RecycleNetwork/EfficientNetLite               Conv2d-114      [1, 1280, 5, 5]         409,600         409,600
               RecycleNetwork/EfficientNetLite          BatchNorm2d-115      [1, 1280, 5, 5]           2,560           2,560
               RecycleNetwork/EfficientNetLite                ReLU6-116      [1, 1280, 5, 5]               0               0
               RecycleNetwork/EfficientNetLite    AdaptiveAvgPool2d-117      [1, 1280, 1, 1]               0               0
               RecycleNetwork/EfficientNetLite              Dropout-118            [1, 1280]               0               0
               RecycleNetwork/EfficientNetLite               Linear-119               [1, 5]           6,405           6,405
============================================================================================================================
Total params: 3,375,847
Trainable params: 3,375,847
Non-trainable params: 0
----------------------------------------------------------------------------------------------------------------------------
Ended Training Cycle
backbone.blocks.2.0._expand_conv
5

--------------------------------
…
        True, True, True, True, True, True, True, True, True, True, True, True,
        True, True, True, True])
torch.Size([40])
torch.Size([40])
Starting Training Cycle
----------------------------------------------------------------------------------------------------------------------------
                                 Parent Layers             Layer (type)         Output Shape         Param #     Tr. Param #
============================================================================================================================
               RecycleNetwork/EfficientNetLite                 Conv2d-1      [1, 27, 75, 75]             729             729
               RecycleNetwork/EfficientNetLite            BatchNorm2d-2      [1, 27, 75, 75]              54              54
               RecycleNetwork/EfficientNetLite                  ReLU6-3      [1, 27, 75, 75]               0               0
   RecycleNetwork/EfficientNetLite/MBConvBlock                 Conv2d-4      [1, 27, 75, 75]             243             243
   RecycleNetwork/EfficientNetLite/MBConvBlock            BatchNorm2d-5      [1, 27, 75, 75]              54              54
   RecycleNetwork/EfficientNetLite/MBConvBlock                  ReLU6-6      [1, 27, 75, 75]               0               0
   RecycleNetwork/EfficientNetLite/MBConvBlock                 Conv2d-7      [1, 16, 75, 75]             432             432
   RecycleNetwork/EfficientNetLite/MBConvBlock            BatchNorm2d-8      [1, 16, 75, 75]              32              32
   RecycleNetwork/EfficientNetLite/MBConvBlock                 Conv2d-9      [1, 89, 75, 75]           1,424           1,424
   RecycleNetwork/EfficientNetLite/MBConvBlock           BatchNorm2d-10      [1, 89, 75, 75]             178             178
   RecycleNetwork/EfficientNetLite/MBConvBlock                 ReLU6-11      [1, 89, 75, 75]               0               0
   RecycleNetwork/EfficientNetLite/MBConvBlock                Conv2d-12      [1, 89, 38, 38]             801             801
   RecycleNetwork/EfficientNetLite/MBConvBlock           BatchNorm2d-13      [1, 89, 38, 38]             178             178
   RecycleNetwork/EfficientNetLite/MBConvBlock                Conv2d-14      [1, 24, 38, 38]           2,136           2,136
   RecycleNetwork/EfficientNetLite/MBConvBlock           BatchNorm2d-15      [1, 24, 38, 38]              48              48
   RecycleNetwork/EfficientNetLite/MBConvBlock                Conv2d-16     [1, 129, 38, 38]           3,096           3,096
   RecycleNetwork/EfficientNetLite/MBConvBlock           BatchNorm2d-17     [1, 129, 38, 38]             258             258
   RecycleNetwork/EfficientNetLite/MBConvBlock                 ReLU6-18     [1, 129, 38, 38]               0               0
   RecycleNetwork/EfficientNetLite/MBConvBlock                Conv2d-19     [1, 129, 38, 38]           1,161           1,161
   RecycleNetwork/EfficientNetLite/MBConvBlock           BatchNorm2d-20     [1, 129, 38, 38]             258             258
   RecycleNetwork/EfficientNetLite/MBConvBlock                Conv2d-21      [1, 24, 38, 38]           3,096           3,096
   RecycleNetwork/EfficientNetLite/MBConvBlock           BatchNorm2d-22      [1, 24, 38, 38]              48              48
   RecycleNetwork/EfficientNetLite/MBConvBlock                Conv2d-23     [1, 139, 38, 38]           3,336           3,336
   RecycleNetwork/EfficientNetLite/MBConvBlock           BatchNorm2d-24     [1, 139, 38, 38]             278             278
   RecycleNetwork/EfficientNetLite/MBConvBlock                 ReLU6-25     [1, 139, 38, 38]               0               0
   RecycleNetwork/EfficientNetLite/MBConvBlock                Conv2d-26     [1, 139, 19, 19]           3,475           3,475
   RecycleNetwork/EfficientNetLite/MBConvBlock           BatchNorm2d-27     [1, 139, 19, 19]             278             278
   RecycleNetwork/EfficientNetLite/MBConvBlock                Conv2d-28      [1, 40, 19, 19]           5,560           5,560
   RecycleNetwork/EfficientNetLite/MBConvBlock           BatchNorm2d-29      [1, 40, 19, 19]              80              80
   RecycleNetwork/EfficientNetLite/MBConvBlock                Conv2d-30     [1, 240, 19, 19]           9,600           9,600
   RecycleNetwork/EfficientNetLite/MBConvBlock           BatchNorm2d-31     [1, 240, 19, 19]             480             480
   RecycleNetwork/EfficientNetLite/MBConvBlock                 ReLU6-32     [1, 240, 19, 19]               0               0
   RecycleNetwork/EfficientNetLite/MBConvBlock                Conv2d-33     [1, 240, 19, 19]           6,000           6,000
   RecycleNetwork/EfficientNetLite/MBConvBlock           BatchNorm2d-34     [1, 240, 19, 19]             480             480
   RecycleNetwork/EfficientNetLite/MBConvBlock                Conv2d-35      [1, 40, 19, 19]           9,600           9,600
   RecycleNetwork/EfficientNetLite/MBConvBlock           BatchNorm2d-36      [1, 40, 19, 19]              80              80
   RecycleNetwork/EfficientNetLite/MBConvBlock                Conv2d-37     [1, 240, 19, 19]           9,600           9,600
   RecycleNetwork/EfficientNetLite/MBConvBlock           BatchNorm2d-38     [1, 240, 19, 19]             480             480
   RecycleNetwork/EfficientNetLite/MBConvBlock                 ReLU6-39     [1, 240, 19, 19]               0               0
   RecycleNetwork/EfficientNetLite/MBConvBlock                Conv2d-40     [1, 240, 10, 10]           2,160           2,160
   RecycleNetwork/EfficientNetLite/MBConvBlock           BatchNorm2d-41     [1, 240, 10, 10]             480             480
   RecycleNetwork/EfficientNetLite/MBConvBlock                Conv2d-42      [1, 80, 10, 10]          19,200          19,200
   RecycleNetwork/EfficientNetLite/MBConvBlock           BatchNorm2d-43      [1, 80, 10, 10]             160             160
   RecycleNetwork/EfficientNetLite/MBConvBlock                Conv2d-44     [1, 480, 10, 10]          38,400          38,400
   RecycleNetwork/EfficientNetLite/MBConvBlock           BatchNorm2d-45     [1, 480, 10, 10]             960             960
   RecycleNetwork/EfficientNetLite/MBConvBlock                 ReLU6-46     [1, 480, 10, 10]               0               0
   RecycleNetwork/EfficientNetLite/MBConvBlock                Conv2d-47     [1, 480, 10, 10]           4,320           4,320
   RecycleNetwork/EfficientNetLite/MBConvBlock           BatchNorm2d-48     [1, 480, 10, 10]             960             960
   RecycleNetwork/EfficientNetLite/MBConvBlock                Conv2d-49      [1, 80, 10, 10]          38,400          38,400
   RecycleNetwork/EfficientNetLite/MBConvBlock           BatchNorm2d-50      [1, 80, 10, 10]             160             160
   RecycleNetwork/EfficientNetLite/MBConvBlock                Conv2d-51     [1, 480, 10, 10]          38,400          38,400
   RecycleNetwork/EfficientNetLite/MBConvBlock           BatchNorm2d-52     [1, 480, 10, 10]             960             960
   RecycleNetwork/EfficientNetLite/MBConvBlock                 ReLU6-53     [1, 480, 10, 10]               0               0
   RecycleNetwork/EfficientNetLite/MBConvBlock                Conv2d-54     [1, 480, 10, 10]           4,320           4,320
   RecycleNetwork/EfficientNetLite/MBConvBlock           BatchNorm2d-55     [1, 480, 10, 10]             960             960
   RecycleNetwork/EfficientNetLite/MBConvBlock                Conv2d-56      [1, 80, 10, 10]          38,400          38,400
   RecycleNetwork/EfficientNetLite/MBConvBlock           BatchNorm2d-57      [1, 80, 10, 10]             160             160
   RecycleNetwork/EfficientNetLite/MBConvBlock                Conv2d-58     [1, 480, 10, 10]          38,400          38,400
   RecycleNetwork/EfficientNetLite/MBConvBlock           BatchNorm2d-59     [1, 480, 10, 10]             960             960
   RecycleNetwork/EfficientNetLite/MBConvBlock                 ReLU6-60     [1, 480, 10, 10]               0               0
   RecycleNetwork/EfficientNetLite/MBConvBlock                Conv2d-61     [1, 480, 10, 10]          12,000          12,000
   RecycleNetwork/EfficientNetLite/MBConvBlock           BatchNorm2d-62     [1, 480, 10, 10]             960             960
   RecycleNetwork/EfficientNetLite/MBConvBlock                Conv2d-63     [1, 112, 10, 10]          53,760          53,760
   RecycleNetwork/EfficientNetLite/MBConvBlock           BatchNorm2d-64     [1, 112, 10, 10]             224             224
   RecycleNetwork/EfficientNetLite/MBConvBlock                Conv2d-65     [1, 672, 10, 10]          75,264          75,264
   RecycleNetwork/EfficientNetLite/MBConvBlock           BatchNorm2d-66     [1, 672, 10, 10]           1,344           1,344
   RecycleNetwork/EfficientNetLite/MBConvBlock                 ReLU6-67     [1, 672, 10, 10]               0               0
   RecycleNetwork/EfficientNetLite/MBConvBlock                Conv2d-68     [1, 672, 10, 10]          16,800          16,800
   RecycleNetwork/EfficientNetLite/MBConvBlock           BatchNorm2d-69     [1, 672, 10, 10]           1,344           1,344
   RecycleNetwork/EfficientNetLite/MBConvBlock                Conv2d-70     [1, 112, 10, 10]          75,264          75,264
   RecycleNetwork/EfficientNetLite/MBConvBlock           BatchNorm2d-71     [1, 112, 10, 10]             224             224
   RecycleNetwork/EfficientNetLite/MBConvBlock                Conv2d-72     [1, 672, 10, 10]          75,264          75,264
   RecycleNetwork/EfficientNetLite/MBConvBlock           BatchNorm2d-73     [1, 672, 10, 10]           1,344           1,344
   RecycleNetwork/EfficientNetLite/MBConvBlock                 ReLU6-74     [1, 672, 10, 10]               0               0
   RecycleNetwork/EfficientNetLite/MBConvBlock                Conv2d-75     [1, 672, 10, 10]          16,800          16,800
   RecycleNetwork/EfficientNetLite/MBConvBlock           BatchNorm2d-76     [1, 672, 10, 10]           1,344           1,344
   RecycleNetwork/EfficientNetLite/MBConvBlock                Conv2d-77     [1, 112, 10, 10]          75,264          75,264
   RecycleNetwork/EfficientNetLite/MBConvBlock           BatchNorm2d-78     [1, 112, 10, 10]             224             224
   RecycleNetwork/EfficientNetLite/MBConvBlock                Conv2d-79     [1, 672, 10, 10]          75,264          75,264
   RecycleNetwork/EfficientNetLite/MBConvBlock           BatchNorm2d-80     [1, 672, 10, 10]           1,344           1,344
   RecycleNetwork/EfficientNetLite/MBConvBlock                 ReLU6-81     [1, 672, 10, 10]               0               0
   RecycleNetwork/EfficientNetLite/MBConvBlock                Conv2d-82       [1, 672, 5, 5]          16,800          16,800
   RecycleNetwork/EfficientNetLite/MBConvBlock           BatchNorm2d-83       [1, 672, 5, 5]           1,344           1,344
   RecycleNetwork/EfficientNetLite/MBConvBlock                Conv2d-84       [1, 192, 5, 5]         129,024         129,024
   RecycleNetwork/EfficientNetLite/MBConvBlock           BatchNorm2d-85       [1, 192, 5, 5]             384             384
   RecycleNetwork/EfficientNetLite/MBConvBlock                Conv2d-86      [1, 1152, 5, 5]         221,184         221,184
   RecycleNetwork/EfficientNetLite/MBConvBlock           BatchNorm2d-87      [1, 1152, 5, 5]           2,304           2,304
   RecycleNetwork/EfficientNetLite/MBConvBlock                 ReLU6-88      [1, 1152, 5, 5]               0               0
   RecycleNetwork/EfficientNetLite/MBConvBlock                Conv2d-89      [1, 1152, 5, 5]          28,800          28,800
   RecycleNetwork/EfficientNetLite/MBConvBlock           BatchNorm2d-90      [1, 1152, 5, 5]           2,304           2,304
   RecycleNetwork/EfficientNetLite/MBConvBlock                Conv2d-91       [1, 192, 5, 5]         221,184         221,184
   RecycleNetwork/EfficientNetLite/MBConvBlock           BatchNorm2d-92       [1, 192, 5, 5]             384             384
   RecycleNetwork/EfficientNetLite/MBConvBlock                Conv2d-93      [1, 1152, 5, 5]         221,184         221,184
   RecycleNetwork/EfficientNetLite/MBConvBlock           BatchNorm2d-94      [1, 1152, 5, 5]           2,304           2,304
   RecycleNetwork/EfficientNetLite/MBConvBlock                 ReLU6-95      [1, 1152, 5, 5]               0               0
   RecycleNetwork/EfficientNetLite/MBConvBlock                Conv2d-96      [1, 1152, 5, 5]          28,800          28,800
   RecycleNetwork/EfficientNetLite/MBConvBlock           BatchNorm2d-97      [1, 1152, 5, 5]           2,304           2,304
   RecycleNetwork/EfficientNetLite/MBConvBlock                Conv2d-98       [1, 192, 5, 5]         221,184         221,184
   RecycleNetwork/EfficientNetLite/MBConvBlock           BatchNorm2d-99       [1, 192, 5, 5]             384             384
   RecycleNetwork/EfficientNetLite/MBConvBlock               Conv2d-100      [1, 1152, 5, 5]         221,184         221,184
   RecycleNetwork/EfficientNetLite/MBConvBlock          BatchNorm2d-101      [1, 1152, 5, 5]           2,304           2,304
   RecycleNetwork/EfficientNetLite/MBConvBlock                ReLU6-102      [1, 1152, 5, 5]               0               0
   RecycleNetwork/EfficientNetLite/MBConvBlock               Conv2d-103      [1, 1152, 5, 5]          28,800          28,800
   RecycleNetwork/EfficientNetLite/MBConvBlock          BatchNorm2d-104      [1, 1152, 5, 5]           2,304           2,304
   RecycleNetwork/EfficientNetLite/MBConvBlock               Conv2d-105       [1, 192, 5, 5]         221,184         221,184
   RecycleNetwork/EfficientNetLite/MBConvBlock          BatchNorm2d-106       [1, 192, 5, 5]             384             384
   RecycleNetwork/EfficientNetLite/MBConvBlock               Conv2d-107      [1, 1152, 5, 5]         221,184         221,184
   RecycleNetwork/EfficientNetLite/MBConvBlock          BatchNorm2d-108      [1, 1152, 5, 5]           2,304           2,304
   RecycleNetwork/EfficientNetLite/MBConvBlock                ReLU6-109      [1, 1152, 5, 5]               0               0
   RecycleNetwork/EfficientNetLite/MBConvBlock               Conv2d-110      [1, 1152, 5, 5]          10,368          10,368
   RecycleNetwork/EfficientNetLite/MBConvBlock          BatchNorm2d-111      [1, 1152, 5, 5]           2,304           2,304
   RecycleNetwork/EfficientNetLite/MBConvBlock               Conv2d-112       [1, 320, 5, 5]         368,640         368,640
   RecycleNetwork/EfficientNetLite/MBConvBlock          BatchNorm2d-113       [1, 320, 5, 5]             640             640
               RecycleNetwork/EfficientNetLite               Conv2d-114      [1, 1280, 5, 5]         409,600         409,600
               RecycleNetwork/EfficientNetLite          BatchNorm2d-115      [1, 1280, 5, 5]           2,560           2,560
               RecycleNetwork/EfficientNetLite                ReLU6-116      [1, 1280, 5, 5]               0               0
               RecycleNetwork/EfficientNetLite    AdaptiveAvgPool2d-117      [1, 1280, 1, 1]               0               0
               RecycleNetwork/EfficientNetLite              Dropout-118            [1, 1280]               0               0
               RecycleNetwork/EfficientNetLite               Linear-119               [1, 5]           6,405           6,405
============================================================================================================================
Total params: 3,375,382
Trainable params: 3,375,382
Non-trainable params: 0
----------------------------------------------------------------------------------------------------------------------------
Ended Training Cycle
backbone.blocks.2.1._expand_conv
9

--------------------------------
…
        True, True, True, True, True, True, True, True, True, True, True, True,
        True, True, True, True])
torch.Size([40])
torch.Size([40])
Starting Training Cycle
----------------------------------------------------------------------------------------------------------------------------
                                 Parent Layers             Layer (type)         Output Shape         Param #     Tr. Param #
============================================================================================================================
               RecycleNetwork/EfficientNetLite                 Conv2d-1      [1, 27, 75, 75]             729             729
               RecycleNetwork/EfficientNetLite            BatchNorm2d-2      [1, 27, 75, 75]              54              54
               RecycleNetwork/EfficientNetLite                  ReLU6-3      [1, 27, 75, 75]               0               0
   RecycleNetwork/EfficientNetLite/MBConvBlock                 Conv2d-4      [1, 27, 75, 75]             243             243
   RecycleNetwork/EfficientNetLite/MBConvBlock            BatchNorm2d-5      [1, 27, 75, 75]              54              54
   RecycleNetwork/EfficientNetLite/MBConvBlock                  ReLU6-6      [1, 27, 75, 75]               0               0
   RecycleNetwork/EfficientNetLite/MBConvBlock                 Conv2d-7      [1, 16, 75, 75]             432             432
   RecycleNetwork/EfficientNetLite/MBConvBlock            BatchNorm2d-8      [1, 16, 75, 75]              32              32
   RecycleNetwork/EfficientNetLite/MBConvBlock                 Conv2d-9      [1, 89, 75, 75]           1,424           1,424
   RecycleNetwork/EfficientNetLite/MBConvBlock           BatchNorm2d-10      [1, 89, 75, 75]             178             178
   RecycleNetwork/EfficientNetLite/MBConvBlock                 ReLU6-11      [1, 89, 75, 75]               0               0
   RecycleNetwork/EfficientNetLite/MBConvBlock                Conv2d-12      [1, 89, 38, 38]             801             801
   RecycleNetwork/EfficientNetLite/MBConvBlock           BatchNorm2d-13      [1, 89, 38, 38]             178             178
   RecycleNetwork/EfficientNetLite/MBConvBlock                Conv2d-14      [1, 24, 38, 38]           2,136           2,136
   RecycleNetwork/EfficientNetLite/MBConvBlock           BatchNorm2d-15      [1, 24, 38, 38]              48              48
   RecycleNetwork/EfficientNetLite/MBConvBlock                Conv2d-16     [1, 129, 38, 38]           3,096           3,096
   RecycleNetwork/EfficientNetLite/MBConvBlock           BatchNorm2d-17     [1, 129, 38, 38]             258             258
   RecycleNetwork/EfficientNetLite/MBConvBlock                 ReLU6-18     [1, 129, 38, 38]               0               0
   RecycleNetwork/EfficientNetLite/MBConvBlock                Conv2d-19     [1, 129, 38, 38]           1,161           1,161
   RecycleNetwork/EfficientNetLite/MBConvBlock           BatchNorm2d-20     [1, 129, 38, 38]             258             258
   RecycleNetwork/EfficientNetLite/MBConvBlock                Conv2d-21      [1, 24, 38, 38]           3,096           3,096
   RecycleNetwork/EfficientNetLite/MBConvBlock           BatchNorm2d-22      [1, 24, 38, 38]              48              48
   RecycleNetwork/EfficientNetLite/MBConvBlock                Conv2d-23     [1, 139, 38, 38]           3,336           3,336
   RecycleNetwork/EfficientNetLite/MBConvBlock           BatchNorm2d-24     [1, 139, 38, 38]             278             278
   RecycleNetwork/EfficientNetLite/MBConvBlock                 ReLU6-25     [1, 139, 38, 38]               0               0
   RecycleNetwork/EfficientNetLite/MBConvBlock                Conv2d-26     [1, 139, 19, 19]           3,475           3,475
   RecycleNetwork/EfficientNetLite/MBConvBlock           BatchNorm2d-27     [1, 139, 19, 19]             278             278
   RecycleNetwork/EfficientNetLite/MBConvBlock                Conv2d-28      [1, 40, 19, 19]           5,560           5,560
   RecycleNetwork/EfficientNetLite/MBConvBlock           BatchNorm2d-29      [1, 40, 19, 19]              80              80
   RecycleNetwork/EfficientNetLite/MBConvBlock                Conv2d-30     [1, 201, 19, 19]           8,040           8,040
   RecycleNetwork/EfficientNetLite/MBConvBlock           BatchNorm2d-31     [1, 201, 19, 19]             402             402
   RecycleNetwork/EfficientNetLite/MBConvBlock                 ReLU6-32     [1, 201, 19, 19]               0               0
   RecycleNetwork/EfficientNetLite/MBConvBlock                Conv2d-33     [1, 201, 19, 19]           5,025           5,025
   RecycleNetwork/EfficientNetLite/MBConvBlock           BatchNorm2d-34     [1, 201, 19, 19]             402             402
   RecycleNetwork/EfficientNetLite/MBConvBlock                Conv2d-35      [1, 40, 19, 19]           8,040           8,040
   RecycleNetwork/EfficientNetLite/MBConvBlock           BatchNorm2d-36      [1, 40, 19, 19]              80              80
   RecycleNetwork/EfficientNetLite/MBConvBlock                Conv2d-37     [1, 240, 19, 19]           9,600           9,600
   RecycleNetwork/EfficientNetLite/MBConvBlock           BatchNorm2d-38     [1, 240, 19, 19]             480             480
   RecycleNetwork/EfficientNetLite/MBConvBlock                 ReLU6-39     [1, 240, 19, 19]               0               0
   RecycleNetwork/EfficientNetLite/MBConvBlock                Conv2d-40     [1, 240, 10, 10]           2,160           2,160
   RecycleNetwork/EfficientNetLite/MBConvBlock           BatchNorm2d-41     [1, 240, 10, 10]             480             480
   RecycleNetwork/EfficientNetLite/MBConvBlock                Conv2d-42      [1, 80, 10, 10]          19,200          19,200
   RecycleNetwork/EfficientNetLite/MBConvBlock           BatchNorm2d-43      [1, 80, 10, 10]             160             160
   RecycleNetwork/EfficientNetLite/MBConvBlock                Conv2d-44     [1, 480, 10, 10]          38,400          38,400
   RecycleNetwork/EfficientNetLite/MBConvBlock           BatchNorm2d-45     [1, 480, 10, 10]             960             960
   RecycleNetwork/EfficientNetLite/MBConvBlock                 ReLU6-46     [1, 480, 10, 10]               0               0
   RecycleNetwork/EfficientNetLite/MBConvBlock                Conv2d-47     [1, 480, 10, 10]           4,320           4,320
   RecycleNetwork/EfficientNetLite/MBConvBlock           BatchNorm2d-48     [1, 480, 10, 10]             960             960
   RecycleNetwork/EfficientNetLite/MBConvBlock                Conv2d-49      [1, 80, 10, 10]          38,400          38,400
   RecycleNetwork/EfficientNetLite/MBConvBlock           BatchNorm2d-50      [1, 80, 10, 10]             160             160
   RecycleNetwork/EfficientNetLite/MBConvBlock                Conv2d-51     [1, 480, 10, 10]          38,400          38,400
   RecycleNetwork/EfficientNetLite/MBConvBlock           BatchNorm2d-52     [1, 480, 10, 10]             960             960
   RecycleNetwork/EfficientNetLite/MBConvBlock                 ReLU6-53     [1, 480, 10, 10]               0               0
   RecycleNetwork/EfficientNetLite/MBConvBlock                Conv2d-54     [1, 480, 10, 10]           4,320           4,320
   RecycleNetwork/EfficientNetLite/MBConvBlock           BatchNorm2d-55     [1, 480, 10, 10]             960             960
   RecycleNetwork/EfficientNetLite/MBConvBlock                Conv2d-56      [1, 80, 10, 10]          38,400          38,400
   RecycleNetwork/EfficientNetLite/MBConvBlock           BatchNorm2d-57      [1, 80, 10, 10]             160             160
   RecycleNetwork/EfficientNetLite/MBConvBlock                Conv2d-58     [1, 480, 10, 10]          38,400          38,400
   RecycleNetwork/EfficientNetLite/MBConvBlock           BatchNorm2d-59     [1, 480, 10, 10]             960             960
   RecycleNetwork/EfficientNetLite/MBConvBlock                 ReLU6-60     [1, 480, 10, 10]               0               0
   RecycleNetwork/EfficientNetLite/MBConvBlock                Conv2d-61     [1, 480, 10, 10]          12,000          12,000
   RecycleNetwork/EfficientNetLite/MBConvBlock           BatchNorm2d-62     [1, 480, 10, 10]             960             960
   RecycleNetwork/EfficientNetLite/MBConvBlock                Conv2d-63     [1, 112, 10, 10]          53,760          53,760
   RecycleNetwork/EfficientNetLite/MBConvBlock           BatchNorm2d-64     [1, 112, 10, 10]             224             224
   RecycleNetwork/EfficientNetLite/MBConvBlock                Conv2d-65     [1, 672, 10, 10]          75,264          75,264
   RecycleNetwork/EfficientNetLite/MBConvBlock           BatchNorm2d-66     [1, 672, 10, 10]           1,344           1,344
   RecycleNetwork/EfficientNetLite/MBConvBlock                 ReLU6-67     [1, 672, 10, 10]               0               0
   RecycleNetwork/EfficientNetLite/MBConvBlock                Conv2d-68     [1, 672, 10, 10]          16,800          16,800
   RecycleNetwork/EfficientNetLite/MBConvBlock           BatchNorm2d-69     [1, 672, 10, 10]           1,344           1,344
   RecycleNetwork/EfficientNetLite/MBConvBlock                Conv2d-70     [1, 112, 10, 10]          75,264          75,264
   RecycleNetwork/EfficientNetLite/MBConvBlock           BatchNorm2d-71     [1, 112, 10, 10]             224             224
   RecycleNetwork/EfficientNetLite/MBConvBlock                Conv2d-72     [1, 672, 10, 10]          75,264          75,264
   RecycleNetwork/EfficientNetLite/MBConvBlock           BatchNorm2d-73     [1, 672, 10, 10]           1,344           1,344
   RecycleNetwork/EfficientNetLite/MBConvBlock                 ReLU6-74     [1, 672, 10, 10]               0               0
   RecycleNetwork/EfficientNetLite/MBConvBlock                Conv2d-75     [1, 672, 10, 10]          16,800          16,800
   RecycleNetwork/EfficientNetLite/MBConvBlock           BatchNorm2d-76     [1, 672, 10, 10]           1,344           1,344
   RecycleNetwork/EfficientNetLite/MBConvBlock                Conv2d-77     [1, 112, 10, 10]          75,264          75,264
   RecycleNetwork/EfficientNetLite/MBConvBlock           BatchNorm2d-78     [1, 112, 10, 10]             224             224
   RecycleNetwork/EfficientNetLite/MBConvBlock                Conv2d-79     [1, 672, 10, 10]          75,264          75,264
   RecycleNetwork/EfficientNetLite/MBConvBlock           BatchNorm2d-80     [1, 672, 10, 10]           1,344           1,344
   RecycleNetwork/EfficientNetLite/MBConvBlock                 ReLU6-81     [1, 672, 10, 10]               0               0
   RecycleNetwork/EfficientNetLite/MBConvBlock                Conv2d-82       [1, 672, 5, 5]          16,800          16,800
   RecycleNetwork/EfficientNetLite/MBConvBlock           BatchNorm2d-83       [1, 672, 5, 5]           1,344           1,344
   RecycleNetwork/EfficientNetLite/MBConvBlock                Conv2d-84       [1, 192, 5, 5]         129,024         129,024
   RecycleNetwork/EfficientNetLite/MBConvBlock           BatchNorm2d-85       [1, 192, 5, 5]             384             384
   RecycleNetwork/EfficientNetLite/MBConvBlock                Conv2d-86      [1, 1152, 5, 5]         221,184         221,184
   RecycleNetwork/EfficientNetLite/MBConvBlock           BatchNorm2d-87      [1, 1152, 5, 5]           2,304           2,304
   RecycleNetwork/EfficientNetLite/MBConvBlock                 ReLU6-88      [1, 1152, 5, 5]               0               0
   RecycleNetwork/EfficientNetLite/MBConvBlock                Conv2d-89      [1, 1152, 5, 5]          28,800          28,800
   RecycleNetwork/EfficientNetLite/MBConvBlock           BatchNorm2d-90      [1, 1152, 5, 5]           2,304           2,304
   RecycleNetwork/EfficientNetLite/MBConvBlock                Conv2d-91       [1, 192, 5, 5]         221,184         221,184
   RecycleNetwork/EfficientNetLite/MBConvBlock           BatchNorm2d-92       [1, 192, 5, 5]             384             384
   RecycleNetwork/EfficientNetLite/MBConvBlock                Conv2d-93      [1, 1152, 5, 5]         221,184         221,184
   RecycleNetwork/EfficientNetLite/MBConvBlock           BatchNorm2d-94      [1, 1152, 5, 5]           2,304           2,304
   RecycleNetwork/EfficientNetLite/MBConvBlock                 ReLU6-95      [1, 1152, 5, 5]               0               0
   RecycleNetwork/EfficientNetLite/MBConvBlock                Conv2d-96      [1, 1152, 5, 5]          28,800          28,800
   RecycleNetwork/EfficientNetLite/MBConvBlock           BatchNorm2d-97      [1, 1152, 5, 5]           2,304           2,304
   RecycleNetwork/EfficientNetLite/MBConvBlock                Conv2d-98       [1, 192, 5, 5]         221,184         221,184
   RecycleNetwork/EfficientNetLite/MBConvBlock           BatchNorm2d-99       [1, 192, 5, 5]             384             384
   RecycleNetwork/EfficientNetLite/MBConvBlock               Conv2d-100      [1, 1152, 5, 5]         221,184         221,184
   RecycleNetwork/EfficientNetLite/MBConvBlock          BatchNorm2d-101      [1, 1152, 5, 5]           2,304           2,304
   RecycleNetwork/EfficientNetLite/MBConvBlock                ReLU6-102      [1, 1152, 5, 5]               0               0
   RecycleNetwork/EfficientNetLite/MBConvBlock               Conv2d-103      [1, 1152, 5, 5]          28,800          28,800
   RecycleNetwork/EfficientNetLite/MBConvBlock          BatchNorm2d-104      [1, 1152, 5, 5]           2,304           2,304
   RecycleNetwork/EfficientNetLite/MBConvBlock               Conv2d-105       [1, 192, 5, 5]         221,184         221,184
   RecycleNetwork/EfficientNetLite/MBConvBlock          BatchNorm2d-106       [1, 192, 5, 5]             384             384
   RecycleNetwork/EfficientNetLite/MBConvBlock               Conv2d-107      [1, 1152, 5, 5]         221,184         221,184
   RecycleNetwork/EfficientNetLite/MBConvBlock          BatchNorm2d-108      [1, 1152, 5, 5]           2,304           2,304
   RecycleNetwork/EfficientNetLite/MBConvBlock                ReLU6-109      [1, 1152, 5, 5]               0               0
   RecycleNetwork/EfficientNetLite/MBConvBlock               Conv2d-110      [1, 1152, 5, 5]          10,368          10,368
   RecycleNetwork/EfficientNetLite/MBConvBlock          BatchNorm2d-111      [1, 1152, 5, 5]           2,304           2,304
   RecycleNetwork/EfficientNetLite/MBConvBlock               Conv2d-112       [1, 320, 5, 5]         368,640         368,640
   RecycleNetwork/EfficientNetLite/MBConvBlock          BatchNorm2d-113       [1, 320, 5, 5]             640             640
               RecycleNetwork/EfficientNetLite               Conv2d-114      [1, 1280, 5, 5]         409,600         409,600
               RecycleNetwork/EfficientNetLite          BatchNorm2d-115      [1, 1280, 5, 5]           2,560           2,560
               RecycleNetwork/EfficientNetLite                ReLU6-116      [1, 1280, 5, 5]               0               0
               RecycleNetwork/EfficientNetLite    AdaptiveAvgPool2d-117      [1, 1280, 1, 1]               0               0
               RecycleNetwork/EfficientNetLite              Dropout-118            [1, 1280]               0               0
               RecycleNetwork/EfficientNetLite               Linear-119               [1, 5]           6,405           6,405
============================================================================================================================
Total params: 3,371,131
Trainable params: 3,371,131
Non-trainable params: 0
----------------------------------------------------------------------------------------------------------------------------
Ended Training Cycle
backbone.blocks.3.0._expand_conv
7

--------------------------------
…
        True, True, True, True, True, True, True, True, True, True, True, True,
        True, True, True, True, True, True, True, True])
torch.Size([80])
torch.Size([80])
Starting Training Cycle
----------------------------------------------------------------------------------------------------------------------------
                                 Parent Layers             Layer (type)         Output Shape         Param #     Tr. Param #
============================================================================================================================
               RecycleNetwork/EfficientNetLite                 Conv2d-1      [1, 27, 75, 75]             729             729
               RecycleNetwork/EfficientNetLite            BatchNorm2d-2      [1, 27, 75, 75]              54              54
               RecycleNetwork/EfficientNetLite                  ReLU6-3      [1, 27, 75, 75]               0               0
   RecycleNetwork/EfficientNetLite/MBConvBlock                 Conv2d-4      [1, 27, 75, 75]             243             243
   RecycleNetwork/EfficientNetLite/MBConvBlock            BatchNorm2d-5      [1, 27, 75, 75]              54              54
   RecycleNetwork/EfficientNetLite/MBConvBlock                  ReLU6-6      [1, 27, 75, 75]               0               0
   RecycleNetwork/EfficientNetLite/MBConvBlock                 Conv2d-7      [1, 16, 75, 75]             432             432
   RecycleNetwork/EfficientNetLite/MBConvBlock            BatchNorm2d-8      [1, 16, 75, 75]              32              32
   RecycleNetwork/EfficientNetLite/MBConvBlock                 Conv2d-9      [1, 89, 75, 75]           1,424           1,424
   RecycleNetwork/EfficientNetLite/MBConvBlock           BatchNorm2d-10      [1, 89, 75, 75]             178             178
   RecycleNetwork/EfficientNetLite/MBConvBlock                 ReLU6-11      [1, 89, 75, 75]               0               0
   RecycleNetwork/EfficientNetLite/MBConvBlock                Conv2d-12      [1, 89, 38, 38]             801             801
   RecycleNetwork/EfficientNetLite/MBConvBlock           BatchNorm2d-13      [1, 89, 38, 38]             178             178
   RecycleNetwork/EfficientNetLite/MBConvBlock                Conv2d-14      [1, 24, 38, 38]           2,136           2,136
   RecycleNetwork/EfficientNetLite/MBConvBlock           BatchNorm2d-15      [1, 24, 38, 38]              48              48
   RecycleNetwork/EfficientNetLite/MBConvBlock                Conv2d-16     [1, 129, 38, 38]           3,096           3,096
   RecycleNetwork/EfficientNetLite/MBConvBlock           BatchNorm2d-17     [1, 129, 38, 38]             258             258
   RecycleNetwork/EfficientNetLite/MBConvBlock                 ReLU6-18     [1, 129, 38, 38]               0               0
   RecycleNetwork/EfficientNetLite/MBConvBlock                Conv2d-19     [1, 129, 38, 38]           1,161           1,161
   RecycleNetwork/EfficientNetLite/MBConvBlock           BatchNorm2d-20     [1, 129, 38, 38]             258             258
   RecycleNetwork/EfficientNetLite/MBConvBlock                Conv2d-21      [1, 24, 38, 38]           3,096           3,096
   RecycleNetwork/EfficientNetLite/MBConvBlock           BatchNorm2d-22      [1, 24, 38, 38]              48              48
   RecycleNetwork/EfficientNetLite/MBConvBlock                Conv2d-23     [1, 139, 38, 38]           3,336           3,336
   RecycleNetwork/EfficientNetLite/MBConvBlock           BatchNorm2d-24     [1, 139, 38, 38]             278             278
   RecycleNetwork/EfficientNetLite/MBConvBlock                 ReLU6-25     [1, 139, 38, 38]               0               0
   RecycleNetwork/EfficientNetLite/MBConvBlock                Conv2d-26     [1, 139, 19, 19]           3,475           3,475
   RecycleNetwork/EfficientNetLite/MBConvBlock           BatchNorm2d-27     [1, 139, 19, 19]             278             278
   RecycleNetwork/EfficientNetLite/MBConvBlock                Conv2d-28      [1, 40, 19, 19]           5,560           5,560
   RecycleNetwork/EfficientNetLite/MBConvBlock           BatchNorm2d-29      [1, 40, 19, 19]              80              80
   RecycleNetwork/EfficientNetLite/MBConvBlock                Conv2d-30     [1, 201, 19, 19]           8,040           8,040
   RecycleNetwork/EfficientNetLite/MBConvBlock           BatchNorm2d-31     [1, 201, 19, 19]             402             402
   RecycleNetwork/EfficientNetLite/MBConvBlock                 ReLU6-32     [1, 201, 19, 19]               0               0
   RecycleNetwork/EfficientNetLite/MBConvBlock                Conv2d-33     [1, 201, 19, 19]           5,025           5,025
   RecycleNetwork/EfficientNetLite/MBConvBlock           BatchNorm2d-34     [1, 201, 19, 19]             402             402
   RecycleNetwork/EfficientNetLite/MBConvBlock                Conv2d-35      [1, 40, 19, 19]           8,040           8,040
   RecycleNetwork/EfficientNetLite/MBConvBlock           BatchNorm2d-36      [1, 40, 19, 19]              80              80
   RecycleNetwork/EfficientNetLite/MBConvBlock                Conv2d-37     [1, 232, 19, 19]           9,280           9,280
   RecycleNetwork/EfficientNetLite/MBConvBlock           BatchNorm2d-38     [1, 232, 19, 19]             464             464
   RecycleNetwork/EfficientNetLite/MBConvBlock                 ReLU6-39     [1, 232, 19, 19]               0               0
   RecycleNetwork/EfficientNetLite/MBConvBlock                Conv2d-40     [1, 232, 10, 10]           2,088           2,088
   RecycleNetwork/EfficientNetLite/MBConvBlock           BatchNorm2d-41     [1, 232, 10, 10]             464             464
   RecycleNetwork/EfficientNetLite/MBConvBlock                Conv2d-42      [1, 80, 10, 10]          18,560          18,560
   RecycleNetwork/EfficientNetLite/MBConvBlock           BatchNorm2d-43      [1, 80, 10, 10]             160             160
   RecycleNetwork/EfficientNetLite/MBConvBlock                Conv2d-44     [1, 480, 10, 10]          38,400          38,400
   RecycleNetwork/EfficientNetLite/MBConvBlock           BatchNorm2d-45     [1, 480, 10, 10]             960             960
   RecycleNetwork/EfficientNetLite/MBConvBlock                 ReLU6-46     [1, 480, 10, 10]               0               0
   RecycleNetwork/EfficientNetLite/MBConvBlock                Conv2d-47     [1, 480, 10, 10]           4,320           4,320
   RecycleNetwork/EfficientNetLite/MBConvBlock           BatchNorm2d-48     [1, 480, 10, 10]             960             960
   RecycleNetwork/EfficientNetLite/MBConvBlock                Conv2d-49      [1, 80, 10, 10]          38,400          38,400
   RecycleNetwork/EfficientNetLite/MBConvBlock           BatchNorm2d-50      [1, 80, 10, 10]             160             160
   RecycleNetwork/EfficientNetLite/MBConvBlock                Conv2d-51     [1, 480, 10, 10]          38,400          38,400
   RecycleNetwork/EfficientNetLite/MBConvBlock           BatchNorm2d-52     [1, 480, 10, 10]             960             960
   RecycleNetwork/EfficientNetLite/MBConvBlock                 ReLU6-53     [1, 480, 10, 10]               0               0
   RecycleNetwork/EfficientNetLite/MBConvBlock                Conv2d-54     [1, 480, 10, 10]           4,320           4,320
   RecycleNetwork/EfficientNetLite/MBConvBlock           BatchNorm2d-55     [1, 480, 10, 10]             960             960
   RecycleNetwork/EfficientNetLite/MBConvBlock                Conv2d-56      [1, 80, 10, 10]          38,400          38,400
   RecycleNetwork/EfficientNetLite/MBConvBlock           BatchNorm2d-57      [1, 80, 10, 10]             160             160
   RecycleNetwork/EfficientNetLite/MBConvBlock                Conv2d-58     [1, 480, 10, 10]          38,400          38,400
   RecycleNetwork/EfficientNetLite/MBConvBlock           BatchNorm2d-59     [1, 480, 10, 10]             960             960
   RecycleNetwork/EfficientNetLite/MBConvBlock                 ReLU6-60     [1, 480, 10, 10]               0               0
   RecycleNetwork/EfficientNetLite/MBConvBlock                Conv2d-61     [1, 480, 10, 10]          12,000          12,000
   RecycleNetwork/EfficientNetLite/MBConvBlock           BatchNorm2d-62     [1, 480, 10, 10]             960             960
   RecycleNetwork/EfficientNetLite/MBConvBlock                Conv2d-63     [1, 112, 10, 10]          53,760          53,760
   RecycleNetwork/EfficientNetLite/MBConvBlock           BatchNorm2d-64     [1, 112, 10, 10]             224             224
   RecycleNetwork/EfficientNetLite/MBConvBlock                Conv2d-65     [1, 672, 10, 10]          75,264          75,264
   RecycleNetwork/EfficientNetLite/MBConvBlock           BatchNorm2d-66     [1, 672, 10, 10]           1,344           1,344
   RecycleNetwork/EfficientNetLite/MBConvBlock                 ReLU6-67     [1, 672, 10, 10]               0               0
   RecycleNetwork/EfficientNetLite/MBConvBlock                Conv2d-68     [1, 672, 10, 10]          16,800          16,800
   RecycleNetwork/EfficientNetLite/MBConvBlock           BatchNorm2d-69     [1, 672, 10, 10]           1,344           1,344
   RecycleNetwork/EfficientNetLite/MBConvBlock                Conv2d-70     [1, 112, 10, 10]          75,264          75,264
   RecycleNetwork/EfficientNetLite/MBConvBlock           BatchNorm2d-71     [1, 112, 10, 10]             224             224
   RecycleNetwork/EfficientNetLite/MBConvBlock                Conv2d-72     [1, 672, 10, 10]          75,264          75,264
   RecycleNetwork/EfficientNetLite/MBConvBlock           BatchNorm2d-73     [1, 672, 10, 10]           1,344           1,344
   RecycleNetwork/EfficientNetLite/MBConvBlock                 ReLU6-74     [1, 672, 10, 10]               0               0
   RecycleNetwork/EfficientNetLite/MBConvBlock                Conv2d-75     [1, 672, 10, 10]          16,800          16,800
   RecycleNetwork/EfficientNetLite/MBConvBlock           BatchNorm2d-76     [1, 672, 10, 10]           1,344           1,344
   RecycleNetwork/EfficientNetLite/MBConvBlock                Conv2d-77     [1, 112, 10, 10]          75,264          75,264
   RecycleNetwork/EfficientNetLite/MBConvBlock           BatchNorm2d-78     [1, 112, 10, 10]             224             224
   RecycleNetwork/EfficientNetLite/MBConvBlock                Conv2d-79     [1, 672, 10, 10]          75,264          75,264
   RecycleNetwork/EfficientNetLite/MBConvBlock           BatchNorm2d-80     [1, 672, 10, 10]           1,344           1,344
   RecycleNetwork/EfficientNetLite/MBConvBlock                 ReLU6-81     [1, 672, 10, 10]               0               0
   RecycleNetwork/EfficientNetLite/MBConvBlock                Conv2d-82       [1, 672, 5, 5]          16,800          16,800
   RecycleNetwork/EfficientNetLite/MBConvBlock           BatchNorm2d-83       [1, 672, 5, 5]           1,344           1,344
   RecycleNetwork/EfficientNetLite/MBConvBlock                Conv2d-84       [1, 192, 5, 5]         129,024         129,024
   RecycleNetwork/EfficientNetLite/MBConvBlock           BatchNorm2d-85       [1, 192, 5, 5]             384             384
   RecycleNetwork/EfficientNetLite/MBConvBlock                Conv2d-86      [1, 1152, 5, 5]         221,184         221,184
   RecycleNetwork/EfficientNetLite/MBConvBlock           BatchNorm2d-87      [1, 1152, 5, 5]           2,304           2,304
   RecycleNetwork/EfficientNetLite/MBConvBlock                 ReLU6-88      [1, 1152, 5, 5]               0               0
   RecycleNetwork/EfficientNetLite/MBConvBlock                Conv2d-89      [1, 1152, 5, 5]          28,800          28,800
   RecycleNetwork/EfficientNetLite/MBConvBlock           BatchNorm2d-90      [1, 1152, 5, 5]           2,304           2,304
   RecycleNetwork/EfficientNetLite/MBConvBlock                Conv2d-91       [1, 192, 5, 5]         221,184         221,184
   RecycleNetwork/EfficientNetLite/MBConvBlock           BatchNorm2d-92       [1, 192, 5, 5]             384             384
   RecycleNetwork/EfficientNetLite/MBConvBlock                Conv2d-93      [1, 1152, 5, 5]         221,184         221,184
   RecycleNetwork/EfficientNetLite/MBConvBlock           BatchNorm2d-94      [1, 1152, 5, 5]           2,304           2,304
   RecycleNetwork/EfficientNetLite/MBConvBlock                 ReLU6-95      [1, 1152, 5, 5]               0               0
   RecycleNetwork/EfficientNetLite/MBConvBlock                Conv2d-96      [1, 1152, 5, 5]          28,800          28,800
   RecycleNetwork/EfficientNetLite/MBConvBlock           BatchNorm2d-97      [1, 1152, 5, 5]           2,304           2,304
   RecycleNetwork/EfficientNetLite/MBConvBlock                Conv2d-98       [1, 192, 5, 5]         221,184         221,184
   RecycleNetwork/EfficientNetLite/MBConvBlock           BatchNorm2d-99       [1, 192, 5, 5]             384             384
   RecycleNetwork/EfficientNetLite/MBConvBlock               Conv2d-100      [1, 1152, 5, 5]         221,184         221,184
   RecycleNetwork/EfficientNetLite/MBConvBlock          BatchNorm2d-101      [1, 1152, 5, 5]           2,304           2,304
   RecycleNetwork/EfficientNetLite/MBConvBlock                ReLU6-102      [1, 1152, 5, 5]               0               0
   RecycleNetwork/EfficientNetLite/MBConvBlock               Conv2d-103      [1, 1152, 5, 5]          28,800          28,800
   RecycleNetwork/EfficientNetLite/MBConvBlock          BatchNorm2d-104      [1, 1152, 5, 5]           2,304           2,304
   RecycleNetwork/EfficientNetLite/MBConvBlock               Conv2d-105       [1, 192, 5, 5]         221,184         221,184
   RecycleNetwork/EfficientNetLite/MBConvBlock          BatchNorm2d-106       [1, 192, 5, 5]             384             384
   RecycleNetwork/EfficientNetLite/MBConvBlock               Conv2d-107      [1, 1152, 5, 5]         221,184         221,184
   RecycleNetwork/EfficientNetLite/MBConvBlock          BatchNorm2d-108      [1, 1152, 5, 5]           2,304           2,304
   RecycleNetwork/EfficientNetLite/MBConvBlock                ReLU6-109      [1, 1152, 5, 5]               0               0
   RecycleNetwork/EfficientNetLite/MBConvBlock               Conv2d-110      [1, 1152, 5, 5]          10,368          10,368
   RecycleNetwork/EfficientNetLite/MBConvBlock          BatchNorm2d-111      [1, 1152, 5, 5]           2,304           2,304
   RecycleNetwork/EfficientNetLite/MBConvBlock               Conv2d-112       [1, 320, 5, 5]         368,640         368,640
   RecycleNetwork/EfficientNetLite/MBConvBlock          BatchNorm2d-113       [1, 320, 5, 5]             640             640
               RecycleNetwork/EfficientNetLite               Conv2d-114      [1, 1280, 5, 5]         409,600         409,600
               RecycleNetwork/EfficientNetLite          BatchNorm2d-115      [1, 1280, 5, 5]           2,560           2,560
               RecycleNetwork/EfficientNetLite                ReLU6-116      [1, 1280, 5, 5]               0               0
               RecycleNetwork/EfficientNetLite    AdaptiveAvgPool2d-117      [1, 1280, 1, 1]               0               0
               RecycleNetwork/EfficientNetLite              Dropout-118            [1, 1280]               0               0
               RecycleNetwork/EfficientNetLite               Linear-119               [1, 5]           6,405           6,405
============================================================================================================================
Total params: 3,370,067
Trainable params: 3,370,067
Non-trainable params: 0
----------------------------------------------------------------------------------------------------------------------------
Ended Training Cycle
backbone.blocks.3.1._expand_conv
28

…
        True, True, True, True, True, True, True, True, True, True, True, True,
        True, True, True, True, True, True, True, True])
torch.Size([80])
torch.Size([80])
Starting Training Cycle
----------------------------------------------------------------------------------------------------------------------------
                                 Parent Layers             Layer (type)         Output Shape         Param #     Tr. Param #
============================================================================================================================
               RecycleNetwork/EfficientNetLite                 Conv2d-1      [1, 27, 75, 75]             729             729
               RecycleNetwork/EfficientNetLite            BatchNorm2d-2      [1, 27, 75, 75]              54              54
               RecycleNetwork/EfficientNetLite                  ReLU6-3      [1, 27, 75, 75]               0               0
   RecycleNetwork/EfficientNetLite/MBConvBlock                 Conv2d-4      [1, 27, 75, 75]             243             243
   RecycleNetwork/EfficientNetLite/MBConvBlock            BatchNorm2d-5      [1, 27, 75, 75]              54              54
   RecycleNetwork/EfficientNetLite/MBConvBlock                  ReLU6-6      [1, 27, 75, 75]               0               0
   RecycleNetwork/EfficientNetLite/MBConvBlock                 Conv2d-7      [1, 16, 75, 75]             432             432
   RecycleNetwork/EfficientNetLite/MBConvBlock            BatchNorm2d-8      [1, 16, 75, 75]              32              32
   RecycleNetwork/EfficientNetLite/MBConvBlock                 Conv2d-9      [1, 89, 75, 75]           1,424           1,424
   RecycleNetwork/EfficientNetLite/MBConvBlock           BatchNorm2d-10      [1, 89, 75, 75]             178             178
   RecycleNetwork/EfficientNetLite/MBConvBlock                 ReLU6-11      [1, 89, 75, 75]               0               0
   RecycleNetwork/EfficientNetLite/MBConvBlock                Conv2d-12      [1, 89, 38, 38]             801             801
   RecycleNetwork/EfficientNetLite/MBConvBlock           BatchNorm2d-13      [1, 89, 38, 38]             178             178
   RecycleNetwork/EfficientNetLite/MBConvBlock                Conv2d-14      [1, 24, 38, 38]           2,136           2,136
   RecycleNetwork/EfficientNetLite/MBConvBlock           BatchNorm2d-15      [1, 24, 38, 38]              48              48
   RecycleNetwork/EfficientNetLite/MBConvBlock                Conv2d-16     [1, 129, 38, 38]           3,096           3,096
   RecycleNetwork/EfficientNetLite/MBConvBlock           BatchNorm2d-17     [1, 129, 38, 38]             258             258
   RecycleNetwork/EfficientNetLite/MBConvBlock                 ReLU6-18     [1, 129, 38, 38]               0               0
   RecycleNetwork/EfficientNetLite/MBConvBlock                Conv2d-19     [1, 129, 38, 38]           1,161           1,161
   RecycleNetwork/EfficientNetLite/MBConvBlock           BatchNorm2d-20     [1, 129, 38, 38]             258             258
   RecycleNetwork/EfficientNetLite/MBConvBlock                Conv2d-21      [1, 24, 38, 38]           3,096           3,096
   RecycleNetwork/EfficientNetLite/MBConvBlock           BatchNorm2d-22      [1, 24, 38, 38]              48              48
   RecycleNetwork/EfficientNetLite/MBConvBlock                Conv2d-23     [1, 139, 38, 38]           3,336           3,336
   RecycleNetwork/EfficientNetLite/MBConvBlock           BatchNorm2d-24     [1, 139, 38, 38]             278             278
   RecycleNetwork/EfficientNetLite/MBConvBlock                 ReLU6-25     [1, 139, 38, 38]               0               0
   RecycleNetwork/EfficientNetLite/MBConvBlock                Conv2d-26     [1, 139, 19, 19]           3,475           3,475
   RecycleNetwork/EfficientNetLite/MBConvBlock           BatchNorm2d-27     [1, 139, 19, 19]             278             278
   RecycleNetwork/EfficientNetLite/MBConvBlock                Conv2d-28      [1, 40, 19, 19]           5,560           5,560
   RecycleNetwork/EfficientNetLite/MBConvBlock           BatchNorm2d-29      [1, 40, 19, 19]              80              80
   RecycleNetwork/EfficientNetLite/MBConvBlock                Conv2d-30     [1, 201, 19, 19]           8,040           8,040
   RecycleNetwork/EfficientNetLite/MBConvBlock           BatchNorm2d-31     [1, 201, 19, 19]             402             402
   RecycleNetwork/EfficientNetLite/MBConvBlock                 ReLU6-32     [1, 201, 19, 19]               0               0
   RecycleNetwork/EfficientNetLite/MBConvBlock                Conv2d-33     [1, 201, 19, 19]           5,025           5,025
   RecycleNetwork/EfficientNetLite/MBConvBlock           BatchNorm2d-34     [1, 201, 19, 19]             402             402
   RecycleNetwork/EfficientNetLite/MBConvBlock                Conv2d-35      [1, 40, 19, 19]           8,040           8,040
   RecycleNetwork/EfficientNetLite/MBConvBlock           BatchNorm2d-36      [1, 40, 19, 19]              80              80
   RecycleNetwork/EfficientNetLite/MBConvBlock                Conv2d-37     [1, 232, 19, 19]           9,280           9,280
   RecycleNetwork/EfficientNetLite/MBConvBlock           BatchNorm2d-38     [1, 232, 19, 19]             464             464
   RecycleNetwork/EfficientNetLite/MBConvBlock                 ReLU6-39     [1, 232, 19, 19]               0               0
   RecycleNetwork/EfficientNetLite/MBConvBlock                Conv2d-40     [1, 232, 10, 10]           2,088           2,088
   RecycleNetwork/EfficientNetLite/MBConvBlock           BatchNorm2d-41     [1, 232, 10, 10]             464             464
   RecycleNetwork/EfficientNetLite/MBConvBlock                Conv2d-42      [1, 80, 10, 10]          18,560          18,560
   RecycleNetwork/EfficientNetLite/MBConvBlock           BatchNorm2d-43      [1, 80, 10, 10]             160             160
   RecycleNetwork/EfficientNetLite/MBConvBlock                Conv2d-44     [1, 363, 10, 10]          29,040          29,040
   RecycleNetwork/EfficientNetLite/MBConvBlock           BatchNorm2d-45     [1, 363, 10, 10]             726             726
   RecycleNetwork/EfficientNetLite/MBConvBlock                 ReLU6-46     [1, 363, 10, 10]               0               0
   RecycleNetwork/EfficientNetLite/MBConvBlock                Conv2d-47     [1, 363, 10, 10]           3,267           3,267
   RecycleNetwork/EfficientNetLite/MBConvBlock           BatchNorm2d-48     [1, 363, 10, 10]             726             726
   RecycleNetwork/EfficientNetLite/MBConvBlock                Conv2d-49      [1, 80, 10, 10]          29,040          29,040
   RecycleNetwork/EfficientNetLite/MBConvBlock           BatchNorm2d-50      [1, 80, 10, 10]             160             160
   RecycleNetwork/EfficientNetLite/MBConvBlock                Conv2d-51     [1, 480, 10, 10]          38,400          38,400
   RecycleNetwork/EfficientNetLite/MBConvBlock           BatchNorm2d-52     [1, 480, 10, 10]             960             960
   RecycleNetwork/EfficientNetLite/MBConvBlock                 ReLU6-53     [1, 480, 10, 10]               0               0
   RecycleNetwork/EfficientNetLite/MBConvBlock                Conv2d-54     [1, 480, 10, 10]           4,320           4,320
   RecycleNetwork/EfficientNetLite/MBConvBlock           BatchNorm2d-55     [1, 480, 10, 10]             960             960
   RecycleNetwork/EfficientNetLite/MBConvBlock                Conv2d-56      [1, 80, 10, 10]          38,400          38,400
   RecycleNetwork/EfficientNetLite/MBConvBlock           BatchNorm2d-57      [1, 80, 10, 10]             160             160
   RecycleNetwork/EfficientNetLite/MBConvBlock                Conv2d-58     [1, 480, 10, 10]          38,400          38,400
   RecycleNetwork/EfficientNetLite/MBConvBlock           BatchNorm2d-59     [1, 480, 10, 10]             960             960
   RecycleNetwork/EfficientNetLite/MBConvBlock                 ReLU6-60     [1, 480, 10, 10]               0               0
   RecycleNetwork/EfficientNetLite/MBConvBlock                Conv2d-61     [1, 480, 10, 10]          12,000          12,000
   RecycleNetwork/EfficientNetLite/MBConvBlock           BatchNorm2d-62     [1, 480, 10, 10]             960             960
   RecycleNetwork/EfficientNetLite/MBConvBlock                Conv2d-63     [1, 112, 10, 10]          53,760          53,760
   RecycleNetwork/EfficientNetLite/MBConvBlock           BatchNorm2d-64     [1, 112, 10, 10]             224             224
   RecycleNetwork/EfficientNetLite/MBConvBlock                Conv2d-65     [1, 672, 10, 10]          75,264          75,264
   RecycleNetwork/EfficientNetLite/MBConvBlock           BatchNorm2d-66     [1, 672, 10, 10]           1,344           1,344
   RecycleNetwork/EfficientNetLite/MBConvBlock                 ReLU6-67     [1, 672, 10, 10]               0               0
   RecycleNetwork/EfficientNetLite/MBConvBlock                Conv2d-68     [1, 672, 10, 10]          16,800          16,800
   RecycleNetwork/EfficientNetLite/MBConvBlock           BatchNorm2d-69     [1, 672, 10, 10]           1,344           1,344
   RecycleNetwork/EfficientNetLite/MBConvBlock                Conv2d-70     [1, 112, 10, 10]          75,264          75,264
   RecycleNetwork/EfficientNetLite/MBConvBlock           BatchNorm2d-71     [1, 112, 10, 10]             224             224
   RecycleNetwork/EfficientNetLite/MBConvBlock                Conv2d-72     [1, 672, 10, 10]          75,264          75,264
   RecycleNetwork/EfficientNetLite/MBConvBlock           BatchNorm2d-73     [1, 672, 10, 10]           1,344           1,344
   RecycleNetwork/EfficientNetLite/MBConvBlock                 ReLU6-74     [1, 672, 10, 10]               0               0
   RecycleNetwork/EfficientNetLite/MBConvBlock                Conv2d-75     [1, 672, 10, 10]          16,800          16,800
   RecycleNetwork/EfficientNetLite/MBConvBlock           BatchNorm2d-76     [1, 672, 10, 10]           1,344           1,344
   RecycleNetwork/EfficientNetLite/MBConvBlock                Conv2d-77     [1, 112, 10, 10]          75,264          75,264
   RecycleNetwork/EfficientNetLite/MBConvBlock           BatchNorm2d-78     [1, 112, 10, 10]             224             224
   RecycleNetwork/EfficientNetLite/MBConvBlock                Conv2d-79     [1, 672, 10, 10]          75,264          75,264
   RecycleNetwork/EfficientNetLite/MBConvBlock           BatchNorm2d-80     [1, 672, 10, 10]           1,344           1,344
   RecycleNetwork/EfficientNetLite/MBConvBlock                 ReLU6-81     [1, 672, 10, 10]               0               0
   RecycleNetwork/EfficientNetLite/MBConvBlock                Conv2d-82       [1, 672, 5, 5]          16,800          16,800
   RecycleNetwork/EfficientNetLite/MBConvBlock           BatchNorm2d-83       [1, 672, 5, 5]           1,344           1,344
   RecycleNetwork/EfficientNetLite/MBConvBlock                Conv2d-84       [1, 192, 5, 5]         129,024         129,024
   RecycleNetwork/EfficientNetLite/MBConvBlock           BatchNorm2d-85       [1, 192, 5, 5]             384             384
   RecycleNetwork/EfficientNetLite/MBConvBlock                Conv2d-86      [1, 1152, 5, 5]         221,184         221,184
   RecycleNetwork/EfficientNetLite/MBConvBlock           BatchNorm2d-87      [1, 1152, 5, 5]           2,304           2,304
   RecycleNetwork/EfficientNetLite/MBConvBlock                 ReLU6-88      [1, 1152, 5, 5]               0               0
   RecycleNetwork/EfficientNetLite/MBConvBlock                Conv2d-89      [1, 1152, 5, 5]          28,800          28,800
   RecycleNetwork/EfficientNetLite/MBConvBlock           BatchNorm2d-90      [1, 1152, 5, 5]           2,304           2,304
   RecycleNetwork/EfficientNetLite/MBConvBlock                Conv2d-91       [1, 192, 5, 5]         221,184         221,184
   RecycleNetwork/EfficientNetLite/MBConvBlock           BatchNorm2d-92       [1, 192, 5, 5]             384             384
   RecycleNetwork/EfficientNetLite/MBConvBlock                Conv2d-93      [1, 1152, 5, 5]         221,184         221,184
   RecycleNetwork/EfficientNetLite/MBConvBlock           BatchNorm2d-94      [1, 1152, 5, 5]           2,304           2,304
   RecycleNetwork/EfficientNetLite/MBConvBlock                 ReLU6-95      [1, 1152, 5, 5]               0               0
   RecycleNetwork/EfficientNetLite/MBConvBlock                Conv2d-96      [1, 1152, 5, 5]          28,800          28,800
   RecycleNetwork/EfficientNetLite/MBConvBlock           BatchNorm2d-97      [1, 1152, 5, 5]           2,304           2,304
   RecycleNetwork/EfficientNetLite/MBConvBlock                Conv2d-98       [1, 192, 5, 5]         221,184         221,184
   RecycleNetwork/EfficientNetLite/MBConvBlock           BatchNorm2d-99       [1, 192, 5, 5]             384             384
   RecycleNetwork/EfficientNetLite/MBConvBlock               Conv2d-100      [1, 1152, 5, 5]         221,184         221,184
   RecycleNetwork/EfficientNetLite/MBConvBlock          BatchNorm2d-101      [1, 1152, 5, 5]           2,304           2,304
   RecycleNetwork/EfficientNetLite/MBConvBlock                ReLU6-102      [1, 1152, 5, 5]               0               0
   RecycleNetwork/EfficientNetLite/MBConvBlock               Conv2d-103      [1, 1152, 5, 5]          28,800          28,800
   RecycleNetwork/EfficientNetLite/MBConvBlock          BatchNorm2d-104      [1, 1152, 5, 5]           2,304           2,304
   RecycleNetwork/EfficientNetLite/MBConvBlock               Conv2d-105       [1, 192, 5, 5]         221,184         221,184
   RecycleNetwork/EfficientNetLite/MBConvBlock          BatchNorm2d-106       [1, 192, 5, 5]             384             384
   RecycleNetwork/EfficientNetLite/MBConvBlock               Conv2d-107      [1, 1152, 5, 5]         221,184         221,184
   RecycleNetwork/EfficientNetLite/MBConvBlock          BatchNorm2d-108      [1, 1152, 5, 5]           2,304           2,304
   RecycleNetwork/EfficientNetLite/MBConvBlock                ReLU6-109      [1, 1152, 5, 5]               0               0
   RecycleNetwork/EfficientNetLite/MBConvBlock               Conv2d-110      [1, 1152, 5, 5]          10,368          10,368
   RecycleNetwork/EfficientNetLite/MBConvBlock          BatchNorm2d-111      [1, 1152, 5, 5]           2,304           2,304
   RecycleNetwork/EfficientNetLite/MBConvBlock               Conv2d-112       [1, 320, 5, 5]         368,640         368,640
   RecycleNetwork/EfficientNetLite/MBConvBlock          BatchNorm2d-113       [1, 320, 5, 5]             640             640
               RecycleNetwork/EfficientNetLite               Conv2d-114      [1, 1280, 5, 5]         409,600         409,600
               RecycleNetwork/EfficientNetLite          BatchNorm2d-115      [1, 1280, 5, 5]           2,560           2,560
               RecycleNetwork/EfficientNetLite                ReLU6-116      [1, 1280, 5, 5]               0               0
               RecycleNetwork/EfficientNetLite    AdaptiveAvgPool2d-117      [1, 1280, 1, 1]               0               0
               RecycleNetwork/EfficientNetLite              Dropout-118            [1, 1280]               0               0
               RecycleNetwork/EfficientNetLite               Linear-119               [1, 5]           6,405           6,405
============================================================================================================================
Total params: 3,349,826
Trainable params: 3,349,826
Non-trainable params: 0
----------------------------------------------------------------------------------------------------------------------------
Ended Training Cycle
backbone.blocks.3.2._expand_conv
25

…
        True, True, True, True, True, True, True, True, True, True, True, True,
        True, True, True, True, True, True, True, True])
torch.Size([80])
torch.Size([80])
Starting Training Cycle
----------------------------------------------------------------------------------------------------------------------------
                                 Parent Layers             Layer (type)         Output Shape         Param #     Tr. Param #
============================================================================================================================
               RecycleNetwork/EfficientNetLite                 Conv2d-1      [1, 27, 75, 75]             729             729
               RecycleNetwork/EfficientNetLite            BatchNorm2d-2      [1, 27, 75, 75]              54              54
               RecycleNetwork/EfficientNetLite                  ReLU6-3      [1, 27, 75, 75]               0               0
   RecycleNetwork/EfficientNetLite/MBConvBlock                 Conv2d-4      [1, 27, 75, 75]             243             243
   RecycleNetwork/EfficientNetLite/MBConvBlock            BatchNorm2d-5      [1, 27, 75, 75]              54              54
   RecycleNetwork/EfficientNetLite/MBConvBlock                  ReLU6-6      [1, 27, 75, 75]               0               0
   RecycleNetwork/EfficientNetLite/MBConvBlock                 Conv2d-7      [1, 16, 75, 75]             432             432
   RecycleNetwork/EfficientNetLite/MBConvBlock            BatchNorm2d-8      [1, 16, 75, 75]              32              32
   RecycleNetwork/EfficientNetLite/MBConvBlock                 Conv2d-9      [1, 89, 75, 75]           1,424           1,424
   RecycleNetwork/EfficientNetLite/MBConvBlock           BatchNorm2d-10      [1, 89, 75, 75]             178             178
   RecycleNetwork/EfficientNetLite/MBConvBlock                 ReLU6-11      [1, 89, 75, 75]               0               0
   RecycleNetwork/EfficientNetLite/MBConvBlock                Conv2d-12      [1, 89, 38, 38]             801             801
   RecycleNetwork/EfficientNetLite/MBConvBlock           BatchNorm2d-13      [1, 89, 38, 38]             178             178
   RecycleNetwork/EfficientNetLite/MBConvBlock                Conv2d-14      [1, 24, 38, 38]           2,136           2,136
   RecycleNetwork/EfficientNetLite/MBConvBlock           BatchNorm2d-15      [1, 24, 38, 38]              48              48
   RecycleNetwork/EfficientNetLite/MBConvBlock                Conv2d-16     [1, 129, 38, 38]           3,096           3,096
   RecycleNetwork/EfficientNetLite/MBConvBlock           BatchNorm2d-17     [1, 129, 38, 38]             258             258
   RecycleNetwork/EfficientNetLite/MBConvBlock                 ReLU6-18     [1, 129, 38, 38]               0               0
   RecycleNetwork/EfficientNetLite/MBConvBlock                Conv2d-19     [1, 129, 38, 38]           1,161           1,161
   RecycleNetwork/EfficientNetLite/MBConvBlock           BatchNorm2d-20     [1, 129, 38, 38]             258             258
   RecycleNetwork/EfficientNetLite/MBConvBlock                Conv2d-21      [1, 24, 38, 38]           3,096           3,096
   RecycleNetwork/EfficientNetLite/MBConvBlock           BatchNorm2d-22      [1, 24, 38, 38]              48              48
   RecycleNetwork/EfficientNetLite/MBConvBlock                Conv2d-23     [1, 139, 38, 38]           3,336           3,336
   RecycleNetwork/EfficientNetLite/MBConvBlock           BatchNorm2d-24     [1, 139, 38, 38]             278             278
   RecycleNetwork/EfficientNetLite/MBConvBlock                 ReLU6-25     [1, 139, 38, 38]               0               0
   RecycleNetwork/EfficientNetLite/MBConvBlock                Conv2d-26     [1, 139, 19, 19]           3,475           3,475
   RecycleNetwork/EfficientNetLite/MBConvBlock           BatchNorm2d-27     [1, 139, 19, 19]             278             278
   RecycleNetwork/EfficientNetLite/MBConvBlock                Conv2d-28      [1, 40, 19, 19]           5,560           5,560
   RecycleNetwork/EfficientNetLite/MBConvBlock           BatchNorm2d-29      [1, 40, 19, 19]              80              80
   RecycleNetwork/EfficientNetLite/MBConvBlock                Conv2d-30     [1, 201, 19, 19]           8,040           8,040
   RecycleNetwork/EfficientNetLite/MBConvBlock           BatchNorm2d-31     [1, 201, 19, 19]             402             402
   RecycleNetwork/EfficientNetLite/MBConvBlock                 ReLU6-32     [1, 201, 19, 19]               0               0
   RecycleNetwork/EfficientNetLite/MBConvBlock                Conv2d-33     [1, 201, 19, 19]           5,025           5,025
   RecycleNetwork/EfficientNetLite/MBConvBlock           BatchNorm2d-34     [1, 201, 19, 19]             402             402
   RecycleNetwork/EfficientNetLite/MBConvBlock                Conv2d-35      [1, 40, 19, 19]           8,040           8,040
   RecycleNetwork/EfficientNetLite/MBConvBlock           BatchNorm2d-36      [1, 40, 19, 19]              80              80
   RecycleNetwork/EfficientNetLite/MBConvBlock                Conv2d-37     [1, 232, 19, 19]           9,280           9,280
   RecycleNetwork/EfficientNetLite/MBConvBlock           BatchNorm2d-38     [1, 232, 19, 19]             464             464
   RecycleNetwork/EfficientNetLite/MBConvBlock                 ReLU6-39     [1, 232, 19, 19]               0               0
   RecycleNetwork/EfficientNetLite/MBConvBlock                Conv2d-40     [1, 232, 10, 10]           2,088           2,088
   RecycleNetwork/EfficientNetLite/MBConvBlock           BatchNorm2d-41     [1, 232, 10, 10]             464             464
   RecycleNetwork/EfficientNetLite/MBConvBlock                Conv2d-42      [1, 80, 10, 10]          18,560          18,560
   RecycleNetwork/EfficientNetLite/MBConvBlock           BatchNorm2d-43      [1, 80, 10, 10]             160             160
   RecycleNetwork/EfficientNetLite/MBConvBlock                Conv2d-44     [1, 363, 10, 10]          29,040          29,040
   RecycleNetwork/EfficientNetLite/MBConvBlock           BatchNorm2d-45     [1, 363, 10, 10]             726             726
   RecycleNetwork/EfficientNetLite/MBConvBlock                 ReLU6-46     [1, 363, 10, 10]               0               0
   RecycleNetwork/EfficientNetLite/MBConvBlock                Conv2d-47     [1, 363, 10, 10]           3,267           3,267
   RecycleNetwork/EfficientNetLite/MBConvBlock           BatchNorm2d-48     [1, 363, 10, 10]             726             726
   RecycleNetwork/EfficientNetLite/MBConvBlock                Conv2d-49      [1, 80, 10, 10]          29,040          29,040
   RecycleNetwork/EfficientNetLite/MBConvBlock           BatchNorm2d-50      [1, 80, 10, 10]             160             160
   RecycleNetwork/EfficientNetLite/MBConvBlock                Conv2d-51     [1, 333, 10, 10]          26,640          26,640
   RecycleNetwork/EfficientNetLite/MBConvBlock           BatchNorm2d-52     [1, 333, 10, 10]             666             666
   RecycleNetwork/EfficientNetLite/MBConvBlock                 ReLU6-53     [1, 333, 10, 10]               0               0
   RecycleNetwork/EfficientNetLite/MBConvBlock                Conv2d-54     [1, 333, 10, 10]           2,997           2,997
   RecycleNetwork/EfficientNetLite/MBConvBlock           BatchNorm2d-55     [1, 333, 10, 10]             666             666
   RecycleNetwork/EfficientNetLite/MBConvBlock                Conv2d-56      [1, 80, 10, 10]          26,640          26,640
   RecycleNetwork/EfficientNetLite/MBConvBlock           BatchNorm2d-57      [1, 80, 10, 10]             160             160
   RecycleNetwork/EfficientNetLite/MBConvBlock                Conv2d-58     [1, 480, 10, 10]          38,400          38,400
   RecycleNetwork/EfficientNetLite/MBConvBlock           BatchNorm2d-59     [1, 480, 10, 10]             960             960
   RecycleNetwork/EfficientNetLite/MBConvBlock                 ReLU6-60     [1, 480, 10, 10]               0               0
   RecycleNetwork/EfficientNetLite/MBConvBlock                Conv2d-61     [1, 480, 10, 10]          12,000          12,000
   RecycleNetwork/EfficientNetLite/MBConvBlock           BatchNorm2d-62     [1, 480, 10, 10]             960             960
   RecycleNetwork/EfficientNetLite/MBConvBlock                Conv2d-63     [1, 112, 10, 10]          53,760          53,760
   RecycleNetwork/EfficientNetLite/MBConvBlock           BatchNorm2d-64     [1, 112, 10, 10]             224             224
   RecycleNetwork/EfficientNetLite/MBConvBlock                Conv2d-65     [1, 672, 10, 10]          75,264          75,264
   RecycleNetwork/EfficientNetLite/MBConvBlock           BatchNorm2d-66     [1, 672, 10, 10]           1,344           1,344
   RecycleNetwork/EfficientNetLite/MBConvBlock                 ReLU6-67     [1, 672, 10, 10]               0               0
   RecycleNetwork/EfficientNetLite/MBConvBlock                Conv2d-68     [1, 672, 10, 10]          16,800          16,800
   RecycleNetwork/EfficientNetLite/MBConvBlock           BatchNorm2d-69     [1, 672, 10, 10]           1,344           1,344
   RecycleNetwork/EfficientNetLite/MBConvBlock                Conv2d-70     [1, 112, 10, 10]          75,264          75,264
   RecycleNetwork/EfficientNetLite/MBConvBlock           BatchNorm2d-71     [1, 112, 10, 10]             224             224
   RecycleNetwork/EfficientNetLite/MBConvBlock                Conv2d-72     [1, 672, 10, 10]          75,264          75,264
   RecycleNetwork/EfficientNetLite/MBConvBlock           BatchNorm2d-73     [1, 672, 10, 10]           1,344           1,344
   RecycleNetwork/EfficientNetLite/MBConvBlock                 ReLU6-74     [1, 672, 10, 10]               0               0
   RecycleNetwork/EfficientNetLite/MBConvBlock                Conv2d-75     [1, 672, 10, 10]          16,800          16,800
   RecycleNetwork/EfficientNetLite/MBConvBlock           BatchNorm2d-76     [1, 672, 10, 10]           1,344           1,344
   RecycleNetwork/EfficientNetLite/MBConvBlock                Conv2d-77     [1, 112, 10, 10]          75,264          75,264
   RecycleNetwork/EfficientNetLite/MBConvBlock           BatchNorm2d-78     [1, 112, 10, 10]             224             224
   RecycleNetwork/EfficientNetLite/MBConvBlock                Conv2d-79     [1, 672, 10, 10]          75,264          75,264
   RecycleNetwork/EfficientNetLite/MBConvBlock           BatchNorm2d-80     [1, 672, 10, 10]           1,344           1,344
   RecycleNetwork/EfficientNetLite/MBConvBlock                 ReLU6-81     [1, 672, 10, 10]               0               0
   RecycleNetwork/EfficientNetLite/MBConvBlock                Conv2d-82       [1, 672, 5, 5]          16,800          16,800
   RecycleNetwork/EfficientNetLite/MBConvBlock           BatchNorm2d-83       [1, 672, 5, 5]           1,344           1,344
   RecycleNetwork/EfficientNetLite/MBConvBlock                Conv2d-84       [1, 192, 5, 5]         129,024         129,024
   RecycleNetwork/EfficientNetLite/MBConvBlock           BatchNorm2d-85       [1, 192, 5, 5]             384             384
   RecycleNetwork/EfficientNetLite/MBConvBlock                Conv2d-86      [1, 1152, 5, 5]         221,184         221,184
   RecycleNetwork/EfficientNetLite/MBConvBlock           BatchNorm2d-87      [1, 1152, 5, 5]           2,304           2,304
   RecycleNetwork/EfficientNetLite/MBConvBlock                 ReLU6-88      [1, 1152, 5, 5]               0               0
   RecycleNetwork/EfficientNetLite/MBConvBlock                Conv2d-89      [1, 1152, 5, 5]          28,800          28,800
   RecycleNetwork/EfficientNetLite/MBConvBlock           BatchNorm2d-90      [1, 1152, 5, 5]           2,304           2,304
   RecycleNetwork/EfficientNetLite/MBConvBlock                Conv2d-91       [1, 192, 5, 5]         221,184         221,184
   RecycleNetwork/EfficientNetLite/MBConvBlock           BatchNorm2d-92       [1, 192, 5, 5]             384             384
   RecycleNetwork/EfficientNetLite/MBConvBlock                Conv2d-93      [1, 1152, 5, 5]         221,184         221,184
   RecycleNetwork/EfficientNetLite/MBConvBlock           BatchNorm2d-94      [1, 1152, 5, 5]           2,304           2,304
   RecycleNetwork/EfficientNetLite/MBConvBlock                 ReLU6-95      [1, 1152, 5, 5]               0               0
   RecycleNetwork/EfficientNetLite/MBConvBlock                Conv2d-96      [1, 1152, 5, 5]          28,800          28,800
   RecycleNetwork/EfficientNetLite/MBConvBlock           BatchNorm2d-97      [1, 1152, 5, 5]           2,304           2,304
   RecycleNetwork/EfficientNetLite/MBConvBlock                Conv2d-98       [1, 192, 5, 5]         221,184         221,184
   RecycleNetwork/EfficientNetLite/MBConvBlock           BatchNorm2d-99       [1, 192, 5, 5]             384             384
   RecycleNetwork/EfficientNetLite/MBConvBlock               Conv2d-100      [1, 1152, 5, 5]         221,184         221,184
   RecycleNetwork/EfficientNetLite/MBConvBlock          BatchNorm2d-101      [1, 1152, 5, 5]           2,304           2,304
   RecycleNetwork/EfficientNetLite/MBConvBlock                ReLU6-102      [1, 1152, 5, 5]               0               0
   RecycleNetwork/EfficientNetLite/MBConvBlock               Conv2d-103      [1, 1152, 5, 5]          28,800          28,800
   RecycleNetwork/EfficientNetLite/MBConvBlock          BatchNorm2d-104      [1, 1152, 5, 5]           2,304           2,304
   RecycleNetwork/EfficientNetLite/MBConvBlock               Conv2d-105       [1, 192, 5, 5]         221,184         221,184
   RecycleNetwork/EfficientNetLite/MBConvBlock          BatchNorm2d-106       [1, 192, 5, 5]             384             384
   RecycleNetwork/EfficientNetLite/MBConvBlock               Conv2d-107      [1, 1152, 5, 5]         221,184         221,184
   RecycleNetwork/EfficientNetLite/MBConvBlock          BatchNorm2d-108      [1, 1152, 5, 5]           2,304           2,304
   RecycleNetwork/EfficientNetLite/MBConvBlock                ReLU6-109      [1, 1152, 5, 5]               0               0
   RecycleNetwork/EfficientNetLite/MBConvBlock               Conv2d-110      [1, 1152, 5, 5]          10,368          10,368
   RecycleNetwork/EfficientNetLite/MBConvBlock          BatchNorm2d-111      [1, 1152, 5, 5]           2,304           2,304
   RecycleNetwork/EfficientNetLite/MBConvBlock               Conv2d-112       [1, 320, 5, 5]         368,640         368,640
   RecycleNetwork/EfficientNetLite/MBConvBlock          BatchNorm2d-113       [1, 320, 5, 5]             640             640
               RecycleNetwork/EfficientNetLite               Conv2d-114      [1, 1280, 5, 5]         409,600         409,600
               RecycleNetwork/EfficientNetLite          BatchNorm2d-115      [1, 1280, 5, 5]           2,560           2,560
               RecycleNetwork/EfficientNetLite                ReLU6-116      [1, 1280, 5, 5]               0               0
               RecycleNetwork/EfficientNetLite    AdaptiveAvgPool2d-117      [1, 1280, 1, 1]               0               0
               RecycleNetwork/EfficientNetLite              Dropout-118            [1, 1280]               0               0
               RecycleNetwork/EfficientNetLite               Linear-119               [1, 5]           6,405           6,405
============================================================================================================================
Total params: 3,324,395
Trainable params: 3,324,395
Non-trainable params: 0
----------------------------------------------------------------------------------------------------------------------------
Ended Training Cycle
backbone.blocks.4.0._expand_conv
9

--------------------------------
…
        True, True, True, True, True, True, True, True, True, True, True, True,
        True, True, True, True])
torch.Size([112])
torch.Size([112])
Starting Training Cycle
----------------------------------------------------------------------------------------------------------------------------
                                 Parent Layers             Layer (type)         Output Shape         Param #     Tr. Param #
============================================================================================================================
               RecycleNetwork/EfficientNetLite                 Conv2d-1      [1, 27, 75, 75]             729             729
               RecycleNetwork/EfficientNetLite            BatchNorm2d-2      [1, 27, 75, 75]              54              54
               RecycleNetwork/EfficientNetLite                  ReLU6-3      [1, 27, 75, 75]               0               0
   RecycleNetwork/EfficientNetLite/MBConvBlock                 Conv2d-4      [1, 27, 75, 75]             243             243
   RecycleNetwork/EfficientNetLite/MBConvBlock            BatchNorm2d-5      [1, 27, 75, 75]              54              54
   RecycleNetwork/EfficientNetLite/MBConvBlock                  ReLU6-6      [1, 27, 75, 75]               0               0
   RecycleNetwork/EfficientNetLite/MBConvBlock                 Conv2d-7      [1, 16, 75, 75]             432             432
   RecycleNetwork/EfficientNetLite/MBConvBlock            BatchNorm2d-8      [1, 16, 75, 75]              32              32
   RecycleNetwork/EfficientNetLite/MBConvBlock                 Conv2d-9      [1, 89, 75, 75]           1,424           1,424
   RecycleNetwork/EfficientNetLite/MBConvBlock           BatchNorm2d-10      [1, 89, 75, 75]             178             178
   RecycleNetwork/EfficientNetLite/MBConvBlock                 ReLU6-11      [1, 89, 75, 75]               0               0
   RecycleNetwork/EfficientNetLite/MBConvBlock                Conv2d-12      [1, 89, 38, 38]             801             801
   RecycleNetwork/EfficientNetLite/MBConvBlock           BatchNorm2d-13      [1, 89, 38, 38]             178             178
   RecycleNetwork/EfficientNetLite/MBConvBlock                Conv2d-14      [1, 24, 38, 38]           2,136           2,136
   RecycleNetwork/EfficientNetLite/MBConvBlock           BatchNorm2d-15      [1, 24, 38, 38]              48              48
   RecycleNetwork/EfficientNetLite/MBConvBlock                Conv2d-16     [1, 129, 38, 38]           3,096           3,096
   RecycleNetwork/EfficientNetLite/MBConvBlock           BatchNorm2d-17     [1, 129, 38, 38]             258             258
   RecycleNetwork/EfficientNetLite/MBConvBlock                 ReLU6-18     [1, 129, 38, 38]               0               0
   RecycleNetwork/EfficientNetLite/MBConvBlock                Conv2d-19     [1, 129, 38, 38]           1,161           1,161
   RecycleNetwork/EfficientNetLite/MBConvBlock           BatchNorm2d-20     [1, 129, 38, 38]             258             258
   RecycleNetwork/EfficientNetLite/MBConvBlock                Conv2d-21      [1, 24, 38, 38]           3,096           3,096
   RecycleNetwork/EfficientNetLite/MBConvBlock           BatchNorm2d-22      [1, 24, 38, 38]              48              48
   RecycleNetwork/EfficientNetLite/MBConvBlock                Conv2d-23     [1, 139, 38, 38]           3,336           3,336
   RecycleNetwork/EfficientNetLite/MBConvBlock           BatchNorm2d-24     [1, 139, 38, 38]             278             278
   RecycleNetwork/EfficientNetLite/MBConvBlock                 ReLU6-25     [1, 139, 38, 38]               0               0
   RecycleNetwork/EfficientNetLite/MBConvBlock                Conv2d-26     [1, 139, 19, 19]           3,475           3,475
   RecycleNetwork/EfficientNetLite/MBConvBlock           BatchNorm2d-27     [1, 139, 19, 19]             278             278
   RecycleNetwork/EfficientNetLite/MBConvBlock                Conv2d-28      [1, 40, 19, 19]           5,560           5,560
   RecycleNetwork/EfficientNetLite/MBConvBlock           BatchNorm2d-29      [1, 40, 19, 19]              80              80
   RecycleNetwork/EfficientNetLite/MBConvBlock                Conv2d-30     [1, 201, 19, 19]           8,040           8,040
   RecycleNetwork/EfficientNetLite/MBConvBlock           BatchNorm2d-31     [1, 201, 19, 19]             402             402
   RecycleNetwork/EfficientNetLite/MBConvBlock                 ReLU6-32     [1, 201, 19, 19]               0               0
   RecycleNetwork/EfficientNetLite/MBConvBlock                Conv2d-33     [1, 201, 19, 19]           5,025           5,025
   RecycleNetwork/EfficientNetLite/MBConvBlock           BatchNorm2d-34     [1, 201, 19, 19]             402             402
   RecycleNetwork/EfficientNetLite/MBConvBlock                Conv2d-35      [1, 40, 19, 19]           8,040           8,040
   RecycleNetwork/EfficientNetLite/MBConvBlock           BatchNorm2d-36      [1, 40, 19, 19]              80              80
   RecycleNetwork/EfficientNetLite/MBConvBlock                Conv2d-37     [1, 232, 19, 19]           9,280           9,280
   RecycleNetwork/EfficientNetLite/MBConvBlock           BatchNorm2d-38     [1, 232, 19, 19]             464             464
   RecycleNetwork/EfficientNetLite/MBConvBlock                 ReLU6-39     [1, 232, 19, 19]               0               0
   RecycleNetwork/EfficientNetLite/MBConvBlock                Conv2d-40     [1, 232, 10, 10]           2,088           2,088
   RecycleNetwork/EfficientNetLite/MBConvBlock           BatchNorm2d-41     [1, 232, 10, 10]             464             464
   RecycleNetwork/EfficientNetLite/MBConvBlock                Conv2d-42      [1, 80, 10, 10]          18,560          18,560
   RecycleNetwork/EfficientNetLite/MBConvBlock           BatchNorm2d-43      [1, 80, 10, 10]             160             160
   RecycleNetwork/EfficientNetLite/MBConvBlock                Conv2d-44     [1, 363, 10, 10]          29,040          29,040
   RecycleNetwork/EfficientNetLite/MBConvBlock           BatchNorm2d-45     [1, 363, 10, 10]             726             726
   RecycleNetwork/EfficientNetLite/MBConvBlock                 ReLU6-46     [1, 363, 10, 10]               0               0
   RecycleNetwork/EfficientNetLite/MBConvBlock                Conv2d-47     [1, 363, 10, 10]           3,267           3,267
   RecycleNetwork/EfficientNetLite/MBConvBlock           BatchNorm2d-48     [1, 363, 10, 10]             726             726
   RecycleNetwork/EfficientNetLite/MBConvBlock                Conv2d-49      [1, 80, 10, 10]          29,040          29,040
   RecycleNetwork/EfficientNetLite/MBConvBlock           BatchNorm2d-50      [1, 80, 10, 10]             160             160
   RecycleNetwork/EfficientNetLite/MBConvBlock                Conv2d-51     [1, 333, 10, 10]          26,640          26,640
   RecycleNetwork/EfficientNetLite/MBConvBlock           BatchNorm2d-52     [1, 333, 10, 10]             666             666
   RecycleNetwork/EfficientNetLite/MBConvBlock                 ReLU6-53     [1, 333, 10, 10]               0               0
   RecycleNetwork/EfficientNetLite/MBConvBlock                Conv2d-54     [1, 333, 10, 10]           2,997           2,997
   RecycleNetwork/EfficientNetLite/MBConvBlock           BatchNorm2d-55     [1, 333, 10, 10]             666             666
…
   RecycleNetwork/EfficientNetLite/MBConvBlock          BatchNorm2d-104      [1, 1152, 5, 5]           2,304           2,304
   RecycleNetwork/EfficientNetLite/MBConvBlock               Conv2d-105       [1, 192, 5, 5]         221,184         221,184
   RecycleNetwork/EfficientNetLite/MBConvBlock          BatchNorm2d-106       [1, 192, 5, 5]             384             384
   RecycleNetwork/EfficientNetLite/MBConvBlock               Conv2d-107      [1, 1152, 5, 5]         221,184         221,184
   RecycleNetwork/EfficientNetLite/MBConvBlock          BatchNorm2d-108      [1, 1152, 5, 5]           2,304           2,304
   RecycleNetwork/EfficientNetLite/MBConvBlock                ReLU6-109      [1, 1152, 5, 5]               0               0
   RecycleNetwork/EfficientNetLite/MBConvBlock               Conv2d-110      [1, 1152, 5, 5]          10,368          10,368
   RecycleNetwork/EfficientNetLite/MBConvBlock          BatchNorm2d-111      [1, 1152, 5, 5]           2,304           2,304
   RecycleNetwork/EfficientNetLite/MBConvBlock               Conv2d-112       [1, 320, 5, 5]         368,640         368,640
   RecycleNetwork/EfficientNetLite/MBConvBlock          BatchNorm2d-113       [1, 320, 5, 5]             640             640
               RecycleNetwork/EfficientNetLite               Conv2d-114      [1, 1280, 5, 5]         409,600         409,600
               RecycleNetwork/EfficientNetLite          BatchNorm2d-115      [1, 1280, 5, 5]           2,560           2,560
               RecycleNetwork/EfficientNetLite                ReLU6-116      [1, 1280, 5, 5]               0               0
               RecycleNetwork/EfficientNetLite    AdaptiveAvgPool2d-117      [1, 1280, 1, 1]               0               0
               RecycleNetwork/EfficientNetLite              Dropout-118            [1, 1280]               0               0
               RecycleNetwork/EfficientNetLite               Linear-119               [1, 5]           6,405           6,405
============================================================================================================================
Total params: 2,596,459
Trainable params: 2,596,459
Non-trainable params: 0
----------------------------------------------------------------------------------------------------------------------------
Ended Training Cycle
backbone.blocks.5.3._expand_conv
513
…
        True, True, True, True, True, True, True, True, True, True, True, True,
        True, True, True, True, True, True, True, True, True, True, True, True])
torch.Size([192])
torch.Size([192])
Starting Training Cycle
----------------------------------------------------------------------------------------------------------------------------
                                 Parent Layers             Layer (type)         Output Shape         Param #     Tr. Param #
============================================================================================================================
               RecycleNetwork/EfficientNetLite                 Conv2d-1      [1, 27, 75, 75]             729             729
               RecycleNetwork/EfficientNetLite            BatchNorm2d-2      [1, 27, 75, 75]              54              54
               RecycleNetwork/EfficientNetLite                  ReLU6-3      [1, 27, 75, 75]               0               0
   RecycleNetwork/EfficientNetLite/MBConvBlock                 Conv2d-4      [1, 27, 75, 75]             243             243
   RecycleNetwork/EfficientNetLite/MBConvBlock            BatchNorm2d-5      [1, 27, 75, 75]              54              54
   RecycleNetwork/EfficientNetLite/MBConvBlock                  ReLU6-6      [1, 27, 75, 75]               0               0
   RecycleNetwork/EfficientNetLite/MBConvBlock                 Conv2d-7      [1, 16, 75, 75]             432             432
   RecycleNetwork/EfficientNetLite/MBConvBlock            BatchNorm2d-8      [1, 16, 75, 75]              32              32
   RecycleNetwork/EfficientNetLite/MBConvBlock                 Conv2d-9      [1, 89, 75, 75]           1,424           1,424
   RecycleNetwork/EfficientNetLite/MBConvBlock           BatchNorm2d-10      [1, 89, 75, 75]             178             178
   RecycleNetwork/EfficientNetLite/MBConvBlock                 ReLU6-11      [1, 89, 75, 75]               0               0
   RecycleNetwork/EfficientNetLite/MBConvBlock                Conv2d-12      [1, 89, 38, 38]             801             801
   RecycleNetwork/EfficientNetLite/MBConvBlock           BatchNorm2d-13      [1, 89, 38, 38]             178             178
   RecycleNetwork/EfficientNetLite/MBConvBlock                Conv2d-14      [1, 24, 38, 38]           2,136           2,136
   RecycleNetwork/EfficientNetLite/MBConvBlock           BatchNorm2d-15      [1, 24, 38, 38]              48              48
   RecycleNetwork/EfficientNetLite/MBConvBlock                Conv2d-16     [1, 129, 38, 38]           3,096           3,096
   RecycleNetwork/EfficientNetLite/MBConvBlock           BatchNorm2d-17     [1, 129, 38, 38]             258             258
   RecycleNetwork/EfficientNetLite/MBConvBlock                 ReLU6-18     [1, 129, 38, 38]               0               0
   RecycleNetwork/EfficientNetLite/MBConvBlock                Conv2d-19     [1, 129, 38, 38]           1,161           1,161
   RecycleNetwork/EfficientNetLite/MBConvBlock           BatchNorm2d-20     [1, 129, 38, 38]             258             258
   RecycleNetwork/EfficientNetLite/MBConvBlock                Conv2d-21      [1, 24, 38, 38]           3,096           3,096
   RecycleNetwork/EfficientNetLite/MBConvBlock           BatchNorm2d-22      [1, 24, 38, 38]              48              48
   RecycleNetwork/EfficientNetLite/MBConvBlock                Conv2d-23     [1, 139, 38, 38]           3,336           3,336
   RecycleNetwork/EfficientNetLite/MBConvBlock           BatchNorm2d-24     [1, 139, 38, 38]             278             278
   RecycleNetwork/EfficientNetLite/MBConvBlock                 ReLU6-25     [1, 139, 38, 38]               0               0
   RecycleNetwork/EfficientNetLite/MBConvBlock                Conv2d-26     [1, 139, 19, 19]           3,475           3,475
   RecycleNetwork/EfficientNetLite/MBConvBlock           BatchNorm2d-27     [1, 139, 19, 19]             278             278
   RecycleNetwork/EfficientNetLite/MBConvBlock                Conv2d-28      [1, 40, 19, 19]           5,560           5,560
   RecycleNetwork/EfficientNetLite/MBConvBlock           BatchNorm2d-29      [1, 40, 19, 19]              80              80
   RecycleNetwork/EfficientNetLite/MBConvBlock                Conv2d-30     [1, 201, 19, 19]           8,040           8,040
   RecycleNetwork/EfficientNetLite/MBConvBlock           BatchNorm2d-31     [1, 201, 19, 19]             402             402
   RecycleNetwork/EfficientNetLite/MBConvBlock                 ReLU6-32     [1, 201, 19, 19]               0               0
   RecycleNetwork/EfficientNetLite/MBConvBlock                Conv2d-33     [1, 201, 19, 19]           5,025           5,025
   RecycleNetwork/EfficientNetLite/MBConvBlock           BatchNorm2d-34     [1, 201, 19, 19]             402             402
   RecycleNetwork/EfficientNetLite/MBConvBlock                Conv2d-35      [1, 40, 19, 19]           8,040           8,040
   RecycleNetwork/EfficientNetLite/MBConvBlock           BatchNorm2d-36      [1, 40, 19, 19]              80              80
   RecycleNetwork/EfficientNetLite/MBConvBlock                Conv2d-37     [1, 232, 19, 19]           9,280           9,280
   RecycleNetwork/EfficientNetLite/MBConvBlock           BatchNorm2d-38     [1, 232, 19, 19]             464             464
   RecycleNetwork/EfficientNetLite/MBConvBlock                 ReLU6-39     [1, 232, 19, 19]               0               0
   RecycleNetwork/EfficientNetLite/MBConvBlock                Conv2d-40     [1, 232, 10, 10]           2,088           2,088
   RecycleNetwork/EfficientNetLite/MBConvBlock           BatchNorm2d-41     [1, 232, 10, 10]             464             464
   RecycleNetwork/EfficientNetLite/MBConvBlock                Conv2d-42      [1, 80, 10, 10]          18,560          18,560
   RecycleNetwork/EfficientNetLite/MBConvBlock           BatchNorm2d-43      [1, 80, 10, 10]             160             160
   RecycleNetwork/EfficientNetLite/MBConvBlock                Conv2d-44     [1, 363, 10, 10]          29,040          29,040
   RecycleNetwork/EfficientNetLite/MBConvBlock           BatchNorm2d-45     [1, 363, 10, 10]             726             726
   RecycleNetwork/EfficientNetLite/MBConvBlock                 ReLU6-46     [1, 363, 10, 10]               0               0
   RecycleNetwork/EfficientNetLite/MBConvBlock                Conv2d-47     [1, 363, 10, 10]           3,267           3,267
   RecycleNetwork/EfficientNetLite/MBConvBlock           BatchNorm2d-48     [1, 363, 10, 10]             726             726
   RecycleNetwork/EfficientNetLite/MBConvBlock                Conv2d-49      [1, 80, 10, 10]          29,040          29,040
   RecycleNetwork/EfficientNetLite/MBConvBlock           BatchNorm2d-50      [1, 80, 10, 10]             160             160
   RecycleNetwork/EfficientNetLite/MBConvBlock                Conv2d-51     [1, 333, 10, 10]          26,640          26,640
   RecycleNetwork/EfficientNetLite/MBConvBlock           BatchNorm2d-52     [1, 333, 10, 10]             666             666
   RecycleNetwork/EfficientNetLite/MBConvBlock                 ReLU6-53     [1, 333, 10, 10]               0               0
   RecycleNetwork/EfficientNetLite/MBConvBlock                Conv2d-54     [1, 333, 10, 10]           2,997           2,997
   RecycleNetwork/EfficientNetLite/MBConvBlock           BatchNorm2d-55     [1, 333, 10, 10]             666             666
   RecycleNetwork/EfficientNetLite/MBConvBlock                Conv2d-56      [1, 80, 10, 10]          26,640          26,640
   RecycleNetwork/EfficientNetLite/MBConvBlock           BatchNorm2d-57      [1, 80, 10, 10]             160             160
   RecycleNetwork/EfficientNetLite/MBConvBlock                Conv2d-58     [1, 455, 10, 10]          36,400          36,400
   RecycleNetwork/EfficientNetLite/MBConvBlock           BatchNorm2d-59     [1, 455, 10, 10]             910             910
   RecycleNetwork/EfficientNetLite/MBConvBlock                 ReLU6-60     [1, 455, 10, 10]               0               0
   RecycleNetwork/EfficientNetLite/MBConvBlock                Conv2d-61     [1, 455, 10, 10]          11,375          11,375
   RecycleNetwork/EfficientNetLite/MBConvBlock           BatchNorm2d-62     [1, 455, 10, 10]             910             910
   RecycleNetwork/EfficientNetLite/MBConvBlock                Conv2d-63     [1, 112, 10, 10]          50,960          50,960
   RecycleNetwork/EfficientNetLite/MBConvBlock           BatchNorm2d-64     [1, 112, 10, 10]             224             224
   RecycleNetwork/EfficientNetLite/MBConvBlock                Conv2d-65     [1, 458, 10, 10]          51,296          51,296
   RecycleNetwork/EfficientNetLite/MBConvBlock           BatchNorm2d-66     [1, 458, 10, 10]             916             916
   RecycleNetwork/EfficientNetLite/MBConvBlock                 ReLU6-67     [1, 458, 10, 10]               0               0
   RecycleNetwork/EfficientNetLite/MBConvBlock                Conv2d-68     [1, 458, 10, 10]          11,450          11,450
   RecycleNetwork/EfficientNetLite/MBConvBlock           BatchNorm2d-69     [1, 458, 10, 10]             916             916
   RecycleNetwork/EfficientNetLite/MBConvBlock                Conv2d-70     [1, 112, 10, 10]          51,296          51,296
   RecycleNetwork/EfficientNetLite/MBConvBlock           BatchNorm2d-71     [1, 112, 10, 10]             224             224
   RecycleNetwork/EfficientNetLite/MBConvBlock                Conv2d-72     [1, 343, 10, 10]          38,416          38,416
   RecycleNetwork/EfficientNetLite/MBConvBlock           BatchNorm2d-73     [1, 343, 10, 10]             686             686
   RecycleNetwork/EfficientNetLite/MBConvBlock                 ReLU6-74     [1, 343, 10, 10]               0               0
   RecycleNetwork/EfficientNetLite/MBConvBlock                Conv2d-75     [1, 343, 10, 10]           8,575           8,575
   RecycleNetwork/EfficientNetLite/MBConvBlock           BatchNorm2d-76     [1, 343, 10, 10]             686             686
   RecycleNetwork/EfficientNetLite/MBConvBlock                Conv2d-77     [1, 112, 10, 10]          38,416          38,416
   RecycleNetwork/EfficientNetLite/MBConvBlock           BatchNorm2d-78     [1, 112, 10, 10]             224             224
   RecycleNetwork/EfficientNetLite/MBConvBlock                Conv2d-79     [1, 427, 10, 10]          47,824          47,824
   RecycleNetwork/EfficientNetLite/MBConvBlock           BatchNorm2d-80     [1, 427, 10, 10]             854             854
   RecycleNetwork/EfficientNetLite/MBConvBlock                 ReLU6-81     [1, 427, 10, 10]               0               0
   RecycleNetwork/EfficientNetLite/MBConvBlock                Conv2d-82       [1, 427, 5, 5]          10,675          10,675
   RecycleNetwork/EfficientNetLite/MBConvBlock           BatchNorm2d-83       [1, 427, 5, 5]             854             854
   RecycleNetwork/EfficientNetLite/MBConvBlock                Conv2d-84       [1, 192, 5, 5]          81,984          81,984
   RecycleNetwork/EfficientNetLite/MBConvBlock           BatchNorm2d-85       [1, 192, 5, 5]             384             384
   RecycleNetwork/EfficientNetLite/MBConvBlock                Conv2d-86       [1, 673, 5, 5]         129,216         129,216
   RecycleNetwork/EfficientNetLite/MBConvBlock           BatchNorm2d-87       [1, 673, 5, 5]           1,346           1,346
   RecycleNetwork/EfficientNetLite/MBConvBlock                 ReLU6-88       [1, 673, 5, 5]               0               0
   RecycleNetwork/EfficientNetLite/MBConvBlock                Conv2d-89       [1, 673, 5, 5]          16,825          16,825
   RecycleNetwork/EfficientNetLite/MBConvBlock           BatchNorm2d-90       [1, 673, 5, 5]           1,346           1,346
   RecycleNetwork/EfficientNetLite/MBConvBlock                Conv2d-91       [1, 192, 5, 5]         129,216         129,216
   RecycleNetwork/EfficientNetLite/MBConvBlock           BatchNorm2d-92       [1, 192, 5, 5]             384             384
   RecycleNetwork/EfficientNetLite/MBConvBlock                Conv2d-93       [1, 412, 5, 5]          79,104          79,104
   RecycleNetwork/EfficientNetLite/MBConvBlock           BatchNorm2d-94       [1, 412, 5, 5]             824             824
   RecycleNetwork/EfficientNetLite/MBConvBlock                 ReLU6-95       [1, 412, 5, 5]               0               0
   RecycleNetwork/EfficientNetLite/MBConvBlock                Conv2d-96       [1, 412, 5, 5]          10,300          10,300
   RecycleNetwork/EfficientNetLite/MBConvBlock           BatchNorm2d-97       [1, 412, 5, 5]             824             824
   RecycleNetwork/EfficientNetLite/MBConvBlock                Conv2d-98       [1, 192, 5, 5]          79,104          79,104
   RecycleNetwork/EfficientNetLite/MBConvBlock           BatchNorm2d-99       [1, 192, 5, 5]             384             384
   RecycleNetwork/EfficientNetLite/MBConvBlock               Conv2d-100       [1, 318, 5, 5]          61,056          61,056
   RecycleNetwork/EfficientNetLite/MBConvBlock          BatchNorm2d-101       [1, 318, 5, 5]             636             636
   RecycleNetwork/EfficientNetLite/MBConvBlock                ReLU6-102       [1, 318, 5, 5]               0               0
   RecycleNetwork/EfficientNetLite/MBConvBlock               Conv2d-103       [1, 318, 5, 5]           7,950           7,950
   RecycleNetwork/EfficientNetLite/MBConvBlock          BatchNorm2d-104       [1, 318, 5, 5]             636             636
   RecycleNetwork/EfficientNetLite/MBConvBlock               Conv2d-105       [1, 192, 5, 5]          61,056          61,056
   RecycleNetwork/EfficientNetLite/MBConvBlock          BatchNorm2d-106       [1, 192, 5, 5]             384             384
   RecycleNetwork/EfficientNetLite/MBConvBlock               Conv2d-107      [1, 1152, 5, 5]         221,184         221,184
   RecycleNetwork/EfficientNetLite/MBConvBlock          BatchNorm2d-108      [1, 1152, 5, 5]           2,304           2,304
   RecycleNetwork/EfficientNetLite/MBConvBlock                ReLU6-109      [1, 1152, 5, 5]               0               0
   RecycleNetwork/EfficientNetLite/MBConvBlock               Conv2d-110      [1, 1152, 5, 5]          10,368          10,368
   RecycleNetwork/EfficientNetLite/MBConvBlock          BatchNorm2d-111      [1, 1152, 5, 5]           2,304           2,304
   RecycleNetwork/EfficientNetLite/MBConvBlock               Conv2d-112       [1, 320, 5, 5]         368,640         368,640
   RecycleNetwork/EfficientNetLite/MBConvBlock          BatchNorm2d-113       [1, 320, 5, 5]             640             640
               RecycleNetwork/EfficientNetLite               Conv2d-114      [1, 1280, 5, 5]         409,600         409,600
               RecycleNetwork/EfficientNetLite          BatchNorm2d-115      [1, 1280, 5, 5]           2,560           2,560
               RecycleNetwork/EfficientNetLite                ReLU6-116      [1, 1280, 5, 5]               0               0
               RecycleNetwork/EfficientNetLite    AdaptiveAvgPool2d-117      [1, 1280, 1, 1]               0               0
               RecycleNetwork/EfficientNetLite              Dropout-118            [1, 1280]               0               0
               RecycleNetwork/EfficientNetLite               Linear-119               [1, 5]           6,405           6,405
============================================================================================================================
Total params: 2,252,017
Trainable params: 2,252,017
Non-trainable params: 0
----------------------------------------------------------------------------------------------------------------------------
Ended Training Cycle
backbone.blocks.6.0._expand_conv
567
…
        True, True, True, True, True, True, True, True, True, True, True, True,
        True, True, True, True, True, True, True, True])
torch.Size([320])
torch.Size([320])
Starting Training Cycle
----------------------------------------------------------------------------------------------------------------------------
                                 Parent Layers             Layer (type)         Output Shape         Param #     Tr. Param #
============================================================================================================================
               RecycleNetwork/EfficientNetLite                 Conv2d-1      [1, 27, 75, 75]             729             729
               RecycleNetwork/EfficientNetLite            BatchNorm2d-2      [1, 27, 75, 75]              54              54
               RecycleNetwork/EfficientNetLite                  ReLU6-3      [1, 27, 75, 75]               0               0
   RecycleNetwork/EfficientNetLite/MBConvBlock                 Conv2d-4      [1, 27, 75, 75]             243             243
   RecycleNetwork/EfficientNetLite/MBConvBlock            BatchNorm2d-5      [1, 27, 75, 75]              54              54
   RecycleNetwork/EfficientNetLite/MBConvBlock                  ReLU6-6      [1, 27, 75, 75]               0               0
   RecycleNetwork/EfficientNetLite/MBConvBlock                 Conv2d-7      [1, 16, 75, 75]             432             432
   RecycleNetwork/EfficientNetLite/MBConvBlock            BatchNorm2d-8      [1, 16, 75, 75]              32              32
   RecycleNetwork/EfficientNetLite/MBConvBlock                 Conv2d-9      [1, 89, 75, 75]           1,424           1,424
   RecycleNetwork/EfficientNetLite/MBConvBlock           BatchNorm2d-10      [1, 89, 75, 75]             178             178
   RecycleNetwork/EfficientNetLite/MBConvBlock                 ReLU6-11      [1, 89, 75, 75]               0               0
   RecycleNetwork/EfficientNetLite/MBConvBlock                Conv2d-12      [1, 89, 38, 38]             801             801
   RecycleNetwork/EfficientNetLite/MBConvBlock           BatchNorm2d-13      [1, 89, 38, 38]             178             178
   RecycleNetwork/EfficientNetLite/MBConvBlock                Conv2d-14      [1, 24, 38, 38]           2,136           2,136
   RecycleNetwork/EfficientNetLite/MBConvBlock           BatchNorm2d-15      [1, 24, 38, 38]              48              48
   RecycleNetwork/EfficientNetLite/MBConvBlock                Conv2d-16     [1, 129, 38, 38]           3,096           3,096
   RecycleNetwork/EfficientNetLite/MBConvBlock           BatchNorm2d-17     [1, 129, 38, 38]             258             258
   RecycleNetwork/EfficientNetLite/MBConvBlock                 ReLU6-18     [1, 129, 38, 38]               0               0
   RecycleNetwork/EfficientNetLite/MBConvBlock                Conv2d-19     [1, 129, 38, 38]           1,161           1,161
   RecycleNetwork/EfficientNetLite/MBConvBlock           BatchNorm2d-20     [1, 129, 38, 38]             258             258
   RecycleNetwork/EfficientNetLite/MBConvBlock                Conv2d-21      [1, 24, 38, 38]           3,096           3,096
   RecycleNetwork/EfficientNetLite/MBConvBlock           BatchNorm2d-22      [1, 24, 38, 38]              48              48
   RecycleNetwork/EfficientNetLite/MBConvBlock                Conv2d-23     [1, 139, 38, 38]           3,336           3,336
   RecycleNetwork/EfficientNetLite/MBConvBlock           BatchNorm2d-24     [1, 139, 38, 38]             278             278
   RecycleNetwork/EfficientNetLite/MBConvBlock                 ReLU6-25     [1, 139, 38, 38]               0               0
   RecycleNetwork/EfficientNetLite/MBConvBlock                Conv2d-26     [1, 139, 19, 19]           3,475           3,475
   RecycleNetwork/EfficientNetLite/MBConvBlock           BatchNorm2d-27     [1, 139, 19, 19]             278             278
   RecycleNetwork/EfficientNetLite/MBConvBlock                Conv2d-28      [1, 40, 19, 19]           5,560           5,560
   RecycleNetwork/EfficientNetLite/MBConvBlock           BatchNorm2d-29      [1, 40, 19, 19]              80              80
   RecycleNetwork/EfficientNetLite/MBConvBlock                Conv2d-30     [1, 201, 19, 19]           8,040           8,040
   RecycleNetwork/EfficientNetLite/MBConvBlock           BatchNorm2d-31     [1, 201, 19, 19]             402             402
   RecycleNetwork/EfficientNetLite/MBConvBlock                 ReLU6-32     [1, 201, 19, 19]               0               0
   RecycleNetwork/EfficientNetLite/MBConvBlock                Conv2d-33     [1, 201, 19, 19]           5,025           5,025
   RecycleNetwork/EfficientNetLite/MBConvBlock           BatchNorm2d-34     [1, 201, 19, 19]             402             402
   RecycleNetwork/EfficientNetLite/MBConvBlock                Conv2d-35      [1, 40, 19, 19]           8,040           8,040
   RecycleNetwork/EfficientNetLite/MBConvBlock           BatchNorm2d-36      [1, 40, 19, 19]              80              80
   RecycleNetwork/EfficientNetLite/MBConvBlock                Conv2d-37     [1, 232, 19, 19]           9,280           9,280
   RecycleNetwork/EfficientNetLite/MBConvBlock           BatchNorm2d-38     [1, 232, 19, 19]             464             464
   RecycleNetwork/EfficientNetLite/MBConvBlock                 ReLU6-39     [1, 232, 19, 19]               0               0
   RecycleNetwork/EfficientNetLite/MBConvBlock                Conv2d-40     [1, 232, 10, 10]           2,088           2,088
   RecycleNetwork/EfficientNetLite/MBConvBlock           BatchNorm2d-41     [1, 232, 10, 10]             464             464
   RecycleNetwork/EfficientNetLite/MBConvBlock                Conv2d-42      [1, 80, 10, 10]          18,560          18,560
   RecycleNetwork/EfficientNetLite/MBConvBlock           BatchNorm2d-43      [1, 80, 10, 10]             160             160
   RecycleNetwork/EfficientNetLite/MBConvBlock                Conv2d-44     [1, 363, 10, 10]          29,040          29,040
   RecycleNetwork/EfficientNetLite/MBConvBlock           BatchNorm2d-45     [1, 363, 10, 10]             726             726
   RecycleNetwork/EfficientNetLite/MBConvBlock                 ReLU6-46     [1, 363, 10, 10]               0               0
   RecycleNetwork/EfficientNetLite/MBConvBlock                Conv2d-47     [1, 363, 10, 10]           3,267           3,267
   RecycleNetwork/EfficientNetLite/MBConvBlock           BatchNorm2d-48     [1, 363, 10, 10]             726             726
   RecycleNetwork/EfficientNetLite/MBConvBlock                Conv2d-49      [1, 80, 10, 10]          29,040          29,040
   RecycleNetwork/EfficientNetLite/MBConvBlock           BatchNorm2d-50      [1, 80, 10, 10]             160             160
   RecycleNetwork/EfficientNetLite/MBConvBlock                Conv2d-51     [1, 333, 10, 10]          26,640          26,640
   RecycleNetwork/EfficientNetLite/MBConvBlock           BatchNorm2d-52     [1, 333, 10, 10]             666             666
   RecycleNetwork/EfficientNetLite/MBConvBlock                 ReLU6-53     [1, 333, 10, 10]               0               0
   RecycleNetwork/EfficientNetLite/MBConvBlock                Conv2d-54     [1, 333, 10, 10]           2,997           2,997
   RecycleNetwork/EfficientNetLite/MBConvBlock           BatchNorm2d-55     [1, 333, 10, 10]             666             666
   RecycleNetwork/EfficientNetLite/MBConvBlock                Conv2d-56      [1, 80, 10, 10]          26,640          26,640
   RecycleNetwork/EfficientNetLite/MBConvBlock           BatchNorm2d-57      [1, 80, 10, 10]             160             160
   RecycleNetwork/EfficientNetLite/MBConvBlock                Conv2d-58     [1, 455, 10, 10]          36,400          36,400
   RecycleNetwork/EfficientNetLite/MBConvBlock           BatchNorm2d-59     [1, 455, 10, 10]             910             910
   RecycleNetwork/EfficientNetLite/MBConvBlock                 ReLU6-60     [1, 455, 10, 10]               0               0
   RecycleNetwork/EfficientNetLite/MBConvBlock                Conv2d-61     [1, 455, 10, 10]          11,375          11,375
   RecycleNetwork/EfficientNetLite/MBConvBlock           BatchNorm2d-62     [1, 455, 10, 10]             910             910
   RecycleNetwork/EfficientNetLite/MBConvBlock                Conv2d-63     [1, 112, 10, 10]          50,960          50,960
   RecycleNetwork/EfficientNetLite/MBConvBlock           BatchNorm2d-64     [1, 112, 10, 10]             224             224
   RecycleNetwork/EfficientNetLite/MBConvBlock                Conv2d-65     [1, 458, 10, 10]          51,296          51,296
   RecycleNetwork/EfficientNetLite/MBConvBlock           BatchNorm2d-66     [1, 458, 10, 10]             916             916
   RecycleNetwork/EfficientNetLite/MBConvBlock                 ReLU6-67     [1, 458, 10, 10]               0               0
   RecycleNetwork/EfficientNetLite/MBConvBlock                Conv2d-68     [1, 458, 10, 10]          11,450          11,450
   RecycleNetwork/EfficientNetLite/MBConvBlock           BatchNorm2d-69     [1, 458, 10, 10]             916             916
   RecycleNetwork/EfficientNetLite/MBConvBlock                Conv2d-70     [1, 112, 10, 10]          51,296          51,296
   RecycleNetwork/EfficientNetLite/MBConvBlock           BatchNorm2d-71     [1, 112, 10, 10]             224             224
   RecycleNetwork/EfficientNetLite/MBConvBlock                Conv2d-72     [1, 343, 10, 10]          38,416          38,416
   RecycleNetwork/EfficientNetLite/MBConvBlock           BatchNorm2d-73     [1, 343, 10, 10]             686             686
   RecycleNetwork/EfficientNetLite/MBConvBlock                 ReLU6-74     [1, 343, 10, 10]               0               0
   RecycleNetwork/EfficientNetLite/MBConvBlock                Conv2d-75     [1, 343, 10, 10]           8,575           8,575
   RecycleNetwork/EfficientNetLite/MBConvBlock           BatchNorm2d-76     [1, 343, 10, 10]             686             686
   RecycleNetwork/EfficientNetLite/MBConvBlock                Conv2d-77     [1, 112, 10, 10]          38,416          38,416
   RecycleNetwork/EfficientNetLite/MBConvBlock           BatchNorm2d-78     [1, 112, 10, 10]             224             224
   RecycleNetwork/EfficientNetLite/MBConvBlock                Conv2d-79     [1, 427, 10, 10]          47,824          47,824
   RecycleNetwork/EfficientNetLite/MBConvBlock           BatchNorm2d-80     [1, 427, 10, 10]             854             854
   RecycleNetwork/EfficientNetLite/MBConvBlock                 ReLU6-81     [1, 427, 10, 10]               0               0
   RecycleNetwork/EfficientNetLite/MBConvBlock                Conv2d-82       [1, 427, 5, 5]          10,675          10,675
   RecycleNetwork/EfficientNetLite/MBConvBlock           BatchNorm2d-83       [1, 427, 5, 5]             854             854
   RecycleNetwork/EfficientNetLite/MBConvBlock                Conv2d-84       [1, 192, 5, 5]          81,984          81,984
   RecycleNetwork/EfficientNetLite/MBConvBlock           BatchNorm2d-85       [1, 192, 5, 5]             384             384
   RecycleNetwork/EfficientNetLite/MBConvBlock                Conv2d-86       [1, 673, 5, 5]         129,216         129,216
   RecycleNetwork/EfficientNetLite/MBConvBlock           BatchNorm2d-87       [1, 673, 5, 5]           1,346           1,346
   RecycleNetwork/EfficientNetLite/MBConvBlock                 ReLU6-88       [1, 673, 5, 5]               0               0
   RecycleNetwork/EfficientNetLite/MBConvBlock                Conv2d-89       [1, 673, 5, 5]          16,825          16,825
   RecycleNetwork/EfficientNetLite/MBConvBlock           BatchNorm2d-90       [1, 673, 5, 5]           1,346           1,346
   RecycleNetwork/EfficientNetLite/MBConvBlock                Conv2d-91       [1, 192, 5, 5]         129,216         129,216
   RecycleNetwork/EfficientNetLite/MBConvBlock           BatchNorm2d-92       [1, 192, 5, 5]             384             384
   RecycleNetwork/EfficientNetLite/MBConvBlock                Conv2d-93       [1, 412, 5, 5]          79,104          79,104
   RecycleNetwork/EfficientNetLite/MBConvBlock           BatchNorm2d-94       [1, 412, 5, 5]             824             824
   RecycleNetwork/EfficientNetLite/MBConvBlock                 ReLU6-95       [1, 412, 5, 5]               0               0
   RecycleNetwork/EfficientNetLite/MBConvBlock                Conv2d-96       [1, 412, 5, 5]          10,300          10,300
   RecycleNetwork/EfficientNetLite/MBConvBlock           BatchNorm2d-97       [1, 412, 5, 5]             824             824
   RecycleNetwork/EfficientNetLite/MBConvBlock                Conv2d-98       [1, 192, 5, 5]          79,104          79,104
   RecycleNetwork/EfficientNetLite/MBConvBlock           BatchNorm2d-99       [1, 192, 5, 5]             384             384
   RecycleNetwork/EfficientNetLite/MBConvBlock               Conv2d-100       [1, 318, 5, 5]          61,056          61,056
   RecycleNetwork/EfficientNetLite/MBConvBlock          BatchNorm2d-101       [1, 318, 5, 5]             636             636
   RecycleNetwork/EfficientNetLite/MBConvBlock                ReLU6-102       [1, 318, 5, 5]               0               0
   RecycleNetwork/EfficientNetLite/MBConvBlock               Conv2d-103       [1, 318, 5, 5]           7,950           7,950
   RecycleNetwork/EfficientNetLite/MBConvBlock          BatchNorm2d-104       [1, 318, 5, 5]             636             636
   RecycleNetwork/EfficientNetLite/MBConvBlock               Conv2d-105       [1, 192, 5, 5]          61,056          61,056
   RecycleNetwork/EfficientNetLite/MBConvBlock          BatchNorm2d-106       [1, 192, 5, 5]             384             384
   RecycleNetwork/EfficientNetLite/MBConvBlock               Conv2d-107       [1, 476, 5, 5]          91,392          91,392
   RecycleNetwork/EfficientNetLite/MBConvBlock          BatchNorm2d-108       [1, 476, 5, 5]             952             952
   RecycleNetwork/EfficientNetLite/MBConvBlock                ReLU6-109       [1, 476, 5, 5]               0               0
   RecycleNetwork/EfficientNetLite/MBConvBlock               Conv2d-110       [1, 476, 5, 5]           4,284           4,284
   RecycleNetwork/EfficientNetLite/MBConvBlock          BatchNorm2d-111       [1, 476, 5, 5]             952             952
   RecycleNetwork/EfficientNetLite/MBConvBlock               Conv2d-112       [1, 320, 5, 5]         152,320         152,320
   RecycleNetwork/EfficientNetLite/MBConvBlock          BatchNorm2d-113       [1, 320, 5, 5]             640             640
               RecycleNetwork/EfficientNetLite               Conv2d-114      [1, 1280, 5, 5]         409,600         409,600
               RecycleNetwork/EfficientNetLite          BatchNorm2d-115      [1, 1280, 5, 5]           2,560           2,560
               RecycleNetwork/EfficientNetLite                ReLU6-116      [1, 1280, 5, 5]               0               0
               RecycleNetwork/EfficientNetLite    AdaptiveAvgPool2d-117      [1, 1280, 1, 1]               0               0
               RecycleNetwork/EfficientNetLite              Dropout-118            [1, 1280]               0               0
               RecycleNetwork/EfficientNetLite               Linear-119               [1, 5]           6,405           6,405
============================================================================================================================
Total params: 1,897,117
Trainable params: 1,897,117
Non-trainable params: 0
----------------------------------------------------------------------------------------------------------------------------
Ended Training Cycle
backbone.head.0
1082

--------------------------------
…
<bound method ConvPruner.prune_out_channels of <torch_pruning.pruner.function.ConvPruner object at 0x7fcee44d1960>>
backbone.head.0
0
tensor([ True, False, False,  ..., False,  True, False])
torch.Size([1280])
torch.Size([198])
4967
----------------------------------------------------------------------------------------------------------------------------
                                 Parent Layers             Layer (type)         Output Shape         Param #     Tr. Param #
============================================================================================================================
               RecycleNetwork/EfficientNetLite                 Conv2d-1      [1, 27, 75, 75]             729             729
               RecycleNetwork/EfficientNetLite            BatchNorm2d-2      [1, 27, 75, 75]              54              54
               RecycleNetwork/EfficientNetLite                  ReLU6-3      [1, 27, 75, 75]               0               0
   RecycleNetwork/EfficientNetLite/MBConvBlock                 Conv2d-4      [1, 27, 75, 75]             243             243
   RecycleNetwork/EfficientNetLite/MBConvBlock            BatchNorm2d-5      [1, 27, 75, 75]              54              54
   RecycleNetwork/EfficientNetLite/MBConvBlock                  ReLU6-6      [1, 27, 75, 75]               0               0
   RecycleNetwork/EfficientNetLite/MBConvBlock                 Conv2d-7      [1, 16, 75, 75]             432             432
   RecycleNetwork/EfficientNetLite/MBConvBlock            BatchNorm2d-8      [1, 16, 75, 75]              32              32
   RecycleNetwork/EfficientNetLite/MBConvBlock                 Conv2d-9      [1, 89, 75, 75]           1,424           1,424
   RecycleNetwork/EfficientNetLite/MBConvBlock           BatchNorm2d-10      [1, 89, 75, 75]             178             178
   RecycleNetwork/EfficientNetLite/MBConvBlock                 ReLU6-11      [1, 89, 75, 75]               0               0
   RecycleNetwork/EfficientNetLite/MBConvBlock                Conv2d-12      [1, 89, 38, 38]             801             801
   RecycleNetwork/EfficientNetLite/MBConvBlock           BatchNorm2d-13      [1, 89, 38, 38]             178             178
   RecycleNetwork/EfficientNetLite/MBConvBlock                Conv2d-14      [1, 24, 38, 38]           2,136           2,136
   RecycleNetwork/EfficientNetLite/MBConvBlock           BatchNorm2d-15      [1, 24, 38, 38]              48              48
   RecycleNetwork/EfficientNetLite/MBConvBlock                Conv2d-16     [1, 129, 38, 38]           3,096           3,096
   RecycleNetwork/EfficientNetLite/MBConvBlock           BatchNorm2d-17     [1, 129, 38, 38]             258             258
   RecycleNetwork/EfficientNetLite/MBConvBlock                 ReLU6-18     [1, 129, 38, 38]               0               0
   RecycleNetwork/EfficientNetLite/MBConvBlock                Conv2d-19     [1, 129, 38, 38]           1,161           1,161
   RecycleNetwork/EfficientNetLite/MBConvBlock           BatchNorm2d-20     [1, 129, 38, 38]             258             258
   RecycleNetwork/EfficientNetLite/MBConvBlock                Conv2d-21      [1, 24, 38, 38]           3,096           3,096
   RecycleNetwork/EfficientNetLite/MBConvBlock           BatchNorm2d-22      [1, 24, 38, 38]              48              48
   RecycleNetwork/EfficientNetLite/MBConvBlock                Conv2d-23     [1, 139, 38, 38]           3,336           3,336
   RecycleNetwork/EfficientNetLite/MBConvBlock           BatchNorm2d-24     [1, 139, 38, 38]             278             278
   RecycleNetwork/EfficientNetLite/MBConvBlock                 ReLU6-25     [1, 139, 38, 38]               0               0
   RecycleNetwork/EfficientNetLite/MBConvBlock                Conv2d-26     [1, 139, 19, 19]           3,475           3,475
   RecycleNetwork/EfficientNetLite/MBConvBlock           BatchNorm2d-27     [1, 139, 19, 19]             278             278
   RecycleNetwork/EfficientNetLite/MBConvBlock                Conv2d-28      [1, 40, 19, 19]           5,560           5,560
   RecycleNetwork/EfficientNetLite/MBConvBlock           BatchNorm2d-29      [1, 40, 19, 19]              80              80
   RecycleNetwork/EfficientNetLite/MBConvBlock                Conv2d-30     [1, 201, 19, 19]           8,040           8,040
   RecycleNetwork/EfficientNetLite/MBConvBlock           BatchNorm2d-31     [1, 201, 19, 19]             402             402
   RecycleNetwork/EfficientNetLite/MBConvBlock                 ReLU6-32     [1, 201, 19, 19]               0               0
   RecycleNetwork/EfficientNetLite/MBConvBlock                Conv2d-33     [1, 201, 19, 19]           5,025           5,025
   RecycleNetwork/EfficientNetLite/MBConvBlock           BatchNorm2d-34     [1, 201, 19, 19]             402             402
   RecycleNetwork/EfficientNetLite/MBConvBlock                Conv2d-35      [1, 40, 19, 19]           8,040           8,040
   RecycleNetwork/EfficientNetLite/MBConvBlock           BatchNorm2d-36      [1, 40, 19, 19]              80              80
   RecycleNetwork/EfficientNetLite/MBConvBlock                Conv2d-37     [1, 232, 19, 19]           9,280           9,280
   RecycleNetwork/EfficientNetLite/MBConvBlock           BatchNorm2d-38     [1, 232, 19, 19]             464             464
   RecycleNetwork/EfficientNetLite/MBConvBlock                 ReLU6-39     [1, 232, 19, 19]               0               0
   RecycleNetwork/EfficientNetLite/MBConvBlock                Conv2d-40     [1, 232, 10, 10]           2,088           2,088
   RecycleNetwork/EfficientNetLite/MBConvBlock           BatchNorm2d-41     [1, 232, 10, 10]             464             464
   RecycleNetwork/EfficientNetLite/MBConvBlock                Conv2d-42      [1, 80, 10, 10]          18,560          18,560
   RecycleNetwork/EfficientNetLite/MBConvBlock           BatchNorm2d-43      [1, 80, 10, 10]             160             160
   RecycleNetwork/EfficientNetLite/MBConvBlock                Conv2d-44     [1, 363, 10, 10]          29,040          29,040
   RecycleNetwork/EfficientNetLite/MBConvBlock           BatchNorm2d-45     [1, 363, 10, 10]             726             726
   RecycleNetwork/EfficientNetLite/MBConvBlock                 ReLU6-46     [1, 363, 10, 10]               0               0
   RecycleNetwork/EfficientNetLite/MBConvBlock                Conv2d-47     [1, 363, 10, 10]           3,267           3,267
   RecycleNetwork/EfficientNetLite/MBConvBlock           BatchNorm2d-48     [1, 363, 10, 10]             726             726
   RecycleNetwork/EfficientNetLite/MBConvBlock                Conv2d-49      [1, 80, 10, 10]          29,040          29,040
   RecycleNetwork/EfficientNetLite/MBConvBlock           BatchNorm2d-50      [1, 80, 10, 10]             160             160
   RecycleNetwork/EfficientNetLite/MBConvBlock                Conv2d-51     [1, 333, 10, 10]          26,640          26,640
   RecycleNetwork/EfficientNetLite/MBConvBlock           BatchNorm2d-52     [1, 333, 10, 10]             666             666
   RecycleNetwork/EfficientNetLite/MBConvBlock                 ReLU6-53     [1, 333, 10, 10]               0               0
   RecycleNetwork/EfficientNetLite/MBConvBlock                Conv2d-54     [1, 333, 10, 10]           2,997           2,997
   RecycleNetwork/EfficientNetLite/MBConvBlock           BatchNorm2d-55     [1, 333, 10, 10]             666             666
   RecycleNetwork/EfficientNetLite/MBConvBlock                Conv2d-56      [1, 80, 10, 10]          26,640          26,640
   RecycleNetwork/EfficientNetLite/MBConvBlock           BatchNorm2d-57      [1, 80, 10, 10]             160             160
   RecycleNetwork/EfficientNetLite/MBConvBlock                Conv2d-58     [1, 455, 10, 10]          36,400          36,400
   RecycleNetwork/EfficientNetLite/MBConvBlock           BatchNorm2d-59     [1, 455, 10, 10]             910             910
   RecycleNetwork/EfficientNetLite/MBConvBlock                 ReLU6-60     [1, 455, 10, 10]               0               0
   RecycleNetwork/EfficientNetLite/MBConvBlock                Conv2d-61     [1, 455, 10, 10]          11,375          11,375
   RecycleNetwork/EfficientNetLite/MBConvBlock           BatchNorm2d-62     [1, 455, 10, 10]             910             910
   RecycleNetwork/EfficientNetLite/MBConvBlock                Conv2d-63     [1, 112, 10, 10]          50,960          50,960
   RecycleNetwork/EfficientNetLite/MBConvBlock           BatchNorm2d-64     [1, 112, 10, 10]             224             224
   RecycleNetwork/EfficientNetLite/MBConvBlock                Conv2d-65     [1, 458, 10, 10]          51,296          51,296
   RecycleNetwork/EfficientNetLite/MBConvBlock           BatchNorm2d-66     [1, 458, 10, 10]             916             916
   RecycleNetwork/EfficientNetLite/MBConvBlock                 ReLU6-67     [1, 458, 10, 10]               0               0
   RecycleNetwork/EfficientNetLite/MBConvBlock                Conv2d-68     [1, 458, 10, 10]          11,450          11,450
   RecycleNetwork/EfficientNetLite/MBConvBlock           BatchNorm2d-69     [1, 458, 10, 10]             916             916
   RecycleNetwork/EfficientNetLite/MBConvBlock                Conv2d-70     [1, 112, 10, 10]          51,296          51,296
   RecycleNetwork/EfficientNetLite/MBConvBlock           BatchNorm2d-71     [1, 112, 10, 10]             224             224
   RecycleNetwork/EfficientNetLite/MBConvBlock                Conv2d-72     [1, 343, 10, 10]          38,416          38,416
   RecycleNetwork/EfficientNetLite/MBConvBlock           BatchNorm2d-73     [1, 343, 10, 10]             686             686
   RecycleNetwork/EfficientNetLite/MBConvBlock                 ReLU6-74     [1, 343, 10, 10]               0               0
   RecycleNetwork/EfficientNetLite/MBConvBlock                Conv2d-75     [1, 343, 10, 10]           8,575           8,575
   RecycleNetwork/EfficientNetLite/MBConvBlock           BatchNorm2d-76     [1, 343, 10, 10]             686             686
   RecycleNetwork/EfficientNetLite/MBConvBlock                Conv2d-77     [1, 112, 10, 10]          38,416          38,416
   RecycleNetwork/EfficientNetLite/MBConvBlock           BatchNorm2d-78     [1, 112, 10, 10]             224             224
   RecycleNetwork/EfficientNetLite/MBConvBlock                Conv2d-79     [1, 427, 10, 10]          47,824          47,824
   RecycleNetwork/EfficientNetLite/MBConvBlock           BatchNorm2d-80     [1, 427, 10, 10]             854             854
   RecycleNetwork/EfficientNetLite/MBConvBlock                 ReLU6-81     [1, 427, 10, 10]               0               0
   RecycleNetwork/EfficientNetLite/MBConvBlock                Conv2d-82       [1, 427, 5, 5]          10,675          10,675
   RecycleNetwork/EfficientNetLite/MBConvBlock           BatchNorm2d-83       [1, 427, 5, 5]             854             854
   RecycleNetwork/EfficientNetLite/MBConvBlock                Conv2d-84       [1, 192, 5, 5]          81,984          81,984
   RecycleNetwork/EfficientNetLite/MBConvBlock           BatchNorm2d-85       [1, 192, 5, 5]             384             384
   RecycleNetwork/EfficientNetLite/MBConvBlock                Conv2d-86       [1, 673, 5, 5]         129,216         129,216
   RecycleNetwork/EfficientNetLite/MBConvBlock           BatchNorm2d-87       [1, 673, 5, 5]           1,346           1,346
   RecycleNetwork/EfficientNetLite/MBConvBlock                 ReLU6-88       [1, 673, 5, 5]               0               0
   RecycleNetwork/EfficientNetLite/MBConvBlock                Conv2d-89       [1, 673, 5, 5]          16,825          16,825
   RecycleNetwork/EfficientNetLite/MBConvBlock           BatchNorm2d-90       [1, 673, 5, 5]           1,346           1,346
   RecycleNetwork/EfficientNetLite/MBConvBlock                Conv2d-91       [1, 192, 5, 5]         129,216         129,216
   RecycleNetwork/EfficientNetLite/MBConvBlock           BatchNorm2d-92       [1, 192, 5, 5]             384             384
   RecycleNetwork/EfficientNetLite/MBConvBlock                Conv2d-93       [1, 412, 5, 5]          79,104          79,104
   RecycleNetwork/EfficientNetLite/MBConvBlock           BatchNorm2d-94       [1, 412, 5, 5]             824             824
   RecycleNetwork/EfficientNetLite/MBConvBlock                 ReLU6-95       [1, 412, 5, 5]               0               0
   RecycleNetwork/EfficientNetLite/MBConvBlock                Conv2d-96       [1, 412, 5, 5]          10,300          10,300
   RecycleNetwork/EfficientNetLite/MBConvBlock           BatchNorm2d-97       [1, 412, 5, 5]             824             824
   RecycleNetwork/EfficientNetLite/MBConvBlock                Conv2d-98       [1, 192, 5, 5]          79,104          79,104
   RecycleNetwork/EfficientNetLite/MBConvBlock           BatchNorm2d-99       [1, 192, 5, 5]             384             384
   RecycleNetwork/EfficientNetLite/MBConvBlock               Conv2d-100       [1, 318, 5, 5]          61,056          61,056
   RecycleNetwork/EfficientNetLite/MBConvBlock          BatchNorm2d-101       [1, 318, 5, 5]             636             636
   RecycleNetwork/EfficientNetLite/MBConvBlock                ReLU6-102       [1, 318, 5, 5]               0               0
   RecycleNetwork/EfficientNetLite/MBConvBlock               Conv2d-103       [1, 318, 5, 5]           7,950           7,950
   RecycleNetwork/EfficientNetLite/MBConvBlock          BatchNorm2d-104       [1, 318, 5, 5]             636             636
   RecycleNetwork/EfficientNetLite/MBConvBlock               Conv2d-105       [1, 192, 5, 5]          61,056          61,056
   RecycleNetwork/EfficientNetLite/MBConvBlock          BatchNorm2d-106       [1, 192, 5, 5]             384             384
   RecycleNetwork/EfficientNetLite/MBConvBlock               Conv2d-107       [1, 476, 5, 5]          91,392          91,392
   RecycleNetwork/EfficientNetLite/MBConvBlock          BatchNorm2d-108       [1, 476, 5, 5]             952             952
   RecycleNetwork/EfficientNetLite/MBConvBlock                ReLU6-109       [1, 476, 5, 5]               0               0
   RecycleNetwork/EfficientNetLite/MBConvBlock               Conv2d-110       [1, 476, 5, 5]           4,284           4,284
   RecycleNetwork/EfficientNetLite/MBConvBlock          BatchNorm2d-111       [1, 476, 5, 5]             952             952
   RecycleNetwork/EfficientNetLite/MBConvBlock               Conv2d-112       [1, 320, 5, 5]         152,320         152,320
   RecycleNetwork/EfficientNetLite/MBConvBlock          BatchNorm2d-113       [1, 320, 5, 5]             640             640
               RecycleNetwork/EfficientNetLite               Conv2d-114       [1, 198, 5, 5]          63,360          63,360
               RecycleNetwork/EfficientNetLite          BatchNorm2d-115       [1, 198, 5, 5]             396             396
               RecycleNetwork/EfficientNetLite                ReLU6-116       [1, 198, 5, 5]               0               0
               RecycleNetwork/EfficientNetLite    AdaptiveAvgPool2d-117       [1, 198, 1, 1]               0               0
               RecycleNetwork/EfficientNetLite              Dropout-118             [1, 198]               0               0
               RecycleNetwork/EfficientNetLite               Linear-119               [1, 5]             995             995
============================================================================================================================
Total params: 1,543,303
Trainable params: 1,543,303
Non-trainable params: 0
----------------------------------------------------------------------------------------------------------------------------
Training Started
Epoch: 1, Training Loss: 0.975056, Validation Loss: 0.928750, Training Accuracy: 0.586990, Validation Accuracy: 0.607470
…
