…
[2] prune_out_channels on backbone.blocks.0.0._bn2 (BatchNorm2d(21, eps=0.001, momentum=0.01, affine=True, track_running_stats=True)) => prune_in_channels on backbone.blocks.1.0._expand_conv (Conv2d(21, 144, kernel_size=(1, 1), stride=(1, 1), bias=False)), #idxs=3
--------------------------------

Starting Training Cycle
----------------------------------------------------------------------------------------------------------------------------
                                 Parent Layers             Layer (type)         Output Shape         Param #     Tr. Param #
============================================================================================================================
               RecycleNetwork/EfficientNetLite                 Conv2d-1      [1, 25, 75, 75]             675             675
               RecycleNetwork/EfficientNetLite            BatchNorm2d-2      [1, 25, 75, 75]              50              50
               RecycleNetwork/EfficientNetLite                  ReLU6-3      [1, 25, 75, 75]               0               0
   RecycleNetwork/EfficientNetLite/MBConvBlock                 Conv2d-4      [1, 25, 75, 75]             225             225
   RecycleNetwork/EfficientNetLite/MBConvBlock            BatchNorm2d-5      [1, 25, 75, 75]              50              50
   RecycleNetwork/EfficientNetLite/MBConvBlock                  ReLU6-6      [1, 25, 75, 75]               0               0
   RecycleNetwork/EfficientNetLite/MBConvBlock                 Conv2d-7      [1, 21, 75, 75]             525             525
   RecycleNetwork/EfficientNetLite/MBConvBlock            BatchNorm2d-8      [1, 21, 75, 75]              42              42
   RecycleNetwork/EfficientNetLite/MBConvBlock                 Conv2d-9     [1, 144, 75, 75]           3,024           3,024
   RecycleNetwork/EfficientNetLite/MBConvBlock           BatchNorm2d-10     [1, 144, 75, 75]             288             288
   RecycleNetwork/EfficientNetLite/MBConvBlock                 ReLU6-11     [1, 144, 75, 75]               0               0
   RecycleNetwork/EfficientNetLite/MBConvBlock                Conv2d-12     [1, 144, 38, 38]           1,296           1,296
   RecycleNetwork/EfficientNetLite/MBConvBlock           BatchNorm2d-13     [1, 144, 38, 38]             288             288
   RecycleNetwork/EfficientNetLite/MBConvBlock                Conv2d-14      [1, 32, 38, 38]           4,608           4,608
   RecycleNetwork/EfficientNetLite/MBConvBlock           BatchNorm2d-15      [1, 32, 38, 38]              64              64
   RecycleNetwork/EfficientNetLite/MBConvBlock                Conv2d-16     [1, 192, 38, 38]           6,144           6,144
   RecycleNetwork/EfficientNetLite/MBConvBlock           BatchNorm2d-17     [1, 192, 38, 38]             384             384
   RecycleNetwork/EfficientNetLite/MBConvBlock                 ReLU6-18     [1, 192, 38, 38]               0               0
   RecycleNetwork/EfficientNetLite/MBConvBlock                Conv2d-19     [1, 192, 38, 38]           1,728           1,728
   RecycleNetwork/EfficientNetLite/MBConvBlock           BatchNorm2d-20     [1, 192, 38, 38]             384             384
   RecycleNetwork/EfficientNetLite/MBConvBlock                Conv2d-21      [1, 32, 38, 38]           6,144           6,144
   RecycleNetwork/EfficientNetLite/MBConvBlock           BatchNorm2d-22      [1, 32, 38, 38]              64              64
   RecycleNetwork/EfficientNetLite/MBConvBlock                Conv2d-23     [1, 192, 38, 38]           6,144           6,144
   RecycleNetwork/EfficientNetLite/MBConvBlock           BatchNorm2d-24     [1, 192, 38, 38]             384             384
   RecycleNetwork/EfficientNetLite/MBConvBlock                 ReLU6-25     [1, 192, 38, 38]               0               0
   RecycleNetwork/EfficientNetLite/MBConvBlock                Conv2d-26     [1, 192, 38, 38]           1,728           1,728
   RecycleNetwork/EfficientNetLite/MBConvBlock           BatchNorm2d-27     [1, 192, 38, 38]             384             384
   RecycleNetwork/EfficientNetLite/MBConvBlock                Conv2d-28      [1, 32, 38, 38]           6,144           6,144
   RecycleNetwork/EfficientNetLite/MBConvBlock           BatchNorm2d-29      [1, 32, 38, 38]              64              64
   RecycleNetwork/EfficientNetLite/MBConvBlock                Conv2d-30     [1, 192, 38, 38]           6,144           6,144
   RecycleNetwork/EfficientNetLite/MBConvBlock           BatchNorm2d-31     [1, 192, 38, 38]             384             384
   RecycleNetwork/EfficientNetLite/MBConvBlock                 ReLU6-32     [1, 192, 38, 38]               0               0
   RecycleNetwork/EfficientNetLite/MBConvBlock                Conv2d-33     [1, 192, 38, 38]           1,728           1,728
   RecycleNetwork/EfficientNetLite/MBConvBlock           BatchNorm2d-34     [1, 192, 38, 38]             384             384
   RecycleNetwork/EfficientNetLite/MBConvBlock                Conv2d-35      [1, 32, 38, 38]           6,144           6,144
   RecycleNetwork/EfficientNetLite/MBConvBlock           BatchNorm2d-36      [1, 32, 38, 38]              64              64
   RecycleNetwork/EfficientNetLite/MBConvBlock                Conv2d-37     [1, 192, 38, 38]           6,144           6,144
   RecycleNetwork/EfficientNetLite/MBConvBlock           BatchNorm2d-38     [1, 192, 38, 38]             384             384
   RecycleNetwork/EfficientNetLite/MBConvBlock                 ReLU6-39     [1, 192, 38, 38]               0               0
   RecycleNetwork/EfficientNetLite/MBConvBlock                Conv2d-40     [1, 192, 19, 19]           4,800           4,800
   RecycleNetwork/EfficientNetLite/MBConvBlock           BatchNorm2d-41     [1, 192, 19, 19]             384             384
   RecycleNetwork/EfficientNetLite/MBConvBlock                Conv2d-42      [1, 56, 19, 19]          10,752          10,752
   RecycleNetwork/EfficientNetLite/MBConvBlock           BatchNorm2d-43      [1, 56, 19, 19]             112             112
   RecycleNetwork/EfficientNetLite/MBConvBlock                Conv2d-44     [1, 336, 19, 19]          18,816          18,816
   RecycleNetwork/EfficientNetLite/MBConvBlock           BatchNorm2d-45     [1, 336, 19, 19]             672             672
   RecycleNetwork/EfficientNetLite/MBConvBlock                 ReLU6-46     [1, 336, 19, 19]               0               0
   RecycleNetwork/EfficientNetLite/MBConvBlock                Conv2d-47     [1, 336, 19, 19]           8,400           8,400
   RecycleNetwork/EfficientNetLite/MBConvBlock           BatchNorm2d-48     [1, 336, 19, 19]             672             672
   RecycleNetwork/EfficientNetLite/MBConvBlock                Conv2d-49      [1, 56, 19, 19]          18,816          18,816
   RecycleNetwork/EfficientNetLite/MBConvBlock           BatchNorm2d-50      [1, 56, 19, 19]             112             112
   RecycleNetwork/EfficientNetLite/MBConvBlock                Conv2d-51     [1, 336, 19, 19]          18,816          18,816
   RecycleNetwork/EfficientNetLite/MBConvBlock           BatchNorm2d-52     [1, 336, 19, 19]             672             672
   RecycleNetwork/EfficientNetLite/MBConvBlock                 ReLU6-53     [1, 336, 19, 19]               0               0
   RecycleNetwork/EfficientNetLite/MBConvBlock                Conv2d-54     [1, 336, 19, 19]           8,400           8,400
   RecycleNetwork/EfficientNetLite/MBConvBlock           BatchNorm2d-55     [1, 336, 19, 19]             672             672
   RecycleNetwork/EfficientNetLite/MBConvBlock                Conv2d-56      [1, 56, 19, 19]          18,816          18,816
   RecycleNetwork/EfficientNetLite/MBConvBlock           BatchNorm2d-57      [1, 56, 19, 19]             112             112
   RecycleNetwork/EfficientNetLite/MBConvBlock                Conv2d-58     [1, 336, 19, 19]          18,816          18,816
   RecycleNetwork/EfficientNetLite/MBConvBlock           BatchNorm2d-59     [1, 336, 19, 19]             672             672
   RecycleNetwork/EfficientNetLite/MBConvBlock                 ReLU6-60     [1, 336, 19, 19]               0               0
   RecycleNetwork/EfficientNetLite/MBConvBlock                Conv2d-61     [1, 336, 19, 19]           8,400           8,400
   RecycleNetwork/EfficientNetLite/MBConvBlock           BatchNorm2d-62     [1, 336, 19, 19]             672             672
   RecycleNetwork/EfficientNetLite/MBConvBlock                Conv2d-63      [1, 56, 19, 19]          18,816          18,816
   RecycleNetwork/EfficientNetLite/MBConvBlock           BatchNorm2d-64      [1, 56, 19, 19]             112             112
   RecycleNetwork/EfficientNetLite/MBConvBlock                Conv2d-65     [1, 336, 19, 19]          18,816          18,816
   RecycleNetwork/EfficientNetLite/MBConvBlock           BatchNorm2d-66     [1, 336, 19, 19]             672             672
   RecycleNetwork/EfficientNetLite/MBConvBlock                 ReLU6-67     [1, 336, 19, 19]               0               0
   RecycleNetwork/EfficientNetLite/MBConvBlock                Conv2d-68     [1, 336, 10, 10]           3,024           3,024
   RecycleNetwork/EfficientNetLite/MBConvBlock           BatchNorm2d-69     [1, 336, 10, 10]             672             672
   RecycleNetwork/EfficientNetLite/MBConvBlock                Conv2d-70     [1, 112, 10, 10]          37,632          37,632
   RecycleNetwork/EfficientNetLite/MBConvBlock           BatchNorm2d-71     [1, 112, 10, 10]             224             224
   RecycleNetwork/EfficientNetLite/MBConvBlock                Conv2d-72     [1, 672, 10, 10]          75,264          75,264
   RecycleNetwork/EfficientNetLite/MBConvBlock           BatchNorm2d-73     [1, 672, 10, 10]           1,344           1,344
   RecycleNetwork/EfficientNetLite/MBConvBlock                 ReLU6-74     [1, 672, 10, 10]               0               0
   RecycleNetwork/EfficientNetLite/MBConvBlock                Conv2d-75     [1, 672, 10, 10]           6,048           6,048
   RecycleNetwork/EfficientNetLite/MBConvBlock           BatchNorm2d-76     [1, 672, 10, 10]           1,344           1,344
   RecycleNetwork/EfficientNetLite/MBConvBlock                Conv2d-77     [1, 112, 10, 10]          75,264          75,264
   RecycleNetwork/EfficientNetLite/MBConvBlock           BatchNorm2d-78     [1, 112, 10, 10]             224             224
   RecycleNetwork/EfficientNetLite/MBConvBlock                Conv2d-79     [1, 672, 10, 10]          75,264          75,264
   RecycleNetwork/EfficientNetLite/MBConvBlock           BatchNorm2d-80     [1, 672, 10, 10]           1,344           1,344
   RecycleNetwork/EfficientNetLite/MBConvBlock                 ReLU6-81     [1, 672, 10, 10]               0               0
   RecycleNetwork/EfficientNetLite/MBConvBlock                Conv2d-82     [1, 672, 10, 10]           6,048           6,048
   RecycleNetwork/EfficientNetLite/MBConvBlock           BatchNorm2d-83     [1, 672, 10, 10]           1,344           1,344
   RecycleNetwork/EfficientNetLite/MBConvBlock                Conv2d-84     [1, 112, 10, 10]          75,264          75,264
   RecycleNetwork/EfficientNetLite/MBConvBlock           BatchNorm2d-85     [1, 112, 10, 10]             224             224
   RecycleNetwork/EfficientNetLite/MBConvBlock                Conv2d-86     [1, 672, 10, 10]          75,264          75,264
   RecycleNetwork/EfficientNetLite/MBConvBlock           BatchNorm2d-87     [1, 672, 10, 10]           1,344           1,344
   RecycleNetwork/EfficientNetLite/MBConvBlock                 ReLU6-88     [1, 672, 10, 10]               0               0
   RecycleNetwork/EfficientNetLite/MBConvBlock                Conv2d-89     [1, 672, 10, 10]           6,048           6,048
   RecycleNetwork/EfficientNetLite/MBConvBlock           BatchNorm2d-90     [1, 672, 10, 10]           1,344           1,344
   RecycleNetwork/EfficientNetLite/MBConvBlock                Conv2d-91     [1, 112, 10, 10]          75,264          75,264
   RecycleNetwork/EfficientNetLite/MBConvBlock           BatchNorm2d-92     [1, 112, 10, 10]             224             224
   RecycleNetwork/EfficientNetLite/MBConvBlock                Conv2d-93     [1, 672, 10, 10]          75,264          75,264
   RecycleNetwork/EfficientNetLite/MBConvBlock           BatchNorm2d-94     [1, 672, 10, 10]           1,344           1,344
   RecycleNetwork/EfficientNetLite/MBConvBlock                 ReLU6-95     [1, 672, 10, 10]               0               0
   RecycleNetwork/EfficientNetLite/MBConvBlock                Conv2d-96     [1, 672, 10, 10]           6,048           6,048
   RecycleNetwork/EfficientNetLite/MBConvBlock           BatchNorm2d-97     [1, 672, 10, 10]           1,344           1,344
   RecycleNetwork/EfficientNetLite/MBConvBlock                Conv2d-98     [1, 112, 10, 10]          75,264          75,264
   RecycleNetwork/EfficientNetLite/MBConvBlock           BatchNorm2d-99     [1, 112, 10, 10]             224             224
   RecycleNetwork/EfficientNetLite/MBConvBlock               Conv2d-100     [1, 672, 10, 10]          75,264          75,264
   RecycleNetwork/EfficientNetLite/MBConvBlock          BatchNorm2d-101     [1, 672, 10, 10]           1,344           1,344
   RecycleNetwork/EfficientNetLite/MBConvBlock                ReLU6-102     [1, 672, 10, 10]               0               0
   RecycleNetwork/EfficientNetLite/MBConvBlock               Conv2d-103     [1, 672, 10, 10]           6,048           6,048
   RecycleNetwork/EfficientNetLite/MBConvBlock          BatchNorm2d-104     [1, 672, 10, 10]           1,344           1,344
   RecycleNetwork/EfficientNetLite/MBConvBlock               Conv2d-105     [1, 112, 10, 10]          75,264          75,264
   RecycleNetwork/EfficientNetLite/MBConvBlock          BatchNorm2d-106     [1, 112, 10, 10]             224             224
   RecycleNetwork/EfficientNetLite/MBConvBlock               Conv2d-107     [1, 672, 10, 10]          75,264          75,264
   RecycleNetwork/EfficientNetLite/MBConvBlock          BatchNorm2d-108     [1, 672, 10, 10]           1,344           1,344
   RecycleNetwork/EfficientNetLite/MBConvBlock                ReLU6-109     [1, 672, 10, 10]               0               0
   RecycleNetwork/EfficientNetLite/MBConvBlock               Conv2d-110     [1, 672, 10, 10]          16,800          16,800
   RecycleNetwork/EfficientNetLite/MBConvBlock          BatchNorm2d-111     [1, 672, 10, 10]           1,344           1,344
   RecycleNetwork/EfficientNetLite/MBConvBlock               Conv2d-112     [1, 160, 10, 10]         107,520         107,520
   RecycleNetwork/EfficientNetLite/MBConvBlock          BatchNorm2d-113     [1, 160, 10, 10]             320             320
   RecycleNetwork/EfficientNetLite/MBConvBlock               Conv2d-114     [1, 960, 10, 10]         153,600         153,600
   RecycleNetwork/EfficientNetLite/MBConvBlock          BatchNorm2d-115     [1, 960, 10, 10]           1,920           1,920
   RecycleNetwork/EfficientNetLite/MBConvBlock                ReLU6-116     [1, 960, 10, 10]               0               0
   RecycleNetwork/EfficientNetLite/MBConvBlock               Conv2d-117     [1, 960, 10, 10]          24,000          24,000
   RecycleNetwork/EfficientNetLite/MBConvBlock          BatchNorm2d-118     [1, 960, 10, 10]           1,920           1,920
   RecycleNetwork/EfficientNetLite/MBConvBlock               Conv2d-119     [1, 160, 10, 10]         153,600         153,600
   RecycleNetwork/EfficientNetLite/MBConvBlock          BatchNorm2d-120     [1, 160, 10, 10]             320             320
   RecycleNetwork/EfficientNetLite/MBConvBlock               Conv2d-121     [1, 960, 10, 10]         153,600         153,600
   RecycleNetwork/EfficientNetLite/MBConvBlock          BatchNorm2d-122     [1, 960, 10, 10]           1,920           1,920
   RecycleNetwork/EfficientNetLite/MBConvBlock                ReLU6-123     [1, 960, 10, 10]               0               0
   RecycleNetwork/EfficientNetLite/MBConvBlock               Conv2d-124     [1, 960, 10, 10]          24,000          24,000
   RecycleNetwork/EfficientNetLite/MBConvBlock          BatchNorm2d-125     [1, 960, 10, 10]           1,920           1,920
   RecycleNetwork/EfficientNetLite/MBConvBlock               Conv2d-126     [1, 160, 10, 10]         153,600         153,600
   RecycleNetwork/EfficientNetLite/MBConvBlock          BatchNorm2d-127     [1, 160, 10, 10]             320             320
   RecycleNetwork/EfficientNetLite/MBConvBlock               Conv2d-128     [1, 960, 10, 10]         153,600         153,600
   RecycleNetwork/EfficientNetLite/MBConvBlock          BatchNorm2d-129     [1, 960, 10, 10]           1,920           1,920
   RecycleNetwork/EfficientNetLite/MBConvBlock                ReLU6-130     [1, 960, 10, 10]               0               0
   RecycleNetwork/EfficientNetLite/MBConvBlock               Conv2d-131     [1, 960, 10, 10]          24,000          24,000
   RecycleNetwork/EfficientNetLite/MBConvBlock          BatchNorm2d-132     [1, 960, 10, 10]           1,920           1,920
   RecycleNetwork/EfficientNetLite/MBConvBlock               Conv2d-133     [1, 160, 10, 10]         153,600         153,600
   RecycleNetwork/EfficientNetLite/MBConvBlock          BatchNorm2d-134     [1, 160, 10, 10]             320             320
   RecycleNetwork/EfficientNetLite/MBConvBlock               Conv2d-135     [1, 960, 10, 10]         153,600         153,600
   RecycleNetwork/EfficientNetLite/MBConvBlock          BatchNorm2d-136     [1, 960, 10, 10]           1,920           1,920
   RecycleNetwork/EfficientNetLite/MBConvBlock                ReLU6-137     [1, 960, 10, 10]               0               0
   RecycleNetwork/EfficientNetLite/MBConvBlock               Conv2d-138     [1, 960, 10, 10]          24,000          24,000
   RecycleNetwork/EfficientNetLite/MBConvBlock          BatchNorm2d-139     [1, 960, 10, 10]           1,920           1,920
   RecycleNetwork/EfficientNetLite/MBConvBlock               Conv2d-140     [1, 160, 10, 10]         153,600         153,600
   RecycleNetwork/EfficientNetLite/MBConvBlock          BatchNorm2d-141     [1, 160, 10, 10]             320             320
   RecycleNetwork/EfficientNetLite/MBConvBlock               Conv2d-142     [1, 960, 10, 10]         153,600         153,600
   RecycleNetwork/EfficientNetLite/MBConvBlock          BatchNorm2d-143     [1, 960, 10, 10]           1,920           1,920
   RecycleNetwork/EfficientNetLite/MBConvBlock                ReLU6-144     [1, 960, 10, 10]               0               0
   RecycleNetwork/EfficientNetLite/MBConvBlock               Conv2d-145     [1, 960, 10, 10]          24,000          24,000
   RecycleNetwork/EfficientNetLite/MBConvBlock          BatchNorm2d-146     [1, 960, 10, 10]           1,920           1,920
   RecycleNetwork/EfficientNetLite/MBConvBlock               Conv2d-147     [1, 160, 10, 10]         153,600         153,600
   RecycleNetwork/EfficientNetLite/MBConvBlock          BatchNorm2d-148     [1, 160, 10, 10]             320             320
   RecycleNetwork/EfficientNetLite/MBConvBlock               Conv2d-149     [1, 960, 10, 10]         153,600         153,600
   RecycleNetwork/EfficientNetLite/MBConvBlock          BatchNorm2d-150     [1, 960, 10, 10]           1,920           1,920
   RecycleNetwork/EfficientNetLite/MBConvBlock                ReLU6-151     [1, 960, 10, 10]               0               0
   RecycleNetwork/EfficientNetLite/MBConvBlock               Conv2d-152       [1, 960, 5, 5]          24,000          24,000
   RecycleNetwork/EfficientNetLite/MBConvBlock          BatchNorm2d-153       [1, 960, 5, 5]           1,920           1,920
   RecycleNetwork/EfficientNetLite/MBConvBlock               Conv2d-154       [1, 272, 5, 5]         261,120         261,120
   RecycleNetwork/EfficientNetLite/MBConvBlock          BatchNorm2d-155       [1, 272, 5, 5]             544             544
   RecycleNetwork/EfficientNetLite/MBConvBlock               Conv2d-156      [1, 1632, 5, 5]         443,904         443,904
   RecycleNetwork/EfficientNetLite/MBConvBlock          BatchNorm2d-157      [1, 1632, 5, 5]           3,264           3,264
   RecycleNetwork/EfficientNetLite/MBConvBlock                ReLU6-158      [1, 1632, 5, 5]               0               0
   RecycleNetwork/EfficientNetLite/MBConvBlock               Conv2d-159      [1, 1632, 5, 5]          40,800          40,800
   RecycleNetwork/EfficientNetLite/MBConvBlock          BatchNorm2d-160      [1, 1632, 5, 5]           3,264           3,264
   RecycleNetwork/EfficientNetLite/MBConvBlock               Conv2d-161       [1, 272, 5, 5]         443,904         443,904
   RecycleNetwork/EfficientNetLite/MBConvBlock          BatchNorm2d-162       [1, 272, 5, 5]             544             544
   RecycleNetwork/EfficientNetLite/MBConvBlock               Conv2d-163      [1, 1632, 5, 5]         443,904         443,904
   RecycleNetwork/EfficientNetLite/MBConvBlock          BatchNorm2d-164      [1, 1632, 5, 5]           3,264           3,264
   RecycleNetwork/EfficientNetLite/MBConvBlock                ReLU6-165      [1, 1632, 5, 5]               0               0
   RecycleNetwork/EfficientNetLite/MBConvBlock               Conv2d-166      [1, 1632, 5, 5]          40,800          40,800
   RecycleNetwork/EfficientNetLite/MBConvBlock          BatchNorm2d-167      [1, 1632, 5, 5]           3,264           3,264
   RecycleNetwork/EfficientNetLite/MBConvBlock               Conv2d-168       [1, 272, 5, 5]         443,904         443,904
   RecycleNetwork/EfficientNetLite/MBConvBlock          BatchNorm2d-169       [1, 272, 5, 5]             544             544
   RecycleNetwork/EfficientNetLite/MBConvBlock               Conv2d-170      [1, 1632, 5, 5]         443,904         443,904
   RecycleNetwork/EfficientNetLite/MBConvBlock          BatchNorm2d-171      [1, 1632, 5, 5]           3,264           3,264
   RecycleNetwork/EfficientNetLite/MBConvBlock                ReLU6-172      [1, 1632, 5, 5]               0               0
   RecycleNetwork/EfficientNetLite/MBConvBlock               Conv2d-173      [1, 1632, 5, 5]          40,800          40,800
   RecycleNetwork/EfficientNetLite/MBConvBlock          BatchNorm2d-174      [1, 1632, 5, 5]           3,264           3,264
   RecycleNetwork/EfficientNetLite/MBConvBlock               Conv2d-175       [1, 272, 5, 5]         443,904         443,904
   RecycleNetwork/EfficientNetLite/MBConvBlock          BatchNorm2d-176       [1, 272, 5, 5]             544             544
   RecycleNetwork/EfficientNetLite/MBConvBlock               Conv2d-177      [1, 1632, 5, 5]         443,904         443,904
   RecycleNetwork/EfficientNetLite/MBConvBlock          BatchNorm2d-178      [1, 1632, 5, 5]           3,264           3,264
   RecycleNetwork/EfficientNetLite/MBConvBlock                ReLU6-179      [1, 1632, 5, 5]               0               0
   RecycleNetwork/EfficientNetLite/MBConvBlock               Conv2d-180      [1, 1632, 5, 5]          40,800          40,800
   RecycleNetwork/EfficientNetLite/MBConvBlock          BatchNorm2d-181      [1, 1632, 5, 5]           3,264           3,264
   RecycleNetwork/EfficientNetLite/MBConvBlock               Conv2d-182       [1, 272, 5, 5]         443,904         443,904
   RecycleNetwork/EfficientNetLite/MBConvBlock          BatchNorm2d-183       [1, 272, 5, 5]             544             544
   RecycleNetwork/EfficientNetLite/MBConvBlock               Conv2d-184      [1, 1632, 5, 5]         443,904         443,904
   RecycleNetwork/EfficientNetLite/MBConvBlock          BatchNorm2d-185      [1, 1632, 5, 5]           3,264           3,264
   RecycleNetwork/EfficientNetLite/MBConvBlock                ReLU6-186      [1, 1632, 5, 5]               0               0
   RecycleNetwork/EfficientNetLite/MBConvBlock               Conv2d-187      [1, 1632, 5, 5]          40,800          40,800
   RecycleNetwork/EfficientNetLite/MBConvBlock          BatchNorm2d-188      [1, 1632, 5, 5]           3,264           3,264
   RecycleNetwork/EfficientNetLite/MBConvBlock               Conv2d-189       [1, 272, 5, 5]         443,904         443,904
   RecycleNetwork/EfficientNetLite/MBConvBlock          BatchNorm2d-190       [1, 272, 5, 5]             544             544
   RecycleNetwork/EfficientNetLite/MBConvBlock               Conv2d-191      [1, 1632, 5, 5]         443,904         443,904
   RecycleNetwork/EfficientNetLite/MBConvBlock          BatchNorm2d-192      [1, 1632, 5, 5]           3,264           3,264
   RecycleNetwork/EfficientNetLite/MBConvBlock                ReLU6-193      [1, 1632, 5, 5]               0               0
   RecycleNetwork/EfficientNetLite/MBConvBlock               Conv2d-194      [1, 1632, 5, 5]          40,800          40,800
   RecycleNetwork/EfficientNetLite/MBConvBlock          BatchNorm2d-195      [1, 1632, 5, 5]           3,264           3,264
   RecycleNetwork/EfficientNetLite/MBConvBlock               Conv2d-196       [1, 272, 5, 5]         443,904         443,904
   RecycleNetwork/EfficientNetLite/MBConvBlock          BatchNorm2d-197       [1, 272, 5, 5]             544             544
   RecycleNetwork/EfficientNetLite/MBConvBlock               Conv2d-198      [1, 1632, 5, 5]         443,904         443,904
   RecycleNetwork/EfficientNetLite/MBConvBlock          BatchNorm2d-199      [1, 1632, 5, 5]           3,264           3,264
   RecycleNetwork/EfficientNetLite/MBConvBlock                ReLU6-200      [1, 1632, 5, 5]               0               0
   RecycleNetwork/EfficientNetLite/MBConvBlock               Conv2d-201      [1, 1632, 5, 5]          40,800          40,800
   RecycleNetwork/EfficientNetLite/MBConvBlock          BatchNorm2d-202      [1, 1632, 5, 5]           3,264           3,264
   RecycleNetwork/EfficientNetLite/MBConvBlock               Conv2d-203       [1, 272, 5, 5]         443,904         443,904
   RecycleNetwork/EfficientNetLite/MBConvBlock          BatchNorm2d-204       [1, 272, 5, 5]             544             544
   RecycleNetwork/EfficientNetLite/MBConvBlock               Conv2d-205      [1, 1632, 5, 5]         443,904         443,904
   RecycleNetwork/EfficientNetLite/MBConvBlock          BatchNorm2d-206      [1, 1632, 5, 5]           3,264           3,264
   RecycleNetwork/EfficientNetLite/MBConvBlock                ReLU6-207      [1, 1632, 5, 5]               0               0
   RecycleNetwork/EfficientNetLite/MBConvBlock               Conv2d-208      [1, 1632, 5, 5]          14,688          14,688
   RecycleNetwork/EfficientNetLite/MBConvBlock          BatchNorm2d-209      [1, 1632, 5, 5]           3,264           3,264
   RecycleNetwork/EfficientNetLite/MBConvBlock               Conv2d-210       [1, 448, 5, 5]         731,136         731,136
   RecycleNetwork/EfficientNetLite/MBConvBlock          BatchNorm2d-211       [1, 448, 5, 5]             896             896
               RecycleNetwork/EfficientNetLite               Conv2d-212      [1, 1280, 5, 5]         573,440         573,440
               RecycleNetwork/EfficientNetLite          BatchNorm2d-213      [1, 1280, 5, 5]           2,560           2,560
               RecycleNetwork/EfficientNetLite                ReLU6-214      [1, 1280, 5, 5]               0               0
               RecycleNetwork/EfficientNetLite    AdaptiveAvgPool2d-215      [1, 1280, 1, 1]               0               0
               RecycleNetwork/EfficientNetLite              Dropout-216            [1, 1280]               0               0
               RecycleNetwork/EfficientNetLite               Linear-217               [1, 5]           6,405           6,405
============================================================================================================================
Total params: 11,731,012
Trainable params: 11,731,012
Non-trainable params: 0
----------------------------------------------------------------------------------------------------------------------------
Training Started
Epoch: 1, Training Loss: 0.251128, Validation Loss: 0.277445, Training Accuracy: 0.955680, Validation Accuracy: 0.928478
…
[14] prune_out_channels on backbone.blocks.1.1._bn2 (BatchNorm2d(28, eps=0.001, momentum=0.01, affine=True, track_running_stats=True)) => prune_out_channels on backbone.blocks.1.1._project_conv (Conv2d(192, 28, kernel_size=(1, 1), stride=(1, 1), bias=False)), #idxs=4
--------------------------------

Starting Training Cycle
----------------------------------------------------------------------------------------------------------------------------
                                 Parent Layers             Layer (type)         Output Shape         Param #     Tr. Param #
============================================================================================================================
               RecycleNetwork/EfficientNetLite                 Conv2d-1      [1, 25, 75, 75]             675             675
               RecycleNetwork/EfficientNetLite            BatchNorm2d-2      [1, 25, 75, 75]              50              50
               RecycleNetwork/EfficientNetLite                  ReLU6-3      [1, 25, 75, 75]               0               0
   RecycleNetwork/EfficientNetLite/MBConvBlock                 Conv2d-4      [1, 25, 75, 75]             225             225
   RecycleNetwork/EfficientNetLite/MBConvBlock            BatchNorm2d-5      [1, 25, 75, 75]              50              50
   RecycleNetwork/EfficientNetLite/MBConvBlock                  ReLU6-6      [1, 25, 75, 75]               0               0
   RecycleNetwork/EfficientNetLite/MBConvBlock                 Conv2d-7      [1, 21, 75, 75]             525             525
   RecycleNetwork/EfficientNetLite/MBConvBlock            BatchNorm2d-8      [1, 21, 75, 75]              42              42
   RecycleNetwork/EfficientNetLite/MBConvBlock                 Conv2d-9     [1, 116, 75, 75]           2,436           2,436
   RecycleNetwork/EfficientNetLite/MBConvBlock           BatchNorm2d-10     [1, 116, 75, 75]             232             232
   RecycleNetwork/EfficientNetLite/MBConvBlock                 ReLU6-11     [1, 116, 75, 75]               0               0
   RecycleNetwork/EfficientNetLite/MBConvBlock                Conv2d-12     [1, 116, 38, 38]           1,044           1,044
   RecycleNetwork/EfficientNetLite/MBConvBlock           BatchNorm2d-13     [1, 116, 38, 38]             232             232
   RecycleNetwork/EfficientNetLite/MBConvBlock                Conv2d-14      [1, 28, 38, 38]           3,248           3,248
   RecycleNetwork/EfficientNetLite/MBConvBlock           BatchNorm2d-15      [1, 28, 38, 38]              56              56
   RecycleNetwork/EfficientNetLite/MBConvBlock                Conv2d-16     [1, 192, 38, 38]           5,376           5,376
   RecycleNetwork/EfficientNetLite/MBConvBlock           BatchNorm2d-17     [1, 192, 38, 38]             384             384
   RecycleNetwork/EfficientNetLite/MBConvBlock                 ReLU6-18     [1, 192, 38, 38]               0               0
   RecycleNetwork/EfficientNetLite/MBConvBlock                Conv2d-19     [1, 192, 38, 38]           1,728           1,728
   RecycleNetwork/EfficientNetLite/MBConvBlock           BatchNorm2d-20     [1, 192, 38, 38]             384             384
   RecycleNetwork/EfficientNetLite/MBConvBlock                Conv2d-21      [1, 28, 38, 38]           5,376           5,376
   RecycleNetwork/EfficientNetLite/MBConvBlock           BatchNorm2d-22      [1, 28, 38, 38]              56              56
   RecycleNetwork/EfficientNetLite/MBConvBlock                Conv2d-23     [1, 192, 38, 38]           5,376           5,376
   RecycleNetwork/EfficientNetLite/MBConvBlock           BatchNorm2d-24     [1, 192, 38, 38]             384             384
   RecycleNetwork/EfficientNetLite/MBConvBlock                 ReLU6-25     [1, 192, 38, 38]               0               0
   RecycleNetwork/EfficientNetLite/MBConvBlock                Conv2d-26     [1, 192, 38, 38]           1,728           1,728
   RecycleNetwork/EfficientNetLite/MBConvBlock           BatchNorm2d-27     [1, 192, 38, 38]             384             384
   RecycleNetwork/EfficientNetLite/MBConvBlock                Conv2d-28      [1, 28, 38, 38]           5,376           5,376
   RecycleNetwork/EfficientNetLite/MBConvBlock           BatchNorm2d-29      [1, 28, 38, 38]              56              56
   RecycleNetwork/EfficientNetLite/MBConvBlock                Conv2d-30     [1, 192, 38, 38]           5,376           5,376
   RecycleNetwork/EfficientNetLite/MBConvBlock           BatchNorm2d-31     [1, 192, 38, 38]             384             384
   RecycleNetwork/EfficientNetLite/MBConvBlock                 ReLU6-32     [1, 192, 38, 38]               0               0
   RecycleNetwork/EfficientNetLite/MBConvBlock                Conv2d-33     [1, 192, 38, 38]           1,728           1,728
   RecycleNetwork/EfficientNetLite/MBConvBlock           BatchNorm2d-34     [1, 192, 38, 38]             384             384
   RecycleNetwork/EfficientNetLite/MBConvBlock                Conv2d-35      [1, 28, 38, 38]           5,376           5,376
   RecycleNetwork/EfficientNetLite/MBConvBlock           BatchNorm2d-36      [1, 28, 38, 38]              56              56
   RecycleNetwork/EfficientNetLite/MBConvBlock                Conv2d-37     [1, 192, 38, 38]           5,376           5,376
   RecycleNetwork/EfficientNetLite/MBConvBlock           BatchNorm2d-38     [1, 192, 38, 38]             384             384
   RecycleNetwork/EfficientNetLite/MBConvBlock                 ReLU6-39     [1, 192, 38, 38]               0               0
   RecycleNetwork/EfficientNetLite/MBConvBlock                Conv2d-40     [1, 192, 19, 19]           4,800           4,800
   RecycleNetwork/EfficientNetLite/MBConvBlock           BatchNorm2d-41     [1, 192, 19, 19]             384             384
   RecycleNetwork/EfficientNetLite/MBConvBlock                Conv2d-42      [1, 56, 19, 19]          10,752          10,752
   RecycleNetwork/EfficientNetLite/MBConvBlock           BatchNorm2d-43      [1, 56, 19, 19]             112             112
   RecycleNetwork/EfficientNetLite/MBConvBlock                Conv2d-44     [1, 336, 19, 19]          18,816          18,816
   RecycleNetwork/EfficientNetLite/MBConvBlock           BatchNorm2d-45     [1, 336, 19, 19]             672             672
   RecycleNetwork/EfficientNetLite/MBConvBlock                 ReLU6-46     [1, 336, 19, 19]               0               0
   RecycleNetwork/EfficientNetLite/MBConvBlock                Conv2d-47     [1, 336, 19, 19]           8,400           8,400
   RecycleNetwork/EfficientNetLite/MBConvBlock           BatchNorm2d-48     [1, 336, 19, 19]             672             672
   RecycleNetwork/EfficientNetLite/MBConvBlock                Conv2d-49      [1, 56, 19, 19]          18,816          18,816
   RecycleNetwork/EfficientNetLite/MBConvBlock           BatchNorm2d-50      [1, 56, 19, 19]             112             112
   RecycleNetwork/EfficientNetLite/MBConvBlock                Conv2d-51     [1, 336, 19, 19]          18,816          18,816
   RecycleNetwork/EfficientNetLite/MBConvBlock           BatchNorm2d-52     [1, 336, 19, 19]             672             672
   RecycleNetwork/EfficientNetLite/MBConvBlock                 ReLU6-53     [1, 336, 19, 19]               0               0
   RecycleNetwork/EfficientNetLite/MBConvBlock                Conv2d-54     [1, 336, 19, 19]           8,400           8,400
   RecycleNetwork/EfficientNetLite/MBConvBlock           BatchNorm2d-55     [1, 336, 19, 19]             672             672
   RecycleNetwork/EfficientNetLite/MBConvBlock                Conv2d-56      [1, 56, 19, 19]          18,816          18,816
   RecycleNetwork/EfficientNetLite/MBConvBlock           BatchNorm2d-57      [1, 56, 19, 19]             112             112
   RecycleNetwork/EfficientNetLite/MBConvBlock                Conv2d-58     [1, 336, 19, 19]          18,816          18,816
   RecycleNetwork/EfficientNetLite/MBConvBlock           BatchNorm2d-59     [1, 336, 19, 19]             672             672
   RecycleNetwork/EfficientNetLite/MBConvBlock                 ReLU6-60     [1, 336, 19, 19]               0               0
   RecycleNetwork/EfficientNetLite/MBConvBlock                Conv2d-61     [1, 336, 19, 19]           8,400           8,400
   RecycleNetwork/EfficientNetLite/MBConvBlock           BatchNorm2d-62     [1, 336, 19, 19]             672             672
   RecycleNetwork/EfficientNetLite/MBConvBlock                Conv2d-63      [1, 56, 19, 19]          18,816          18,816
   RecycleNetwork/EfficientNetLite/MBConvBlock           BatchNorm2d-64      [1, 56, 19, 19]             112             112
   RecycleNetwork/EfficientNetLite/MBConvBlock                Conv2d-65     [1, 336, 19, 19]          18,816          18,816
   RecycleNetwork/EfficientNetLite/MBConvBlock           BatchNorm2d-66     [1, 336, 19, 19]             672             672
   RecycleNetwork/EfficientNetLite/MBConvBlock                 ReLU6-67     [1, 336, 19, 19]               0               0
   RecycleNetwork/EfficientNetLite/MBConvBlock                Conv2d-68     [1, 336, 10, 10]           3,024           3,024
   RecycleNetwork/EfficientNetLite/MBConvBlock           BatchNorm2d-69     [1, 336, 10, 10]             672             672
   RecycleNetwork/EfficientNetLite/MBConvBlock                Conv2d-70     [1, 112, 10, 10]          37,632          37,632
   RecycleNetwork/EfficientNetLite/MBConvBlock           BatchNorm2d-71     [1, 112, 10, 10]             224             224
   RecycleNetwork/EfficientNetLite/MBConvBlock                Conv2d-72     [1, 672, 10, 10]          75,264          75,264
   RecycleNetwork/EfficientNetLite/MBConvBlock           BatchNorm2d-73     [1, 672, 10, 10]           1,344           1,344
   RecycleNetwork/EfficientNetLite/MBConvBlock                 ReLU6-74     [1, 672, 10, 10]               0               0
   RecycleNetwork/EfficientNetLite/MBConvBlock                Conv2d-75     [1, 672, 10, 10]           6,048           6,048
   RecycleNetwork/EfficientNetLite/MBConvBlock           BatchNorm2d-76     [1, 672, 10, 10]           1,344           1,344
   RecycleNetwork/EfficientNetLite/MBConvBlock                Conv2d-77     [1, 112, 10, 10]          75,264          75,264
   RecycleNetwork/EfficientNetLite/MBConvBlock           BatchNorm2d-78     [1, 112, 10, 10]             224             224
   RecycleNetwork/EfficientNetLite/MBConvBlock                Conv2d-79     [1, 672, 10, 10]          75,264          75,264
   RecycleNetwork/EfficientNetLite/MBConvBlock           BatchNorm2d-80     [1, 672, 10, 10]           1,344           1,344
   RecycleNetwork/EfficientNetLite/MBConvBlock                 ReLU6-81     [1, 672, 10, 10]               0               0
   RecycleNetwork/EfficientNetLite/MBConvBlock                Conv2d-82     [1, 672, 10, 10]           6,048           6,048
   RecycleNetwork/EfficientNetLite/MBConvBlock           BatchNorm2d-83     [1, 672, 10, 10]           1,344           1,344
   RecycleNetwork/EfficientNetLite/MBConvBlock                Conv2d-84     [1, 112, 10, 10]          75,264          75,264
   RecycleNetwork/EfficientNetLite/MBConvBlock           BatchNorm2d-85     [1, 112, 10, 10]             224             224
   RecycleNetwork/EfficientNetLite/MBConvBlock                Conv2d-86     [1, 672, 10, 10]          75,264          75,264
   RecycleNetwork/EfficientNetLite/MBConvBlock           BatchNorm2d-87     [1, 672, 10, 10]           1,344           1,344
   RecycleNetwork/EfficientNetLite/MBConvBlock                 ReLU6-88     [1, 672, 10, 10]               0               0
   RecycleNetwork/EfficientNetLite/MBConvBlock                Conv2d-89     [1, 672, 10, 10]           6,048           6,048
   RecycleNetwork/EfficientNetLite/MBConvBlock           BatchNorm2d-90     [1, 672, 10, 10]           1,344           1,344
   RecycleNetwork/EfficientNetLite/MBConvBlock                Conv2d-91     [1, 112, 10, 10]          75,264          75,264
   RecycleNetwork/EfficientNetLite/MBConvBlock           BatchNorm2d-92     [1, 112, 10, 10]             224             224
   RecycleNetwork/EfficientNetLite/MBConvBlock                Conv2d-93     [1, 672, 10, 10]          75,264          75,264
   RecycleNetwork/EfficientNetLite/MBConvBlock           BatchNorm2d-94     [1, 672, 10, 10]           1,344           1,344
   RecycleNetwork/EfficientNetLite/MBConvBlock                 ReLU6-95     [1, 672, 10, 10]               0               0
   RecycleNetwork/EfficientNetLite/MBConvBlock                Conv2d-96     [1, 672, 10, 10]           6,048           6,048
   RecycleNetwork/EfficientNetLite/MBConvBlock           BatchNorm2d-97     [1, 672, 10, 10]           1,344           1,344
   RecycleNetwork/EfficientNetLite/MBConvBlock                Conv2d-98     [1, 112, 10, 10]          75,264          75,264
   RecycleNetwork/EfficientNetLite/MBConvBlock           BatchNorm2d-99     [1, 112, 10, 10]             224             224
   RecycleNetwork/EfficientNetLite/MBConvBlock               Conv2d-100     [1, 672, 10, 10]          75,264          75,264
   RecycleNetwork/EfficientNetLite/MBConvBlock          BatchNorm2d-101     [1, 672, 10, 10]           1,344           1,344
   RecycleNetwork/EfficientNetLite/MBConvBlock                ReLU6-102     [1, 672, 10, 10]               0               0
   RecycleNetwork/EfficientNetLite/MBConvBlock               Conv2d-103     [1, 672, 10, 10]           6,048           6,048
   RecycleNetwork/EfficientNetLite/MBConvBlock          BatchNorm2d-104     [1, 672, 10, 10]           1,344           1,344
   RecycleNetwork/EfficientNetLite/MBConvBlock               Conv2d-105     [1, 112, 10, 10]          75,264          75,264
   RecycleNetwork/EfficientNetLite/MBConvBlock          BatchNorm2d-106     [1, 112, 10, 10]             224             224
   RecycleNetwork/EfficientNetLite/MBConvBlock               Conv2d-107     [1, 672, 10, 10]          75,264          75,264
   RecycleNetwork/EfficientNetLite/MBConvBlock          BatchNorm2d-108     [1, 672, 10, 10]           1,344           1,344
   RecycleNetwork/EfficientNetLite/MBConvBlock                ReLU6-109     [1, 672, 10, 10]               0               0
   RecycleNetwork/EfficientNetLite/MBConvBlock               Conv2d-110     [1, 672, 10, 10]          16,800          16,800
   RecycleNetwork/EfficientNetLite/MBConvBlock          BatchNorm2d-111     [1, 672, 10, 10]           1,344           1,344
   RecycleNetwork/EfficientNetLite/MBConvBlock               Conv2d-112     [1, 160, 10, 10]         107,520         107,520
   RecycleNetwork/EfficientNetLite/MBConvBlock          BatchNorm2d-113     [1, 160, 10, 10]             320             320
   RecycleNetwork/EfficientNetLite/MBConvBlock               Conv2d-114     [1, 960, 10, 10]         153,600         153,600
   RecycleNetwork/EfficientNetLite/MBConvBlock          BatchNorm2d-115     [1, 960, 10, 10]           1,920           1,920
   RecycleNetwork/EfficientNetLite/MBConvBlock                ReLU6-116     [1, 960, 10, 10]               0               0
   RecycleNetwork/EfficientNetLite/MBConvBlock               Conv2d-117     [1, 960, 10, 10]          24,000          24,000
   RecycleNetwork/EfficientNetLite/MBConvBlock          BatchNorm2d-118     [1, 960, 10, 10]           1,920           1,920
   RecycleNetwork/EfficientNetLite/MBConvBlock               Conv2d-119     [1, 160, 10, 10]         153,600         153,600
   RecycleNetwork/EfficientNetLite/MBConvBlock          BatchNorm2d-120     [1, 160, 10, 10]             320             320
   RecycleNetwork/EfficientNetLite/MBConvBlock               Conv2d-121     [1, 960, 10, 10]         153,600         153,600
   RecycleNetwork/EfficientNetLite/MBConvBlock          BatchNorm2d-122     [1, 960, 10, 10]           1,920           1,920
   RecycleNetwork/EfficientNetLite/MBConvBlock                ReLU6-123     [1, 960, 10, 10]               0               0
   RecycleNetwork/EfficientNetLite/MBConvBlock               Conv2d-124     [1, 960, 10, 10]          24,000          24,000
   RecycleNetwork/EfficientNetLite/MBConvBlock          BatchNorm2d-125     [1, 960, 10, 10]           1,920           1,920
   RecycleNetwork/EfficientNetLite/MBConvBlock               Conv2d-126     [1, 160, 10, 10]         153,600         153,600
   RecycleNetwork/EfficientNetLite/MBConvBlock          BatchNorm2d-127     [1, 160, 10, 10]             320             320
   RecycleNetwork/EfficientNetLite/MBConvBlock               Conv2d-128     [1, 960, 10, 10]         153,600         153,600
   RecycleNetwork/EfficientNetLite/MBConvBlock          BatchNorm2d-129     [1, 960, 10, 10]           1,920           1,920
   RecycleNetwork/EfficientNetLite/MBConvBlock                ReLU6-130     [1, 960, 10, 10]               0               0
   RecycleNetwork/EfficientNetLite/MBConvBlock               Conv2d-131     [1, 960, 10, 10]          24,000          24,000
   RecycleNetwork/EfficientNetLite/MBConvBlock          BatchNorm2d-132     [1, 960, 10, 10]           1,920           1,920
   RecycleNetwork/EfficientNetLite/MBConvBlock               Conv2d-133     [1, 160, 10, 10]         153,600         153,600
   RecycleNetwork/EfficientNetLite/MBConvBlock          BatchNorm2d-134     [1, 160, 10, 10]             320             320
   RecycleNetwork/EfficientNetLite/MBConvBlock               Conv2d-135     [1, 960, 10, 10]         153,600         153,600
   RecycleNetwork/EfficientNetLite/MBConvBlock          BatchNorm2d-136     [1, 960, 10, 10]           1,920           1,920
   RecycleNetwork/EfficientNetLite/MBConvBlock                ReLU6-137     [1, 960, 10, 10]               0               0
   RecycleNetwork/EfficientNetLite/MBConvBlock               Conv2d-138     [1, 960, 10, 10]          24,000          24,000
   RecycleNetwork/EfficientNetLite/MBConvBlock          BatchNorm2d-139     [1, 960, 10, 10]           1,920           1,920
   RecycleNetwork/EfficientNetLite/MBConvBlock               Conv2d-140     [1, 160, 10, 10]         153,600         153,600
   RecycleNetwork/EfficientNetLite/MBConvBlock          BatchNorm2d-141     [1, 160, 10, 10]             320             320
   RecycleNetwork/EfficientNetLite/MBConvBlock               Conv2d-142     [1, 960, 10, 10]         153,600         153,600
   RecycleNetwork/EfficientNetLite/MBConvBlock          BatchNorm2d-143     [1, 960, 10, 10]           1,920           1,920
   RecycleNetwork/EfficientNetLite/MBConvBlock                ReLU6-144     [1, 960, 10, 10]               0               0
   RecycleNetwork/EfficientNetLite/MBConvBlock               Conv2d-145     [1, 960, 10, 10]          24,000          24,000
   RecycleNetwork/EfficientNetLite/MBConvBlock          BatchNorm2d-146     [1, 960, 10, 10]           1,920           1,920
   RecycleNetwork/EfficientNetLite/MBConvBlock               Conv2d-147     [1, 160, 10, 10]         153,600         153,600
   RecycleNetwork/EfficientNetLite/MBConvBlock          BatchNorm2d-148     [1, 160, 10, 10]             320             320
   RecycleNetwork/EfficientNetLite/MBConvBlock               Conv2d-149     [1, 960, 10, 10]         153,600         153,600
   RecycleNetwork/EfficientNetLite/MBConvBlock          BatchNorm2d-150     [1, 960, 10, 10]           1,920           1,920
   RecycleNetwork/EfficientNetLite/MBConvBlock                ReLU6-151     [1, 960, 10, 10]               0               0
   RecycleNetwork/EfficientNetLite/MBConvBlock               Conv2d-152       [1, 960, 5, 5]          24,000          24,000
   RecycleNetwork/EfficientNetLite/MBConvBlock          BatchNorm2d-153       [1, 960, 5, 5]           1,920           1,920
   RecycleNetwork/EfficientNetLite/MBConvBlock               Conv2d-154       [1, 272, 5, 5]         261,120         261,120
   RecycleNetwork/EfficientNetLite/MBConvBlock          BatchNorm2d-155       [1, 272, 5, 5]             544             544
   RecycleNetwork/EfficientNetLite/MBConvBlock               Conv2d-156      [1, 1632, 5, 5]         443,904         443,904
   RecycleNetwork/EfficientNetLite/MBConvBlock          BatchNorm2d-157      [1, 1632, 5, 5]           3,264           3,264
   RecycleNetwork/EfficientNetLite/MBConvBlock                ReLU6-158      [1, 1632, 5, 5]               0               0
   RecycleNetwork/EfficientNetLite/MBConvBlock               Conv2d-159      [1, 1632, 5, 5]          40,800          40,800
   RecycleNetwork/EfficientNetLite/MBConvBlock          BatchNorm2d-160      [1, 1632, 5, 5]           3,264           3,264
   RecycleNetwork/EfficientNetLite/MBConvBlock               Conv2d-161       [1, 272, 5, 5]         443,904         443,904
   RecycleNetwork/EfficientNetLite/MBConvBlock          BatchNorm2d-162       [1, 272, 5, 5]             544             544
   RecycleNetwork/EfficientNetLite/MBConvBlock               Conv2d-163      [1, 1632, 5, 5]         443,904         443,904
   RecycleNetwork/EfficientNetLite/MBConvBlock          BatchNorm2d-164      [1, 1632, 5, 5]           3,264           3,264
   RecycleNetwork/EfficientNetLite/MBConvBlock                ReLU6-165      [1, 1632, 5, 5]               0               0
   RecycleNetwork/EfficientNetLite/MBConvBlock               Conv2d-166      [1, 1632, 5, 5]          40,800          40,800
   RecycleNetwork/EfficientNetLite/MBConvBlock          BatchNorm2d-167      [1, 1632, 5, 5]           3,264           3,264
   RecycleNetwork/EfficientNetLite/MBConvBlock               Conv2d-168       [1, 272, 5, 5]         443,904         443,904
   RecycleNetwork/EfficientNetLite/MBConvBlock          BatchNorm2d-169       [1, 272, 5, 5]             544             544
   RecycleNetwork/EfficientNetLite/MBConvBlock               Conv2d-170      [1, 1632, 5, 5]         443,904         443,904
   RecycleNetwork/EfficientNetLite/MBConvBlock          BatchNorm2d-171      [1, 1632, 5, 5]           3,264           3,264
   RecycleNetwork/EfficientNetLite/MBConvBlock                ReLU6-172      [1, 1632, 5, 5]               0               0
   RecycleNetwork/EfficientNetLite/MBConvBlock               Conv2d-173      [1, 1632, 5, 5]          40,800          40,800
   RecycleNetwork/EfficientNetLite/MBConvBlock          BatchNorm2d-174      [1, 1632, 5, 5]           3,264           3,264
   RecycleNetwork/EfficientNetLite/MBConvBlock               Conv2d-175       [1, 272, 5, 5]         443,904         443,904
   RecycleNetwork/EfficientNetLite/MBConvBlock          BatchNorm2d-176       [1, 272, 5, 5]             544             544
   RecycleNetwork/EfficientNetLite/MBConvBlock               Conv2d-177      [1, 1632, 5, 5]         443,904         443,904
   RecycleNetwork/EfficientNetLite/MBConvBlock          BatchNorm2d-178      [1, 1632, 5, 5]           3,264           3,264
   RecycleNetwork/EfficientNetLite/MBConvBlock                ReLU6-179      [1, 1632, 5, 5]               0               0
   RecycleNetwork/EfficientNetLite/MBConvBlock               Conv2d-180      [1, 1632, 5, 5]          40,800          40,800
   RecycleNetwork/EfficientNetLite/MBConvBlock          BatchNorm2d-181      [1, 1632, 5, 5]           3,264           3,264
   RecycleNetwork/EfficientNetLite/MBConvBlock               Conv2d-182       [1, 272, 5, 5]         443,904         443,904
   RecycleNetwork/EfficientNetLite/MBConvBlock          BatchNorm2d-183       [1, 272, 5, 5]             544             544
   RecycleNetwork/EfficientNetLite/MBConvBlock               Conv2d-184      [1, 1632, 5, 5]         443,904         443,904
   RecycleNetwork/EfficientNetLite/MBConvBlock          BatchNorm2d-185      [1, 1632, 5, 5]           3,264           3,264
   RecycleNetwork/EfficientNetLite/MBConvBlock                ReLU6-186      [1, 1632, 5, 5]               0               0
   RecycleNetwork/EfficientNetLite/MBConvBlock               Conv2d-187      [1, 1632, 5, 5]          40,800          40,800
   RecycleNetwork/EfficientNetLite/MBConvBlock          BatchNorm2d-188      [1, 1632, 5, 5]           3,264           3,264
   RecycleNetwork/EfficientNetLite/MBConvBlock               Conv2d-189       [1, 272, 5, 5]         443,904         443,904
   RecycleNetwork/EfficientNetLite/MBConvBlock          BatchNorm2d-190       [1, 272, 5, 5]             544             544
   RecycleNetwork/EfficientNetLite/MBConvBlock               Conv2d-191      [1, 1632, 5, 5]         443,904         443,904
   RecycleNetwork/EfficientNetLite/MBConvBlock          BatchNorm2d-192      [1, 1632, 5, 5]           3,264           3,264
   RecycleNetwork/EfficientNetLite/MBConvBlock                ReLU6-193      [1, 1632, 5, 5]               0               0
   RecycleNetwork/EfficientNetLite/MBConvBlock               Conv2d-194      [1, 1632, 5, 5]          40,800          40,800
   RecycleNetwork/EfficientNetLite/MBConvBlock          BatchNorm2d-195      [1, 1632, 5, 5]           3,264           3,264
   RecycleNetwork/EfficientNetLite/MBConvBlock               Conv2d-196       [1, 272, 5, 5]         443,904         443,904
   RecycleNetwork/EfficientNetLite/MBConvBlock          BatchNorm2d-197       [1, 272, 5, 5]             544             544
   RecycleNetwork/EfficientNetLite/MBConvBlock               Conv2d-198      [1, 1632, 5, 5]         443,904         443,904
   RecycleNetwork/EfficientNetLite/MBConvBlock          BatchNorm2d-199      [1, 1632, 5, 5]           3,264           3,264
   RecycleNetwork/EfficientNetLite/MBConvBlock                ReLU6-200      [1, 1632, 5, 5]               0               0
   RecycleNetwork/EfficientNetLite/MBConvBlock               Conv2d-201      [1, 1632, 5, 5]          40,800          40,800
   RecycleNetwork/EfficientNetLite/MBConvBlock          BatchNorm2d-202      [1, 1632, 5, 5]           3,264           3,264
   RecycleNetwork/EfficientNetLite/MBConvBlock               Conv2d-203       [1, 272, 5, 5]         443,904         443,904
   RecycleNetwork/EfficientNetLite/MBConvBlock          BatchNorm2d-204       [1, 272, 5, 5]             544             544
   RecycleNetwork/EfficientNetLite/MBConvBlock               Conv2d-205      [1, 1632, 5, 5]         443,904         443,904
   RecycleNetwork/EfficientNetLite/MBConvBlock          BatchNorm2d-206      [1, 1632, 5, 5]           3,264           3,264
   RecycleNetwork/EfficientNetLite/MBConvBlock                ReLU6-207      [1, 1632, 5, 5]               0               0
   RecycleNetwork/EfficientNetLite/MBConvBlock               Conv2d-208      [1, 1632, 5, 5]          14,688          14,688
   RecycleNetwork/EfficientNetLite/MBConvBlock          BatchNorm2d-209      [1, 1632, 5, 5]           3,264           3,264
   RecycleNetwork/EfficientNetLite/MBConvBlock               Conv2d-210       [1, 448, 5, 5]         731,136         731,136
   RecycleNetwork/EfficientNetLite/MBConvBlock          BatchNorm2d-211       [1, 448, 5, 5]             896             896
               RecycleNetwork/EfficientNetLite               Conv2d-212      [1, 1280, 5, 5]         573,440         573,440
               RecycleNetwork/EfficientNetLite          BatchNorm2d-213      [1, 1280, 5, 5]           2,560           2,560
               RecycleNetwork/EfficientNetLite                ReLU6-214      [1, 1280, 5, 5]               0               0
               RecycleNetwork/EfficientNetLite    AdaptiveAvgPool2d-215      [1, 1280, 1, 1]               0               0
               RecycleNetwork/EfficientNetLite              Dropout-216            [1, 1280]               0               0
               RecycleNetwork/EfficientNetLite               Linear-217               [1, 5]           6,405           6,405
============================================================================================================================
Total params: 11,723,292
Trainable params: 11,723,292
Non-trainable params: 0
----------------------------------------------------------------------------------------------------------------------------
Training Started
Epoch: 1, Training Loss: 0.264637, Validation Loss: 0.290915, Training Accuracy: 0.945285, Validation Accuracy: 0.923623
…
[14] prune_out_channels on backbone.blocks.1.0._bn2 (BatchNorm2d(25, eps=0.001, momentum=0.01, affine=True, track_running_stats=True)) => prune_in_channels on backbone.blocks.1.1._expand_conv (Conv2d(25, 154, kernel_size=(1, 1), stride=(1, 1), bias=False)), #idxs=3
--------------------------------

Starting Training Cycle
----------------------------------------------------------------------------------------------------------------------------
                                 Parent Layers             Layer (type)         Output Shape         Param #     Tr. Param #
============================================================================================================================
               RecycleNetwork/EfficientNetLite                 Conv2d-1      [1, 25, 75, 75]             675             675
               RecycleNetwork/EfficientNetLite            BatchNorm2d-2      [1, 25, 75, 75]              50              50
               RecycleNetwork/EfficientNetLite                  ReLU6-3      [1, 25, 75, 75]               0               0
   RecycleNetwork/EfficientNetLite/MBConvBlock                 Conv2d-4      [1, 25, 75, 75]             225             225
   RecycleNetwork/EfficientNetLite/MBConvBlock            BatchNorm2d-5      [1, 25, 75, 75]              50              50
   RecycleNetwork/EfficientNetLite/MBConvBlock                  ReLU6-6      [1, 25, 75, 75]               0               0
   RecycleNetwork/EfficientNetLite/MBConvBlock                 Conv2d-7      [1, 21, 75, 75]             525             525
   RecycleNetwork/EfficientNetLite/MBConvBlock            BatchNorm2d-8      [1, 21, 75, 75]              42              42
   RecycleNetwork/EfficientNetLite/MBConvBlock                 Conv2d-9     [1, 116, 75, 75]           2,436           2,436
   RecycleNetwork/EfficientNetLite/MBConvBlock           BatchNorm2d-10     [1, 116, 75, 75]             232             232
   RecycleNetwork/EfficientNetLite/MBConvBlock                 ReLU6-11     [1, 116, 75, 75]               0               0
   RecycleNetwork/EfficientNetLite/MBConvBlock                Conv2d-12     [1, 116, 38, 38]           1,044           1,044
   RecycleNetwork/EfficientNetLite/MBConvBlock           BatchNorm2d-13     [1, 116, 38, 38]             232             232
   RecycleNetwork/EfficientNetLite/MBConvBlock                Conv2d-14      [1, 25, 38, 38]           2,900           2,900
   RecycleNetwork/EfficientNetLite/MBConvBlock           BatchNorm2d-15      [1, 25, 38, 38]              50              50
   RecycleNetwork/EfficientNetLite/MBConvBlock                Conv2d-16     [1, 154, 38, 38]           3,850           3,850
   RecycleNetwork/EfficientNetLite/MBConvBlock           BatchNorm2d-17     [1, 154, 38, 38]             308             308
   RecycleNetwork/EfficientNetLite/MBConvBlock                 ReLU6-18     [1, 154, 38, 38]               0               0
   RecycleNetwork/EfficientNetLite/MBConvBlock                Conv2d-19     [1, 154, 38, 38]           1,386           1,386
   RecycleNetwork/EfficientNetLite/MBConvBlock           BatchNorm2d-20     [1, 154, 38, 38]             308             308
   RecycleNetwork/EfficientNetLite/MBConvBlock                Conv2d-21      [1, 25, 38, 38]           3,850           3,850
   RecycleNetwork/EfficientNetLite/MBConvBlock           BatchNorm2d-22      [1, 25, 38, 38]              50              50
   RecycleNetwork/EfficientNetLite/MBConvBlock                Conv2d-23     [1, 192, 38, 38]           4,800           4,800
   RecycleNetwork/EfficientNetLite/MBConvBlock           BatchNorm2d-24     [1, 192, 38, 38]             384             384
   RecycleNetwork/EfficientNetLite/MBConvBlock                 ReLU6-25     [1, 192, 38, 38]               0               0
   RecycleNetwork/EfficientNetLite/MBConvBlock                Conv2d-26     [1, 192, 38, 38]           1,728           1,728
   RecycleNetwork/EfficientNetLite/MBConvBlock           BatchNorm2d-27     [1, 192, 38, 38]             384             384
   RecycleNetwork/EfficientNetLite/MBConvBlock                Conv2d-28      [1, 25, 38, 38]           4,800           4,800
   RecycleNetwork/EfficientNetLite/MBConvBlock           BatchNorm2d-29      [1, 25, 38, 38]              50              50
   RecycleNetwork/EfficientNetLite/MBConvBlock                Conv2d-30     [1, 192, 38, 38]           4,800           4,800
   RecycleNetwork/EfficientNetLite/MBConvBlock           BatchNorm2d-31     [1, 192, 38, 38]             384             384
   RecycleNetwork/EfficientNetLite/MBConvBlock                 ReLU6-32     [1, 192, 38, 38]               0               0
   RecycleNetwork/EfficientNetLite/MBConvBlock                Conv2d-33     [1, 192, 38, 38]           1,728           1,728
   RecycleNetwork/EfficientNetLite/MBConvBlock           BatchNorm2d-34     [1, 192, 38, 38]             384             384
   RecycleNetwork/EfficientNetLite/MBConvBlock                Conv2d-35      [1, 25, 38, 38]           4,800           4,800
   RecycleNetwork/EfficientNetLite/MBConvBlock           BatchNorm2d-36      [1, 25, 38, 38]              50              50
   RecycleNetwork/EfficientNetLite/MBConvBlock                Conv2d-37     [1, 192, 38, 38]           4,800           4,800
   RecycleNetwork/EfficientNetLite/MBConvBlock           BatchNorm2d-38     [1, 192, 38, 38]             384             384
   RecycleNetwork/EfficientNetLite/MBConvBlock                 ReLU6-39     [1, 192, 38, 38]               0               0
   RecycleNetwork/EfficientNetLite/MBConvBlock                Conv2d-40     [1, 192, 19, 19]           4,800           4,800
   RecycleNetwork/EfficientNetLite/MBConvBlock           BatchNorm2d-41     [1, 192, 19, 19]             384             384
   RecycleNetwork/EfficientNetLite/MBConvBlock                Conv2d-42      [1, 56, 19, 19]          10,752          10,752
   RecycleNetwork/EfficientNetLite/MBConvBlock           BatchNorm2d-43      [1, 56, 19, 19]             112             112
   RecycleNetwork/EfficientNetLite/MBConvBlock                Conv2d-44     [1, 336, 19, 19]          18,816          18,816
   RecycleNetwork/EfficientNetLite/MBConvBlock           BatchNorm2d-45     [1, 336, 19, 19]             672             672
   RecycleNetwork/EfficientNetLite/MBConvBlock                 ReLU6-46     [1, 336, 19, 19]               0               0
   RecycleNetwork/EfficientNetLite/MBConvBlock                Conv2d-47     [1, 336, 19, 19]           8,400           8,400
   RecycleNetwork/EfficientNetLite/MBConvBlock           BatchNorm2d-48     [1, 336, 19, 19]             672             672
   RecycleNetwork/EfficientNetLite/MBConvBlock                Conv2d-49      [1, 56, 19, 19]          18,816          18,816
   RecycleNetwork/EfficientNetLite/MBConvBlock           BatchNorm2d-50      [1, 56, 19, 19]             112             112
   RecycleNetwork/EfficientNetLite/MBConvBlock                Conv2d-51     [1, 336, 19, 19]          18,816          18,816
   RecycleNetwork/EfficientNetLite/MBConvBlock           BatchNorm2d-52     [1, 336, 19, 19]             672             672
   RecycleNetwork/EfficientNetLite/MBConvBlock                 ReLU6-53     [1, 336, 19, 19]               0               0
   RecycleNetwork/EfficientNetLite/MBConvBlock                Conv2d-54     [1, 336, 19, 19]           8,400           8,400
   RecycleNetwork/EfficientNetLite/MBConvBlock           BatchNorm2d-55     [1, 336, 19, 19]             672             672
   RecycleNetwork/EfficientNetLite/MBConvBlock                Conv2d-56      [1, 56, 19, 19]          18,816          18,816
   RecycleNetwork/EfficientNetLite/MBConvBlock           BatchNorm2d-57      [1, 56, 19, 19]             112             112
   RecycleNetwork/EfficientNetLite/MBConvBlock                Conv2d-58     [1, 336, 19, 19]          18,816          18,816
   RecycleNetwork/EfficientNetLite/MBConvBlock           BatchNorm2d-59     [1, 336, 19, 19]             672             672
   RecycleNetwork/EfficientNetLite/MBConvBlock                 ReLU6-60     [1, 336, 19, 19]               0               0
   RecycleNetwork/EfficientNetLite/MBConvBlock                Conv2d-61     [1, 336, 19, 19]           8,400           8,400
   RecycleNetwork/EfficientNetLite/MBConvBlock           BatchNorm2d-62     [1, 336, 19, 19]             672             672
   RecycleNetwork/EfficientNetLite/MBConvBlock                Conv2d-63      [1, 56, 19, 19]          18,816          18,816
   RecycleNetwork/EfficientNetLite/MBConvBlock           BatchNorm2d-64      [1, 56, 19, 19]             112             112
   RecycleNetwork/EfficientNetLite/MBConvBlock                Conv2d-65     [1, 336, 19, 19]          18,816          18,816
   RecycleNetwork/EfficientNetLite/MBConvBlock           BatchNorm2d-66     [1, 336, 19, 19]             672             672
   RecycleNetwork/EfficientNetLite/MBConvBlock                 ReLU6-67     [1, 336, 19, 19]               0               0
   RecycleNetwork/EfficientNetLite/MBConvBlock                Conv2d-68     [1, 336, 10, 10]           3,024           3,024
   RecycleNetwork/EfficientNetLite/MBConvBlock           BatchNorm2d-69     [1, 336, 10, 10]             672             672
   RecycleNetwork/EfficientNetLite/MBConvBlock                Conv2d-70     [1, 112, 10, 10]          37,632          37,632
   RecycleNetwork/EfficientNetLite/MBConvBlock           BatchNorm2d-71     [1, 112, 10, 10]             224             224
   RecycleNetwork/EfficientNetLite/MBConvBlock                Conv2d-72     [1, 672, 10, 10]          75,264          75,264
   RecycleNetwork/EfficientNetLite/MBConvBlock           BatchNorm2d-73     [1, 672, 10, 10]           1,344           1,344
   RecycleNetwork/EfficientNetLite/MBConvBlock                 ReLU6-74     [1, 672, 10, 10]               0               0
   RecycleNetwork/EfficientNetLite/MBConvBlock                Conv2d-75     [1, 672, 10, 10]           6,048           6,048
   RecycleNetwork/EfficientNetLite/MBConvBlock           BatchNorm2d-76     [1, 672, 10, 10]           1,344           1,344
   RecycleNetwork/EfficientNetLite/MBConvBlock                Conv2d-77     [1, 112, 10, 10]          75,264          75,264
   RecycleNetwork/EfficientNetLite/MBConvBlock           BatchNorm2d-78     [1, 112, 10, 10]             224             224
   RecycleNetwork/EfficientNetLite/MBConvBlock                Conv2d-79     [1, 672, 10, 10]          75,264          75,264
   RecycleNetwork/EfficientNetLite/MBConvBlock           BatchNorm2d-80     [1, 672, 10, 10]           1,344           1,344
   RecycleNetwork/EfficientNetLite/MBConvBlock                 ReLU6-81     [1, 672, 10, 10]               0               0
   RecycleNetwork/EfficientNetLite/MBConvBlock                Conv2d-82     [1, 672, 10, 10]           6,048           6,048
   RecycleNetwork/EfficientNetLite/MBConvBlock           BatchNorm2d-83     [1, 672, 10, 10]           1,344           1,344
   RecycleNetwork/EfficientNetLite/MBConvBlock                Conv2d-84     [1, 112, 10, 10]          75,264          75,264
   RecycleNetwork/EfficientNetLite/MBConvBlock           BatchNorm2d-85     [1, 112, 10, 10]             224             224
   RecycleNetwork/EfficientNetLite/MBConvBlock                Conv2d-86     [1, 672, 10, 10]          75,264          75,264
   RecycleNetwork/EfficientNetLite/MBConvBlock           BatchNorm2d-87     [1, 672, 10, 10]           1,344           1,344
   RecycleNetwork/EfficientNetLite/MBConvBlock                 ReLU6-88     [1, 672, 10, 10]               0               0
   RecycleNetwork/EfficientNetLite/MBConvBlock                Conv2d-89     [1, 672, 10, 10]           6,048           6,048
   RecycleNetwork/EfficientNetLite/MBConvBlock           BatchNorm2d-90     [1, 672, 10, 10]           1,344           1,344
   RecycleNetwork/EfficientNetLite/MBConvBlock                Conv2d-91     [1, 112, 10, 10]          75,264          75,264
   RecycleNetwork/EfficientNetLite/MBConvBlock           BatchNorm2d-92     [1, 112, 10, 10]             224             224
   RecycleNetwork/EfficientNetLite/MBConvBlock                Conv2d-93     [1, 672, 10, 10]          75,264          75,264
   RecycleNetwork/EfficientNetLite/MBConvBlock           BatchNorm2d-94     [1, 672, 10, 10]           1,344           1,344
   RecycleNetwork/EfficientNetLite/MBConvBlock                 ReLU6-95     [1, 672, 10, 10]               0               0
   RecycleNetwork/EfficientNetLite/MBConvBlock                Conv2d-96     [1, 672, 10, 10]           6,048           6,048
   RecycleNetwork/EfficientNetLite/MBConvBlock           BatchNorm2d-97     [1, 672, 10, 10]           1,344           1,344
   RecycleNetwork/EfficientNetLite/MBConvBlock                Conv2d-98     [1, 112, 10, 10]          75,264          75,264
   RecycleNetwork/EfficientNetLite/MBConvBlock           BatchNorm2d-99     [1, 112, 10, 10]             224             224
   RecycleNetwork/EfficientNetLite/MBConvBlock               Conv2d-100     [1, 672, 10, 10]          75,264          75,264
   RecycleNetwork/EfficientNetLite/MBConvBlock          BatchNorm2d-101     [1, 672, 10, 10]           1,344           1,344
   RecycleNetwork/EfficientNetLite/MBConvBlock                ReLU6-102     [1, 672, 10, 10]               0               0
   RecycleNetwork/EfficientNetLite/MBConvBlock               Conv2d-103     [1, 672, 10, 10]           6,048           6,048
   RecycleNetwork/EfficientNetLite/MBConvBlock          BatchNorm2d-104     [1, 672, 10, 10]           1,344           1,344
   RecycleNetwork/EfficientNetLite/MBConvBlock               Conv2d-105     [1, 112, 10, 10]          75,264          75,264
   RecycleNetwork/EfficientNetLite/MBConvBlock          BatchNorm2d-106     [1, 112, 10, 10]             224             224
   RecycleNetwork/EfficientNetLite/MBConvBlock               Conv2d-107     [1, 672, 10, 10]          75,264          75,264
   RecycleNetwork/EfficientNetLite/MBConvBlock          BatchNorm2d-108     [1, 672, 10, 10]           1,344           1,344
   RecycleNetwork/EfficientNetLite/MBConvBlock                ReLU6-109     [1, 672, 10, 10]               0               0
   RecycleNetwork/EfficientNetLite/MBConvBlock               Conv2d-110     [1, 672, 10, 10]          16,800          16,800
   RecycleNetwork/EfficientNetLite/MBConvBlock          BatchNorm2d-111     [1, 672, 10, 10]           1,344           1,344
   RecycleNetwork/EfficientNetLite/MBConvBlock               Conv2d-112     [1, 160, 10, 10]         107,520         107,520
   RecycleNetwork/EfficientNetLite/MBConvBlock          BatchNorm2d-113     [1, 160, 10, 10]             320             320
   RecycleNetwork/EfficientNetLite/MBConvBlock               Conv2d-114     [1, 960, 10, 10]         153,600         153,600
   RecycleNetwork/EfficientNetLite/MBConvBlock          BatchNorm2d-115     [1, 960, 10, 10]           1,920           1,920
   RecycleNetwork/EfficientNetLite/MBConvBlock                ReLU6-116     [1, 960, 10, 10]               0               0
   RecycleNetwork/EfficientNetLite/MBConvBlock               Conv2d-117     [1, 960, 10, 10]          24,000          24,000
   RecycleNetwork/EfficientNetLite/MBConvBlock          BatchNorm2d-118     [1, 960, 10, 10]           1,920           1,920
   RecycleNetwork/EfficientNetLite/MBConvBlock               Conv2d-119     [1, 160, 10, 10]         153,600         153,600
   RecycleNetwork/EfficientNetLite/MBConvBlock          BatchNorm2d-120     [1, 160, 10, 10]             320             320
   RecycleNetwork/EfficientNetLite/MBConvBlock               Conv2d-121     [1, 960, 10, 10]         153,600         153,600
   RecycleNetwork/EfficientNetLite/MBConvBlock          BatchNorm2d-122     [1, 960, 10, 10]           1,920           1,920
   RecycleNetwork/EfficientNetLite/MBConvBlock                ReLU6-123     [1, 960, 10, 10]               0               0
   RecycleNetwork/EfficientNetLite/MBConvBlock               Conv2d-124     [1, 960, 10, 10]          24,000          24,000
   RecycleNetwork/EfficientNetLite/MBConvBlock          BatchNorm2d-125     [1, 960, 10, 10]           1,920           1,920
   RecycleNetwork/EfficientNetLite/MBConvBlock               Conv2d-126     [1, 160, 10, 10]         153,600         153,600
   RecycleNetwork/EfficientNetLite/MBConvBlock          BatchNorm2d-127     [1, 160, 10, 10]             320             320
   RecycleNetwork/EfficientNetLite/MBConvBlock               Conv2d-128     [1, 960, 10, 10]         153,600         153,600
   RecycleNetwork/EfficientNetLite/MBConvBlock          BatchNorm2d-129     [1, 960, 10, 10]           1,920           1,920
   RecycleNetwork/EfficientNetLite/MBConvBlock                ReLU6-130     [1, 960, 10, 10]               0               0
   RecycleNetwork/EfficientNetLite/MBConvBlock               Conv2d-131     [1, 960, 10, 10]          24,000          24,000
   RecycleNetwork/EfficientNetLite/MBConvBlock          BatchNorm2d-132     [1, 960, 10, 10]           1,920           1,920
   RecycleNetwork/EfficientNetLite/MBConvBlock               Conv2d-133     [1, 160, 10, 10]         153,600         153,600
   RecycleNetwork/EfficientNetLite/MBConvBlock          BatchNorm2d-134     [1, 160, 10, 10]             320             320
   RecycleNetwork/EfficientNetLite/MBConvBlock               Conv2d-135     [1, 960, 10, 10]         153,600         153,600
   RecycleNetwork/EfficientNetLite/MBConvBlock          BatchNorm2d-136     [1, 960, 10, 10]           1,920           1,920
   RecycleNetwork/EfficientNetLite/MBConvBlock                ReLU6-137     [1, 960, 10, 10]               0               0
   RecycleNetwork/EfficientNetLite/MBConvBlock               Conv2d-138     [1, 960, 10, 10]          24,000          24,000
   RecycleNetwork/EfficientNetLite/MBConvBlock          BatchNorm2d-139     [1, 960, 10, 10]           1,920           1,920
   RecycleNetwork/EfficientNetLite/MBConvBlock               Conv2d-140     [1, 160, 10, 10]         153,600         153,600
   RecycleNetwork/EfficientNetLite/MBConvBlock          BatchNorm2d-141     [1, 160, 10, 10]             320             320
   RecycleNetwork/EfficientNetLite/MBConvBlock               Conv2d-142     [1, 960, 10, 10]         153,600         153,600
   RecycleNetwork/EfficientNetLite/MBConvBlock          BatchNorm2d-143     [1, 960, 10, 10]           1,920           1,920
   RecycleNetwork/EfficientNetLite/MBConvBlock                ReLU6-144     [1, 960, 10, 10]               0               0
   RecycleNetwork/EfficientNetLite/MBConvBlock               Conv2d-145     [1, 960, 10, 10]          24,000          24,000
   RecycleNetwork/EfficientNetLite/MBConvBlock          BatchNorm2d-146     [1, 960, 10, 10]           1,920           1,920
   RecycleNetwork/EfficientNetLite/MBConvBlock               Conv2d-147     [1, 160, 10, 10]         153,600         153,600
   RecycleNetwork/EfficientNetLite/MBConvBlock          BatchNorm2d-148     [1, 160, 10, 10]             320             320
   RecycleNetwork/EfficientNetLite/MBConvBlock               Conv2d-149     [1, 960, 10, 10]         153,600         153,600
   RecycleNetwork/EfficientNetLite/MBConvBlock          BatchNorm2d-150     [1, 960, 10, 10]           1,920           1,920
   RecycleNetwork/EfficientNetLite/MBConvBlock                ReLU6-151     [1, 960, 10, 10]               0               0
   RecycleNetwork/EfficientNetLite/MBConvBlock               Conv2d-152       [1, 960, 5, 5]          24,000          24,000
   RecycleNetwork/EfficientNetLite/MBConvBlock          BatchNorm2d-153       [1, 960, 5, 5]           1,920           1,920
   RecycleNetwork/EfficientNetLite/MBConvBlock               Conv2d-154       [1, 272, 5, 5]         261,120         261,120
   RecycleNetwork/EfficientNetLite/MBConvBlock          BatchNorm2d-155       [1, 272, 5, 5]             544             544
   RecycleNetwork/EfficientNetLite/MBConvBlock               Conv2d-156      [1, 1632, 5, 5]         443,904         443,904
   RecycleNetwork/EfficientNetLite/MBConvBlock          BatchNorm2d-157      [1, 1632, 5, 5]           3,264           3,264
   RecycleNetwork/EfficientNetLite/MBConvBlock                ReLU6-158      [1, 1632, 5, 5]               0               0
   RecycleNetwork/EfficientNetLite/MBConvBlock               Conv2d-159      [1, 1632, 5, 5]          40,800          40,800
   RecycleNetwork/EfficientNetLite/MBConvBlock          BatchNorm2d-160      [1, 1632, 5, 5]           3,264           3,264
   RecycleNetwork/EfficientNetLite/MBConvBlock               Conv2d-161       [1, 272, 5, 5]         443,904         443,904
   RecycleNetwork/EfficientNetLite/MBConvBlock          BatchNorm2d-162       [1, 272, 5, 5]             544             544
   RecycleNetwork/EfficientNetLite/MBConvBlock               Conv2d-163      [1, 1632, 5, 5]         443,904         443,904
   RecycleNetwork/EfficientNetLite/MBConvBlock          BatchNorm2d-164      [1, 1632, 5, 5]           3,264           3,264
   RecycleNetwork/EfficientNetLite/MBConvBlock                ReLU6-165      [1, 1632, 5, 5]               0               0
   RecycleNetwork/EfficientNetLite/MBConvBlock               Conv2d-166      [1, 1632, 5, 5]          40,800          40,800
   RecycleNetwork/EfficientNetLite/MBConvBlock          BatchNorm2d-167      [1, 1632, 5, 5]           3,264           3,264
   RecycleNetwork/EfficientNetLite/MBConvBlock               Conv2d-168       [1, 272, 5, 5]         443,904         443,904
   RecycleNetwork/EfficientNetLite/MBConvBlock          BatchNorm2d-169       [1, 272, 5, 5]             544             544
   RecycleNetwork/EfficientNetLite/MBConvBlock               Conv2d-170      [1, 1632, 5, 5]         443,904         443,904
   RecycleNetwork/EfficientNetLite/MBConvBlock          BatchNorm2d-171      [1, 1632, 5, 5]           3,264           3,264
   RecycleNetwork/EfficientNetLite/MBConvBlock                ReLU6-172      [1, 1632, 5, 5]               0               0
   RecycleNetwork/EfficientNetLite/MBConvBlock               Conv2d-173      [1, 1632, 5, 5]          40,800          40,800
   RecycleNetwork/EfficientNetLite/MBConvBlock          BatchNorm2d-174      [1, 1632, 5, 5]           3,264           3,264
   RecycleNetwork/EfficientNetLite/MBConvBlock               Conv2d-175       [1, 272, 5, 5]         443,904         443,904
   RecycleNetwork/EfficientNetLite/MBConvBlock          BatchNorm2d-176       [1, 272, 5, 5]             544             544
   RecycleNetwork/EfficientNetLite/MBConvBlock               Conv2d-177      [1, 1632, 5, 5]         443,904         443,904
   RecycleNetwork/EfficientNetLite/MBConvBlock          BatchNorm2d-178      [1, 1632, 5, 5]           3,264           3,264
   RecycleNetwork/EfficientNetLite/MBConvBlock                ReLU6-179      [1, 1632, 5, 5]               0               0
   RecycleNetwork/EfficientNetLite/MBConvBlock               Conv2d-180      [1, 1632, 5, 5]          40,800          40,800
   RecycleNetwork/EfficientNetLite/MBConvBlock          BatchNorm2d-181      [1, 1632, 5, 5]           3,264           3,264
   RecycleNetwork/EfficientNetLite/MBConvBlock               Conv2d-182       [1, 272, 5, 5]         443,904         443,904
   RecycleNetwork/EfficientNetLite/MBConvBlock          BatchNorm2d-183       [1, 272, 5, 5]             544             544
   RecycleNetwork/EfficientNetLite/MBConvBlock               Conv2d-184      [1, 1632, 5, 5]         443,904         443,904
   RecycleNetwork/EfficientNetLite/MBConvBlock          BatchNorm2d-185      [1, 1632, 5, 5]           3,264           3,264
   RecycleNetwork/EfficientNetLite/MBConvBlock                ReLU6-186      [1, 1632, 5, 5]               0               0
   RecycleNetwork/EfficientNetLite/MBConvBlock               Conv2d-187      [1, 1632, 5, 5]          40,800          40,800
   RecycleNetwork/EfficientNetLite/MBConvBlock          BatchNorm2d-188      [1, 1632, 5, 5]           3,264           3,264
   RecycleNetwork/EfficientNetLite/MBConvBlock               Conv2d-189       [1, 272, 5, 5]         443,904         443,904
   RecycleNetwork/EfficientNetLite/MBConvBlock          BatchNorm2d-190       [1, 272, 5, 5]             544             544
   RecycleNetwork/EfficientNetLite/MBConvBlock               Conv2d-191      [1, 1632, 5, 5]         443,904         443,904
   RecycleNetwork/EfficientNetLite/MBConvBlock          BatchNorm2d-192      [1, 1632, 5, 5]           3,264           3,264
   RecycleNetwork/EfficientNetLite/MBConvBlock                ReLU6-193      [1, 1632, 5, 5]               0               0
   RecycleNetwork/EfficientNetLite/MBConvBlock               Conv2d-194      [1, 1632, 5, 5]          40,800          40,800
   RecycleNetwork/EfficientNetLite/MBConvBlock          BatchNorm2d-195      [1, 1632, 5, 5]           3,264           3,264
   RecycleNetwork/EfficientNetLite/MBConvBlock               Conv2d-196       [1, 272, 5, 5]         443,904         443,904
   RecycleNetwork/EfficientNetLite/MBConvBlock          BatchNorm2d-197       [1, 272, 5, 5]             544             544
   RecycleNetwork/EfficientNetLite/MBConvBlock               Conv2d-198      [1, 1632, 5, 5]         443,904         443,904
   RecycleNetwork/EfficientNetLite/MBConvBlock          BatchNorm2d-199      [1, 1632, 5, 5]           3,264           3,264
   RecycleNetwork/EfficientNetLite/MBConvBlock                ReLU6-200      [1, 1632, 5, 5]               0               0
   RecycleNetwork/EfficientNetLite/MBConvBlock               Conv2d-201      [1, 1632, 5, 5]          40,800          40,800
   RecycleNetwork/EfficientNetLite/MBConvBlock          BatchNorm2d-202      [1, 1632, 5, 5]           3,264           3,264
   RecycleNetwork/EfficientNetLite/MBConvBlock               Conv2d-203       [1, 272, 5, 5]         443,904         443,904
   RecycleNetwork/EfficientNetLite/MBConvBlock          BatchNorm2d-204       [1, 272, 5, 5]             544             544
   RecycleNetwork/EfficientNetLite/MBConvBlock               Conv2d-205      [1, 1632, 5, 5]         443,904         443,904
   RecycleNetwork/EfficientNetLite/MBConvBlock          BatchNorm2d-206      [1, 1632, 5, 5]           3,264           3,264
   RecycleNetwork/EfficientNetLite/MBConvBlock                ReLU6-207      [1, 1632, 5, 5]               0               0
   RecycleNetwork/EfficientNetLite/MBConvBlock               Conv2d-208      [1, 1632, 5, 5]          14,688          14,688
   RecycleNetwork/EfficientNetLite/MBConvBlock          BatchNorm2d-209      [1, 1632, 5, 5]           3,264           3,264
   RecycleNetwork/EfficientNetLite/MBConvBlock               Conv2d-210       [1, 448, 5, 5]         731,136         731,136
   RecycleNetwork/EfficientNetLite/MBConvBlock          BatchNorm2d-211       [1, 448, 5, 5]             896             896
               RecycleNetwork/EfficientNetLite               Conv2d-212      [1, 1280, 5, 5]         573,440         573,440
               RecycleNetwork/EfficientNetLite          BatchNorm2d-213      [1, 1280, 5, 5]           2,560           2,560
               RecycleNetwork/EfficientNetLite                ReLU6-214      [1, 1280, 5, 5]               0               0
               RecycleNetwork/EfficientNetLite    AdaptiveAvgPool2d-215      [1, 1280, 1, 1]               0               0
               RecycleNetwork/EfficientNetLite              Dropout-216            [1, 1280]               0               0
               RecycleNetwork/EfficientNetLite               Linear-217               [1, 5]           6,405           6,405
============================================================================================================================
Total params: 11,716,494
Trainable params: 11,716,494
Non-trainable params: 0
----------------------------------------------------------------------------------------------------------------------------
Training Started
Epoch: 1, Training Loss: 0.275915, Validation Loss: 0.293729, Training Accuracy: 0.941861, Validation Accuracy: 0.918768
…
[14] prune_out_channels on backbone.blocks.1.1._bn2 (BatchNorm2d(22, eps=0.001, momentum=0.01, affine=True, track_running_stats=True)) => prune_out_channels on backbone.blocks.1.1._project_conv (Conv2d(154, 22, kernel_size=(1, 1), stride=(1, 1), bias=False)), #idxs=3
--------------------------------

Starting Training Cycle
----------------------------------------------------------------------------------------------------------------------------
                                 Parent Layers             Layer (type)         Output Shape         Param #     Tr. Param #
============================================================================================================================
               RecycleNetwork/EfficientNetLite                 Conv2d-1      [1, 25, 75, 75]             675             675
               RecycleNetwork/EfficientNetLite            BatchNorm2d-2      [1, 25, 75, 75]              50              50
               RecycleNetwork/EfficientNetLite                  ReLU6-3      [1, 25, 75, 75]               0               0
   RecycleNetwork/EfficientNetLite/MBConvBlock                 Conv2d-4      [1, 25, 75, 75]             225             225
   RecycleNetwork/EfficientNetLite/MBConvBlock            BatchNorm2d-5      [1, 25, 75, 75]              50              50
   RecycleNetwork/EfficientNetLite/MBConvBlock                  ReLU6-6      [1, 25, 75, 75]               0               0
   RecycleNetwork/EfficientNetLite/MBConvBlock                 Conv2d-7      [1, 21, 75, 75]             525             525
   RecycleNetwork/EfficientNetLite/MBConvBlock            BatchNorm2d-8      [1, 21, 75, 75]              42              42
   RecycleNetwork/EfficientNetLite/MBConvBlock                 Conv2d-9     [1, 116, 75, 75]           2,436           2,436
   RecycleNetwork/EfficientNetLite/MBConvBlock           BatchNorm2d-10     [1, 116, 75, 75]             232             232
   RecycleNetwork/EfficientNetLite/MBConvBlock                 ReLU6-11     [1, 116, 75, 75]               0               0
   RecycleNetwork/EfficientNetLite/MBConvBlock                Conv2d-12     [1, 116, 38, 38]           1,044           1,044
   RecycleNetwork/EfficientNetLite/MBConvBlock           BatchNorm2d-13     [1, 116, 38, 38]             232             232
   RecycleNetwork/EfficientNetLite/MBConvBlock                Conv2d-14      [1, 22, 38, 38]           2,552           2,552
   RecycleNetwork/EfficientNetLite/MBConvBlock           BatchNorm2d-15      [1, 22, 38, 38]              44              44
   RecycleNetwork/EfficientNetLite/MBConvBlock                Conv2d-16     [1, 154, 38, 38]           3,388           3,388
   RecycleNetwork/EfficientNetLite/MBConvBlock           BatchNorm2d-17     [1, 154, 38, 38]             308             308
   RecycleNetwork/EfficientNetLite/MBConvBlock                 ReLU6-18     [1, 154, 38, 38]               0               0
   RecycleNetwork/EfficientNetLite/MBConvBlock                Conv2d-19     [1, 154, 38, 38]           1,386           1,386
   RecycleNetwork/EfficientNetLite/MBConvBlock           BatchNorm2d-20     [1, 154, 38, 38]             308             308
   RecycleNetwork/EfficientNetLite/MBConvBlock                Conv2d-21      [1, 22, 38, 38]           3,388           3,388
   RecycleNetwork/EfficientNetLite/MBConvBlock           BatchNorm2d-22      [1, 22, 38, 38]              44              44
   RecycleNetwork/EfficientNetLite/MBConvBlock                Conv2d-23     [1, 154, 38, 38]           3,388           3,388
   RecycleNetwork/EfficientNetLite/MBConvBlock           BatchNorm2d-24     [1, 154, 38, 38]             308             308
   RecycleNetwork/EfficientNetLite/MBConvBlock                 ReLU6-25     [1, 154, 38, 38]               0               0
   RecycleNetwork/EfficientNetLite/MBConvBlock                Conv2d-26     [1, 154, 38, 38]           1,386           1,386
   RecycleNetwork/EfficientNetLite/MBConvBlock           BatchNorm2d-27     [1, 154, 38, 38]             308             308
   RecycleNetwork/EfficientNetLite/MBConvBlock                Conv2d-28      [1, 22, 38, 38]           3,388           3,388
   RecycleNetwork/EfficientNetLite/MBConvBlock           BatchNorm2d-29      [1, 22, 38, 38]              44              44
   RecycleNetwork/EfficientNetLite/MBConvBlock                Conv2d-30     [1, 192, 38, 38]           4,224           4,224
   RecycleNetwork/EfficientNetLite/MBConvBlock           BatchNorm2d-31     [1, 192, 38, 38]             384             384
   RecycleNetwork/EfficientNetLite/MBConvBlock                 ReLU6-32     [1, 192, 38, 38]               0               0
   RecycleNetwork/EfficientNetLite/MBConvBlock                Conv2d-33     [1, 192, 38, 38]           1,728           1,728
   RecycleNetwork/EfficientNetLite/MBConvBlock           BatchNorm2d-34     [1, 192, 38, 38]             384             384
   RecycleNetwork/EfficientNetLite/MBConvBlock                Conv2d-35      [1, 22, 38, 38]           4,224           4,224
   RecycleNetwork/EfficientNetLite/MBConvBlock           BatchNorm2d-36      [1, 22, 38, 38]              44              44
   RecycleNetwork/EfficientNetLite/MBConvBlock                Conv2d-37     [1, 192, 38, 38]           4,224           4,224
   RecycleNetwork/EfficientNetLite/MBConvBlock           BatchNorm2d-38     [1, 192, 38, 38]             384             384
   RecycleNetwork/EfficientNetLite/MBConvBlock                 ReLU6-39     [1, 192, 38, 38]               0               0
   RecycleNetwork/EfficientNetLite/MBConvBlock                Conv2d-40     [1, 192, 19, 19]           4,800           4,800
   RecycleNetwork/EfficientNetLite/MBConvBlock           BatchNorm2d-41     [1, 192, 19, 19]             384             384
   RecycleNetwork/EfficientNetLite/MBConvBlock                Conv2d-42      [1, 56, 19, 19]          10,752          10,752
   RecycleNetwork/EfficientNetLite/MBConvBlock           BatchNorm2d-43      [1, 56, 19, 19]             112             112
   RecycleNetwork/EfficientNetLite/MBConvBlock                Conv2d-44     [1, 336, 19, 19]          18,816          18,816
   RecycleNetwork/EfficientNetLite/MBConvBlock           BatchNorm2d-45     [1, 336, 19, 19]             672             672
   RecycleNetwork/EfficientNetLite/MBConvBlock                 ReLU6-46     [1, 336, 19, 19]               0               0
   RecycleNetwork/EfficientNetLite/MBConvBlock                Conv2d-47     [1, 336, 19, 19]           8,400           8,400
   RecycleNetwork/EfficientNetLite/MBConvBlock           BatchNorm2d-48     [1, 336, 19, 19]             672             672
   RecycleNetwork/EfficientNetLite/MBConvBlock                Conv2d-49      [1, 56, 19, 19]          18,816          18,816
   RecycleNetwork/EfficientNetLite/MBConvBlock           BatchNorm2d-50      [1, 56, 19, 19]             112             112
   RecycleNetwork/EfficientNetLite/MBConvBlock                Conv2d-51     [1, 336, 19, 19]          18,816          18,816
   RecycleNetwork/EfficientNetLite/MBConvBlock           BatchNorm2d-52     [1, 336, 19, 19]             672             672
   RecycleNetwork/EfficientNetLite/MBConvBlock                 ReLU6-53     [1, 336, 19, 19]               0               0
   RecycleNetwork/EfficientNetLite/MBConvBlock                Conv2d-54     [1, 336, 19, 19]           8,400           8,400
   RecycleNetwork/EfficientNetLite/MBConvBlock           BatchNorm2d-55     [1, 336, 19, 19]             672             672
   RecycleNetwork/EfficientNetLite/MBConvBlock                Conv2d-56      [1, 56, 19, 19]          18,816          18,816
   RecycleNetwork/EfficientNetLite/MBConvBlock           BatchNorm2d-57      [1, 56, 19, 19]             112             112
   RecycleNetwork/EfficientNetLite/MBConvBlock                Conv2d-58     [1, 336, 19, 19]          18,816          18,816
   RecycleNetwork/EfficientNetLite/MBConvBlock           BatchNorm2d-59     [1, 336, 19, 19]             672             672
   RecycleNetwork/EfficientNetLite/MBConvBlock                 ReLU6-60     [1, 336, 19, 19]               0               0
   RecycleNetwork/EfficientNetLite/MBConvBlock                Conv2d-61     [1, 336, 19, 19]           8,400           8,400
   RecycleNetwork/EfficientNetLite/MBConvBlock           BatchNorm2d-62     [1, 336, 19, 19]             672             672
   RecycleNetwork/EfficientNetLite/MBConvBlock                Conv2d-63      [1, 56, 19, 19]          18,816          18,816
   RecycleNetwork/EfficientNetLite/MBConvBlock           BatchNorm2d-64      [1, 56, 19, 19]             112             112
   RecycleNetwork/EfficientNetLite/MBConvBlock                Conv2d-65     [1, 336, 19, 19]          18,816          18,816
   RecycleNetwork/EfficientNetLite/MBConvBlock           BatchNorm2d-66     [1, 336, 19, 19]             672             672
   RecycleNetwork/EfficientNetLite/MBConvBlock                 ReLU6-67     [1, 336, 19, 19]               0               0
   RecycleNetwork/EfficientNetLite/MBConvBlock                Conv2d-68     [1, 336, 10, 10]           3,024           3,024
   RecycleNetwork/EfficientNetLite/MBConvBlock           BatchNorm2d-69     [1, 336, 10, 10]             672             672
   RecycleNetwork/EfficientNetLite/MBConvBlock                Conv2d-70     [1, 112, 10, 10]          37,632          37,632
   RecycleNetwork/EfficientNetLite/MBConvBlock           BatchNorm2d-71     [1, 112, 10, 10]             224             224
   RecycleNetwork/EfficientNetLite/MBConvBlock                Conv2d-72     [1, 672, 10, 10]          75,264          75,264
   RecycleNetwork/EfficientNetLite/MBConvBlock           BatchNorm2d-73     [1, 672, 10, 10]           1,344           1,344
   RecycleNetwork/EfficientNetLite/MBConvBlock                 ReLU6-74     [1, 672, 10, 10]               0               0
   RecycleNetwork/EfficientNetLite/MBConvBlock                Conv2d-75     [1, 672, 10, 10]           6,048           6,048
   RecycleNetwork/EfficientNetLite/MBConvBlock           BatchNorm2d-76     [1, 672, 10, 10]           1,344           1,344
   RecycleNetwork/EfficientNetLite/MBConvBlock                Conv2d-77     [1, 112, 10, 10]          75,264          75,264
   RecycleNetwork/EfficientNetLite/MBConvBlock           BatchNorm2d-78     [1, 112, 10, 10]             224             224
   RecycleNetwork/EfficientNetLite/MBConvBlock                Conv2d-79     [1, 672, 10, 10]          75,264          75,264
   RecycleNetwork/EfficientNetLite/MBConvBlock           BatchNorm2d-80     [1, 672, 10, 10]           1,344           1,344
   RecycleNetwork/EfficientNetLite/MBConvBlock                 ReLU6-81     [1, 672, 10, 10]               0               0
   RecycleNetwork/EfficientNetLite/MBConvBlock                Conv2d-82     [1, 672, 10, 10]           6,048           6,048
   RecycleNetwork/EfficientNetLite/MBConvBlock           BatchNorm2d-83     [1, 672, 10, 10]           1,344           1,344
   RecycleNetwork/EfficientNetLite/MBConvBlock                Conv2d-84     [1, 112, 10, 10]          75,264          75,264
   RecycleNetwork/EfficientNetLite/MBConvBlock           BatchNorm2d-85     [1, 112, 10, 10]             224             224
   RecycleNetwork/EfficientNetLite/MBConvBlock                Conv2d-86     [1, 672, 10, 10]          75,264          75,264
   RecycleNetwork/EfficientNetLite/MBConvBlock           BatchNorm2d-87     [1, 672, 10, 10]           1,344           1,344
   RecycleNetwork/EfficientNetLite/MBConvBlock                 ReLU6-88     [1, 672, 10, 10]               0               0
   RecycleNetwork/EfficientNetLite/MBConvBlock                Conv2d-89     [1, 672, 10, 10]           6,048           6,048
   RecycleNetwork/EfficientNetLite/MBConvBlock           BatchNorm2d-90     [1, 672, 10, 10]           1,344           1,344
   RecycleNetwork/EfficientNetLite/MBConvBlock                Conv2d-91     [1, 112, 10, 10]          75,264          75,264
   RecycleNetwork/EfficientNetLite/MBConvBlock           BatchNorm2d-92     [1, 112, 10, 10]             224             224
   RecycleNetwork/EfficientNetLite/MBConvBlock                Conv2d-93     [1, 672, 10, 10]          75,264          75,264
   RecycleNetwork/EfficientNetLite/MBConvBlock           BatchNorm2d-94     [1, 672, 10, 10]           1,344           1,344
   RecycleNetwork/EfficientNetLite/MBConvBlock                 ReLU6-95     [1, 672, 10, 10]               0               0
   RecycleNetwork/EfficientNetLite/MBConvBlock                Conv2d-96     [1, 672, 10, 10]           6,048           6,048
   RecycleNetwork/EfficientNetLite/MBConvBlock           BatchNorm2d-97     [1, 672, 10, 10]           1,344           1,344
   RecycleNetwork/EfficientNetLite/MBConvBlock                Conv2d-98     [1, 112, 10, 10]          75,264          75,264
   RecycleNetwork/EfficientNetLite/MBConvBlock           BatchNorm2d-99     [1, 112, 10, 10]             224             224
   RecycleNetwork/EfficientNetLite/MBConvBlock               Conv2d-100     [1, 672, 10, 10]          75,264          75,264
   RecycleNetwork/EfficientNetLite/MBConvBlock          BatchNorm2d-101     [1, 672, 10, 10]           1,344           1,344
   RecycleNetwork/EfficientNetLite/MBConvBlock                ReLU6-102     [1, 672, 10, 10]               0               0
   RecycleNetwork/EfficientNetLite/MBConvBlock               Conv2d-103     [1, 672, 10, 10]           6,048           6,048
   RecycleNetwork/EfficientNetLite/MBConvBlock          BatchNorm2d-104     [1, 672, 10, 10]           1,344           1,344
   RecycleNetwork/EfficientNetLite/MBConvBlock               Conv2d-105     [1, 112, 10, 10]          75,264          75,264
   RecycleNetwork/EfficientNetLite/MBConvBlock          BatchNorm2d-106     [1, 112, 10, 10]             224             224
   RecycleNetwork/EfficientNetLite/MBConvBlock               Conv2d-107     [1, 672, 10, 10]          75,264          75,264
   RecycleNetwork/EfficientNetLite/MBConvBlock          BatchNorm2d-108     [1, 672, 10, 10]           1,344           1,344
   RecycleNetwork/EfficientNetLite/MBConvBlock                ReLU6-109     [1, 672, 10, 10]               0               0
   RecycleNetwork/EfficientNetLite/MBConvBlock               Conv2d-110     [1, 672, 10, 10]          16,800          16,800
   RecycleNetwork/EfficientNetLite/MBConvBlock          BatchNorm2d-111     [1, 672, 10, 10]           1,344           1,344
   RecycleNetwork/EfficientNetLite/MBConvBlock               Conv2d-112     [1, 160, 10, 10]         107,520         107,520
   RecycleNetwork/EfficientNetLite/MBConvBlock          BatchNorm2d-113     [1, 160, 10, 10]             320             320
   RecycleNetwork/EfficientNetLite/MBConvBlock               Conv2d-114     [1, 960, 10, 10]         153,600         153,600
   RecycleNetwork/EfficientNetLite/MBConvBlock          BatchNorm2d-115     [1, 960, 10, 10]           1,920           1,920
   RecycleNetwork/EfficientNetLite/MBConvBlock                ReLU6-116     [1, 960, 10, 10]               0               0
   RecycleNetwork/EfficientNetLite/MBConvBlock               Conv2d-117     [1, 960, 10, 10]          24,000          24,000
   RecycleNetwork/EfficientNetLite/MBConvBlock          BatchNorm2d-118     [1, 960, 10, 10]           1,920           1,920
   RecycleNetwork/EfficientNetLite/MBConvBlock               Conv2d-119     [1, 160, 10, 10]         153,600         153,600
   RecycleNetwork/EfficientNetLite/MBConvBlock          BatchNorm2d-120     [1, 160, 10, 10]             320             320
   RecycleNetwork/EfficientNetLite/MBConvBlock               Conv2d-121     [1, 960, 10, 10]         153,600         153,600
   RecycleNetwork/EfficientNetLite/MBConvBlock          BatchNorm2d-122     [1, 960, 10, 10]           1,920           1,920
   RecycleNetwork/EfficientNetLite/MBConvBlock                ReLU6-123     [1, 960, 10, 10]               0               0
   RecycleNetwork/EfficientNetLite/MBConvBlock               Conv2d-124     [1, 960, 10, 10]          24,000          24,000
   RecycleNetwork/EfficientNetLite/MBConvBlock          BatchNorm2d-125     [1, 960, 10, 10]           1,920           1,920
   RecycleNetwork/EfficientNetLite/MBConvBlock               Conv2d-126     [1, 160, 10, 10]         153,600         153,600
   RecycleNetwork/EfficientNetLite/MBConvBlock          BatchNorm2d-127     [1, 160, 10, 10]             320             320
   RecycleNetwork/EfficientNetLite/MBConvBlock               Conv2d-128     [1, 960, 10, 10]         153,600         153,600
   RecycleNetwork/EfficientNetLite/MBConvBlock          BatchNorm2d-129     [1, 960, 10, 10]           1,920           1,920
   RecycleNetwork/EfficientNetLite/MBConvBlock                ReLU6-130     [1, 960, 10, 10]               0               0
   RecycleNetwork/EfficientNetLite/MBConvBlock               Conv2d-131     [1, 960, 10, 10]          24,000          24,000
   RecycleNetwork/EfficientNetLite/MBConvBlock          BatchNorm2d-132     [1, 960, 10, 10]           1,920           1,920
   RecycleNetwork/EfficientNetLite/MBConvBlock               Conv2d-133     [1, 160, 10, 10]         153,600         153,600
   RecycleNetwork/EfficientNetLite/MBConvBlock          BatchNorm2d-134     [1, 160, 10, 10]             320             320
   RecycleNetwork/EfficientNetLite/MBConvBlock               Conv2d-135     [1, 960, 10, 10]         153,600         153,600
   RecycleNetwork/EfficientNetLite/MBConvBlock          BatchNorm2d-136     [1, 960, 10, 10]           1,920           1,920
   RecycleNetwork/EfficientNetLite/MBConvBlock                ReLU6-137     [1, 960, 10, 10]               0               0
   RecycleNetwork/EfficientNetLite/MBConvBlock               Conv2d-138     [1, 960, 10, 10]          24,000          24,000
   RecycleNetwork/EfficientNetLite/MBConvBlock          BatchNorm2d-139     [1, 960, 10, 10]           1,920           1,920
   RecycleNetwork/EfficientNetLite/MBConvBlock               Conv2d-140     [1, 160, 10, 10]         153,600         153,600
   RecycleNetwork/EfficientNetLite/MBConvBlock          BatchNorm2d-141     [1, 160, 10, 10]             320             320
   RecycleNetwork/EfficientNetLite/MBConvBlock               Conv2d-142     [1, 960, 10, 10]         153,600         153,600
   RecycleNetwork/EfficientNetLite/MBConvBlock          BatchNorm2d-143     [1, 960, 10, 10]           1,920           1,920
   RecycleNetwork/EfficientNetLite/MBConvBlock                ReLU6-144     [1, 960, 10, 10]               0               0
   RecycleNetwork/EfficientNetLite/MBConvBlock               Conv2d-145     [1, 960, 10, 10]          24,000          24,000
   RecycleNetwork/EfficientNetLite/MBConvBlock          BatchNorm2d-146     [1, 960, 10, 10]           1,920           1,920
   RecycleNetwork/EfficientNetLite/MBConvBlock               Conv2d-147     [1, 160, 10, 10]         153,600         153,600
   RecycleNetwork/EfficientNetLite/MBConvBlock          BatchNorm2d-148     [1, 160, 10, 10]             320             320
   RecycleNetwork/EfficientNetLite/MBConvBlock               Conv2d-149     [1, 960, 10, 10]         153,600         153,600
   RecycleNetwork/EfficientNetLite/MBConvBlock          BatchNorm2d-150     [1, 960, 10, 10]           1,920           1,920
   RecycleNetwork/EfficientNetLite/MBConvBlock                ReLU6-151     [1, 960, 10, 10]               0               0
   RecycleNetwork/EfficientNetLite/MBConvBlock               Conv2d-152       [1, 960, 5, 5]          24,000          24,000
   RecycleNetwork/EfficientNetLite/MBConvBlock          BatchNorm2d-153       [1, 960, 5, 5]           1,920           1,920
   RecycleNetwork/EfficientNetLite/MBConvBlock               Conv2d-154       [1, 272, 5, 5]         261,120         261,120
   RecycleNetwork/EfficientNetLite/MBConvBlock          BatchNorm2d-155       [1, 272, 5, 5]             544             544
   RecycleNetwork/EfficientNetLite/MBConvBlock               Conv2d-156      [1, 1632, 5, 5]         443,904         443,904
   RecycleNetwork/EfficientNetLite/MBConvBlock          BatchNorm2d-157      [1, 1632, 5, 5]           3,264           3,264
   RecycleNetwork/EfficientNetLite/MBConvBlock                ReLU6-158      [1, 1632, 5, 5]               0               0
   RecycleNetwork/EfficientNetLite/MBConvBlock               Conv2d-159      [1, 1632, 5, 5]          40,800          40,800
   RecycleNetwork/EfficientNetLite/MBConvBlock          BatchNorm2d-160      [1, 1632, 5, 5]           3,264           3,264
   RecycleNetwork/EfficientNetLite/MBConvBlock               Conv2d-161       [1, 272, 5, 5]         443,904         443,904
   RecycleNetwork/EfficientNetLite/MBConvBlock          BatchNorm2d-162       [1, 272, 5, 5]             544             544
   RecycleNetwork/EfficientNetLite/MBConvBlock               Conv2d-163      [1, 1632, 5, 5]         443,904         443,904
   RecycleNetwork/EfficientNetLite/MBConvBlock          BatchNorm2d-164      [1, 1632, 5, 5]           3,264           3,264
   RecycleNetwork/EfficientNetLite/MBConvBlock                ReLU6-165      [1, 1632, 5, 5]               0               0
   RecycleNetwork/EfficientNetLite/MBConvBlock               Conv2d-166      [1, 1632, 5, 5]          40,800          40,800
   RecycleNetwork/EfficientNetLite/MBConvBlock          BatchNorm2d-167      [1, 1632, 5, 5]           3,264           3,264
   RecycleNetwork/EfficientNetLite/MBConvBlock               Conv2d-168       [1, 272, 5, 5]         443,904         443,904
   RecycleNetwork/EfficientNetLite/MBConvBlock          BatchNorm2d-169       [1, 272, 5, 5]             544             544
   RecycleNetwork/EfficientNetLite/MBConvBlock               Conv2d-170      [1, 1632, 5, 5]         443,904         443,904
   RecycleNetwork/EfficientNetLite/MBConvBlock          BatchNorm2d-171      [1, 1632, 5, 5]           3,264           3,264
   RecycleNetwork/EfficientNetLite/MBConvBlock                ReLU6-172      [1, 1632, 5, 5]               0               0
   RecycleNetwork/EfficientNetLite/MBConvBlock               Conv2d-173      [1, 1632, 5, 5]          40,800          40,800
   RecycleNetwork/EfficientNetLite/MBConvBlock          BatchNorm2d-174      [1, 1632, 5, 5]           3,264           3,264
   RecycleNetwork/EfficientNetLite/MBConvBlock               Conv2d-175       [1, 272, 5, 5]         443,904         443,904
   RecycleNetwork/EfficientNetLite/MBConvBlock          BatchNorm2d-176       [1, 272, 5, 5]             544             544
   RecycleNetwork/EfficientNetLite/MBConvBlock               Conv2d-177      [1, 1632, 5, 5]         443,904         443,904
   RecycleNetwork/EfficientNetLite/MBConvBlock          BatchNorm2d-178      [1, 1632, 5, 5]           3,264           3,264
   RecycleNetwork/EfficientNetLite/MBConvBlock                ReLU6-179      [1, 1632, 5, 5]               0               0
   RecycleNetwork/EfficientNetLite/MBConvBlock               Conv2d-180      [1, 1632, 5, 5]          40,800          40,800
   RecycleNetwork/EfficientNetLite/MBConvBlock          BatchNorm2d-181      [1, 1632, 5, 5]           3,264           3,264
   RecycleNetwork/EfficientNetLite/MBConvBlock               Conv2d-182       [1, 272, 5, 5]         443,904         443,904
   RecycleNetwork/EfficientNetLite/MBConvBlock          BatchNorm2d-183       [1, 272, 5, 5]             544             544
   RecycleNetwork/EfficientNetLite/MBConvBlock               Conv2d-184      [1, 1632, 5, 5]         443,904         443,904
   RecycleNetwork/EfficientNetLite/MBConvBlock          BatchNorm2d-185      [1, 1632, 5, 5]           3,264           3,264
   RecycleNetwork/EfficientNetLite/MBConvBlock                ReLU6-186      [1, 1632, 5, 5]               0               0
   RecycleNetwork/EfficientNetLite/MBConvBlock               Conv2d-187      [1, 1632, 5, 5]          40,800          40,800
   RecycleNetwork/EfficientNetLite/MBConvBlock          BatchNorm2d-188      [1, 1632, 5, 5]           3,264           3,264
   RecycleNetwork/EfficientNetLite/MBConvBlock               Conv2d-189       [1, 272, 5, 5]         443,904         443,904
   RecycleNetwork/EfficientNetLite/MBConvBlock          BatchNorm2d-190       [1, 272, 5, 5]             544             544
   RecycleNetwork/EfficientNetLite/MBConvBlock               Conv2d-191      [1, 1632, 5, 5]         443,904         443,904
   RecycleNetwork/EfficientNetLite/MBConvBlock          BatchNorm2d-192      [1, 1632, 5, 5]           3,264           3,264
   RecycleNetwork/EfficientNetLite/MBConvBlock                ReLU6-193      [1, 1632, 5, 5]               0               0
   RecycleNetwork/EfficientNetLite/MBConvBlock               Conv2d-194      [1, 1632, 5, 5]          40,800          40,800
   RecycleNetwork/EfficientNetLite/MBConvBlock          BatchNorm2d-195      [1, 1632, 5, 5]           3,264           3,264
   RecycleNetwork/EfficientNetLite/MBConvBlock               Conv2d-196       [1, 272, 5, 5]         443,904         443,904
   RecycleNetwork/EfficientNetLite/MBConvBlock          BatchNorm2d-197       [1, 272, 5, 5]             544             544
   RecycleNetwork/EfficientNetLite/MBConvBlock               Conv2d-198      [1, 1632, 5, 5]         443,904         443,904
   RecycleNetwork/EfficientNetLite/MBConvBlock          BatchNorm2d-199      [1, 1632, 5, 5]           3,264           3,264
   RecycleNetwork/EfficientNetLite/MBConvBlock                ReLU6-200      [1, 1632, 5, 5]               0               0
   RecycleNetwork/EfficientNetLite/MBConvBlock               Conv2d-201      [1, 1632, 5, 5]          40,800          40,800
   RecycleNetwork/EfficientNetLite/MBConvBlock          BatchNorm2d-202      [1, 1632, 5, 5]           3,264           3,264
   RecycleNetwork/EfficientNetLite/MBConvBlock               Conv2d-203       [1, 272, 5, 5]         443,904         443,904
   RecycleNetwork/EfficientNetLite/MBConvBlock          BatchNorm2d-204       [1, 272, 5, 5]             544             544
   RecycleNetwork/EfficientNetLite/MBConvBlock               Conv2d-205      [1, 1632, 5, 5]         443,904         443,904
   RecycleNetwork/EfficientNetLite/MBConvBlock          BatchNorm2d-206      [1, 1632, 5, 5]           3,264           3,264
   RecycleNetwork/EfficientNetLite/MBConvBlock                ReLU6-207      [1, 1632, 5, 5]               0               0
   RecycleNetwork/EfficientNetLite/MBConvBlock               Conv2d-208      [1, 1632, 5, 5]          14,688          14,688
   RecycleNetwork/EfficientNetLite/MBConvBlock          BatchNorm2d-209      [1, 1632, 5, 5]           3,264           3,264
   RecycleNetwork/EfficientNetLite/MBConvBlock               Conv2d-210       [1, 448, 5, 5]         731,136         731,136
   RecycleNetwork/EfficientNetLite/MBConvBlock          BatchNorm2d-211       [1, 448, 5, 5]             896             896
               RecycleNetwork/EfficientNetLite               Conv2d-212      [1, 1280, 5, 5]         573,440         573,440
               RecycleNetwork/EfficientNetLite          BatchNorm2d-213      [1, 1280, 5, 5]           2,560           2,560
               RecycleNetwork/EfficientNetLite                ReLU6-214      [1, 1280, 5, 5]               0               0
               RecycleNetwork/EfficientNetLite    AdaptiveAvgPool2d-215      [1, 1280, 1, 1]               0               0
               RecycleNetwork/EfficientNetLite              Dropout-216            [1, 1280]               0               0
               RecycleNetwork/EfficientNetLite               Linear-217               [1, 5]           6,405           6,405
============================================================================================================================
Total params: 11,710,152
Trainable params: 11,710,152
Non-trainable params: 0
----------------------------------------------------------------------------------------------------------------------------
Training Started
Epoch: 1, Training Loss: 0.326395, Validation Loss: 0.329273, Training Accuracy: 0.914784, Validation Accuracy: 0.907937
…
[14] prune_out_channels on backbone.blocks.1.2._bn2 (BatchNorm2d(19, eps=0.001, momentum=0.01, affine=True, track_running_stats=True)) => prune_out_channels on backbone.blocks.1.2._project_conv (Conv2d(154, 19, kernel_size=(1, 1), stride=(1, 1), bias=False)), #idxs=3
--------------------------------

Starting Training Cycle
----------------------------------------------------------------------------------------------------------------------------
                                 Parent Layers             Layer (type)         Output Shape         Param #     Tr. Param #
============================================================================================================================
               RecycleNetwork/EfficientNetLite                 Conv2d-1      [1, 25, 75, 75]             675             675
               RecycleNetwork/EfficientNetLite            BatchNorm2d-2      [1, 25, 75, 75]              50              50
               RecycleNetwork/EfficientNetLite                  ReLU6-3      [1, 25, 75, 75]               0               0
   RecycleNetwork/EfficientNetLite/MBConvBlock                 Conv2d-4      [1, 25, 75, 75]             225             225
   RecycleNetwork/EfficientNetLite/MBConvBlock            BatchNorm2d-5      [1, 25, 75, 75]              50              50
   RecycleNetwork/EfficientNetLite/MBConvBlock                  ReLU6-6      [1, 25, 75, 75]               0               0
   RecycleNetwork/EfficientNetLite/MBConvBlock                 Conv2d-7      [1, 21, 75, 75]             525             525
   RecycleNetwork/EfficientNetLite/MBConvBlock            BatchNorm2d-8      [1, 21, 75, 75]              42              42
   RecycleNetwork/EfficientNetLite/MBConvBlock                 Conv2d-9     [1, 116, 75, 75]           2,436           2,436
   RecycleNetwork/EfficientNetLite/MBConvBlock           BatchNorm2d-10     [1, 116, 75, 75]             232             232
   RecycleNetwork/EfficientNetLite/MBConvBlock                 ReLU6-11     [1, 116, 75, 75]               0               0
   RecycleNetwork/EfficientNetLite/MBConvBlock                Conv2d-12     [1, 116, 38, 38]           1,044           1,044
   RecycleNetwork/EfficientNetLite/MBConvBlock           BatchNorm2d-13     [1, 116, 38, 38]             232             232
   RecycleNetwork/EfficientNetLite/MBConvBlock                Conv2d-14      [1, 19, 38, 38]           2,204           2,204
   RecycleNetwork/EfficientNetLite/MBConvBlock           BatchNorm2d-15      [1, 19, 38, 38]              38              38
   RecycleNetwork/EfficientNetLite/MBConvBlock                Conv2d-16     [1, 154, 38, 38]           2,926           2,926
   RecycleNetwork/EfficientNetLite/MBConvBlock           BatchNorm2d-17     [1, 154, 38, 38]             308             308
   RecycleNetwork/EfficientNetLite/MBConvBlock                 ReLU6-18     [1, 154, 38, 38]               0               0
   RecycleNetwork/EfficientNetLite/MBConvBlock                Conv2d-19     [1, 154, 38, 38]           1,386           1,386
   RecycleNetwork/EfficientNetLite/MBConvBlock           BatchNorm2d-20     [1, 154, 38, 38]             308             308
   RecycleNetwork/EfficientNetLite/MBConvBlock                Conv2d-21      [1, 19, 38, 38]           2,926           2,926
   RecycleNetwork/EfficientNetLite/MBConvBlock           BatchNorm2d-22      [1, 19, 38, 38]              38              38
   RecycleNetwork/EfficientNetLite/MBConvBlock                Conv2d-23     [1, 154, 38, 38]           2,926           2,926
   RecycleNetwork/EfficientNetLite/MBConvBlock           BatchNorm2d-24     [1, 154, 38, 38]             308             308
   RecycleNetwork/EfficientNetLite/MBConvBlock                 ReLU6-25     [1, 154, 38, 38]               0               0
   RecycleNetwork/EfficientNetLite/MBConvBlock                Conv2d-26     [1, 154, 38, 38]           1,386           1,386
   RecycleNetwork/EfficientNetLite/MBConvBlock           BatchNorm2d-27     [1, 154, 38, 38]             308             308
   RecycleNetwork/EfficientNetLite/MBConvBlock                Conv2d-28      [1, 19, 38, 38]           2,926           2,926
   RecycleNetwork/EfficientNetLite/MBConvBlock           BatchNorm2d-29      [1, 19, 38, 38]              38              38
   RecycleNetwork/EfficientNetLite/MBConvBlock                Conv2d-30     [1, 154, 38, 38]           2,926           2,926
   RecycleNetwork/EfficientNetLite/MBConvBlock           BatchNorm2d-31     [1, 154, 38, 38]             308             308
   RecycleNetwork/EfficientNetLite/MBConvBlock                 ReLU6-32     [1, 154, 38, 38]               0               0
   RecycleNetwork/EfficientNetLite/MBConvBlock                Conv2d-33     [1, 154, 38, 38]           1,386           1,386
   RecycleNetwork/EfficientNetLite/MBConvBlock           BatchNorm2d-34     [1, 154, 38, 38]             308             308
   RecycleNetwork/EfficientNetLite/MBConvBlock                Conv2d-35      [1, 19, 38, 38]           2,926           2,926
   RecycleNetwork/EfficientNetLite/MBConvBlock           BatchNorm2d-36      [1, 19, 38, 38]              38              38
   RecycleNetwork/EfficientNetLite/MBConvBlock                Conv2d-37     [1, 192, 38, 38]           3,648           3,648
   RecycleNetwork/EfficientNetLite/MBConvBlock           BatchNorm2d-38     [1, 192, 38, 38]             384             384
   RecycleNetwork/EfficientNetLite/MBConvBlock                 ReLU6-39     [1, 192, 38, 38]               0               0
   RecycleNetwork/EfficientNetLite/MBConvBlock                Conv2d-40     [1, 192, 19, 19]           4,800           4,800
   RecycleNetwork/EfficientNetLite/MBConvBlock           BatchNorm2d-41     [1, 192, 19, 19]             384             384
   RecycleNetwork/EfficientNetLite/MBConvBlock                Conv2d-42      [1, 56, 19, 19]          10,752          10,752
   RecycleNetwork/EfficientNetLite/MBConvBlock           BatchNorm2d-43      [1, 56, 19, 19]             112             112
   RecycleNetwork/EfficientNetLite/MBConvBlock                Conv2d-44     [1, 336, 19, 19]          18,816          18,816
   RecycleNetwork/EfficientNetLite/MBConvBlock           BatchNorm2d-45     [1, 336, 19, 19]             672             672
   RecycleNetwork/EfficientNetLite/MBConvBlock                 ReLU6-46     [1, 336, 19, 19]               0               0
   RecycleNetwork/EfficientNetLite/MBConvBlock                Conv2d-47     [1, 336, 19, 19]           8,400           8,400
   RecycleNetwork/EfficientNetLite/MBConvBlock           BatchNorm2d-48     [1, 336, 19, 19]             672             672
   RecycleNetwork/EfficientNetLite/MBConvBlock                Conv2d-49      [1, 56, 19, 19]          18,816          18,816
   RecycleNetwork/EfficientNetLite/MBConvBlock           BatchNorm2d-50      [1, 56, 19, 19]             112             112
   RecycleNetwork/EfficientNetLite/MBConvBlock                Conv2d-51     [1, 336, 19, 19]          18,816          18,816
   RecycleNetwork/EfficientNetLite/MBConvBlock           BatchNorm2d-52     [1, 336, 19, 19]             672             672
   RecycleNetwork/EfficientNetLite/MBConvBlock                 ReLU6-53     [1, 336, 19, 19]               0               0
   RecycleNetwork/EfficientNetLite/MBConvBlock                Conv2d-54     [1, 336, 19, 19]           8,400           8,400
   RecycleNetwork/EfficientNetLite/MBConvBlock           BatchNorm2d-55     [1, 336, 19, 19]             672             672
   RecycleNetwork/EfficientNetLite/MBConvBlock                Conv2d-56      [1, 56, 19, 19]          18,816          18,816
   RecycleNetwork/EfficientNetLite/MBConvBlock           BatchNorm2d-57      [1, 56, 19, 19]             112             112
   RecycleNetwork/EfficientNetLite/MBConvBlock                Conv2d-58     [1, 336, 19, 19]          18,816          18,816
   RecycleNetwork/EfficientNetLite/MBConvBlock           BatchNorm2d-59     [1, 336, 19, 19]             672             672
   RecycleNetwork/EfficientNetLite/MBConvBlock                 ReLU6-60     [1, 336, 19, 19]               0               0
   RecycleNetwork/EfficientNetLite/MBConvBlock                Conv2d-61     [1, 336, 19, 19]           8,400           8,400
   RecycleNetwork/EfficientNetLite/MBConvBlock           BatchNorm2d-62     [1, 336, 19, 19]             672             672
   RecycleNetwork/EfficientNetLite/MBConvBlock                Conv2d-63      [1, 56, 19, 19]          18,816          18,816
   RecycleNetwork/EfficientNetLite/MBConvBlock           BatchNorm2d-64      [1, 56, 19, 19]             112             112
   RecycleNetwork/EfficientNetLite/MBConvBlock                Conv2d-65     [1, 336, 19, 19]          18,816          18,816
   RecycleNetwork/EfficientNetLite/MBConvBlock           BatchNorm2d-66     [1, 336, 19, 19]             672             672
   RecycleNetwork/EfficientNetLite/MBConvBlock                 ReLU6-67     [1, 336, 19, 19]               0               0
   RecycleNetwork/EfficientNetLite/MBConvBlock                Conv2d-68     [1, 336, 10, 10]           3,024           3,024
   RecycleNetwork/EfficientNetLite/MBConvBlock           BatchNorm2d-69     [1, 336, 10, 10]             672             672
   RecycleNetwork/EfficientNetLite/MBConvBlock                Conv2d-70     [1, 112, 10, 10]          37,632          37,632
   RecycleNetwork/EfficientNetLite/MBConvBlock           BatchNorm2d-71     [1, 112, 10, 10]             224             224
   RecycleNetwork/EfficientNetLite/MBConvBlock                Conv2d-72     [1, 672, 10, 10]          75,264          75,264
   RecycleNetwork/EfficientNetLite/MBConvBlock           BatchNorm2d-73     [1, 672, 10, 10]           1,344           1,344
   RecycleNetwork/EfficientNetLite/MBConvBlock                 ReLU6-74     [1, 672, 10, 10]               0               0
   RecycleNetwork/EfficientNetLite/MBConvBlock                Conv2d-75     [1, 672, 10, 10]           6,048           6,048
   RecycleNetwork/EfficientNetLite/MBConvBlock           BatchNorm2d-76     [1, 672, 10, 10]           1,344           1,344
   RecycleNetwork/EfficientNetLite/MBConvBlock                Conv2d-77     [1, 112, 10, 10]          75,264          75,264
   RecycleNetwork/EfficientNetLite/MBConvBlock           BatchNorm2d-78     [1, 112, 10, 10]             224             224
   RecycleNetwork/EfficientNetLite/MBConvBlock                Conv2d-79     [1, 672, 10, 10]          75,264          75,264
   RecycleNetwork/EfficientNetLite/MBConvBlock           BatchNorm2d-80     [1, 672, 10, 10]           1,344           1,344
   RecycleNetwork/EfficientNetLite/MBConvBlock                 ReLU6-81     [1, 672, 10, 10]               0               0
   RecycleNetwork/EfficientNetLite/MBConvBlock                Conv2d-82     [1, 672, 10, 10]           6,048           6,048
   RecycleNetwork/EfficientNetLite/MBConvBlock           BatchNorm2d-83     [1, 672, 10, 10]           1,344           1,344
   RecycleNetwork/EfficientNetLite/MBConvBlock                Conv2d-84     [1, 112, 10, 10]          75,264          75,264
   RecycleNetwork/EfficientNetLite/MBConvBlock           BatchNorm2d-85     [1, 112, 10, 10]             224             224
   RecycleNetwork/EfficientNetLite/MBConvBlock                Conv2d-86     [1, 672, 10, 10]          75,264          75,264
   RecycleNetwork/EfficientNetLite/MBConvBlock           BatchNorm2d-87     [1, 672, 10, 10]           1,344           1,344
   RecycleNetwork/EfficientNetLite/MBConvBlock                 ReLU6-88     [1, 672, 10, 10]               0               0
   RecycleNetwork/EfficientNetLite/MBConvBlock                Conv2d-89     [1, 672, 10, 10]           6,048           6,048
   RecycleNetwork/EfficientNetLite/MBConvBlock           BatchNorm2d-90     [1, 672, 10, 10]           1,344           1,344
   RecycleNetwork/EfficientNetLite/MBConvBlock                Conv2d-91     [1, 112, 10, 10]          75,264          75,264
   RecycleNetwork/EfficientNetLite/MBConvBlock           BatchNorm2d-92     [1, 112, 10, 10]             224             224
   RecycleNetwork/EfficientNetLite/MBConvBlock                Conv2d-93     [1, 672, 10, 10]          75,264          75,264
   RecycleNetwork/EfficientNetLite/MBConvBlock           BatchNorm2d-94     [1, 672, 10, 10]           1,344           1,344
   RecycleNetwork/EfficientNetLite/MBConvBlock                 ReLU6-95     [1, 672, 10, 10]               0               0
   RecycleNetwork/EfficientNetLite/MBConvBlock                Conv2d-96     [1, 672, 10, 10]           6,048           6,048
   RecycleNetwork/EfficientNetLite/MBConvBlock           BatchNorm2d-97     [1, 672, 10, 10]           1,344           1,344
   RecycleNetwork/EfficientNetLite/MBConvBlock                Conv2d-98     [1, 112, 10, 10]          75,264          75,264
   RecycleNetwork/EfficientNetLite/MBConvBlock           BatchNorm2d-99     [1, 112, 10, 10]             224             224
   RecycleNetwork/EfficientNetLite/MBConvBlock               Conv2d-100     [1, 672, 10, 10]          75,264          75,264
   RecycleNetwork/EfficientNetLite/MBConvBlock          BatchNorm2d-101     [1, 672, 10, 10]           1,344           1,344
   RecycleNetwork/EfficientNetLite/MBConvBlock                ReLU6-102     [1, 672, 10, 10]               0               0
   RecycleNetwork/EfficientNetLite/MBConvBlock               Conv2d-103     [1, 672, 10, 10]           6,048           6,048
   RecycleNetwork/EfficientNetLite/MBConvBlock          BatchNorm2d-104     [1, 672, 10, 10]           1,344           1,344
   RecycleNetwork/EfficientNetLite/MBConvBlock               Conv2d-105     [1, 112, 10, 10]          75,264          75,264
   RecycleNetwork/EfficientNetLite/MBConvBlock          BatchNorm2d-106     [1, 112, 10, 10]             224             224
   RecycleNetwork/EfficientNetLite/MBConvBlock               Conv2d-107     [1, 672, 10, 10]          75,264          75,264
   RecycleNetwork/EfficientNetLite/MBConvBlock          BatchNorm2d-108     [1, 672, 10, 10]           1,344           1,344
   RecycleNetwork/EfficientNetLite/MBConvBlock                ReLU6-109     [1, 672, 10, 10]               0               0
   RecycleNetwork/EfficientNetLite/MBConvBlock               Conv2d-110     [1, 672, 10, 10]          16,800          16,800
   RecycleNetwork/EfficientNetLite/MBConvBlock          BatchNorm2d-111     [1, 672, 10, 10]           1,344           1,344
   RecycleNetwork/EfficientNetLite/MBConvBlock               Conv2d-112     [1, 160, 10, 10]         107,520         107,520
   RecycleNetwork/EfficientNetLite/MBConvBlock          BatchNorm2d-113     [1, 160, 10, 10]             320             320
   RecycleNetwork/EfficientNetLite/MBConvBlock               Conv2d-114     [1, 960, 10, 10]         153,600         153,600
   RecycleNetwork/EfficientNetLite/MBConvBlock          BatchNorm2d-115     [1, 960, 10, 10]           1,920           1,920
   RecycleNetwork/EfficientNetLite/MBConvBlock                ReLU6-116     [1, 960, 10, 10]               0               0
   RecycleNetwork/EfficientNetLite/MBConvBlock               Conv2d-117     [1, 960, 10, 10]          24,000          24,000
   RecycleNetwork/EfficientNetLite/MBConvBlock          BatchNorm2d-118     [1, 960, 10, 10]           1,920           1,920
   RecycleNetwork/EfficientNetLite/MBConvBlock               Conv2d-119     [1, 160, 10, 10]         153,600         153,600
   RecycleNetwork/EfficientNetLite/MBConvBlock          BatchNorm2d-120     [1, 160, 10, 10]             320             320
   RecycleNetwork/EfficientNetLite/MBConvBlock               Conv2d-121     [1, 960, 10, 10]         153,600         153,600
   RecycleNetwork/EfficientNetLite/MBConvBlock          BatchNorm2d-122     [1, 960, 10, 10]           1,920           1,920
   RecycleNetwork/EfficientNetLite/MBConvBlock                ReLU6-123     [1, 960, 10, 10]               0               0
   RecycleNetwork/EfficientNetLite/MBConvBlock               Conv2d-124     [1, 960, 10, 10]          24,000          24,000
   RecycleNetwork/EfficientNetLite/MBConvBlock          BatchNorm2d-125     [1, 960, 10, 10]           1,920           1,920
   RecycleNetwork/EfficientNetLite/MBConvBlock               Conv2d-126     [1, 160, 10, 10]         153,600         153,600
   RecycleNetwork/EfficientNetLite/MBConvBlock          BatchNorm2d-127     [1, 160, 10, 10]             320             320
   RecycleNetwork/EfficientNetLite/MBConvBlock               Conv2d-128     [1, 960, 10, 10]         153,600         153,600
   RecycleNetwork/EfficientNetLite/MBConvBlock          BatchNorm2d-129     [1, 960, 10, 10]           1,920           1,920
   RecycleNetwork/EfficientNetLite/MBConvBlock                ReLU6-130     [1, 960, 10, 10]               0               0
   RecycleNetwork/EfficientNetLite/MBConvBlock               Conv2d-131     [1, 960, 10, 10]          24,000          24,000
   RecycleNetwork/EfficientNetLite/MBConvBlock          BatchNorm2d-132     [1, 960, 10, 10]           1,920           1,920
   RecycleNetwork/EfficientNetLite/MBConvBlock               Conv2d-133     [1, 160, 10, 10]         153,600         153,600
   RecycleNetwork/EfficientNetLite/MBConvBlock          BatchNorm2d-134     [1, 160, 10, 10]             320             320
   RecycleNetwork/EfficientNetLite/MBConvBlock               Conv2d-135     [1, 960, 10, 10]         153,600         153,600
   RecycleNetwork/EfficientNetLite/MBConvBlock          BatchNorm2d-136     [1, 960, 10, 10]           1,920           1,920
   RecycleNetwork/EfficientNetLite/MBConvBlock                ReLU6-137     [1, 960, 10, 10]               0               0
   RecycleNetwork/EfficientNetLite/MBConvBlock               Conv2d-138     [1, 960, 10, 10]          24,000          24,000
   RecycleNetwork/EfficientNetLite/MBConvBlock          BatchNorm2d-139     [1, 960, 10, 10]           1,920           1,920
   RecycleNetwork/EfficientNetLite/MBConvBlock               Conv2d-140     [1, 160, 10, 10]         153,600         153,600
   RecycleNetwork/EfficientNetLite/MBConvBlock          BatchNorm2d-141     [1, 160, 10, 10]             320             320
   RecycleNetwork/EfficientNetLite/MBConvBlock               Conv2d-142     [1, 960, 10, 10]         153,600         153,600
   RecycleNetwork/EfficientNetLite/MBConvBlock          BatchNorm2d-143     [1, 960, 10, 10]           1,920           1,920
   RecycleNetwork/EfficientNetLite/MBConvBlock                ReLU6-144     [1, 960, 10, 10]               0               0
   RecycleNetwork/EfficientNetLite/MBConvBlock               Conv2d-145     [1, 960, 10, 10]          24,000          24,000
   RecycleNetwork/EfficientNetLite/MBConvBlock          BatchNorm2d-146     [1, 960, 10, 10]           1,920           1,920
   RecycleNetwork/EfficientNetLite/MBConvBlock               Conv2d-147     [1, 160, 10, 10]         153,600         153,600
   RecycleNetwork/EfficientNetLite/MBConvBlock          BatchNorm2d-148     [1, 160, 10, 10]             320             320
   RecycleNetwork/EfficientNetLite/MBConvBlock               Conv2d-149     [1, 960, 10, 10]         153,600         153,600
   RecycleNetwork/EfficientNetLite/MBConvBlock          BatchNorm2d-150     [1, 960, 10, 10]           1,920           1,920
   RecycleNetwork/EfficientNetLite/MBConvBlock                ReLU6-151     [1, 960, 10, 10]               0               0
   RecycleNetwork/EfficientNetLite/MBConvBlock               Conv2d-152       [1, 960, 5, 5]          24,000          24,000
   RecycleNetwork/EfficientNetLite/MBConvBlock          BatchNorm2d-153       [1, 960, 5, 5]           1,920           1,920
   RecycleNetwork/EfficientNetLite/MBConvBlock               Conv2d-154       [1, 272, 5, 5]         261,120         261,120
   RecycleNetwork/EfficientNetLite/MBConvBlock          BatchNorm2d-155       [1, 272, 5, 5]             544             544
   RecycleNetwork/EfficientNetLite/MBConvBlock               Conv2d-156      [1, 1632, 5, 5]         443,904         443,904
   RecycleNetwork/EfficientNetLite/MBConvBlock          BatchNorm2d-157      [1, 1632, 5, 5]           3,264           3,264
   RecycleNetwork/EfficientNetLite/MBConvBlock                ReLU6-158      [1, 1632, 5, 5]               0               0
   RecycleNetwork/EfficientNetLite/MBConvBlock               Conv2d-159      [1, 1632, 5, 5]          40,800          40,800
   RecycleNetwork/EfficientNetLite/MBConvBlock          BatchNorm2d-160      [1, 1632, 5, 5]           3,264           3,264
   RecycleNetwork/EfficientNetLite/MBConvBlock               Conv2d-161       [1, 272, 5, 5]         443,904         443,904
   RecycleNetwork/EfficientNetLite/MBConvBlock          BatchNorm2d-162       [1, 272, 5, 5]             544             544
   RecycleNetwork/EfficientNetLite/MBConvBlock               Conv2d-163      [1, 1632, 5, 5]         443,904         443,904
   RecycleNetwork/EfficientNetLite/MBConvBlock          BatchNorm2d-164      [1, 1632, 5, 5]           3,264           3,264
   RecycleNetwork/EfficientNetLite/MBConvBlock                ReLU6-165      [1, 1632, 5, 5]               0               0
   RecycleNetwork/EfficientNetLite/MBConvBlock               Conv2d-166      [1, 1632, 5, 5]          40,800          40,800
   RecycleNetwork/EfficientNetLite/MBConvBlock          BatchNorm2d-167      [1, 1632, 5, 5]           3,264           3,264
   RecycleNetwork/EfficientNetLite/MBConvBlock               Conv2d-168       [1, 272, 5, 5]         443,904         443,904
   RecycleNetwork/EfficientNetLite/MBConvBlock          BatchNorm2d-169       [1, 272, 5, 5]             544             544
   RecycleNetwork/EfficientNetLite/MBConvBlock               Conv2d-170      [1, 1632, 5, 5]         443,904         443,904
   RecycleNetwork/EfficientNetLite/MBConvBlock          BatchNorm2d-171      [1, 1632, 5, 5]           3,264           3,264
   RecycleNetwork/EfficientNetLite/MBConvBlock                ReLU6-172      [1, 1632, 5, 5]               0               0
   RecycleNetwork/EfficientNetLite/MBConvBlock               Conv2d-173      [1, 1632, 5, 5]          40,800          40,800
   RecycleNetwork/EfficientNetLite/MBConvBlock          BatchNorm2d-174      [1, 1632, 5, 5]           3,264           3,264
   RecycleNetwork/EfficientNetLite/MBConvBlock               Conv2d-175       [1, 272, 5, 5]         443,904         443,904
   RecycleNetwork/EfficientNetLite/MBConvBlock          BatchNorm2d-176       [1, 272, 5, 5]             544             544
   RecycleNetwork/EfficientNetLite/MBConvBlock               Conv2d-177      [1, 1632, 5, 5]         443,904         443,904
   RecycleNetwork/EfficientNetLite/MBConvBlock          BatchNorm2d-178      [1, 1632, 5, 5]           3,264           3,264
   RecycleNetwork/EfficientNetLite/MBConvBlock                ReLU6-179      [1, 1632, 5, 5]               0               0
   RecycleNetwork/EfficientNetLite/MBConvBlock               Conv2d-180      [1, 1632, 5, 5]          40,800          40,800
   RecycleNetwork/EfficientNetLite/MBConvBlock          BatchNorm2d-181      [1, 1632, 5, 5]           3,264           3,264
   RecycleNetwork/EfficientNetLite/MBConvBlock               Conv2d-182       [1, 272, 5, 5]         443,904         443,904
   RecycleNetwork/EfficientNetLite/MBConvBlock          BatchNorm2d-183       [1, 272, 5, 5]             544             544
   RecycleNetwork/EfficientNetLite/MBConvBlock               Conv2d-184      [1, 1632, 5, 5]         443,904         443,904
   RecycleNetwork/EfficientNetLite/MBConvBlock          BatchNorm2d-185      [1, 1632, 5, 5]           3,264           3,264
   RecycleNetwork/EfficientNetLite/MBConvBlock                ReLU6-186      [1, 1632, 5, 5]               0               0
   RecycleNetwork/EfficientNetLite/MBConvBlock               Conv2d-187      [1, 1632, 5, 5]          40,800          40,800
   RecycleNetwork/EfficientNetLite/MBConvBlock          BatchNorm2d-188      [1, 1632, 5, 5]           3,264           3,264
   RecycleNetwork/EfficientNetLite/MBConvBlock               Conv2d-189       [1, 272, 5, 5]         443,904         443,904
   RecycleNetwork/EfficientNetLite/MBConvBlock          BatchNorm2d-190       [1, 272, 5, 5]             544             544
   RecycleNetwork/EfficientNetLite/MBConvBlock               Conv2d-191      [1, 1632, 5, 5]         443,904         443,904
   RecycleNetwork/EfficientNetLite/MBConvBlock          BatchNorm2d-192      [1, 1632, 5, 5]           3,264           3,264
   RecycleNetwork/EfficientNetLite/MBConvBlock                ReLU6-193      [1, 1632, 5, 5]               0               0
   RecycleNetwork/EfficientNetLite/MBConvBlock               Conv2d-194      [1, 1632, 5, 5]          40,800          40,800
   RecycleNetwork/EfficientNetLite/MBConvBlock          BatchNorm2d-195      [1, 1632, 5, 5]           3,264           3,264
   RecycleNetwork/EfficientNetLite/MBConvBlock               Conv2d-196       [1, 272, 5, 5]         443,904         443,904
   RecycleNetwork/EfficientNetLite/MBConvBlock          BatchNorm2d-197       [1, 272, 5, 5]             544             544
   RecycleNetwork/EfficientNetLite/MBConvBlock               Conv2d-198      [1, 1632, 5, 5]         443,904         443,904
   RecycleNetwork/EfficientNetLite/MBConvBlock          BatchNorm2d-199      [1, 1632, 5, 5]           3,264           3,264
   RecycleNetwork/EfficientNetLite/MBConvBlock                ReLU6-200      [1, 1632, 5, 5]               0               0
   RecycleNetwork/EfficientNetLite/MBConvBlock               Conv2d-201      [1, 1632, 5, 5]          40,800          40,800
   RecycleNetwork/EfficientNetLite/MBConvBlock          BatchNorm2d-202      [1, 1632, 5, 5]           3,264           3,264
   RecycleNetwork/EfficientNetLite/MBConvBlock               Conv2d-203       [1, 272, 5, 5]         443,904         443,904
   RecycleNetwork/EfficientNetLite/MBConvBlock          BatchNorm2d-204       [1, 272, 5, 5]             544             544
   RecycleNetwork/EfficientNetLite/MBConvBlock               Conv2d-205      [1, 1632, 5, 5]         443,904         443,904
   RecycleNetwork/EfficientNetLite/MBConvBlock          BatchNorm2d-206      [1, 1632, 5, 5]           3,264           3,264
   RecycleNetwork/EfficientNetLite/MBConvBlock                ReLU6-207      [1, 1632, 5, 5]               0               0
   RecycleNetwork/EfficientNetLite/MBConvBlock               Conv2d-208      [1, 1632, 5, 5]          14,688          14,688
   RecycleNetwork/EfficientNetLite/MBConvBlock          BatchNorm2d-209      [1, 1632, 5, 5]           3,264           3,264
   RecycleNetwork/EfficientNetLite/MBConvBlock               Conv2d-210       [1, 448, 5, 5]         731,136         731,136
   RecycleNetwork/EfficientNetLite/MBConvBlock          BatchNorm2d-211       [1, 448, 5, 5]             896             896
               RecycleNetwork/EfficientNetLite               Conv2d-212      [1, 1280, 5, 5]         573,440         573,440
               RecycleNetwork/EfficientNetLite          BatchNorm2d-213      [1, 1280, 5, 5]           2,560           2,560
               RecycleNetwork/EfficientNetLite                ReLU6-214      [1, 1280, 5, 5]               0               0
               RecycleNetwork/EfficientNetLite    AdaptiveAvgPool2d-215      [1, 1280, 1, 1]               0               0
               RecycleNetwork/EfficientNetLite              Dropout-216            [1, 1280]               0               0
               RecycleNetwork/EfficientNetLite               Linear-217               [1, 5]           6,405           6,405
============================================================================================================================
Total params: 11,704,266
Trainable params: 11,704,266
Non-trainable params: 0
----------------------------------------------------------------------------------------------------------------------------
Training Started
Epoch: 1, Training Loss: 0.384358, Validation Loss: 0.363042, Training Accuracy: 0.891939, Validation Accuracy: 0.888142
…
[14] prune_out_channels on backbone.blocks.2.1._bn2 (BatchNorm2d(50, eps=0.001, momentum=0.01, affine=True, track_running_stats=True)) => prune_out_channels on backbone.blocks.2.1._project_conv (Conv2d(336, 50, kernel_size=(1, 1), stride=(1, 1), bias=False)), #idxs=6
--------------------------------

Starting Training Cycle
----------------------------------------------------------------------------------------------------------------------------
                                 Parent Layers             Layer (type)         Output Shape         Param #     Tr. Param #
============================================================================================================================
               RecycleNetwork/EfficientNetLite                 Conv2d-1      [1, 25, 75, 75]             675             675
               RecycleNetwork/EfficientNetLite            BatchNorm2d-2      [1, 25, 75, 75]              50              50
               RecycleNetwork/EfficientNetLite                  ReLU6-3      [1, 25, 75, 75]               0               0
   RecycleNetwork/EfficientNetLite/MBConvBlock                 Conv2d-4      [1, 25, 75, 75]             225             225
   RecycleNetwork/EfficientNetLite/MBConvBlock            BatchNorm2d-5      [1, 25, 75, 75]              50              50
   RecycleNetwork/EfficientNetLite/MBConvBlock                  ReLU6-6      [1, 25, 75, 75]               0               0
   RecycleNetwork/EfficientNetLite/MBConvBlock                 Conv2d-7      [1, 21, 75, 75]             525             525
   RecycleNetwork/EfficientNetLite/MBConvBlock            BatchNorm2d-8      [1, 21, 75, 75]              42              42
   RecycleNetwork/EfficientNetLite/MBConvBlock                 Conv2d-9     [1, 116, 75, 75]           2,436           2,436
   RecycleNetwork/EfficientNetLite/MBConvBlock           BatchNorm2d-10     [1, 116, 75, 75]             232             232
   RecycleNetwork/EfficientNetLite/MBConvBlock                 ReLU6-11     [1, 116, 75, 75]               0               0
   RecycleNetwork/EfficientNetLite/MBConvBlock                Conv2d-12     [1, 116, 38, 38]           1,044           1,044
   RecycleNetwork/EfficientNetLite/MBConvBlock           BatchNorm2d-13     [1, 116, 38, 38]             232             232
   RecycleNetwork/EfficientNetLite/MBConvBlock                Conv2d-14      [1, 19, 38, 38]           2,204           2,204
   RecycleNetwork/EfficientNetLite/MBConvBlock           BatchNorm2d-15      [1, 19, 38, 38]              38              38
   RecycleNetwork/EfficientNetLite/MBConvBlock                Conv2d-16     [1, 154, 38, 38]           2,926           2,926
   RecycleNetwork/EfficientNetLite/MBConvBlock           BatchNorm2d-17     [1, 154, 38, 38]             308             308
   RecycleNetwork/EfficientNetLite/MBConvBlock                 ReLU6-18     [1, 154, 38, 38]               0               0
   RecycleNetwork/EfficientNetLite/MBConvBlock                Conv2d-19     [1, 154, 38, 38]           1,386           1,386
   RecycleNetwork/EfficientNetLite/MBConvBlock           BatchNorm2d-20     [1, 154, 38, 38]             308             308
   RecycleNetwork/EfficientNetLite/MBConvBlock                Conv2d-21      [1, 19, 38, 38]           2,926           2,926
   RecycleNetwork/EfficientNetLite/MBConvBlock           BatchNorm2d-22      [1, 19, 38, 38]              38              38
   RecycleNetwork/EfficientNetLite/MBConvBlock                Conv2d-23     [1, 154, 38, 38]           2,926           2,926
   RecycleNetwork/EfficientNetLite/MBConvBlock           BatchNorm2d-24     [1, 154, 38, 38]             308             308
   RecycleNetwork/EfficientNetLite/MBConvBlock                 ReLU6-25     [1, 154, 38, 38]               0               0
   RecycleNetwork/EfficientNetLite/MBConvBlock                Conv2d-26     [1, 154, 38, 38]           1,386           1,386
   RecycleNetwork/EfficientNetLite/MBConvBlock           BatchNorm2d-27     [1, 154, 38, 38]             308             308
   RecycleNetwork/EfficientNetLite/MBConvBlock                Conv2d-28      [1, 19, 38, 38]           2,926           2,926
   RecycleNetwork/EfficientNetLite/MBConvBlock           BatchNorm2d-29      [1, 19, 38, 38]              38              38
   RecycleNetwork/EfficientNetLite/MBConvBlock                Conv2d-30     [1, 154, 38, 38]           2,926           2,926
   RecycleNetwork/EfficientNetLite/MBConvBlock           BatchNorm2d-31     [1, 154, 38, 38]             308             308
   RecycleNetwork/EfficientNetLite/MBConvBlock                 ReLU6-32     [1, 154, 38, 38]               0               0
   RecycleNetwork/EfficientNetLite/MBConvBlock                Conv2d-33     [1, 154, 38, 38]           1,386           1,386
   RecycleNetwork/EfficientNetLite/MBConvBlock           BatchNorm2d-34     [1, 154, 38, 38]             308             308
   RecycleNetwork/EfficientNetLite/MBConvBlock                Conv2d-35      [1, 19, 38, 38]           2,926           2,926
   RecycleNetwork/EfficientNetLite/MBConvBlock           BatchNorm2d-36      [1, 19, 38, 38]              38              38
   RecycleNetwork/EfficientNetLite/MBConvBlock                Conv2d-37     [1, 154, 38, 38]           2,926           2,926
   RecycleNetwork/EfficientNetLite/MBConvBlock           BatchNorm2d-38     [1, 154, 38, 38]             308             308
   RecycleNetwork/EfficientNetLite/MBConvBlock                 ReLU6-39     [1, 154, 38, 38]               0               0
   RecycleNetwork/EfficientNetLite/MBConvBlock                Conv2d-40     [1, 154, 19, 19]           3,850           3,850
   RecycleNetwork/EfficientNetLite/MBConvBlock           BatchNorm2d-41     [1, 154, 19, 19]             308             308
   RecycleNetwork/EfficientNetLite/MBConvBlock                Conv2d-42      [1, 50, 19, 19]           7,700           7,700
   RecycleNetwork/EfficientNetLite/MBConvBlock           BatchNorm2d-43      [1, 50, 19, 19]             100             100
   RecycleNetwork/EfficientNetLite/MBConvBlock                Conv2d-44     [1, 336, 19, 19]          16,800          16,800
   RecycleNetwork/EfficientNetLite/MBConvBlock           BatchNorm2d-45     [1, 336, 19, 19]             672             672
   RecycleNetwork/EfficientNetLite/MBConvBlock                 ReLU6-46     [1, 336, 19, 19]               0               0
   RecycleNetwork/EfficientNetLite/MBConvBlock                Conv2d-47     [1, 336, 19, 19]           8,400           8,400
   RecycleNetwork/EfficientNetLite/MBConvBlock           BatchNorm2d-48     [1, 336, 19, 19]             672             672
   RecycleNetwork/EfficientNetLite/MBConvBlock                Conv2d-49      [1, 50, 19, 19]          16,800          16,800
   RecycleNetwork/EfficientNetLite/MBConvBlock           BatchNorm2d-50      [1, 50, 19, 19]             100             100
   RecycleNetwork/EfficientNetLite/MBConvBlock                Conv2d-51     [1, 336, 19, 19]          16,800          16,800
   RecycleNetwork/EfficientNetLite/MBConvBlock           BatchNorm2d-52     [1, 336, 19, 19]             672             672
   RecycleNetwork/EfficientNetLite/MBConvBlock                 ReLU6-53     [1, 336, 19, 19]               0               0
   RecycleNetwork/EfficientNetLite/MBConvBlock                Conv2d-54     [1, 336, 19, 19]           8,400           8,400
   RecycleNetwork/EfficientNetLite/MBConvBlock           BatchNorm2d-55     [1, 336, 19, 19]             672             672
   RecycleNetwork/EfficientNetLite/MBConvBlock                Conv2d-56      [1, 50, 19, 19]          16,800          16,800
   RecycleNetwork/EfficientNetLite/MBConvBlock           BatchNorm2d-57      [1, 50, 19, 19]             100             100
   RecycleNetwork/EfficientNetLite/MBConvBlock                Conv2d-58     [1, 336, 19, 19]          16,800          16,800
   RecycleNetwork/EfficientNetLite/MBConvBlock           BatchNorm2d-59     [1, 336, 19, 19]             672             672
   RecycleNetwork/EfficientNetLite/MBConvBlock                 ReLU6-60     [1, 336, 19, 19]               0               0
   RecycleNetwork/EfficientNetLite/MBConvBlock                Conv2d-61     [1, 336, 19, 19]           8,400           8,400
   RecycleNetwork/EfficientNetLite/MBConvBlock           BatchNorm2d-62     [1, 336, 19, 19]             672             672
…
   RecycleNetwork/EfficientNetLite/MBConvBlock                 ReLU6-46     [1, 271, 19, 19]               0               0
   RecycleNetwork/EfficientNetLite/MBConvBlock                Conv2d-47     [1, 271, 19, 19]           6,775           6,775
   RecycleNetwork/EfficientNetLite/MBConvBlock           BatchNorm2d-48     [1, 271, 19, 19]             542             542
   RecycleNetwork/EfficientNetLite/MBConvBlock                Conv2d-49      [1, 36, 19, 19]           9,756           9,756
   RecycleNetwork/EfficientNetLite/MBConvBlock           BatchNorm2d-50      [1, 36, 19, 19]              72              72
   RecycleNetwork/EfficientNetLite/MBConvBlock                Conv2d-51     [1, 271, 19, 19]           9,756           9,756
   RecycleNetwork/EfficientNetLite/MBConvBlock           BatchNorm2d-52     [1, 271, 19, 19]             542             542
   RecycleNetwork/EfficientNetLite/MBConvBlock                 ReLU6-53     [1, 271, 19, 19]               0               0
   RecycleNetwork/EfficientNetLite/MBConvBlock                Conv2d-54     [1, 271, 19, 19]           6,775           6,775
   RecycleNetwork/EfficientNetLite/MBConvBlock           BatchNorm2d-55     [1, 271, 19, 19]             542             542
   RecycleNetwork/EfficientNetLite/MBConvBlock                Conv2d-56      [1, 36, 19, 19]           9,756           9,756
   RecycleNetwork/EfficientNetLite/MBConvBlock           BatchNorm2d-57      [1, 36, 19, 19]              72              72
   RecycleNetwork/EfficientNetLite/MBConvBlock                Conv2d-58     [1, 271, 19, 19]           9,756           9,756
   RecycleNetwork/EfficientNetLite/MBConvBlock           BatchNorm2d-59     [1, 271, 19, 19]             542             542
   RecycleNetwork/EfficientNetLite/MBConvBlock                 ReLU6-60     [1, 271, 19, 19]               0               0
   RecycleNetwork/EfficientNetLite/MBConvBlock                Conv2d-61     [1, 271, 19, 19]           6,775           6,775
   RecycleNetwork/EfficientNetLite/MBConvBlock           BatchNorm2d-62     [1, 271, 19, 19]             542             542
   RecycleNetwork/EfficientNetLite/MBConvBlock                Conv2d-63      [1, 36, 19, 19]           9,756           9,756
   RecycleNetwork/EfficientNetLite/MBConvBlock           BatchNorm2d-64      [1, 36, 19, 19]              72              72
   RecycleNetwork/EfficientNetLite/MBConvBlock                Conv2d-65     [1, 271, 19, 19]           9,756           9,756
   RecycleNetwork/EfficientNetLite/MBConvBlock           BatchNorm2d-66     [1, 271, 19, 19]             542             542
   RecycleNetwork/EfficientNetLite/MBConvBlock                 ReLU6-67     [1, 271, 19, 19]               0               0
   RecycleNetwork/EfficientNetLite/MBConvBlock                Conv2d-68     [1, 271, 10, 10]           2,439           2,439
   RecycleNetwork/EfficientNetLite/MBConvBlock           BatchNorm2d-69     [1, 271, 10, 10]             542             542
   RecycleNetwork/EfficientNetLite/MBConvBlock                Conv2d-70      [1, 57, 10, 10]          15,447          15,447
   RecycleNetwork/EfficientNetLite/MBConvBlock           BatchNorm2d-71      [1, 57, 10, 10]             114             114
   RecycleNetwork/EfficientNetLite/MBConvBlock                Conv2d-72     [1, 543, 10, 10]          30,951          30,951
   RecycleNetwork/EfficientNetLite/MBConvBlock           BatchNorm2d-73     [1, 543, 10, 10]           1,086           1,086
   RecycleNetwork/EfficientNetLite/MBConvBlock                 ReLU6-74     [1, 543, 10, 10]               0               0
   RecycleNetwork/EfficientNetLite/MBConvBlock                Conv2d-75     [1, 543, 10, 10]           4,887           4,887
   RecycleNetwork/EfficientNetLite/MBConvBlock           BatchNorm2d-76     [1, 543, 10, 10]           1,086           1,086
   RecycleNetwork/EfficientNetLite/MBConvBlock                Conv2d-77      [1, 57, 10, 10]          30,951          30,951
   RecycleNetwork/EfficientNetLite/MBConvBlock           BatchNorm2d-78      [1, 57, 10, 10]             114             114
   RecycleNetwork/EfficientNetLite/MBConvBlock                Conv2d-79     [1, 543, 10, 10]          30,951          30,951
   RecycleNetwork/EfficientNetLite/MBConvBlock           BatchNorm2d-80     [1, 543, 10, 10]           1,086           1,086
   RecycleNetwork/EfficientNetLite/MBConvBlock                 ReLU6-81     [1, 543, 10, 10]               0               0
   RecycleNetwork/EfficientNetLite/MBConvBlock                Conv2d-82     [1, 543, 10, 10]           4,887           4,887
   RecycleNetwork/EfficientNetLite/MBConvBlock           BatchNorm2d-83     [1, 543, 10, 10]           1,086           1,086
   RecycleNetwork/EfficientNetLite/MBConvBlock                Conv2d-84      [1, 57, 10, 10]          30,951          30,951
   RecycleNetwork/EfficientNetLite/MBConvBlock           BatchNorm2d-85      [1, 57, 10, 10]             114             114
   RecycleNetwork/EfficientNetLite/MBConvBlock                Conv2d-86     [1, 543, 10, 10]          30,951          30,951
   RecycleNetwork/EfficientNetLite/MBConvBlock           BatchNorm2d-87     [1, 543, 10, 10]           1,086           1,086
   RecycleNetwork/EfficientNetLite/MBConvBlock                 ReLU6-88     [1, 543, 10, 10]               0               0
   RecycleNetwork/EfficientNetLite/MBConvBlock                Conv2d-89     [1, 543, 10, 10]           4,887           4,887
   RecycleNetwork/EfficientNetLite/MBConvBlock           BatchNorm2d-90     [1, 543, 10, 10]           1,086           1,086
   RecycleNetwork/EfficientNetLite/MBConvBlock                Conv2d-91      [1, 57, 10, 10]          30,951          30,951
   RecycleNetwork/EfficientNetLite/MBConvBlock           BatchNorm2d-92      [1, 57, 10, 10]             114             114
   RecycleNetwork/EfficientNetLite/MBConvBlock                Conv2d-93     [1, 543, 10, 10]          30,951          30,951
   RecycleNetwork/EfficientNetLite/MBConvBlock           BatchNorm2d-94     [1, 543, 10, 10]           1,086           1,086
   RecycleNetwork/EfficientNetLite/MBConvBlock                 ReLU6-95     [1, 543, 10, 10]               0               0
   RecycleNetwork/EfficientNetLite/MBConvBlock                Conv2d-96     [1, 543, 10, 10]           4,887           4,887
   RecycleNetwork/EfficientNetLite/MBConvBlock           BatchNorm2d-97     [1, 543, 10, 10]           1,086           1,086
   RecycleNetwork/EfficientNetLite/MBConvBlock                Conv2d-98      [1, 57, 10, 10]          30,951          30,951
   RecycleNetwork/EfficientNetLite/MBConvBlock           BatchNorm2d-99      [1, 57, 10, 10]             114             114
   RecycleNetwork/EfficientNetLite/MBConvBlock               Conv2d-100     [1, 543, 10, 10]          30,951          30,951
   RecycleNetwork/EfficientNetLite/MBConvBlock          BatchNorm2d-101     [1, 543, 10, 10]           1,086           1,086
   RecycleNetwork/EfficientNetLite/MBConvBlock                ReLU6-102     [1, 543, 10, 10]               0               0
   RecycleNetwork/EfficientNetLite/MBConvBlock               Conv2d-103     [1, 543, 10, 10]           4,887           4,887
   RecycleNetwork/EfficientNetLite/MBConvBlock          BatchNorm2d-104     [1, 543, 10, 10]           1,086           1,086
   RecycleNetwork/EfficientNetLite/MBConvBlock               Conv2d-105      [1, 57, 10, 10]          30,951          30,951
   RecycleNetwork/EfficientNetLite/MBConvBlock          BatchNorm2d-106      [1, 57, 10, 10]             114             114
   RecycleNetwork/EfficientNetLite/MBConvBlock               Conv2d-107     [1, 543, 10, 10]          30,951          30,951
   RecycleNetwork/EfficientNetLite/MBConvBlock          BatchNorm2d-108     [1, 543, 10, 10]           1,086           1,086
   RecycleNetwork/EfficientNetLite/MBConvBlock                ReLU6-109     [1, 543, 10, 10]               0               0
   RecycleNetwork/EfficientNetLite/MBConvBlock               Conv2d-110     [1, 543, 10, 10]          13,575          13,575
   RecycleNetwork/EfficientNetLite/MBConvBlock          BatchNorm2d-111     [1, 543, 10, 10]           1,086           1,086
   RecycleNetwork/EfficientNetLite/MBConvBlock               Conv2d-112      [1, 83, 10, 10]          45,069          45,069
   RecycleNetwork/EfficientNetLite/MBConvBlock          BatchNorm2d-113      [1, 83, 10, 10]             166             166
   RecycleNetwork/EfficientNetLite/MBConvBlock               Conv2d-114     [1, 777, 10, 10]          64,491          64,491
   RecycleNetwork/EfficientNetLite/MBConvBlock          BatchNorm2d-115     [1, 777, 10, 10]           1,554           1,554
   RecycleNetwork/EfficientNetLite/MBConvBlock                ReLU6-116     [1, 777, 10, 10]               0               0
   RecycleNetwork/EfficientNetLite/MBConvBlock               Conv2d-117     [1, 777, 10, 10]          19,425          19,425
   RecycleNetwork/EfficientNetLite/MBConvBlock          BatchNorm2d-118     [1, 777, 10, 10]           1,554           1,554
   RecycleNetwork/EfficientNetLite/MBConvBlock               Conv2d-119      [1, 83, 10, 10]          64,491          64,491
   RecycleNetwork/EfficientNetLite/MBConvBlock          BatchNorm2d-120      [1, 83, 10, 10]             166             166
   RecycleNetwork/EfficientNetLite/MBConvBlock               Conv2d-121     [1, 777, 10, 10]          64,491          64,491
   RecycleNetwork/EfficientNetLite/MBConvBlock          BatchNorm2d-122     [1, 777, 10, 10]           1,554           1,554
   RecycleNetwork/EfficientNetLite/MBConvBlock                ReLU6-123     [1, 777, 10, 10]               0               0
   RecycleNetwork/EfficientNetLite/MBConvBlock               Conv2d-124     [1, 777, 10, 10]          19,425          19,425
   RecycleNetwork/EfficientNetLite/MBConvBlock          BatchNorm2d-125     [1, 777, 10, 10]           1,554           1,554
   RecycleNetwork/EfficientNetLite/MBConvBlock               Conv2d-126      [1, 83, 10, 10]          64,491          64,491
   RecycleNetwork/EfficientNetLite/MBConvBlock          BatchNorm2d-127      [1, 83, 10, 10]             166             166
   RecycleNetwork/EfficientNetLite/MBConvBlock               Conv2d-128     [1, 777, 10, 10]          64,491          64,491
   RecycleNetwork/EfficientNetLite/MBConvBlock          BatchNorm2d-129     [1, 777, 10, 10]           1,554           1,554
   RecycleNetwork/EfficientNetLite/MBConvBlock                ReLU6-130     [1, 777, 10, 10]               0               0
   RecycleNetwork/EfficientNetLite/MBConvBlock               Conv2d-131     [1, 777, 10, 10]          19,425          19,425
   RecycleNetwork/EfficientNetLite/MBConvBlock          BatchNorm2d-132     [1, 777, 10, 10]           1,554           1,554
   RecycleNetwork/EfficientNetLite/MBConvBlock               Conv2d-133      [1, 83, 10, 10]          64,491          64,491
   RecycleNetwork/EfficientNetLite/MBConvBlock          BatchNorm2d-134      [1, 83, 10, 10]             166             166
   RecycleNetwork/EfficientNetLite/MBConvBlock               Conv2d-135     [1, 777, 10, 10]          64,491          64,491
   RecycleNetwork/EfficientNetLite/MBConvBlock          BatchNorm2d-136     [1, 777, 10, 10]           1,554           1,554
   RecycleNetwork/EfficientNetLite/MBConvBlock                ReLU6-137     [1, 777, 10, 10]               0               0
   RecycleNetwork/EfficientNetLite/MBConvBlock               Conv2d-138     [1, 777, 10, 10]          19,425          19,425
   RecycleNetwork/EfficientNetLite/MBConvBlock          BatchNorm2d-139     [1, 777, 10, 10]           1,554           1,554
   RecycleNetwork/EfficientNetLite/MBConvBlock               Conv2d-140      [1, 83, 10, 10]          64,491          64,491
   RecycleNetwork/EfficientNetLite/MBConvBlock          BatchNorm2d-141      [1, 83, 10, 10]             166             166
   RecycleNetwork/EfficientNetLite/MBConvBlock               Conv2d-142     [1, 777, 10, 10]          64,491          64,491
   RecycleNetwork/EfficientNetLite/MBConvBlock          BatchNorm2d-143     [1, 777, 10, 10]           1,554           1,554
   RecycleNetwork/EfficientNetLite/MBConvBlock                ReLU6-144     [1, 777, 10, 10]               0               0
   RecycleNetwork/EfficientNetLite/MBConvBlock               Conv2d-145     [1, 777, 10, 10]          19,425          19,425
   RecycleNetwork/EfficientNetLite/MBConvBlock          BatchNorm2d-146     [1, 777, 10, 10]           1,554           1,554
   RecycleNetwork/EfficientNetLite/MBConvBlock               Conv2d-147      [1, 83, 10, 10]          64,491          64,491
   RecycleNetwork/EfficientNetLite/MBConvBlock          BatchNorm2d-148      [1, 83, 10, 10]             166             166
   RecycleNetwork/EfficientNetLite/MBConvBlock               Conv2d-149     [1, 777, 10, 10]          64,491          64,491
   RecycleNetwork/EfficientNetLite/MBConvBlock          BatchNorm2d-150     [1, 777, 10, 10]           1,554           1,554
   RecycleNetwork/EfficientNetLite/MBConvBlock                ReLU6-151     [1, 777, 10, 10]               0               0
   RecycleNetwork/EfficientNetLite/MBConvBlock               Conv2d-152       [1, 777, 5, 5]          19,425          19,425
   RecycleNetwork/EfficientNetLite/MBConvBlock          BatchNorm2d-153       [1, 777, 5, 5]           1,554           1,554
   RecycleNetwork/EfficientNetLite/MBConvBlock               Conv2d-154       [1, 115, 5, 5]          89,355          89,355
   RecycleNetwork/EfficientNetLite/MBConvBlock          BatchNorm2d-155       [1, 115, 5, 5]             230             230
   RecycleNetwork/EfficientNetLite/MBConvBlock               Conv2d-156      [1, 1321, 5, 5]         151,915         151,915
   RecycleNetwork/EfficientNetLite/MBConvBlock          BatchNorm2d-157      [1, 1321, 5, 5]           2,642           2,642
   RecycleNetwork/EfficientNetLite/MBConvBlock                ReLU6-158      [1, 1321, 5, 5]               0               0
   RecycleNetwork/EfficientNetLite/MBConvBlock               Conv2d-159      [1, 1321, 5, 5]          33,025          33,025
   RecycleNetwork/EfficientNetLite/MBConvBlock          BatchNorm2d-160      [1, 1321, 5, 5]           2,642           2,642
   RecycleNetwork/EfficientNetLite/MBConvBlock               Conv2d-161       [1, 115, 5, 5]         151,915         151,915
   RecycleNetwork/EfficientNetLite/MBConvBlock          BatchNorm2d-162       [1, 115, 5, 5]             230             230
   RecycleNetwork/EfficientNetLite/MBConvBlock               Conv2d-163      [1, 1321, 5, 5]         151,915         151,915
   RecycleNetwork/EfficientNetLite/MBConvBlock          BatchNorm2d-164      [1, 1321, 5, 5]           2,642           2,642
   RecycleNetwork/EfficientNetLite/MBConvBlock                ReLU6-165      [1, 1321, 5, 5]               0               0
   RecycleNetwork/EfficientNetLite/MBConvBlock               Conv2d-166      [1, 1321, 5, 5]          33,025          33,025
   RecycleNetwork/EfficientNetLite/MBConvBlock          BatchNorm2d-167      [1, 1321, 5, 5]           2,642           2,642
   RecycleNetwork/EfficientNetLite/MBConvBlock               Conv2d-168       [1, 115, 5, 5]         151,915         151,915
   RecycleNetwork/EfficientNetLite/MBConvBlock          BatchNorm2d-169       [1, 115, 5, 5]             230             230
   RecycleNetwork/EfficientNetLite/MBConvBlock               Conv2d-170      [1, 1321, 5, 5]         151,915         151,915
   RecycleNetwork/EfficientNetLite/MBConvBlock          BatchNorm2d-171      [1, 1321, 5, 5]           2,642           2,642
   RecycleNetwork/EfficientNetLite/MBConvBlock                ReLU6-172      [1, 1321, 5, 5]               0               0
   RecycleNetwork/EfficientNetLite/MBConvBlock               Conv2d-173      [1, 1321, 5, 5]          33,025          33,025
   RecycleNetwork/EfficientNetLite/MBConvBlock          BatchNorm2d-174      [1, 1321, 5, 5]           2,642           2,642
   RecycleNetwork/EfficientNetLite/MBConvBlock               Conv2d-175       [1, 115, 5, 5]         151,915         151,915
   RecycleNetwork/EfficientNetLite/MBConvBlock          BatchNorm2d-176       [1, 115, 5, 5]             230             230
   RecycleNetwork/EfficientNetLite/MBConvBlock               Conv2d-177      [1, 1321, 5, 5]         151,915         151,915
   RecycleNetwork/EfficientNetLite/MBConvBlock          BatchNorm2d-178      [1, 1321, 5, 5]           2,642           2,642
   RecycleNetwork/EfficientNetLite/MBConvBlock                ReLU6-179      [1, 1321, 5, 5]               0               0
   RecycleNetwork/EfficientNetLite/MBConvBlock               Conv2d-180      [1, 1321, 5, 5]          33,025          33,025
   RecycleNetwork/EfficientNetLite/MBConvBlock          BatchNorm2d-181      [1, 1321, 5, 5]           2,642           2,642
   RecycleNetwork/EfficientNetLite/MBConvBlock               Conv2d-182       [1, 115, 5, 5]         151,915         151,915
   RecycleNetwork/EfficientNetLite/MBConvBlock          BatchNorm2d-183       [1, 115, 5, 5]             230             230
   RecycleNetwork/EfficientNetLite/MBConvBlock               Conv2d-184      [1, 1321, 5, 5]         151,915         151,915
   RecycleNetwork/EfficientNetLite/MBConvBlock          BatchNorm2d-185      [1, 1321, 5, 5]           2,642           2,642
   RecycleNetwork/EfficientNetLite/MBConvBlock                ReLU6-186      [1, 1321, 5, 5]               0               0
   RecycleNetwork/EfficientNetLite/MBConvBlock               Conv2d-187      [1, 1321, 5, 5]          33,025          33,025
   RecycleNetwork/EfficientNetLite/MBConvBlock          BatchNorm2d-188      [1, 1321, 5, 5]           2,642           2,642
   RecycleNetwork/EfficientNetLite/MBConvBlock               Conv2d-189       [1, 115, 5, 5]         151,915         151,915
   RecycleNetwork/EfficientNetLite/MBConvBlock          BatchNorm2d-190       [1, 115, 5, 5]             230             230
   RecycleNetwork/EfficientNetLite/MBConvBlock               Conv2d-191      [1, 1321, 5, 5]         151,915         151,915
   RecycleNetwork/EfficientNetLite/MBConvBlock          BatchNorm2d-192      [1, 1321, 5, 5]           2,642           2,642
   RecycleNetwork/EfficientNetLite/MBConvBlock                ReLU6-193      [1, 1321, 5, 5]               0               0
   RecycleNetwork/EfficientNetLite/MBConvBlock               Conv2d-194      [1, 1321, 5, 5]          33,025          33,025
   RecycleNetwork/EfficientNetLite/MBConvBlock          BatchNorm2d-195      [1, 1321, 5, 5]           2,642           2,642
   RecycleNetwork/EfficientNetLite/MBConvBlock               Conv2d-196       [1, 115, 5, 5]         151,915         151,915
   RecycleNetwork/EfficientNetLite/MBConvBlock          BatchNorm2d-197       [1, 115, 5, 5]             230             230
   RecycleNetwork/EfficientNetLite/MBConvBlock               Conv2d-198      [1, 1321, 5, 5]         151,915         151,915
   RecycleNetwork/EfficientNetLite/MBConvBlock          BatchNorm2d-199      [1, 1321, 5, 5]           2,642           2,642
   RecycleNetwork/EfficientNetLite/MBConvBlock                ReLU6-200      [1, 1321, 5, 5]               0               0
   RecycleNetwork/EfficientNetLite/MBConvBlock               Conv2d-201      [1, 1321, 5, 5]          33,025          33,025
   RecycleNetwork/EfficientNetLite/MBConvBlock          BatchNorm2d-202      [1, 1321, 5, 5]           2,642           2,642
   RecycleNetwork/EfficientNetLite/MBConvBlock               Conv2d-203       [1, 115, 5, 5]         151,915         151,915
   RecycleNetwork/EfficientNetLite/MBConvBlock          BatchNorm2d-204       [1, 115, 5, 5]             230             230
   RecycleNetwork/EfficientNetLite/MBConvBlock               Conv2d-205      [1, 1321, 5, 5]         151,915         151,915
   RecycleNetwork/EfficientNetLite/MBConvBlock          BatchNorm2d-206      [1, 1321, 5, 5]           2,642           2,642
   RecycleNetwork/EfficientNetLite/MBConvBlock                ReLU6-207      [1, 1321, 5, 5]               0               0
   RecycleNetwork/EfficientNetLite/MBConvBlock               Conv2d-208      [1, 1321, 5, 5]          11,889          11,889
   RecycleNetwork/EfficientNetLite/MBConvBlock          BatchNorm2d-209      [1, 1321, 5, 5]           2,642           2,642
   RecycleNetwork/EfficientNetLite/MBConvBlock               Conv2d-210       [1, 403, 5, 5]         532,363         532,363
   RecycleNetwork/EfficientNetLite/MBConvBlock          BatchNorm2d-211       [1, 403, 5, 5]             806             806
               RecycleNetwork/EfficientNetLite               Conv2d-212      [1, 1280, 5, 5]         515,840         515,840
               RecycleNetwork/EfficientNetLite          BatchNorm2d-213      [1, 1280, 5, 5]           2,560           2,560
               RecycleNetwork/EfficientNetLite                ReLU6-214      [1, 1280, 5, 5]               0               0
               RecycleNetwork/EfficientNetLite    AdaptiveAvgPool2d-215      [1, 1280, 1, 1]               0               0
               RecycleNetwork/EfficientNetLite              Dropout-216            [1, 1280]               0               0
               RecycleNetwork/EfficientNetLite               Linear-217               [1, 5]           6,405           6,405
============================================================================================================================
Total params: 5,151,573
Trainable params: 5,151,573
Non-trainable params: 0
----------------------------------------------------------------------------------------------------------------------------
Training Started
Epoch: 1, Training Loss: 0.369898, Validation Loss: 0.521516, Training Accuracy: 0.924121, Validation Accuracy: 0.840710
…
[6] prune_in_channels on backbone.fc (Linear(in_features=1152, out_features=5, bias=True)) => prune_out_channels on _ElementWiseOp_1(TBackward0), #idxs=128
--------------------------------

----------------------------------------------------------------------------------------------------------------------------
                                 Parent Layers             Layer (type)         Output Shape         Param #     Tr. Param #
============================================================================================================================
               RecycleNetwork/EfficientNetLite                 Conv2d-1      [1, 25, 75, 75]             675             675
               RecycleNetwork/EfficientNetLite            BatchNorm2d-2      [1, 25, 75, 75]              50              50
               RecycleNetwork/EfficientNetLite                  ReLU6-3      [1, 25, 75, 75]               0               0
   RecycleNetwork/EfficientNetLite/MBConvBlock                 Conv2d-4      [1, 25, 75, 75]             225             225
   RecycleNetwork/EfficientNetLite/MBConvBlock            BatchNorm2d-5      [1, 25, 75, 75]              50              50
   RecycleNetwork/EfficientNetLite/MBConvBlock                  ReLU6-6      [1, 25, 75, 75]               0               0
   RecycleNetwork/EfficientNetLite/MBConvBlock                 Conv2d-7      [1, 21, 75, 75]             525             525
   RecycleNetwork/EfficientNetLite/MBConvBlock            BatchNorm2d-8      [1, 21, 75, 75]              42              42
   RecycleNetwork/EfficientNetLite/MBConvBlock                 Conv2d-9     [1, 116, 75, 75]           2,436           2,436
   RecycleNetwork/EfficientNetLite/MBConvBlock           BatchNorm2d-10     [1, 116, 75, 75]             232             232
   RecycleNetwork/EfficientNetLite/MBConvBlock                 ReLU6-11     [1, 116, 75, 75]               0               0
   RecycleNetwork/EfficientNetLite/MBConvBlock                Conv2d-12     [1, 116, 38, 38]           1,044           1,044
   RecycleNetwork/EfficientNetLite/MBConvBlock           BatchNorm2d-13     [1, 116, 38, 38]             232             232
   RecycleNetwork/EfficientNetLite/MBConvBlock                Conv2d-14      [1, 19, 38, 38]           2,204           2,204
   RecycleNetwork/EfficientNetLite/MBConvBlock           BatchNorm2d-15      [1, 19, 38, 38]              38              38
   RecycleNetwork/EfficientNetLite/MBConvBlock                Conv2d-16     [1, 154, 38, 38]           2,926           2,926
   RecycleNetwork/EfficientNetLite/MBConvBlock           BatchNorm2d-17     [1, 154, 38, 38]             308             308
   RecycleNetwork/EfficientNetLite/MBConvBlock                 ReLU6-18     [1, 154, 38, 38]               0               0
   RecycleNetwork/EfficientNetLite/MBConvBlock                Conv2d-19     [1, 154, 38, 38]           1,386           1,386
   RecycleNetwork/EfficientNetLite/MBConvBlock           BatchNorm2d-20     [1, 154, 38, 38]             308             308
   RecycleNetwork/EfficientNetLite/MBConvBlock                Conv2d-21      [1, 19, 38, 38]           2,926           2,926
   RecycleNetwork/EfficientNetLite/MBConvBlock           BatchNorm2d-22      [1, 19, 38, 38]              38              38
   RecycleNetwork/EfficientNetLite/MBConvBlock                Conv2d-23     [1, 154, 38, 38]           2,926           2,926
   RecycleNetwork/EfficientNetLite/MBConvBlock           BatchNorm2d-24     [1, 154, 38, 38]             308             308
   RecycleNetwork/EfficientNetLite/MBConvBlock                 ReLU6-25     [1, 154, 38, 38]               0               0
   RecycleNetwork/EfficientNetLite/MBConvBlock                Conv2d-26     [1, 154, 38, 38]           1,386           1,386
   RecycleNetwork/EfficientNetLite/MBConvBlock           BatchNorm2d-27     [1, 154, 38, 38]             308             308
   RecycleNetwork/EfficientNetLite/MBConvBlock                Conv2d-28      [1, 19, 38, 38]           2,926           2,926
   RecycleNetwork/EfficientNetLite/MBConvBlock           BatchNorm2d-29      [1, 19, 38, 38]              38              38
   RecycleNetwork/EfficientNetLite/MBConvBlock                Conv2d-30     [1, 154, 38, 38]           2,926           2,926
   RecycleNetwork/EfficientNetLite/MBConvBlock           BatchNorm2d-31     [1, 154, 38, 38]             308             308
   RecycleNetwork/EfficientNetLite/MBConvBlock                 ReLU6-32     [1, 154, 38, 38]               0               0
   RecycleNetwork/EfficientNetLite/MBConvBlock                Conv2d-33     [1, 154, 38, 38]           1,386           1,386
   RecycleNetwork/EfficientNetLite/MBConvBlock           BatchNorm2d-34     [1, 154, 38, 38]             308             308
   RecycleNetwork/EfficientNetLite/MBConvBlock                Conv2d-35      [1, 19, 38, 38]           2,926           2,926
   RecycleNetwork/EfficientNetLite/MBConvBlock           BatchNorm2d-36      [1, 19, 38, 38]              38              38
   RecycleNetwork/EfficientNetLite/MBConvBlock                Conv2d-37     [1, 154, 38, 38]           2,926           2,926
   RecycleNetwork/EfficientNetLite/MBConvBlock           BatchNorm2d-38     [1, 154, 38, 38]             308             308
   RecycleNetwork/EfficientNetLite/MBConvBlock                 ReLU6-39     [1, 154, 38, 38]               0               0
   RecycleNetwork/EfficientNetLite/MBConvBlock                Conv2d-40     [1, 154, 19, 19]           3,850           3,850
   RecycleNetwork/EfficientNetLite/MBConvBlock           BatchNorm2d-41     [1, 154, 19, 19]             308             308
   RecycleNetwork/EfficientNetLite/MBConvBlock                Conv2d-42      [1, 36, 19, 19]           5,544           5,544
   RecycleNetwork/EfficientNetLite/MBConvBlock           BatchNorm2d-43      [1, 36, 19, 19]              72              72
   RecycleNetwork/EfficientNetLite/MBConvBlock                Conv2d-44     [1, 271, 19, 19]           9,756           9,756
   RecycleNetwork/EfficientNetLite/MBConvBlock           BatchNorm2d-45     [1, 271, 19, 19]             542             542
   RecycleNetwork/EfficientNetLite/MBConvBlock                 ReLU6-46     [1, 271, 19, 19]               0               0
   RecycleNetwork/EfficientNetLite/MBConvBlock                Conv2d-47     [1, 271, 19, 19]           6,775           6,775
   RecycleNetwork/EfficientNetLite/MBConvBlock           BatchNorm2d-48     [1, 271, 19, 19]             542             542
   RecycleNetwork/EfficientNetLite/MBConvBlock                Conv2d-49      [1, 36, 19, 19]           9,756           9,756
   RecycleNetwork/EfficientNetLite/MBConvBlock           BatchNorm2d-50      [1, 36, 19, 19]              72              72
   RecycleNetwork/EfficientNetLite/MBConvBlock                Conv2d-51     [1, 271, 19, 19]           9,756           9,756
   RecycleNetwork/EfficientNetLite/MBConvBlock           BatchNorm2d-52     [1, 271, 19, 19]             542             542
   RecycleNetwork/EfficientNetLite/MBConvBlock                 ReLU6-53     [1, 271, 19, 19]               0               0
   RecycleNetwork/EfficientNetLite/MBConvBlock                Conv2d-54     [1, 271, 19, 19]           6,775           6,775
   RecycleNetwork/EfficientNetLite/MBConvBlock           BatchNorm2d-55     [1, 271, 19, 19]             542             542
   RecycleNetwork/EfficientNetLite/MBConvBlock                Conv2d-56      [1, 36, 19, 19]           9,756           9,756
   RecycleNetwork/EfficientNetLite/MBConvBlock           BatchNorm2d-57      [1, 36, 19, 19]              72              72
   RecycleNetwork/EfficientNetLite/MBConvBlock                Conv2d-58     [1, 271, 19, 19]           9,756           9,756
   RecycleNetwork/EfficientNetLite/MBConvBlock           BatchNorm2d-59     [1, 271, 19, 19]             542             542
   RecycleNetwork/EfficientNetLite/MBConvBlock                 ReLU6-60     [1, 271, 19, 19]               0               0
   RecycleNetwork/EfficientNetLite/MBConvBlock                Conv2d-61     [1, 271, 19, 19]           6,775           6,775
   RecycleNetwork/EfficientNetLite/MBConvBlock           BatchNorm2d-62     [1, 271, 19, 19]             542             542
   RecycleNetwork/EfficientNetLite/MBConvBlock                Conv2d-63      [1, 36, 19, 19]           9,756           9,756
   RecycleNetwork/EfficientNetLite/MBConvBlock           BatchNorm2d-64      [1, 36, 19, 19]              72              72
   RecycleNetwork/EfficientNetLite/MBConvBlock                Conv2d-65     [1, 271, 19, 19]           9,756           9,756
   RecycleNetwork/EfficientNetLite/MBConvBlock           BatchNorm2d-66     [1, 271, 19, 19]             542             542
   RecycleNetwork/EfficientNetLite/MBConvBlock                 ReLU6-67     [1, 271, 19, 19]               0               0
   RecycleNetwork/EfficientNetLite/MBConvBlock                Conv2d-68     [1, 271, 10, 10]           2,439           2,439
   RecycleNetwork/EfficientNetLite/MBConvBlock           BatchNorm2d-69     [1, 271, 10, 10]             542             542
   RecycleNetwork/EfficientNetLite/MBConvBlock                Conv2d-70      [1, 57, 10, 10]          15,447          15,447
   RecycleNetwork/EfficientNetLite/MBConvBlock           BatchNorm2d-71      [1, 57, 10, 10]             114             114
   RecycleNetwork/EfficientNetLite/MBConvBlock                Conv2d-72     [1, 543, 10, 10]          30,951          30,951
   RecycleNetwork/EfficientNetLite/MBConvBlock           BatchNorm2d-73     [1, 543, 10, 10]           1,086           1,086
   RecycleNetwork/EfficientNetLite/MBConvBlock                 ReLU6-74     [1, 543, 10, 10]               0               0
   RecycleNetwork/EfficientNetLite/MBConvBlock                Conv2d-75     [1, 543, 10, 10]           4,887           4,887
   RecycleNetwork/EfficientNetLite/MBConvBlock           BatchNorm2d-76     [1, 543, 10, 10]           1,086           1,086
   RecycleNetwork/EfficientNetLite/MBConvBlock                Conv2d-77      [1, 57, 10, 10]          30,951          30,951
   RecycleNetwork/EfficientNetLite/MBConvBlock           BatchNorm2d-78      [1, 57, 10, 10]             114             114
   RecycleNetwork/EfficientNetLite/MBConvBlock                Conv2d-79     [1, 543, 10, 10]          30,951          30,951
   RecycleNetwork/EfficientNetLite/MBConvBlock           BatchNorm2d-80     [1, 543, 10, 10]           1,086           1,086
   RecycleNetwork/EfficientNetLite/MBConvBlock                 ReLU6-81     [1, 543, 10, 10]               0               0
   RecycleNetwork/EfficientNetLite/MBConvBlock                Conv2d-82     [1, 543, 10, 10]           4,887           4,887
   RecycleNetwork/EfficientNetLite/MBConvBlock           BatchNorm2d-83     [1, 543, 10, 10]           1,086           1,086
   RecycleNetwork/EfficientNetLite/MBConvBlock                Conv2d-84      [1, 57, 10, 10]          30,951          30,951
   RecycleNetwork/EfficientNetLite/MBConvBlock           BatchNorm2d-85      [1, 57, 10, 10]             114             114
   RecycleNetwork/EfficientNetLite/MBConvBlock                Conv2d-86     [1, 543, 10, 10]          30,951          30,951
   RecycleNetwork/EfficientNetLite/MBConvBlock           BatchNorm2d-87     [1, 543, 10, 10]           1,086           1,086
   RecycleNetwork/EfficientNetLite/MBConvBlock                 ReLU6-88     [1, 543, 10, 10]               0               0
   RecycleNetwork/EfficientNetLite/MBConvBlock                Conv2d-89     [1, 543, 10, 10]           4,887           4,887
   RecycleNetwork/EfficientNetLite/MBConvBlock           BatchNorm2d-90     [1, 543, 10, 10]           1,086           1,086
   RecycleNetwork/EfficientNetLite/MBConvBlock                Conv2d-91      [1, 57, 10, 10]          30,951          30,951
   RecycleNetwork/EfficientNetLite/MBConvBlock           BatchNorm2d-92      [1, 57, 10, 10]             114             114
   RecycleNetwork/EfficientNetLite/MBConvBlock                Conv2d-93     [1, 543, 10, 10]          30,951          30,951
   RecycleNetwork/EfficientNetLite/MBConvBlock           BatchNorm2d-94     [1, 543, 10, 10]           1,086           1,086
   RecycleNetwork/EfficientNetLite/MBConvBlock                 ReLU6-95     [1, 543, 10, 10]               0               0
   RecycleNetwork/EfficientNetLite/MBConvBlock                Conv2d-96     [1, 543, 10, 10]           4,887           4,887
   RecycleNetwork/EfficientNetLite/MBConvBlock           BatchNorm2d-97     [1, 543, 10, 10]           1,086           1,086
   RecycleNetwork/EfficientNetLite/MBConvBlock                Conv2d-98      [1, 57, 10, 10]          30,951          30,951
   RecycleNetwork/EfficientNetLite/MBConvBlock           BatchNorm2d-99      [1, 57, 10, 10]             114             114
   RecycleNetwork/EfficientNetLite/MBConvBlock               Conv2d-100     [1, 543, 10, 10]          30,951          30,951
   RecycleNetwork/EfficientNetLite/MBConvBlock          BatchNorm2d-101     [1, 543, 10, 10]           1,086           1,086
   RecycleNetwork/EfficientNetLite/MBConvBlock                ReLU6-102     [1, 543, 10, 10]               0               0
   RecycleNetwork/EfficientNetLite/MBConvBlock               Conv2d-103     [1, 543, 10, 10]           4,887           4,887
   RecycleNetwork/EfficientNetLite/MBConvBlock          BatchNorm2d-104     [1, 543, 10, 10]           1,086           1,086
   RecycleNetwork/EfficientNetLite/MBConvBlock               Conv2d-105      [1, 57, 10, 10]          30,951          30,951
   RecycleNetwork/EfficientNetLite/MBConvBlock          BatchNorm2d-106      [1, 57, 10, 10]             114             114
   RecycleNetwork/EfficientNetLite/MBConvBlock               Conv2d-107     [1, 543, 10, 10]          30,951          30,951
   RecycleNetwork/EfficientNetLite/MBConvBlock          BatchNorm2d-108     [1, 543, 10, 10]           1,086           1,086
   RecycleNetwork/EfficientNetLite/MBConvBlock                ReLU6-109     [1, 543, 10, 10]               0               0
   RecycleNetwork/EfficientNetLite/MBConvBlock               Conv2d-110     [1, 543, 10, 10]          13,575          13,575
   RecycleNetwork/EfficientNetLite/MBConvBlock          BatchNorm2d-111     [1, 543, 10, 10]           1,086           1,086
   RecycleNetwork/EfficientNetLite/MBConvBlock               Conv2d-112      [1, 83, 10, 10]          45,069          45,069
   RecycleNetwork/EfficientNetLite/MBConvBlock          BatchNorm2d-113      [1, 83, 10, 10]             166             166
   RecycleNetwork/EfficientNetLite/MBConvBlock               Conv2d-114     [1, 777, 10, 10]          64,491          64,491
   RecycleNetwork/EfficientNetLite/MBConvBlock          BatchNorm2d-115     [1, 777, 10, 10]           1,554           1,554
   RecycleNetwork/EfficientNetLite/MBConvBlock                ReLU6-116     [1, 777, 10, 10]               0               0
   RecycleNetwork/EfficientNetLite/MBConvBlock               Conv2d-117     [1, 777, 10, 10]          19,425          19,425
   RecycleNetwork/EfficientNetLite/MBConvBlock          BatchNorm2d-118     [1, 777, 10, 10]           1,554           1,554
   RecycleNetwork/EfficientNetLite/MBConvBlock               Conv2d-119      [1, 83, 10, 10]          64,491          64,491
   RecycleNetwork/EfficientNetLite/MBConvBlock          BatchNorm2d-120      [1, 83, 10, 10]             166             166
   RecycleNetwork/EfficientNetLite/MBConvBlock               Conv2d-121     [1, 777, 10, 10]          64,491          64,491
   RecycleNetwork/EfficientNetLite/MBConvBlock          BatchNorm2d-122     [1, 777, 10, 10]           1,554           1,554
   RecycleNetwork/EfficientNetLite/MBConvBlock                ReLU6-123     [1, 777, 10, 10]               0               0
   RecycleNetwork/EfficientNetLite/MBConvBlock               Conv2d-124     [1, 777, 10, 10]          19,425          19,425
   RecycleNetwork/EfficientNetLite/MBConvBlock          BatchNorm2d-125     [1, 777, 10, 10]           1,554           1,554
   RecycleNetwork/EfficientNetLite/MBConvBlock               Conv2d-126      [1, 83, 10, 10]          64,491          64,491
   RecycleNetwork/EfficientNetLite/MBConvBlock          BatchNorm2d-127      [1, 83, 10, 10]             166             166
   RecycleNetwork/EfficientNetLite/MBConvBlock               Conv2d-128     [1, 777, 10, 10]          64,491          64,491
   RecycleNetwork/EfficientNetLite/MBConvBlock          BatchNorm2d-129     [1, 777, 10, 10]           1,554           1,554
   RecycleNetwork/EfficientNetLite/MBConvBlock                ReLU6-130     [1, 777, 10, 10]               0               0
   RecycleNetwork/EfficientNetLite/MBConvBlock               Conv2d-131     [1, 777, 10, 10]          19,425          19,425
   RecycleNetwork/EfficientNetLite/MBConvBlock          BatchNorm2d-132     [1, 777, 10, 10]           1,554           1,554
   RecycleNetwork/EfficientNetLite/MBConvBlock               Conv2d-133      [1, 83, 10, 10]          64,491          64,491
   RecycleNetwork/EfficientNetLite/MBConvBlock          BatchNorm2d-134      [1, 83, 10, 10]             166             166
   RecycleNetwork/EfficientNetLite/MBConvBlock               Conv2d-135     [1, 777, 10, 10]          64,491          64,491
   RecycleNetwork/EfficientNetLite/MBConvBlock          BatchNorm2d-136     [1, 777, 10, 10]           1,554           1,554
   RecycleNetwork/EfficientNetLite/MBConvBlock                ReLU6-137     [1, 777, 10, 10]               0               0
   RecycleNetwork/EfficientNetLite/MBConvBlock               Conv2d-138     [1, 777, 10, 10]          19,425          19,425
   RecycleNetwork/EfficientNetLite/MBConvBlock          BatchNorm2d-139     [1, 777, 10, 10]           1,554           1,554
   RecycleNetwork/EfficientNetLite/MBConvBlock               Conv2d-140      [1, 83, 10, 10]          64,491          64,491
   RecycleNetwork/EfficientNetLite/MBConvBlock          BatchNorm2d-141      [1, 83, 10, 10]             166             166
   RecycleNetwork/EfficientNetLite/MBConvBlock               Conv2d-142     [1, 777, 10, 10]          64,491          64,491
   RecycleNetwork/EfficientNetLite/MBConvBlock          BatchNorm2d-143     [1, 777, 10, 10]           1,554           1,554
   RecycleNetwork/EfficientNetLite/MBConvBlock                ReLU6-144     [1, 777, 10, 10]               0               0
   RecycleNetwork/EfficientNetLite/MBConvBlock               Conv2d-145     [1, 777, 10, 10]          19,425          19,425
   RecycleNetwork/EfficientNetLite/MBConvBlock          BatchNorm2d-146     [1, 777, 10, 10]           1,554           1,554
   RecycleNetwork/EfficientNetLite/MBConvBlock               Conv2d-147      [1, 83, 10, 10]          64,491          64,491
   RecycleNetwork/EfficientNetLite/MBConvBlock          BatchNorm2d-148      [1, 83, 10, 10]             166             166
   RecycleNetwork/EfficientNetLite/MBConvBlock               Conv2d-149     [1, 777, 10, 10]          64,491          64,491
   RecycleNetwork/EfficientNetLite/MBConvBlock          BatchNorm2d-150     [1, 777, 10, 10]           1,554           1,554
   RecycleNetwork/EfficientNetLite/MBConvBlock                ReLU6-151     [1, 777, 10, 10]               0               0
   RecycleNetwork/EfficientNetLite/MBConvBlock               Conv2d-152       [1, 777, 5, 5]          19,425          19,425
   RecycleNetwork/EfficientNetLite/MBConvBlock          BatchNorm2d-153       [1, 777, 5, 5]           1,554           1,554
   RecycleNetwork/EfficientNetLite/MBConvBlock               Conv2d-154       [1, 115, 5, 5]          89,355          89,355
   RecycleNetwork/EfficientNetLite/MBConvBlock          BatchNorm2d-155       [1, 115, 5, 5]             230             230
   RecycleNetwork/EfficientNetLite/MBConvBlock               Conv2d-156      [1, 1321, 5, 5]         151,915         151,915
   RecycleNetwork/EfficientNetLite/MBConvBlock          BatchNorm2d-157      [1, 1321, 5, 5]           2,642           2,642
   RecycleNetwork/EfficientNetLite/MBConvBlock                ReLU6-158      [1, 1321, 5, 5]               0               0
   RecycleNetwork/EfficientNetLite/MBConvBlock               Conv2d-159      [1, 1321, 5, 5]          33,025          33,025
   RecycleNetwork/EfficientNetLite/MBConvBlock          BatchNorm2d-160      [1, 1321, 5, 5]           2,642           2,642
   RecycleNetwork/EfficientNetLite/MBConvBlock               Conv2d-161       [1, 115, 5, 5]         151,915         151,915
   RecycleNetwork/EfficientNetLite/MBConvBlock          BatchNorm2d-162       [1, 115, 5, 5]             230             230
   RecycleNetwork/EfficientNetLite/MBConvBlock               Conv2d-163      [1, 1321, 5, 5]         151,915         151,915
   RecycleNetwork/EfficientNetLite/MBConvBlock          BatchNorm2d-164      [1, 1321, 5, 5]           2,642           2,642
   RecycleNetwork/EfficientNetLite/MBConvBlock                ReLU6-165      [1, 1321, 5, 5]               0               0
   RecycleNetwork/EfficientNetLite/MBConvBlock               Conv2d-166      [1, 1321, 5, 5]          33,025          33,025
   RecycleNetwork/EfficientNetLite/MBConvBlock          BatchNorm2d-167      [1, 1321, 5, 5]           2,642           2,642
   RecycleNetwork/EfficientNetLite/MBConvBlock               Conv2d-168       [1, 115, 5, 5]         151,915         151,915
   RecycleNetwork/EfficientNetLite/MBConvBlock          BatchNorm2d-169       [1, 115, 5, 5]             230             230
   RecycleNetwork/EfficientNetLite/MBConvBlock               Conv2d-170      [1, 1321, 5, 5]         151,915         151,915
   RecycleNetwork/EfficientNetLite/MBConvBlock          BatchNorm2d-171      [1, 1321, 5, 5]           2,642           2,642
   RecycleNetwork/EfficientNetLite/MBConvBlock                ReLU6-172      [1, 1321, 5, 5]               0               0
   RecycleNetwork/EfficientNetLite/MBConvBlock               Conv2d-173      [1, 1321, 5, 5]          33,025          33,025
   RecycleNetwork/EfficientNetLite/MBConvBlock          BatchNorm2d-174      [1, 1321, 5, 5]           2,642           2,642
   RecycleNetwork/EfficientNetLite/MBConvBlock               Conv2d-175       [1, 115, 5, 5]         151,915         151,915
   RecycleNetwork/EfficientNetLite/MBConvBlock          BatchNorm2d-176       [1, 115, 5, 5]             230             230
   RecycleNetwork/EfficientNetLite/MBConvBlock               Conv2d-177      [1, 1321, 5, 5]         151,915         151,915
   RecycleNetwork/EfficientNetLite/MBConvBlock          BatchNorm2d-178      [1, 1321, 5, 5]           2,642           2,642
   RecycleNetwork/EfficientNetLite/MBConvBlock                ReLU6-179      [1, 1321, 5, 5]               0               0
   RecycleNetwork/EfficientNetLite/MBConvBlock               Conv2d-180      [1, 1321, 5, 5]          33,025          33,025
   RecycleNetwork/EfficientNetLite/MBConvBlock          BatchNorm2d-181      [1, 1321, 5, 5]           2,642           2,642
   RecycleNetwork/EfficientNetLite/MBConvBlock               Conv2d-182       [1, 115, 5, 5]         151,915         151,915
   RecycleNetwork/EfficientNetLite/MBConvBlock          BatchNorm2d-183       [1, 115, 5, 5]             230             230
   RecycleNetwork/EfficientNetLite/MBConvBlock               Conv2d-184      [1, 1321, 5, 5]         151,915         151,915
   RecycleNetwork/EfficientNetLite/MBConvBlock          BatchNorm2d-185      [1, 1321, 5, 5]           2,642           2,642
   RecycleNetwork/EfficientNetLite/MBConvBlock                ReLU6-186      [1, 1321, 5, 5]               0               0
   RecycleNetwork/EfficientNetLite/MBConvBlock               Conv2d-187      [1, 1321, 5, 5]          33,025          33,025
   RecycleNetwork/EfficientNetLite/MBConvBlock          BatchNorm2d-188      [1, 1321, 5, 5]           2,642           2,642
   RecycleNetwork/EfficientNetLite/MBConvBlock               Conv2d-189       [1, 115, 5, 5]         151,915         151,915
   RecycleNetwork/EfficientNetLite/MBConvBlock          BatchNorm2d-190       [1, 115, 5, 5]             230             230
   RecycleNetwork/EfficientNetLite/MBConvBlock               Conv2d-191      [1, 1321, 5, 5]         151,915         151,915
   RecycleNetwork/EfficientNetLite/MBConvBlock          BatchNorm2d-192      [1, 1321, 5, 5]           2,642           2,642
   RecycleNetwork/EfficientNetLite/MBConvBlock                ReLU6-193      [1, 1321, 5, 5]               0               0
   RecycleNetwork/EfficientNetLite/MBConvBlock               Conv2d-194      [1, 1321, 5, 5]          33,025          33,025
   RecycleNetwork/EfficientNetLite/MBConvBlock          BatchNorm2d-195      [1, 1321, 5, 5]           2,642           2,642
   RecycleNetwork/EfficientNetLite/MBConvBlock               Conv2d-196       [1, 115, 5, 5]         151,915         151,915
   RecycleNetwork/EfficientNetLite/MBConvBlock          BatchNorm2d-197       [1, 115, 5, 5]             230             230
   RecycleNetwork/EfficientNetLite/MBConvBlock               Conv2d-198      [1, 1321, 5, 5]         151,915         151,915
   RecycleNetwork/EfficientNetLite/MBConvBlock          BatchNorm2d-199      [1, 1321, 5, 5]           2,642           2,642
   RecycleNetwork/EfficientNetLite/MBConvBlock                ReLU6-200      [1, 1321, 5, 5]               0               0
   RecycleNetwork/EfficientNetLite/MBConvBlock               Conv2d-201      [1, 1321, 5, 5]          33,025          33,025
   RecycleNetwork/EfficientNetLite/MBConvBlock          BatchNorm2d-202      [1, 1321, 5, 5]           2,642           2,642
   RecycleNetwork/EfficientNetLite/MBConvBlock               Conv2d-203       [1, 115, 5, 5]         151,915         151,915
   RecycleNetwork/EfficientNetLite/MBConvBlock          BatchNorm2d-204       [1, 115, 5, 5]             230             230
   RecycleNetwork/EfficientNetLite/MBConvBlock               Conv2d-205      [1, 1321, 5, 5]         151,915         151,915
   RecycleNetwork/EfficientNetLite/MBConvBlock          BatchNorm2d-206      [1, 1321, 5, 5]           2,642           2,642
   RecycleNetwork/EfficientNetLite/MBConvBlock                ReLU6-207      [1, 1321, 5, 5]               0               0
   RecycleNetwork/EfficientNetLite/MBConvBlock               Conv2d-208      [1, 1321, 5, 5]          11,889          11,889
   RecycleNetwork/EfficientNetLite/MBConvBlock          BatchNorm2d-209      [1, 1321, 5, 5]           2,642           2,642
   RecycleNetwork/EfficientNetLite/MBConvBlock               Conv2d-210       [1, 403, 5, 5]         532,363         532,363
   RecycleNetwork/EfficientNetLite/MBConvBlock          BatchNorm2d-211       [1, 403, 5, 5]             806             806
               RecycleNetwork/EfficientNetLite               Conv2d-212      [1, 1152, 5, 5]         464,256         464,256
               RecycleNetwork/EfficientNetLite          BatchNorm2d-213      [1, 1152, 5, 5]           2,304           2,304
               RecycleNetwork/EfficientNetLite                ReLU6-214      [1, 1152, 5, 5]               0               0
               RecycleNetwork/EfficientNetLite    AdaptiveAvgPool2d-215      [1, 1152, 1, 1]               0               0
               RecycleNetwork/EfficientNetLite              Dropout-216            [1, 1152]               0               0
               RecycleNetwork/EfficientNetLite               Linear-217               [1, 5]           5,765           5,765
============================================================================================================================
Total params: 5,099,093
Trainable params: 5,099,093
Non-trainable params: 0
----------------------------------------------------------------------------------------------------------------------------
Training Started
Epoch: 1, Training Loss: 0.394489, Validation Loss: 0.487483, Training Accuracy: 0.924805, Validation Accuracy: 0.857143
…
