----------------------------------------------------------------------------------------------------------------------------
                                 Parent Layers             Layer (type)         Output Shape         Param #     Tr. Param #
============================================================================================================================
               RecycleNetwork/EfficientNetLite                 Conv2d-1      [1, 32, 75, 75]             864             864
               RecycleNetwork/EfficientNetLite            BatchNorm2d-2      [1, 32, 75, 75]              64              64
               RecycleNetwork/EfficientNetLite                  ReLU6-3      [1, 32, 75, 75]               0               0
   RecycleNetwork/EfficientNetLite/MBConvBlock                 Conv2d-4      [1, 32, 75, 75]             288             288
   RecycleNetwork/EfficientNetLite/MBConvBlock            BatchNorm2d-5      [1, 32, 75, 75]              64              64
   RecycleNetwork/EfficientNetLite/MBConvBlock                  ReLU6-6      [1, 32, 75, 75]               0               0
   RecycleNetwork/EfficientNetLite/MBConvBlock                 Conv2d-7      [1, 16, 75, 75]             512             512
   RecycleNetwork/EfficientNetLite/MBConvBlock            BatchNorm2d-8      [1, 16, 75, 75]              32              32
   RecycleNetwork/EfficientNetLite/MBConvBlock                 Conv2d-9      [1, 96, 75, 75]           1,536           1,536
   RecycleNetwork/EfficientNetLite/MBConvBlock           BatchNorm2d-10      [1, 96, 75, 75]             192             192
   RecycleNetwork/EfficientNetLite/MBConvBlock                 ReLU6-11      [1, 96, 75, 75]               0               0
   RecycleNetwork/EfficientNetLite/MBConvBlock                Conv2d-12      [1, 96, 38, 38]             864             864
   RecycleNetwork/EfficientNetLite/MBConvBlock           BatchNorm2d-13      [1, 96, 38, 38]             192             192
   RecycleNetwork/EfficientNetLite/MBConvBlock                Conv2d-14      [1, 24, 38, 38]           2,304           2,304
   RecycleNetwork/EfficientNetLite/MBConvBlock           BatchNorm2d-15      [1, 24, 38, 38]              48              48
   RecycleNetwork/EfficientNetLite/MBConvBlock                Conv2d-16     [1, 144, 38, 38]           3,456           3,456
   RecycleNetwork/EfficientNetLite/MBConvBlock           BatchNorm2d-17     [1, 144, 38, 38]             288             288
   RecycleNetwork/EfficientNetLite/MBConvBlock                 ReLU6-18     [1, 144, 38, 38]               0               0
   RecycleNetwork/EfficientNetLite/MBConvBlock                Conv2d-19     [1, 144, 38, 38]           1,296           1,296
   RecycleNetwork/EfficientNetLite/MBConvBlock           BatchNorm2d-20     [1, 144, 38, 38]             288             288
   RecycleNetwork/EfficientNetLite/MBConvBlock                Conv2d-21      [1, 24, 38, 38]           3,456           3,456
   RecycleNetwork/EfficientNetLite/MBConvBlock           BatchNorm2d-22      [1, 24, 38, 38]              48              48
   RecycleNetwork/EfficientNetLite/MBConvBlock                Conv2d-23     [1, 144, 38, 38]           3,456           3,456
   RecycleNetwork/EfficientNetLite/MBConvBlock           BatchNorm2d-24     [1, 144, 38, 38]             288             288
   RecycleNetwork/EfficientNetLite/MBConvBlock                 ReLU6-25     [1, 144, 38, 38]               0               0
   RecycleNetwork/EfficientNetLite/MBConvBlock                Conv2d-26     [1, 144, 38, 38]           1,296           1,296
   RecycleNetwork/EfficientNetLite/MBConvBlock           BatchNorm2d-27     [1, 144, 38, 38]             288             288
   RecycleNetwork/EfficientNetLite/MBConvBlock                Conv2d-28      [1, 24, 38, 38]           3,456           3,456
   RecycleNetwork/EfficientNetLite/MBConvBlock           BatchNorm2d-29      [1, 24, 38, 38]              48              48
   RecycleNetwork/EfficientNetLite/MBConvBlock                Conv2d-30     [1, 144, 38, 38]           3,456           3,456
   RecycleNetwork/EfficientNetLite/MBConvBlock           BatchNorm2d-31     [1, 144, 38, 38]             288             288
   RecycleNetwork/EfficientNetLite/MBConvBlock                 ReLU6-32     [1, 144, 38, 38]               0               0
   RecycleNetwork/EfficientNetLite/MBConvBlock                Conv2d-33     [1, 144, 19, 19]           3,600           3,600
   RecycleNetwork/EfficientNetLite/MBConvBlock           BatchNorm2d-34     [1, 144, 19, 19]             288             288
   RecycleNetwork/EfficientNetLite/MBConvBlock                Conv2d-35      [1, 48, 19, 19]           6,912           6,912
   RecycleNetwork/EfficientNetLite/MBConvBlock           BatchNorm2d-36      [1, 48, 19, 19]              96              96
   RecycleNetwork/EfficientNetLite/MBConvBlock                Conv2d-37     [1, 288, 19, 19]          13,824          13,824
   RecycleNetwork/EfficientNetLite/MBConvBlock           BatchNorm2d-38     [1, 288, 19, 19]             576             576
   RecycleNetwork/EfficientNetLite/MBConvBlock                 ReLU6-39     [1, 288, 19, 19]               0               0
   RecycleNetwork/EfficientNetLite/MBConvBlock                Conv2d-40     [1, 288, 19, 19]           7,200           7,200
   RecycleNetwork/EfficientNetLite/MBConvBlock           BatchNorm2d-41     [1, 288, 19, 19]             576             576
   RecycleNetwork/EfficientNetLite/MBConvBlock                Conv2d-42      [1, 48, 19, 19]          13,824          13,824
   RecycleNetwork/EfficientNetLite/MBConvBlock           BatchNorm2d-43      [1, 48, 19, 19]              96              96
   RecycleNetwork/EfficientNetLite/MBConvBlock                Conv2d-44     [1, 288, 19, 19]          13,824          13,824
   RecycleNetwork/EfficientNetLite/MBConvBlock           BatchNorm2d-45     [1, 288, 19, 19]             576             576
   RecycleNetwork/EfficientNetLite/MBConvBlock                 ReLU6-46     [1, 288, 19, 19]               0               0
   RecycleNetwork/EfficientNetLite/MBConvBlock                Conv2d-47     [1, 288, 19, 19]           7,200           7,200
   RecycleNetwork/EfficientNetLite/MBConvBlock           BatchNorm2d-48     [1, 288, 19, 19]             576             576
   RecycleNetwork/EfficientNetLite/MBConvBlock                Conv2d-49      [1, 48, 19, 19]          13,824          13,824
   RecycleNetwork/EfficientNetLite/MBConvBlock           BatchNorm2d-50      [1, 48, 19, 19]              96              96
   RecycleNetwork/EfficientNetLite/MBConvBlock                Conv2d-51     [1, 288, 19, 19]          13,824          13,824
   RecycleNetwork/EfficientNetLite/MBConvBlock           BatchNorm2d-52     [1, 288, 19, 19]             576             576
   RecycleNetwork/EfficientNetLite/MBConvBlock                 ReLU6-53     [1, 288, 19, 19]               0               0
   RecycleNetwork/EfficientNetLite/MBConvBlock                Conv2d-54     [1, 288, 10, 10]           2,592           2,592
   RecycleNetwork/EfficientNetLite/MBConvBlock           BatchNorm2d-55     [1, 288, 10, 10]             576             576
   RecycleNetwork/EfficientNetLite/MBConvBlock                Conv2d-56      [1, 88, 10, 10]          25,344          25,344
   RecycleNetwork/EfficientNetLite/MBConvBlock           BatchNorm2d-57      [1, 88, 10, 10]             176             176
   RecycleNetwork/EfficientNetLite/MBConvBlock                Conv2d-58     [1, 528, 10, 10]          46,464          46,464
   RecycleNetwork/EfficientNetLite/MBConvBlock           BatchNorm2d-59     [1, 528, 10, 10]           1,056           1,056
   RecycleNetwork/EfficientNetLite/MBConvBlock                 ReLU6-60     [1, 528, 10, 10]               0               0
   RecycleNetwork/EfficientNetLite/MBConvBlock                Conv2d-61     [1, 528, 10, 10]           4,752           4,752
   RecycleNetwork/EfficientNetLite/MBConvBlock           BatchNorm2d-62     [1, 528, 10, 10]           1,056           1,056
   RecycleNetwork/EfficientNetLite/MBConvBlock                Conv2d-63      [1, 88, 10, 10]          46,464          46,464
   RecycleNetwork/EfficientNetLite/MBConvBlock           BatchNorm2d-64      [1, 88, 10, 10]             176             176
   RecycleNetwork/EfficientNetLite/MBConvBlock                Conv2d-65     [1, 528, 10, 10]          46,464          46,464
   RecycleNetwork/EfficientNetLite/MBConvBlock           BatchNorm2d-66     [1, 528, 10, 10]           1,056           1,056
   RecycleNetwork/EfficientNetLite/MBConvBlock                 ReLU6-67     [1, 528, 10, 10]               0               0
   RecycleNetwork/EfficientNetLite/MBConvBlock                Conv2d-68     [1, 528, 10, 10]           4,752           4,752
   RecycleNetwork/EfficientNetLite/MBConvBlock           BatchNorm2d-69     [1, 528, 10, 10]           1,056           1,056
   RecycleNetwork/EfficientNetLite/MBConvBlock                Conv2d-70      [1, 88, 10, 10]          46,464          46,464
   RecycleNetwork/EfficientNetLite/MBConvBlock           BatchNorm2d-71      [1, 88, 10, 10]             176             176
   RecycleNetwork/EfficientNetLite/MBConvBlock                Conv2d-72     [1, 528, 10, 10]          46,464          46,464
   RecycleNetwork/EfficientNetLite/MBConvBlock           BatchNorm2d-73     [1, 528, 10, 10]           1,056           1,056
   RecycleNetwork/EfficientNetLite/MBConvBlock                 ReLU6-74     [1, 528, 10, 10]               0               0
   RecycleNetwork/EfficientNetLite/MBConvBlock                Conv2d-75     [1, 528, 10, 10]           4,752           4,752
   RecycleNetwork/EfficientNetLite/MBConvBlock           BatchNorm2d-76     [1, 528, 10, 10]           1,056           1,056
   RecycleNetwork/EfficientNetLite/MBConvBlock                Conv2d-77      [1, 88, 10, 10]          46,464          46,464
   RecycleNetwork/EfficientNetLite/MBConvBlock           BatchNorm2d-78      [1, 88, 10, 10]             176             176
   RecycleNetwork/EfficientNetLite/MBConvBlock                Conv2d-79     [1, 528, 10, 10]          46,464          46,464
   RecycleNetwork/EfficientNetLite/MBConvBlock           BatchNorm2d-80     [1, 528, 10, 10]           1,056           1,056
   RecycleNetwork/EfficientNetLite/MBConvBlock                 ReLU6-81     [1, 528, 10, 10]               0               0
   RecycleNetwork/EfficientNetLite/MBConvBlock                Conv2d-82     [1, 528, 10, 10]          13,200          13,200
   RecycleNetwork/EfficientNetLite/MBConvBlock           BatchNorm2d-83     [1, 528, 10, 10]           1,056           1,056
   RecycleNetwork/EfficientNetLite/MBConvBlock                Conv2d-84     [1, 120, 10, 10]          63,360          63,360
   RecycleNetwork/EfficientNetLite/MBConvBlock           BatchNorm2d-85     [1, 120, 10, 10]             240             240
   RecycleNetwork/EfficientNetLite/MBConvBlock                Conv2d-86     [1, 720, 10, 10]          86,400          86,400
   RecycleNetwork/EfficientNetLite/MBConvBlock           BatchNorm2d-87     [1, 720, 10, 10]           1,440           1,440
   RecycleNetwork/EfficientNetLite/MBConvBlock                 ReLU6-88     [1, 720, 10, 10]               0               0
   RecycleNetwork/EfficientNetLite/MBConvBlock                Conv2d-89     [1, 720, 10, 10]          18,000          18,000
   RecycleNetwork/EfficientNetLite/MBConvBlock           BatchNorm2d-90     [1, 720, 10, 10]           1,440           1,440
   RecycleNetwork/EfficientNetLite/MBConvBlock                Conv2d-91     [1, 120, 10, 10]          86,400          86,400
   RecycleNetwork/EfficientNetLite/MBConvBlock           BatchNorm2d-92     [1, 120, 10, 10]             240             240
   RecycleNetwork/EfficientNetLite/MBConvBlock                Conv2d-93     [1, 720, 10, 10]          86,400          86,400
   RecycleNetwork/EfficientNetLite/MBConvBlock           BatchNorm2d-94     [1, 720, 10, 10]           1,440           1,440
   RecycleNetwork/EfficientNetLite/MBConvBlock                 ReLU6-95     [1, 720, 10, 10]               0               0
   RecycleNetwork/EfficientNetLite/MBConvBlock                Conv2d-96     [1, 720, 10, 10]          18,000          18,000
   RecycleNetwork/EfficientNetLite/MBConvBlock           BatchNorm2d-97     [1, 720, 10, 10]           1,440           1,440
   RecycleNetwork/EfficientNetLite/MBConvBlock                Conv2d-98     [1, 120, 10, 10]          86,400          86,400
   RecycleNetwork/EfficientNetLite/MBConvBlock           BatchNorm2d-99     [1, 120, 10, 10]             240             240
   RecycleNetwork/EfficientNetLite/MBConvBlock               Conv2d-100     [1, 720, 10, 10]          86,400          86,400
   RecycleNetwork/EfficientNetLite/MBConvBlock          BatchNorm2d-101     [1, 720, 10, 10]           1,440           1,440
   RecycleNetwork/EfficientNetLite/MBConvBlock                ReLU6-102     [1, 720, 10, 10]               0               0
   RecycleNetwork/EfficientNetLite/MBConvBlock               Conv2d-103     [1, 720, 10, 10]          18,000          18,000
   RecycleNetwork/EfficientNetLite/MBConvBlock          BatchNorm2d-104     [1, 720, 10, 10]           1,440           1,440
   RecycleNetwork/EfficientNetLite/MBConvBlock               Conv2d-105     [1, 120, 10, 10]          86,400          86,400
   RecycleNetwork/EfficientNetLite/MBConvBlock          BatchNorm2d-106     [1, 120, 10, 10]             240             240
   RecycleNetwork/EfficientNetLite/MBConvBlock               Conv2d-107     [1, 720, 10, 10]          86,400          86,400
   RecycleNetwork/EfficientNetLite/MBConvBlock          BatchNorm2d-108     [1, 720, 10, 10]           1,440           1,440
   RecycleNetwork/EfficientNetLite/MBConvBlock                ReLU6-109     [1, 720, 10, 10]               0               0
   RecycleNetwork/EfficientNetLite/MBConvBlock               Conv2d-110       [1, 720, 5, 5]          18,000          18,000
   RecycleNetwork/EfficientNetLite/MBConvBlock          BatchNorm2d-111       [1, 720, 5, 5]           1,440           1,440
   RecycleNetwork/EfficientNetLite/MBConvBlock               Conv2d-112       [1, 208, 5, 5]         149,760         149,760
   RecycleNetwork/EfficientNetLite/MBConvBlock          BatchNorm2d-113       [1, 208, 5, 5]             416             416
   RecycleNetwork/EfficientNetLite/MBConvBlock               Conv2d-114      [1, 1248, 5, 5]         259,584         259,584
   RecycleNetwork/EfficientNetLite/MBConvBlock          BatchNorm2d-115      [1, 1248, 5, 5]           2,496           2,496
   RecycleNetwork/EfficientNetLite/MBConvBlock                ReLU6-116      [1, 1248, 5, 5]               0               0
   RecycleNetwork/EfficientNetLite/MBConvBlock               Conv2d-117      [1, 1248, 5, 5]          31,200          31,200
   RecycleNetwork/EfficientNetLite/MBConvBlock          BatchNorm2d-118      [1, 1248, 5, 5]           2,496           2,496
   RecycleNetwork/EfficientNetLite/MBConvBlock               Conv2d-119       [1, 208, 5, 5]         259,584         259,584
   RecycleNetwork/EfficientNetLite/MBConvBlock          BatchNorm2d-120       [1, 208, 5, 5]             416             416
   RecycleNetwork/EfficientNetLite/MBConvBlock               Conv2d-121      [1, 1248, 5, 5]         259,584         259,584
   RecycleNetwork/EfficientNetLite/MBConvBlock          BatchNorm2d-122      [1, 1248, 5, 5]           2,496           2,496
   RecycleNetwork/EfficientNetLite/MBConvBlock                ReLU6-123      [1, 1248, 5, 5]               0               0
   RecycleNetwork/EfficientNetLite/MBConvBlock               Conv2d-124      [1, 1248, 5, 5]          31,200          31,200
   RecycleNetwork/EfficientNetLite/MBConvBlock          BatchNorm2d-125      [1, 1248, 5, 5]           2,496           2,496
   RecycleNetwork/EfficientNetLite/MBConvBlock               Conv2d-126       [1, 208, 5, 5]         259,584         259,584
   RecycleNetwork/EfficientNetLite/MBConvBlock          BatchNorm2d-127       [1, 208, 5, 5]             416             416
   RecycleNetwork/EfficientNetLite/MBConvBlock               Conv2d-128      [1, 1248, 5, 5]         259,584         259,584
   RecycleNetwork/EfficientNetLite/MBConvBlock          BatchNorm2d-129      [1, 1248, 5, 5]           2,496           2,496
   RecycleNetwork/EfficientNetLite/MBConvBlock                ReLU6-130      [1, 1248, 5, 5]               0               0
   RecycleNetwork/EfficientNetLite/MBConvBlock               Conv2d-131      [1, 1248, 5, 5]          31,200          31,200
   RecycleNetwork/EfficientNetLite/MBConvBlock          BatchNorm2d-132      [1, 1248, 5, 5]           2,496           2,496
   RecycleNetwork/EfficientNetLite/MBConvBlock               Conv2d-133       [1, 208, 5, 5]         259,584         259,584
   RecycleNetwork/EfficientNetLite/MBConvBlock          BatchNorm2d-134       [1, 208, 5, 5]             416             416
   RecycleNetwork/EfficientNetLite/MBConvBlock               Conv2d-135      [1, 1248, 5, 5]         259,584         259,584
   RecycleNetwork/EfficientNetLite/MBConvBlock          BatchNorm2d-136      [1, 1248, 5, 5]           2,496           2,496
   RecycleNetwork/EfficientNetLite/MBConvBlock                ReLU6-137      [1, 1248, 5, 5]               0               0
   RecycleNetwork/EfficientNetLite/MBConvBlock               Conv2d-138      [1, 1248, 5, 5]          31,200          31,200
   RecycleNetwork/EfficientNetLite/MBConvBlock          BatchNorm2d-139      [1, 1248, 5, 5]           2,496           2,496
   RecycleNetwork/EfficientNetLite/MBConvBlock               Conv2d-140       [1, 208, 5, 5]         259,584         259,584
   RecycleNetwork/EfficientNetLite/MBConvBlock          BatchNorm2d-141       [1, 208, 5, 5]             416             416
   RecycleNetwork/EfficientNetLite/MBConvBlock               Conv2d-142      [1, 1248, 5, 5]         259,584         259,584
   RecycleNetwork/EfficientNetLite/MBConvBlock          BatchNorm2d-143      [1, 1248, 5, 5]           2,496           2,496
   RecycleNetwork/EfficientNetLite/MBConvBlock                ReLU6-144      [1, 1248, 5, 5]               0               0
   RecycleNetwork/EfficientNetLite/MBConvBlock               Conv2d-145      [1, 1248, 5, 5]          11,232          11,232
   RecycleNetwork/EfficientNetLite/MBConvBlock          BatchNorm2d-146      [1, 1248, 5, 5]           2,496           2,496
   RecycleNetwork/EfficientNetLite/MBConvBlock               Conv2d-147       [1, 352, 5, 5]         439,296         439,296
   RecycleNetwork/EfficientNetLite/MBConvBlock          BatchNorm2d-148       [1, 352, 5, 5]             704             704
               RecycleNetwork/EfficientNetLite               Conv2d-149      [1, 1280, 5, 5]         450,560         450,560
               RecycleNetwork/EfficientNetLite          BatchNorm2d-150      [1, 1280, 5, 5]           2,560           2,560
               RecycleNetwork/EfficientNetLite                ReLU6-151      [1, 1280, 5, 5]               0               0
               RecycleNetwork/EfficientNetLite    AdaptiveAvgPool2d-152      [1, 1280, 1, 1]               0               0
               RecycleNetwork/EfficientNetLite              Dropout-153            [1, 1280]               0               0
               RecycleNetwork/EfficientNetLite               Linear-154               [1, 5]           6,405           6,405
============================================================================================================================
Total params: 4,817,477
Trainable params: 4,817,477
Non-trainable params: 0
----------------------------------------------------------------------------------------------------------------------------
tensor([0.6661, 0.6211, 0.5492])
tensor([0.2871, 0.2917, 0.3310])
…
