----------------------------------------------------------------------------------------------------------------------------
                                 Parent Layers             Layer (type)         Output Shape         Param #     Tr. Param #
============================================================================================================================
               RecycleNetwork/EfficientNetLite                 Conv2d-1      [1, 32, 75, 75]             864             864
               RecycleNetwork/EfficientNetLite            BatchNorm2d-2      [1, 32, 75, 75]              64              64
               RecycleNetwork/EfficientNetLite                  ReLU6-3      [1, 32, 75, 75]               0               0
   RecycleNetwork/EfficientNetLite/MBConvBlock                 Conv2d-4      [1, 32, 75, 75]             288             288
   RecycleNetwork/EfficientNetLite/MBConvBlock            BatchNorm2d-5      [1, 32, 75, 75]              64              64
   RecycleNetwork/EfficientNetLite/MBConvBlock                  ReLU6-6      [1, 32, 75, 75]               0               0
   RecycleNetwork/EfficientNetLite/MBConvBlock                 Conv2d-7      [1, 16, 75, 75]             512             512
   RecycleNetwork/EfficientNetLite/MBConvBlock            BatchNorm2d-8      [1, 16, 75, 75]              32              32
   RecycleNetwork/EfficientNetLite/MBConvBlock                 Conv2d-9      [1, 96, 75, 75]           1,536           1,536
   RecycleNetwork/EfficientNetLite/MBConvBlock           BatchNorm2d-10      [1, 96, 75, 75]             192             192
   RecycleNetwork/EfficientNetLite/MBConvBlock                 ReLU6-11      [1, 96, 75, 75]               0               0
   RecycleNetwork/EfficientNetLite/MBConvBlock                Conv2d-12      [1, 96, 38, 38]             864             864
   RecycleNetwork/EfficientNetLite/MBConvBlock           BatchNorm2d-13      [1, 96, 38, 38]             192             192
   RecycleNetwork/EfficientNetLite/MBConvBlock                Conv2d-14      [1, 24, 38, 38]           2,304           2,304
   RecycleNetwork/EfficientNetLite/MBConvBlock           BatchNorm2d-15      [1, 24, 38, 38]              48              48
   RecycleNetwork/EfficientNetLite/MBConvBlock                Conv2d-16     [1, 144, 38, 38]           3,456           3,456
   RecycleNetwork/EfficientNetLite/MBConvBlock           BatchNorm2d-17     [1, 144, 38, 38]             288             288
   RecycleNetwork/EfficientNetLite/MBConvBlock                 ReLU6-18     [1, 144, 38, 38]               0               0
   RecycleNetwork/EfficientNetLite/MBConvBlock                Conv2d-19     [1, 144, 38, 38]           1,296           1,296
   RecycleNetwork/EfficientNetLite/MBConvBlock           BatchNorm2d-20     [1, 144, 38, 38]             288             288
   RecycleNetwork/EfficientNetLite/MBConvBlock                Conv2d-21      [1, 24, 38, 38]           3,456           3,456
   RecycleNetwork/EfficientNetLite/MBConvBlock           BatchNorm2d-22      [1, 24, 38, 38]              48              48
   RecycleNetwork/EfficientNetLite/MBConvBlock                Conv2d-23     [1, 144, 38, 38]           3,456           3,456
   RecycleNetwork/EfficientNetLite/MBConvBlock           BatchNorm2d-24     [1, 144, 38, 38]             288             288
   RecycleNetwork/EfficientNetLite/MBConvBlock                 ReLU6-25     [1, 144, 38, 38]               0               0
   RecycleNetwork/EfficientNetLite/MBConvBlock                Conv2d-26     [1, 144, 19, 19]           3,600           3,600
   RecycleNetwork/EfficientNetLite/MBConvBlock           BatchNorm2d-27     [1, 144, 19, 19]             288             288
   RecycleNetwork/EfficientNetLite/MBConvBlock                Conv2d-28      [1, 40, 19, 19]           5,760           5,760
   RecycleNetwork/EfficientNetLite/MBConvBlock           BatchNorm2d-29      [1, 40, 19, 19]              80              80
   RecycleNetwork/EfficientNetLite/MBConvBlock                Conv2d-30     [1, 240, 19, 19]           9,600           9,600
   RecycleNetwork/EfficientNetLite/MBConvBlock           BatchNorm2d-31     [1, 240, 19, 19]             480             480
   RecycleNetwork/EfficientNetLite/MBConvBlock                 ReLU6-32     [1, 240, 19, 19]               0               0
   RecycleNetwork/EfficientNetLite/MBConvBlock                Conv2d-33     [1, 240, 19, 19]           6,000           6,000
   RecycleNetwork/EfficientNetLite/MBConvBlock           BatchNorm2d-34     [1, 240, 19, 19]             480             480
   RecycleNetwork/EfficientNetLite/MBConvBlock                Conv2d-35      [1, 40, 19, 19]           9,600           9,600
   RecycleNetwork/EfficientNetLite/MBConvBlock           BatchNorm2d-36      [1, 40, 19, 19]              80              80
   RecycleNetwork/EfficientNetLite/MBConvBlock                Conv2d-37     [1, 240, 19, 19]           9,600           9,600
   RecycleNetwork/EfficientNetLite/MBConvBlock           BatchNorm2d-38     [1, 240, 19, 19]             480             480
   RecycleNetwork/EfficientNetLite/MBConvBlock                 ReLU6-39     [1, 240, 19, 19]               0               0
   RecycleNetwork/EfficientNetLite/MBConvBlock                Conv2d-40     [1, 240, 10, 10]           2,160           2,160
   RecycleNetwork/EfficientNetLite/MBConvBlock           BatchNorm2d-41     [1, 240, 10, 10]             480             480
   RecycleNetwork/EfficientNetLite/MBConvBlock                Conv2d-42      [1, 80, 10, 10]          19,200          19,200
   RecycleNetwork/EfficientNetLite/MBConvBlock           BatchNorm2d-43      [1, 80, 10, 10]             160             160
   RecycleNetwork/EfficientNetLite/MBConvBlock                Conv2d-44     [1, 480, 10, 10]          38,400          38,400
   RecycleNetwork/EfficientNetLite/MBConvBlock           BatchNorm2d-45     [1, 480, 10, 10]             960             960
   RecycleNetwork/EfficientNetLite/MBConvBlock                 ReLU6-46     [1, 480, 10, 10]               0               0
   RecycleNetwork/EfficientNetLite/MBConvBlock                Conv2d-47     [1, 480, 10, 10]           4,320           4,320
   RecycleNetwork/EfficientNetLite/MBConvBlock           BatchNorm2d-48     [1, 480, 10, 10]             960             960
   RecycleNetwork/EfficientNetLite/MBConvBlock                Conv2d-49      [1, 80, 10, 10]          38,400          38,400
   RecycleNetwork/EfficientNetLite/MBConvBlock           BatchNorm2d-50      [1, 80, 10, 10]             160             160
   RecycleNetwork/EfficientNetLite/MBConvBlock                Conv2d-51     [1, 480, 10, 10]          38,400          38,400
   RecycleNetwork/EfficientNetLite/MBConvBlock           BatchNorm2d-52     [1, 480, 10, 10]             960             960
   RecycleNetwork/EfficientNetLite/MBConvBlock                 ReLU6-53     [1, 480, 10, 10]               0               0
   RecycleNetwork/EfficientNetLite/MBConvBlock                Conv2d-54     [1, 480, 10, 10]           4,320           4,320
   RecycleNetwork/EfficientNetLite/MBConvBlock           BatchNorm2d-55     [1, 480, 10, 10]             960             960
   RecycleNetwork/EfficientNetLite/MBConvBlock                Conv2d-56      [1, 80, 10, 10]          38,400          38,400
   RecycleNetwork/EfficientNetLite/MBConvBlock           BatchNorm2d-57      [1, 80, 10, 10]             160             160
   RecycleNetwork/EfficientNetLite/MBConvBlock                Conv2d-58     [1, 480, 10, 10]          38,400          38,400
   RecycleNetwork/EfficientNetLite/MBConvBlock           BatchNorm2d-59     [1, 480, 10, 10]             960             960
   RecycleNetwork/EfficientNetLite/MBConvBlock                 ReLU6-60     [1, 480, 10, 10]               0               0
   RecycleNetwork/EfficientNetLite/MBConvBlock                Conv2d-61     [1, 480, 10, 10]          12,000          12,000
   RecycleNetwork/EfficientNetLite/MBConvBlock           BatchNorm2d-62     [1, 480, 10, 10]             960             960
   RecycleNetwork/EfficientNetLite/MBConvBlock                Conv2d-63     [1, 112, 10, 10]          53,760          53,760
   RecycleNetwork/EfficientNetLite/MBConvBlock           BatchNorm2d-64     [1, 112, 10, 10]             224             224
   RecycleNetwork/EfficientNetLite/MBConvBlock                Conv2d-65     [1, 672, 10, 10]          75,264          75,264
   RecycleNetwork/EfficientNetLite/MBConvBlock           BatchNorm2d-66     [1, 672, 10, 10]           1,344           1,344
   RecycleNetwork/EfficientNetLite/MBConvBlock                 ReLU6-67     [1, 672, 10, 10]               0               0
   RecycleNetwork/EfficientNetLite/MBConvBlock                Conv2d-68     [1, 672, 10, 10]          16,800          16,800
   RecycleNetwork/EfficientNetLite/MBConvBlock           BatchNorm2d-69     [1, 672, 10, 10]           1,344           1,344
   RecycleNetwork/EfficientNetLite/MBConvBlock                Conv2d-70     [1, 112, 10, 10]          75,264          75,264
   RecycleNetwork/EfficientNetLite/MBConvBlock           BatchNorm2d-71     [1, 112, 10, 10]             224             224
   RecycleNetwork/EfficientNetLite/MBConvBlock                Conv2d-72     [1, 672, 10, 10]          75,264          75,264
   RecycleNetwork/EfficientNetLite/MBConvBlock           BatchNorm2d-73     [1, 672, 10, 10]           1,344           1,344
   RecycleNetwork/EfficientNetLite/MBConvBlock                 ReLU6-74     [1, 672, 10, 10]               0               0
   RecycleNetwork/EfficientNetLite/MBConvBlock                Conv2d-75     [1, 672, 10, 10]          16,800          16,800
   RecycleNetwork/EfficientNetLite/MBConvBlock           BatchNorm2d-76     [1, 672, 10, 10]           1,344           1,344
   RecycleNetwork/EfficientNetLite/MBConvBlock                Conv2d-77     [1, 112, 10, 10]          75,264          75,264
   RecycleNetwork/EfficientNetLite/MBConvBlock           BatchNorm2d-78     [1, 112, 10, 10]             224             224
   RecycleNetwork/EfficientNetLite/MBConvBlock                Conv2d-79     [1, 672, 10, 10]          75,264          75,264
   RecycleNetwork/EfficientNetLite/MBConvBlock           BatchNorm2d-80     [1, 672, 10, 10]           1,344           1,344
   RecycleNetwork/EfficientNetLite/MBConvBlock                 ReLU6-81     [1, 672, 10, 10]               0               0
   RecycleNetwork/EfficientNetLite/MBConvBlock                Conv2d-82       [1, 672, 5, 5]          16,800          16,800
   RecycleNetwork/EfficientNetLite/MBConvBlock           BatchNorm2d-83       [1, 672, 5, 5]           1,344           1,344
   RecycleNetwork/EfficientNetLite/MBConvBlock                Conv2d-84       [1, 192, 5, 5]         129,024         129,024
   RecycleNetwork/EfficientNetLite/MBConvBlock           BatchNorm2d-85       [1, 192, 5, 5]             384             384
   RecycleNetwork/EfficientNetLite/MBConvBlock                Conv2d-86      [1, 1152, 5, 5]         221,184         221,184
   RecycleNetwork/EfficientNetLite/MBConvBlock           BatchNorm2d-87      [1, 1152, 5, 5]           2,304           2,304
   RecycleNetwork/EfficientNetLite/MBConvBlock                 ReLU6-88      [1, 1152, 5, 5]               0               0
   RecycleNetwork/EfficientNetLite/MBConvBlock                Conv2d-89      [1, 1152, 5, 5]          28,800          28,800
   RecycleNetwork/EfficientNetLite/MBConvBlock           BatchNorm2d-90      [1, 1152, 5, 5]           2,304           2,304
   RecycleNetwork/EfficientNetLite/MBConvBlock                Conv2d-91       [1, 192, 5, 5]         221,184         221,184
   RecycleNetwork/EfficientNetLite/MBConvBlock           BatchNorm2d-92       [1, 192, 5, 5]             384             384
   RecycleNetwork/EfficientNetLite/MBConvBlock                Conv2d-93      [1, 1152, 5, 5]         221,184         221,184
   RecycleNetwork/EfficientNetLite/MBConvBlock           BatchNorm2d-94      [1, 1152, 5, 5]           2,304           2,304
   RecycleNetwork/EfficientNetLite/MBConvBlock                 ReLU6-95      [1, 1152, 5, 5]               0               0
   RecycleNetwork/EfficientNetLite/MBConvBlock                Conv2d-96      [1, 1152, 5, 5]          28,800          28,800
   RecycleNetwork/EfficientNetLite/MBConvBlock           BatchNorm2d-97      [1, 1152, 5, 5]           2,304           2,304
   RecycleNetwork/EfficientNetLite/MBConvBlock                Conv2d-98       [1, 192, 5, 5]         221,184         221,184
   RecycleNetwork/EfficientNetLite/MBConvBlock           BatchNorm2d-99       [1, 192, 5, 5]             384             384
   RecycleNetwork/EfficientNetLite/MBConvBlock               Conv2d-100      [1, 1152, 5, 5]         221,184         221,184
   RecycleNetwork/EfficientNetLite/MBConvBlock          BatchNorm2d-101      [1, 1152, 5, 5]           2,304           2,304
   RecycleNetwork/EfficientNetLite/MBConvBlock                ReLU6-102      [1, 1152, 5, 5]               0               0
   RecycleNetwork/EfficientNetLite/MBConvBlock               Conv2d-103      [1, 1152, 5, 5]          28,800          28,800
   RecycleNetwork/EfficientNetLite/MBConvBlock          BatchNorm2d-104      [1, 1152, 5, 5]           2,304           2,304
   RecycleNetwork/EfficientNetLite/MBConvBlock               Conv2d-105       [1, 192, 5, 5]         221,184         221,184
   RecycleNetwork/EfficientNetLite/MBConvBlock          BatchNorm2d-106       [1, 192, 5, 5]             384             384
   RecycleNetwork/EfficientNetLite/MBConvBlock               Conv2d-107      [1, 1152, 5, 5]         221,184         221,184
   RecycleNetwork/EfficientNetLite/MBConvBlock          BatchNorm2d-108      [1, 1152, 5, 5]           2,304           2,304
   RecycleNetwork/EfficientNetLite/MBConvBlock                ReLU6-109      [1, 1152, 5, 5]               0               0
   RecycleNetwork/EfficientNetLite/MBConvBlock               Conv2d-110      [1, 1152, 5, 5]          10,368          10,368
   RecycleNetwork/EfficientNetLite/MBConvBlock          BatchNorm2d-111      [1, 1152, 5, 5]           2,304           2,304
   RecycleNetwork/EfficientNetLite/MBConvBlock               Conv2d-112       [1, 320, 5, 5]         368,640         368,640
   RecycleNetwork/EfficientNetLite/MBConvBlock          BatchNorm2d-113       [1, 320, 5, 5]             640             640
               RecycleNetwork/EfficientNetLite               Conv2d-114      [1, 1280, 5, 5]         409,600         409,600
               RecycleNetwork/EfficientNetLite          BatchNorm2d-115      [1, 1280, 5, 5]           2,560           2,560
               RecycleNetwork/EfficientNetLite                ReLU6-116      [1, 1280, 5, 5]               0               0
               RecycleNetwork/EfficientNetLite    AdaptiveAvgPool2d-117      [1, 1280, 1, 1]               0               0
               RecycleNetwork/EfficientNetLite              Dropout-118            [1, 1280]               0               0
               RecycleNetwork/EfficientNetLite               Linear-119               [1, 5]           6,405           6,405
============================================================================================================================
Total params: 3,377,413
Trainable params: 3,377,413
Non-trainable params: 0
----------------------------------------------------------------------------------------------------------------------------
tensor([0.6661, 0.6211, 0.5492])
tensor([0.2871, 0.2917, 0.3310])
…
